2.1_Duel-Double-DQN/model/DuelDDQN_CPV1_100.pth (torch, 170488 bytes, 7 tensors)

hidden.0.weight f4 [200, 4]
00000000: a24b 703e 2f3e c2bd d721 c9bf b976 96be
00000010: 7287 7dbf 1435 a7be cd98 753f 54e7 553e
00000020: b0f1 9b3e 2b4b 113f a778 3abf 2915 9abe
00000030: 179b 2f3f 52f0 c03d 5c9c 16be c527 a23e
00000040: 5849 173f a961 3fbe 27be a4bf 8715 b7be
00000050: 60d7 2bbf 3757 dbbe d3f3 f43e bc28 5bbe
00000060: a5de d73e 955c 7a3e d78e 8a3f 228b 2f3e
00000070: d0b6 593e 1ad4 babd 95b3 983f 1b6f c93e
00000080: 562b 98be 6c35 e73e 49cd 3e3f c836 7abe
00000090: b25e 3abe a10d ad3e db5c 823f bdc9 0a3e
000000a0: ea41 ea3e a983 003f 74d1 fd3e a0dd d1be
000000b0: 264f 35bf 9128 bf3e a8a7 013f db69 67be
000000c0: 5231 d1be ea96 243f c01f 3a3f 7a02 d33e
000000d0: 47de aa3e 562e 13bf 863d 91bf bc09 723e
000000e0: 5441 863e 1616 1f3f 1349 593f 0bc8 ae3e
000000f0: 5993 c0be 973e b13e 877b 24bf 1f78 b53e
00000100: 9763 14bc 69e6 9a3e 5bee cc3d 6928 c3be
00000110: 9d20 9d3a fbf1 b4bc 07f3 03be 4227 ebbe
00000120: 333b 0dbf 521b 3fbe 8a73 503f 5519 d93e
00000130: 0c28 333f b3fe d23e 2dfa 2bbf 2944 a7be
00000140: 73c4 4b3e 25e5 0d3f 7b50 b2be 4fb8 04bf
00000150: 9310 1abe 7b26 103e 5f73 9e3f 6ebb 863e
00000160: 5be2 26bf 45bc 08bf b459 183f 9664 033e
00000170: c037 9a3e ad07 6a3e ebf0 103f f092 4dbe
00000180: 684d 62bf 18e2 5d3d 147d 4e3f 7b24 afbe
00000190: 2084 3fbf bc75 8f3e fb94 813f 316c 9e3e
000001a0: d93f 0c3b ba5a 1f3b d9f1 cdbf 9af5 52be
000001b0: a5b7 bdbe ff14 a2bd 16c7 513f 2cf5 b43c
000001c0: 68fb 36bf d0c4 203d bfdc 3b3f c244 8b3e
000001d0: 6fcc 6a3d 2397 47bd 6630 123f 89d7 463e
000001e0: 6085 163d 6722 91be d27c 0e3f 5654 053e
000001f0: 9cab a83e 601d 29be 0167 8fbe 366b c03e
00000200: e7a8 d0be 0a48 a13e 36d2 733f 56a2 f83e
00000210: 2795 dc3c 8937 03be e67d 733e 81a7 5abd
00000220: d6af 393f 3196 c5bd 3b0a efbe b5fe 75be
00000230: 60e9 333d b00b 263e 0444 f0be 5017 c53d
00000240: fb32 263f c894 773e 6696 9abe 132e 033e
00000250: a27a b33e b9d4 533e d0f6 63be b3ed d63d
00000260: 19cd e5be 9a51 4bbd 4104 dabe c3db 6bbe
00000270: 56ac 49bf d6c8 883e 06c0 563f 0ec4 1e3d
00000280: b963 f3bb 5068 34be 0316 44bf 133c d13d
00000290: c8ef 6ebf f265 d8be 2ab5 133f 5351 673e
000002a0: 000c 2abf 6a3c 5dbf 9910 373f 7896 343d
000002b0: 1ffc df3e 5def 32bd 9b6d 03bf 9264 01bb
000002c0: 9941 a33e 6bca 633c 8751 983e 105c fe3e
000002d0: 68b9 103f b514 8ebd 4a08 b6bf 1ccd 7fbe
000002e0: 03b7 09bf 6c1b 27be f884 253f c675 dabd
000002f0: 7beb 8b3e c6ef ecbe 14e8 49bf c0fa 473e
00000300: 19b6 fb3e 5a6d b1be 54ea 293d 4b13 d13e
00000310: cbf8 fc3d 26ea 1c3e 0c65 3d3f 99a1 0ebf
00000320: 190b b93e ae77 d4be 0186 e3bd 55e6 9c3e
00000330: 8157 05bf 5fad 7fbe 3398 5cbf 7bc6 27be
00000340: c62f 4d3f c7e4 743e 215f 3dbe 911c 19bd
00000350: d533 6bbd 2fad f53e 8320 4f3f e631 733e
00000360: 4505 3e3e e2a5 adbe 33b5 44bf 6f82 103f
00000370: 4ab1 d83e 80a7 38bf ffcd 47bf 61be 06be
00000380: 2a91 7d3e 9450 a6be 7b99 3cbe 8d63 eebe
00000390: 02d7 04be 2a29 823e e292 91be 2deb ffbd
000003a0: 665a 5ebd fad2 8b3e 5889 cf3e 212a 5c3d
000003b0: 8ab7 e4be d0ee 4abf a9ce 103e 7826 1d3e
000003c0: a10d ebbe 6562 c33e 397c 1cbe 71d6 363e
000003d0: d160 063f 3af1 c13e fc11 76bf a0f4 bf3c
000003e0: b160 3cbf bf68 21be 26b2 3bbf 5359 2fbe
000003f0: 37a4 a8be ac00 63be 84cc 92bf 261c dfbe
0.23466352 -0.09484517 -1.5713452 -0.29387453 -0.990348 -0.32657683 0.9593628 0.20889026
0.3045783 0.5675532 -0.7284035 -0.3009427 0.68596023 0.094208375 -0.14708084 0.31670967
0.5909629 -0.18689598 -1.287053 -0.35758612 -0.6712551 -0.42839977 0.47842273 -0.21402258
0.42162052 0.2444938 1.0824841 0.17142919 0.21261144 -0.091224864 1.1929804 0.3934258
-0.29720563 0.45157945 0.7453199 -0.2443496 -0.18200186 0.3379946 1.0184587 0.1355352
0.45753413 0.502009 0.49573863 -0.409894 -0.70823896 0.37335637 0.5064645 -0.22598974
-0.4085794 0.64292777 0.72704697 0.41212827 0.3337271 -0.5749258 -1.13469 0.23636526
0.26221716 0.62143075 0.8487713 0.34136996 -0.37612417 0.34618065 -0.6425099 0.35443208
-0.009056947 0.30253914 0.100064 -0.38116768 0.0011987869 -0.022088042 -0.12885676 -0.4592839
-0.55168456 -0.18662766 0.814263 0.4240214 0.6998298 0.41209945 -0.6717861 -0.3266919
0.19899158 0.5542777 -0.34827027 -0.5184373 -0.15045385 0.14077179 1.2378958 0.26314873
-0.6518914 -0.53412277 0.59511876 0.12831339 0.3012066 0.2285449 0.5661761 -0.20075583
-0.8839936 0.054170698 0.80659604 -0.3420752 -0.7481098 0.28019512 1.012359 0.30941918
0.002140036 0.0024315552 -1.6089431 -0.20601502 -0.37054172 -0.07914161 0.81944406 0.022089563
-0.71477365 0.039250195 0.73383707 0.27200896 0.05732387 -0.04872812 0.571051 0.19418158
0.03674829 -0.2834656 0.5565921 0.13020453 0.32943428 -0.16515112 -0.28008273 0.37581795
-0.40753862 0.31500274 0.9524263 0.48561352 0.02692659 -0.12814154 0.23778495 -0.0533824
0.7253393 -0.09647787 -0.46687493 -0.24022944 0.043923736 0.16215396 -0.46926892 0.09623587
0.6492154 0.2417785 -0.3019287 0.12810545 0.350545 0.20686616 -0.2226212 0.10494556
-0.4488304 -0.04963837 -0.4258137 -0.23033051 -0.7877859 0.26715726 0.83886755 0.03876119
-0.0074276594 -0.17617917 -0.7659609 0.102165364 -0.9333463 -0.42265278 0.5769831 0.22589616
-0.6642456 -0.8642031 0.715097 0.04408881 0.4374704 -0.043685306 -0.5133912 -0.0019743782
0.31885985 0.013903241 0.297497 0.49679613 0.5653291 -0.06937543 -1.422128 -0.24980587
-0.5379488 -0.16319054 0.6465602 -0.10666995 0.27328095 -0.46276683 -0.7886975 0.19529247
0.49162367 -0.3465374 0.04148324 0.40835032 0.12352141 0.15323696 0.7398231 -0.5571533
0.3614128 -0.41497558 -0.111095436 0.3064448 -0.52086645 -0.2496848 -0.8616974 -0.16384308
0.8015102 0.23915397 -0.1849332 -0.03738076 -0.057422478 0.4798369 0.80908984 0.23749503
0.18556698 -0.3391562 -0.7683899 0.56449026 0.4232276 -0.72130585 -0.780487 -0.13158561
0.24762407 -0.3248335 -0.18417923 -0.46560326 -0.12972644 0.2542203 -0.28432375 -0.12496028
-0.05428543 0.273094 0.40534472 0.053751115 -0.4467128 -0.7927065 0.14141335 0.15346706
-0.45908836 0.38161007 -0.15281762 0.1785524 0.5249148 0.37879354 -0.9612119 0.023432076
-0.7358504 -0.15762614 -0.7331871 -0.17123918 -0.32937786 -0.22168225 -1.1468663 -0.43576163

hidden.0.bias f4 [200]
00000000: a9e6 a4be f2f4 263f 5982 02bf 82fe 5b3d
00000010: 2ebe a3be 421e 303e d778 d8bd 6e90 bebe
00000020: 92ae 283e 842c 9e3e 8992 abbe 7b68 16bf
00000030: 72d9 a43e 9862 f73e 19d8 3c3e 6bc0 083f
00000040: 9f24 d73e d39f b23e 8618 72be 8e5f c73e
00000050: acf4 d9be 252d 87be d66c 50be c6ae 0f3f
00000060: f48b 33ba 5932 b7be 5b47 99be b3de 1dbe
00000070: 3016 adbe 41e3 dd3e 0f96 0f3f 2a49 9c3e
00000080: 8bcd a8be 78e5 d33e 9fd1 bbbe 2831 ccbe
00000090: 1dee 253e 2771 fdbe d9cf 0a3f 90d4 b33e
000000a0: 28bc 1b3f 5810 753e 9932 133e c4ce d93e
000000b0: 0c83 48be 3b55 9ebe c9e4 4a3e 934b e23d
000000c0: 51e2 f5be 03a0 383d 0a5c e63e 8728 34be
000000d0: 93d6 8dbe 2bf5 8c3e f6a3 453e eba0 0d3e
000000e0: c9ec e13e 34f2 d63e 8a34 fe3e cf3e 9a3c
000000f0: 77a2 fcbc 27fb fa3e 7767 f13d 4607 113f
00000100: 8435 cf3e cfbd 103f 10c0 d43e 4151 a93d
00000110: cbb2 043e ba64 143f 5b66 0f3f c9ea 153e
00000120: cd8b cfbd 6aa8 a5be 8e34 bf3e a313 6f3e
00000130: 558d 46be 711f a3be c034 40be ce09 063f
00000140: 5b07 d2be a5c6 193f 2980 153f 3d28 aa3e
00000150: 6c92 b5be db44 3a3f fe95 a93e a1a3 483e
00000160: 0752 b33e 4a9c c0be f604 2abe 4e13 fb3e
00000170: 64b6 ed3e 7d45 043f 3d84 0c3f e743 063f
00000180: 4ef6 ff3e d5f8 e7bd e6e6 093f 6ee4 cc3c
00000190: 22cc 163f 32d7 8c3e 1c89 a8be 30fa 0f3f
000001a0: c5be d23d 1bac af3e f60d 133f 5ee1 58be
000001b0: ea88 afbe fd11 e6be f1f0 e4bc 5ff8 f63e
000001c0: 476b 5ebe c9fb 67be 6921 1e3f 9f69 c8bd
000001d0: 4d56 54be 7801 17be 1140 113f 1639 5d3e
000001e0: 15c4 a1be 5350 25be 3914 24bf 4942 2e3e
000001f0: b09d 2abe a274 673e b439 f73e fd6a 1b3f
00000200: 778a 88bd 7dbc 753e ce18 a03e d7df 3f3e
00000210: b8c8 0e3f 2faa f63e d19a d6be ff46 adbe
00000220: 1caf 9fbe eeb4 d3be 4ffe 003e 948c 01bf
00000230: 4d5e b53e 0125 1a3f 4711 25be fce7 b63e
00000240: 6587 10be 07fe 17bd 37aa f93e eaaa b6be
00000250: ddcd f53e 332f e83d 4e80 1bbe a379 41bc
00000260: 2222 8fbe fcbb 883e af11 523e 7745 a53e
00000270: ada2 cdbe 9ca4 613e 8cc7 90be 7c15 0d3f
00000280: 3698 7d3e c389 413e 05ba 0f3d c456 ef3d
00000290: 24d3 853e 4a5c db3e 9a13 c7be bb63 a73e
000002a0: b45f b13e 144c 1a3e 0d20 eebe 765b 77be
000002b0: c674 a6be 0fdd 81be 7494 f53e e4a4 98be
000002c0: 86da b73e 4261 3bbe 7849 ff3d 596e 963e
000002d0: 8ea0 88be 63e4 1a3f 76a4 e83e 4a9f 6c3e
000002e0: 48db 0d3f ff71 613e a40d 58be a594 e23e
000002f0: d1ca 1e3e 8f12 623d 84ca ff3e 535c 1a3f
00000300: 7666 f4bc 3def 123f 03c0 f63e a47e 4ebe
00000310: d026 ab3e f2f1 c63e 3b8c ef3e a6be 35be
-0.3220723 0.65217507 -0.50980145 0.053709514 -0.31981033 0.17199042 -0.10569923 -0.37219566
0.16472843 0.30893338 -0.33510235 -0.58753175 0.32197148 0.4831741 0.1844181 0.53418607
0.42020127 0.3488756 -0.23642167 0.3894009 -0.42569482 -0.2640163 -0.20354018 0.5612606
-0.0006849163 -0.357806 -0.29937252 -0.15416984 -0.3380599 0.43337443 0.56088346 0.3052457
-0.32969317 0.41386008 -0.36683366 -0.39881253 0.16204114 -0.4950039 0.542234 0.3512311
0.6083398 0.23932016 0.1437477 0.42540562 -0.1958124 -0.309244 0.19813837 0.11049571
-0.48024228 0.045074474 0.44992095 -0.17593585 -0.2770277 0.27530798 0.19300827 0.13830917
0.44125965 0.4198166 0.4964946 0.018828778 -0.030839188 0.4901974 0.117873125 0.56651723
0.40470517 0.56539625 0.41552782 0.08267451 0.12958829 0.57966197 0.5601556 0.14640345
-0.10134087 -0.32355052 0.37344784 0.23347335 -0.19389851 -0.31859925 -0.18770123 0.5235871
-0.41021237 0.6006873 0.5839868 0.33233824 -0.35463274 0.72761315 0.33122247 0.1959367
0.3502352 -0.3761924 -0.16603455 0.49038166 0.46428216 0.5166853 0.5488928 0.5244736
0.49992603 -0.11326758 0.5386795 0.025011268 0.5890523 0.2750793 -0.32917106 0.5624113
0.10290293 0.34310994 0.5744318 -0.21179721 -0.34284145 -0.449356 -0.027946921 0.48236367
-0.2172061 -0.22654642 0.6176973 -0.097857706 -0.20736046 -0.14746654 0.5673838 0.21603808
-0.3159491 -0.16143923 -0.6409336 0.17017473 -0.16661716 0.22603086 0.48286211 0.60710126
-0.06667035 0.23997684 0.31268924 0.18737732 0.5577502 0.48176715 -0.4191499 -0.33843228
-0.31188285 -0.41348976 0.12597011 -0.5060513 0.35423508 0.60212713 -0.16119872 0.35723865
-0.14114149 -0.037107494 0.48762676 -0.35677272 0.48008624 0.113371275 -0.15185663 -0.011808786
-0.2795573 0.2670592 0.20514558 0.3227956 -0.40163174 0.2203545 -0.28277242 0.5511091
0.24765095 0.18900208 0.03508951 0.11686471 0.2613765 0.42843848 -0.38882142 0.32693276
0.34643328 0.15068084 -0.46508828 -0.24155983 -0.32510966 -0.25363967 0.47964823 -0.29813302
0.35908908 -0.1829882 0.12465185 0.29381064 -0.26684994 0.6050474 0.45437974 0.23107639
0.5541272 0.22016142 -0.21098953 0.44254032 0.15507056 0.05519348 0.49959195 0.60297126
-0.029834013 0.573963 0.48193368 -0.20165497 0.3342805 0.38856465 0.46786675 -0.17748508

hidden.2.weight f4 [200, 200]
00000000: 4a52 afbf f252 023d e7d7 1fbe 243f 00bd
00000010: f0a3 3abf 069f cabd 89bf 17bf a633 1ebd
00000020: d580 273e b8ac 3e3d 357d 15be 4eef 79be
00000030: deef cf3d 275c cbbc 4c36 84be 5a59 a73d
00000040: 754f 063e 2284 563d 7f22 e5bc 2f12 91bd
00000050: be15 24bd aff3 0bbf c231 adbc 19f2 90bc
00000060: 491f 603e 5a99 833d e0da bbbf c5fb 06bf
00000070: 12fb 99be 6a5f 463d 4282 923d f41d 283d
00000080: 16a3 35be 4ae1 5e3d 8e91 e0be 3373 f63c
00000090: fc77 78be 3def 9abe 3e14 d33c e385 223e
000000a0: 8462 fe3b c7a0 383d a0eb 283d 5af4 813b
000000b0: 844d 57bd 25cf b2bf 6289 463e 3ca9 b43d
000000c0: 74bd 973d 661b 123d cdec 5cbd edb6 27be
000000d0: 3eff bdbe c483 8a3d 7533 8cbd 3c7f 963e
000000e0: ee98 3a3e e426 fe3d 482b 90bb de00 803c
000000f0: c1f8 b53e 8937 bf3c 9ffc 63be 53de a73d
00000100: e54f 173e 98cd 8fbb d66c fbbc 09c7 793e
00000110: bb9e 9c3d cf20 7e3d 089f 5c3d 7af8 f9bd
00000120: 5ae1 00bf c1d2 fdbe f5b6 e63d 89bd 67be
00000130: 67a0 0ebf 6ca6 babf ae13 73bd f7eb eb3d
00000140: 2a7e 4bbf 3a12 433e c21b 433c 34c7 86bd
00000150: e1df 58be 9da0 2b3d a0f6 c43d af1e 863d
00000160: ddc9 3dbe ab91 94be ed0c ccbe 9340 06bc
00000170: a1fc 0d3e 96db b53d 9091 af3b 8acb 1e3e
00000180: 4d1c 0e3e 8d9a 4dbd 3424 093e ae94 853d
00000190: 34fc 463e 1cf3 ce3d 1c2e 18bf 383a 513e
000001a0: 5c10 eabe 0722 06be d6bd 79bd 3496 0cbe
000001b0: cb7d 87bf 2b3b 42be c9cc 90bd 4e21 3fbc
000001c0: 1eb2 103f 1447 a23e 222d b13d cafb e2be
000001d0: e871 85be 60fd 4e3d 0427 f83d 9075 52be
000001e0: 8eb0 06bf 4a67 2bbe 565d 87bf a941 b1bd
000001f0: d5f1 34bf b679 22be 30f9 0f3d 5a9b 08bd
00000200: 9d0b 12bd b67d 623c 0228 173e 436e c8bc
00000210: bee9 2a3e b5d8 66bd f2e4 b5bd a55d 0fbe
00000220: 7337 adbe 0ea0 f7bb 0165 3e3d 1232 ad3c
00000230: fe73 283e c1a2 1e3d 91cf 16bf b69b 2d3d
00000240: 2f42 823c 5f16 4dbd c9b1 28bc 9bb4 edbd
00000250: 040f 873d 84c2 d8be 72e7 92bd 1c99 d43e
00000260: 2ae4 45bf fffd ca3c 5c28 2e3d 4bf1 bbbc
00000270: e58f 86bd e0e1 c0bd ce82 31bf 15b9 413d
00000280: 18d0 1f3e 7725 583d 6e46 403e e28f e3bc
00000290: f35e a9bc a253 f73c c401 82be 6c2e 273d
000002a0: 2377 363c 93ab e53d 2bf5 a03c 898a 0ebf
000002b0: 1c40 25bf 0b4d a2bf 9e3d bc3d f31c 3cbe
000002c0: 16bd 973d 19ea 20bf 065a ad3d fda4 333e
000002d0: 3eda a3be eb0a 733d ff44 06bc 44fb f23d
000002e0: ea47 053e a889 fbbc c7f9 5ebe 35da 333d
000002f0: 0967 0cbe 6e28 703d abb4 bc3c aa7e 333e
00000300: cfc1 f7be 5b8a 0b3d 74ee ddbc 6607 23be
00000310: a673 de3d fe67 eb3c 719c 073d 0015 32bf
00000320: 7168 8d3e 4358 06bf a3e9 2e3e 8468 d93d
00000330: 6a72 563e edce c1bf beab 96be 3b22 2d3d
00000340: 928a 3cbe 0104 acbe 0f40 463b 7e42 833e
00000350: 5b38 a33e 4845 7d3e fd5b b83e 4bac 7b3e
00000360: 6663 313d 902b bdbc bc1f a0bd 898e f23d
00000370: 0b0b 20bc f2a5 f7bc 97cb 3dbf 62fb e0bc
00000380: 530e 49be 6861 c93d 670d ba3e 246c 80bc
00000390: 9ba0 8ebd 4990 97be ef56 79be 62af 943d
000003a0: 5065 b73c b75f 4dbd 0572 a9bf ed98 25bc
000003b0: 483d 783e d049 0c3d bee9 123d 0634 bbbc
000003c0: 12f9 5d3e fb6d 6fbf 1b72 b9bf 142c 363e
000003d0: 989e 87be 794f e53e 9abd 60bf c525 b83e
000003e0: 2cae 14bd 8af3 aebd 9a34 ba3d 5bb7 bb3e
000003f0: 64b6 aebe 37e1 81bc 518e 893e e219 f93e
-1.3696988 0.031817384 -0.15609704 -0.031310216 -0.729064 -0.098936126 -0.59276634 -0.038623475
0.1635774 0.046551436 -0.14598544 -0.24407694 0.10153173 -0.024824215 -0.25822675 0.08171339
0.13116248 0.052372105 -0.02797055 -0.07083546 -0.040059797 -0.54668707 -0.02114189 -0.017693566
0.21886934 0.06425734 -1.467617 -0.5272792 -0.30074364 0.048430838 0.07153751 0.04104419
-0.17737994 0.05441407 -0.4386105 0.030084228 -0.2426452 -0.3026065 0.025766488 0.15871386
0.007763209 0.045075204 0.041240335 0.0039658966 -0.05256416 -1.3969465 0.19388345 0.088213414
0.07409182 0.03567066 -0.05393677 -0.16378374 -0.37108797 0.067634135 -0.06845752 0.29393947
0.182224 0.124097615 -0.004399691 0.015625414 0.35541347 0.02334191 -0.22264336 0.08196702
0.14776571 -0.0043885224 -0.030691545 0.24392332 0.07647463 0.062043007 0.0538626 -0.12205596
-0.5034386 -0.49574855 0.11265365 -0.22630896 -0.55713505 -1.4582038 -0.05934494 0.11519616
-0.79489386 0.19049922 0.011908473 -0.06580964 -0.21179153 0.04190122 0.096173525 0.06548821
-0.18534036 -0.29017386 -0.39853612 -0.008194107 0.13865902 0.08879773 0.0053579286 0.15507331
0.13877983 -0.05019622 0.13392717 0.06522499 0.19432145 0.10104963 -0.5944536 0.20432365
-0.45715606 -0.13098918 -0.060972057 -0.13729173 -1.0585264 -0.18967883 -0.0707031 -0.011665655
0.56521785 0.31694853 0.086511865 -0.44332725 -0.26063466 0.050534606 0.12116817 -0.20552659
-0.5261315 -0.1673862 -1.0575359 -0.08655102 -0.70681506 -0.15866742 0.035149753 -0.03335128
-0.035655607 0.013823917 0.14761356 -0.02446664 0.16690728 -0.05635901 -0.088815585 -0.14000566
-0.33831367 -0.007556922 0.046483044 0.02114204 0.16450498 0.038729433 -0.5891047 0.042384826
0.0159007 -0.050070163 -0.0102962935 -0.116067134 0.06594661 -0.42335904 -0.07173051 0.41523063
-0.77301276 0.024779318 0.04251896 -0.022942206 -0.065704145 -0.09418082 -0.6934022 0.04729565
0.15606725 0.052770104 0.18776867 -0.02777857 -0.020675158 0.030191246 -0.25391972 0.040815756
0.011136803 0.11214366 0.019648155 -0.5568014 -0.6455095 -1.2679762 0.0919144 -0.18370418
0.07409112 -0.62857205 0.08464436 0.17543407 -0.32002443 0.059336584 -0.008195161 0.11864331
0.13015714 -0.030705288 -0.2177497 0.04390927 -0.1371118 0.058632307 0.023035368 0.17528787
-0.48390052 0.034067493 -0.027091242 -0.15920791 0.10861902 0.02873611 0.03310818 -0.69563293
0.27618745 -0.52478427 0.17081313 0.10615638 0.20942083 -1.5141274 -0.29427904 0.042268973
-0.18412235 -0.33596805 0.0030250584 0.25636667 0.31878933 0.2473346 0.3600768 0.24577443
0.043307684 -0.023092061 -0.07818553 0.11843593 -0.009768258 -0.030230496 -0.7413878 -0.027463619
-0.1963437 0.09833032 0.3633835 -0.015676565 -0.06964227 -0.29602268 -0.24349569 0.07260014
0.022387177 -0.05014011 -1.3237921 -0.010107261 0.24242127 0.03425008 0.035867445 -0.022851955
0.21677044 -0.9352719 -1.4487947 0.17790252 -0.26488185 0.44787195 -0.8778931 0.35966316
-0.036298916 -0.08542545 0.09092064 0.36663327 -0.34123528 -0.015854461 0.2686639 0.4865256

hidden.2.bias f4 [200]
00000000: 4b55 e23d a9da 023e e566 c6bb 34bd e43d
00000010: 7224 c83d 2428 3fbc b5e1 94bb 4e40 d03d
00000020: 6d0d b43d 9d10 d13d 44fd 973c 34eb 8b3d
00000030: bfde 80bd f7e6 ce3d 205e 16bd 3ee9 8d3d
00000040: f64a 6b3d af72 c53b 634a 913d b7ac 393d
00000050: c58a 033e 2104 b33c 5ca9 a2bc b944 e73d
00000060: 4687 1c3e fa1c c03c 99d0 ee3c a1b7 e2bc
00000070: 51bb 7ebd 1bc2 193c de44 66bc e75b 293d
00000080: 265c 5d3d cf7c cd3d 89d3 443d aa4c b43d
00000090: 760f debc c567 143e 537d ae3d 7381 8f3d
000000a0: ba22 163e 3a44 d93d a032 9d3d 928f 883d
000000b0: 2f5c 92bd 0091 a83d 3d89 09ba 83aa b13d
000000c0: 40de f43d 198f e43d ac9d f83d c323 9b3d
000000d0: 27e0 423c 63df 773d f96f 163e ccee 533d
000000e0: 9ebe 893d 0782 343d 1065 933d b152 0e3d
000000f0: 9831 6e3d ff9f ae3c a760 3a3d 09bb fd3d
00000100: c6d3 113e 286b 453a 6a76 9b3d 4cfd 83bd
00000110: 77b8 6d3c 42df 643d 6fc5 b8bd c55c 3abc
00000120: 8a10 a63d 8ebe 813d 21f7 433d 2726 923c
00000130: 6e63 b3bc dce2 eb3d 557f da3b c920 09bd
00000140: da0e 0b3d 1630 06be 5966 d93d f41a a43d
00000150: 9515 673d 5cda e33b 3ba3 7e3d 0d60 45bd
00000160: cf7f c23d 7440 9a3d f77a 69bd ff88 8fbc
00000170: 50df 203d 0401 2c3d 01c5 6e3d b2af f43d
00000180: 66ca b93c cd84 863c 5616 793d 483c e83c
00000190: e2e7 33bd 7c38 4c3c 155c 3c3d a4b1 39bc
000001a0: 5372 ddbb 85c6 2fbd 2342 a3bc dae1 0e3d
000001b0: 0d12 7a3a 4c91 423d 0b97 0cbd 5f03 853d
000001c0: 60c4 873d 9ecb 773d 23ae 563d 2de2 053d
000001d0: 76aa 613c c42f 0d3e fd22 da3d c1de d03d
000001e0: 92a8 183d bcf0 063d c6b4 523d f61c 2e3e
000001f0: 4799 65bc b607 943c 8d71 51bd 3728 ec3c
00000200: f6f3 b13d b6e5 483c 4d8b d03d e9ab 913d
00000210: 185b b23d e638 a93d e453 1b3e 3457 273d
00000220: 1f04 c53d 847a 523d 6b66 103e 1253 5a3d
00000230: 0e75 643d 4af9 b9bd f1d3 e9bc 67fb f43d
00000240: 0281 c23d 2e7f ef3d c770 ddbd ffde 993d
00000250: 0c3b 92bd 351c 013e 815d a7bd b3ea 28bc
00000260: 545a 823d 1337 153e 4eac 203d 1ce7 e43d
00000270: 3a92 003d 7717 bf3d f9e1 b03c f0ad 053d
00000280: b5a9 1ebb 2522 9b3d 7428 9d3d 9d9e c3bc
00000290: df06 873c ab09 e4bb a32a 8dbd 29ae 09bd
000002a0: 528a 2cbd 8509 3a3d 43bd 66bc d1fb 9d3d
000002b0: 6f63 ae3d b63c 5d3d 02ec 3a3e 0e5a 853d
000002c0: da91 073e 70fc 3a3e 6d2e c2bc b9ab 683d
000002d0: fee6 3b3d cbcb 673d 89fb 91bd b7b5 013e
000002e0: a276 1a3e fc6b 8a3d e3ac 4e3d 98da 373d
000002f0: b97e 9cbd a6d7 103c 8d1c 953d d8e8 9a3d
00000300: 58e6 0f3e 188a 87bd 40eb 96bd 4168 393d
00000310: 5347 c83d 6afa f13d 787b c2bb 0322 1dbc
0.110514246 0.12778725 -0.0060547465 0.111689 0.097725764 -0.011667285 -0.004543508 0.10168515
0.08791623 0.10208247 0.018553384 0.06831971 -0.062924854 0.10102647 -0.03671086 0.06929253
0.057444535 0.0060256342 0.07094266 0.04533073 0.12845905 0.021852555 -0.019856147 0.11292405
0.15285978 0.023451317 0.029152201 -0.027675452 -0.062190358 0.009384657 -0.014054505 0.04134741
0.054042958 0.10033571 0.0480533 0.08803685 -0.027106982 0.1449271 0.085199974 0.07007112
0.14661685 0.10608716 0.076756716 0.06668009 -0.07146489 0.082307816 -0.00052465854 0.08675101
0.11956453 0.11160106 0.121394485 0.075751804 0.011894262 0.060515773 0.14691152 0.051741406
0.067258105 0.044069316 0.071970105 0.03474683 0.058152765 0.021316526 0.04550233 0.1238919
0.14240941 0.0007530921 0.07590945 -0.06444797 0.014509312 0.055876978 -0.090220325 -0.011374657
0.08108623 0.063351735 0.047843102 0.017840458 -0.021897998 0.11517879 0.006668011 -0.033478532
0.03394971 -0.13104281 0.106152244 0.080129534 0.056417067 0.0069535207 0.062167387 -0.048187304
0.09497034 0.07531825 -0.057002034 -0.01752138 0.039275467 0.041993156 0.058293346 0.11947574
0.022679519 0.016420746 0.060812317 0.028349057 -0.043922313 0.012464639 0.045986254 -0.011333857
-0.0067580133 -0.042913932 -0.019928997 0.034883358 0.0009539433 0.047501847 -0.034323733 0.064947836
0.066292524 0.06049692 0.052412163 0.0326864 0.013773551 0.13787752 0.10651205 0.10198737
0.037270136 0.032944426 0.05144193 0.17003235 -0.014013595 0.018070083 -0.05113368 0.02882777
0.0868911 0.012261799 0.101828195 0.071128674 0.08708781 0.08262806 0.1516872 0.040854648
0.09619927 0.05138637 0.1410157 0.05330188 0.055775695 -0.09080751 -0.028543444 0.11962014
0.094972625 0.116941795 -0.10812526 0.07513236 -0.071401685 0.12608416 -0.08172131 -0.010309863
0.06364885 0.1457179 0.039226823 0.11176893 0.031389453 0.093306474 0.021592127 0.032636583
-0.002421004 0.07574872 0.076737314 -0.023879344 0.016482769 -0.0069591603 -0.06892898 -0.033613358
-0.0421241 0.045419235 -0.014083209 0.07714046 0.08515059 0.054012977 0.18254092 0.06511317
0.13239232 0.1826036 -0.023703778 0.056804392 0.04587459 0.056590836 -0.07128055 0.12666975
0.15084317 0.06758878 0.050457846 0.0448862 -0.07641358 0.008840477 0.07280836 0.07563943
0.14052713 -0.06618136 -0.07369089 0.04526544 0.09779229 0.11815341 -0.005935129 -0.009590629

V.weight f4 [1, 200]
00000000: f28e 2c3f 9a05 70bf 6cf3 b1be b22c 883e
00000010: 623c c13e 82cd c9be 88b5 2fbf cc7f 113f
00000020: 57f4 973e f41e 1c3f e4ab 79bf af16 143f
00000030: 9c1a 2ebf c910 a03e 81a3 29bf e6f7 173f
00000040: dfd5 1b3f bd58 b53e f338 273f d803 87bf
00000050: 5a67 b8be b0c4 92bf 58b2 81bb 858f dc3e
00000060: d5c1 823e 980e e23e 1466 0a3f f970 683d
00000070: 697b 05bf cda7 07bf 84b0 503c 6d14 1b3f
00000080: 31cb 94bf 7afe fcbe c2d1 87be 5c86 3d3f
00000090: 0977 22bf 6ded f73e c9c9 c83e af1f d5be
000000a0: 0940 a23e a93b 483f 5960 f93e 1ad3 8ebe
000000b0: 14c2 aa3b 617e a03e 53b6 d0bc 8ac3 05bf
000000c0: 6b25 183f 4adb a5bd 1016 fa3e 49e3 a03e
000000d0: 9848 0dbf e8b9 eb3e 8206 f43e ff5a 3c3d
000000e0: e60d 0f3f eff0 b53e 1e3b 84bf 138c 6a3e
000000f0: 3183 45bf cf78 a0be f4a8 943e 5f91 163f
00000100: 3a8f 3b3f 609b 92bf 403d 9c3e 8f45 5bbd
00000110: da08 813e cbda e03e f3f5 50bf 2ce9 efbe
00000120: 489d 74be 3cbb 8bbe 75cd ad3e b68f 2ebd
00000130: e5da fdbc fbbc 04be e0b5 6b3d 411c 8ebd
00000140: d40d 073f d1a5 13bf 0d73 843e 1c92 693e
00000150: c089 72bd cb67 753e 5f2e c23e b06a 14bb
00000160: c226 2b3f 2b4e 95bf 17ea 40bf 8b4a e8be
00000170: 0515 33bd 130a 31bf 54b9 963e 91a7 b33e
00000180: 4533 253f 5ddb 953e a74d 823e 2180 e63e
00000190: ca80 6ebc d68b 033f 079d 9d3e fd52 2d3b
000001a0: e148 2ebf cbea 03bf 7eea c7bd 9753 b03e
000001b0: fa5c b63e b41a 00be c537 0f3f fa73 293f
000001c0: 6ad5 753e d618 083f 6948 123f d4b9 a53e
000001d0: 0014 e73e 52bd dd3e a9b9 ff3e ec3e 0d3f
000001e0: 821e 013f 3ea6 c73e 77bd 25be aec4 173f
000001f0: 968d 28bf 73fe 703d 6914 3fbc 2454 41bc
00000200: 98f9 f93e ea5e 49bf 8b10 7c3e 8002 cabe
00000210: f67d 0a3f 26d3 34bf dda4 ff3e d902 0a3f
00000220: 56bc 093f c377 313f ab59 e13e 336d 72bc
00000230: b0e0 a83e e7bc 0abf a196 21bd 647f 0d3f
00000240: 7647 093f dd42 ff3e a712 42bf be0d a53e
00000250: 98a9 6ebe 183d 873e d0ad 71bd 9528 01bf
00000260: d151 68bd 64f9 713f 2cb0 cdbe f8a9 073f
00000270: 1326 923e 55a8 cb3e 4003 8fbc 2437 c6be
00000280: 4fbe 41bf afe9 77bf 84ed 383f 672f f33e
00000290: 2880 5d3e 9bcc 01bc 4284 283d 450f a13c
000002a0: c908 88bd 18ba 0b3f 38d8 21bf c531 f63e
000002b0: 4217 80bf 9f7b 063f 3b26 30be 0720 143f
000002c0: 8221 f73e 6217 b2be aee1 9bbc 9a82 aebe
000002d0: f496 75bc 09bd 1dbf 730f 643d d942 913e
000002e0: 2ead 143f 6837 8fbf 67f3 b83e 7c1b 133f
000002f0: 5cc6 43bf a8ec 78bd 084e 4c3f 4864 b33e
00000300: 3010 f63e 7d19 813d 3711 6cbd 4f3d 0a3f
00000310: b0c7 e1be 27ce 0a3f 82b2 15bf d7fd 68bf
0.6740562 -0.9375855 -0.3475603 0.265966 0.3774138 -0.39414603 -0.6863637 0.5683563
0.29678604 0.6098473 -0.9752791 0.5784711 -0.6800935 0.31262806 -0.6626511 0.5936264
0.60873216 0.35419264 0.6532127 -1.0548048 -0.3601635 -1.1466274 -0.003958028 0.43078247
0.25538507 0.4415176 0.5406201 0.056748364 -0.52141434 -0.5299042 0.012737397 0.6057804
-1.1624509 -0.494129 -0.2652722 0.7403314 -0.63462883 0.4842333 0.3921645 -0.41625735
0.3168948 0.78216034 0.4870632 -0.27895433 0.005211124 0.3134642 -0.025477564 -0.52251494
0.59432095 -0.08098467 0.48844957 0.31423405 -0.55188894 0.46040273 0.47661215 0.04598522
0.5588058 0.3553538 -1.0330541 0.22904997 -0.7715331 -0.3134217 0.2903515 0.5881557
0.7326542 -1.1453667 0.3051548 -0.053533133 0.25202066 0.43916926 -0.8162529 -0.46857584
-0.23888123 -0.27291286 0.33945814 -0.042617522 -0.030988166 -0.12962715 0.057546496 -0.06938983
0.52755475 -0.5767489 0.25869027 0.22809643 -0.0592134 0.23965375 0.37926003 -0.0022646599
0.66856015 -1.166448 -0.7535719 -0.45369372 -0.043721218 -0.69156 0.2943827 0.3508878
0.64531356 0.29268923 0.2544987 0.4501963 -0.014557073 0.5138525 0.30783865 0.002644717
-0.68079954 -0.5153014 -0.09761523 0.34438774 0.3561781 -0.12510186 0.5594447 0.6619259
0.24007192 0.53162897 0.5714174 0.32368338 0.45132446 0.43308502 0.49946335 0.55174136
0.50437176 0.3899402 -0.16185556 0.59284484 -0.65841043 0.05883641 -0.011662581 -0.011799846
0.48823237 -0.7866045 0.24615686 -0.39455032 0.5409845 -0.70634687 0.49930468 0.53910595
0.53803 0.69323367 0.44013724 -0.014796543 0.32983923 -0.5419449 -0.03945029 0.5527251
0.53624666 0.498557 -0.7580971 0.32237047 -0.23306882 0.26413798 -0.05900365 -0.5045255
-0.05671865 0.94521165 -0.4017347 0.52993727 0.28544673 0.39776865 -0.017457604 -0.38713944
-0.7568101 -0.9684095 0.7223742 0.47497103 0.21630919 -0.007922317 0.041141756 0.019660601
-0.06642301 0.5458083 -0.6322055 0.48084846 -1.0007098 0.5253238 -0.17202084 0.5786137
0.48267752 -0.34783465 -0.01902851 -0.34084016 -0.014989603 -0.6161657 0.055678796 0.28371313
0.5807675 -1.1188784 0.361232 0.5746381 -0.7647455 -0.060772568 0.79806566 0.35037446
0.48059225 0.0630369 -0.057633605 0.539998 -0.44097662 0.54220814 -0.58475506 -0.9101233

A.weight f4 [2, 200]
00000000: 741b 1bbd 9b0d a43d b9f6 023f 1ba2 04bd
00000010: 249f db3e 829a 24be 6e59 21bf 725c cd3d
00000020: aba3 c3bd 6c70 943e 1814 61bf 602c 00bd
00000030: bca3 07bf bc58 3dbc fc69 593f 4318 c5be
00000040: 0580 283e ae4d 993d 8b54 9abe 526f 39bf
00000050: a899 183f 53a6 15be 6c81 873c d70d f4bb
00000060: a47a 18ba 5ccb 623e a7dc b2bc 2f71 13bd
00000070: 159a eebe 31c2 833d 5593 84bd ed22 133e
00000080: 4cc0 c33e 3f67 363f 3791 0cbf 8265 5dbd
00000090: f11f 373f 8cd6 9dbe 51f3 2abd 9f9b 503f
000000a0: 9062 fc3e cb6b 31be 3f90 88bd 0ddb 0dbe
000000b0: e319 7e3d 1171 683d 28de af3a ffc1 cdbe
000000c0: 5937 f1bd bf11 453f 1266 573e cfe5 03bd
000000d0: 56be 23bf 0027 753c 39b0 35bd 4730 92bc
000000e0: 57c4 d9bd a136 9fbf d63f 64bf 04c5 1ebe
000000f0: 406b 7dbf 197c 593d 0d6e bebd bcc2 04bd
00000100: 53a5 61be 5eef 58bf 9018 883d 148d 87bb
00000110: ab6d ba3d af91 6d3d 94f8 903f 26e5 e43e
00000120: 5039 43bf 8af0 b53e abb5 35bd 234f 1f3d
00000130: 7fe1 053d 8e6e 383f ea96 93bf 497c 36bc
00000140: de57 9fbd f5fa a63f d5d8 79bc 4ea5 b4bd
00000150: 9efb 13bf 9255 0dbd cabb 3abf fcaa 53bd
00000160: 414a 9ebd cdb6 edbe 7d52 883f 1eca d1bd
00000170: d1ed c4bc 764f 023f 7686 95bd 3e20 153f
00000180: eb9d 8fbe 6753 433d 3d60 9bbc 826b 1e3d
00000190: 76fc 003d c32c 263e 21e8 8dbd a6a6 c2bc
000001a0: 02d0 a13f 4aed 70bf afa4 8cbf e82d 99bd
000001b0: 08f0 c4bd ae38 19bf a75d 183d 8b89 b0be
000001c0: 507e acbd ceec 47bd a7b7 263e 2d5a 523d
000001d0: 9257 0cbe 6000 d6bd 5bab 473e 32f8 f03d
000001e0: 5f77 843e 70ef 91bc e5cc 84bf 21cc 90bd
000001f0: 91ce 913f 23cd 80bc afd8 0fbd 5123 e1bc
00000200: 0655 aa3c 6afc 223f 8315 0cbd 08dd 9dbe
00000210: d811 1e3e f8dd 483f ca23 393e 90b2 1f3e
00000220: c550 9cbd 5cc0 1fbe ddaa c939 f066 5b3d
00000230: 7d68 483d 80d2 9a3f dbf4 3f3d a2f7 97bc
00000240: d545 46be 0af9 d73d ce9a 9f3f d66a 903d
00000250: d84c 80bf 3f7c 9bbd d334 94bf abe9 ee3e
00000260: 6e21 38bd ba42 883b 9c2b 40bf 2258 b1bd
00000270: c86f cabd 2441 c03d 03e3 693d a56b 81be
00000280: ecf5 db3d 98c2 293e 7aaa 243f bf76 be3c
00000290: 6d80 c6bd f573 99bc d4e7 1fba 3a7e 1c3c
000002a0: 55c9 0ebc d52e dd3c 47a7 76bf cd2d 203b
000002b0: f55c bb3e 9128 043f 4d89 a13e 5189 0fbe
000002c0: 1da1 a8bd c95c 4a3e bc0f 083d 564f c8be
000002d0: 0a0e 603d 94c0 163f 1da6 09bc a16f 0d3d
000002e0: 34b9 f93c d9f4 53bf 9fca cfbc 7421 593e
000002f0: 37a5 803f b591 8ebf 1807 49be 098c 523d
00000300: 3c95 093f f60d 723d 0a3b d0ba c240 763d
00000310: 8782 113e a60d 373d e3ba 8f3f 8ca5 61bf
00000320: 1ad6 ba3d 2a57 2dbe a620 e8be c23e a13d
00000330: bd20 e6be 44e9 213e 656d 3b3f 3d26 57bc
00000340: e8c7 f13d 3305 90be 8f38 563f 9fb1 cc3d
00000350: 7988 f43e 75d6 043d 8ea2 6cbf cbfa ac3e
00000360: 097f 10be 6fef 74bd b86d a83e 2ac2 393f
00000370: 6a75 1fbf 3183 1b3e 9642 893d adea 18bd
00000380: 02a4 a73c 4311 6cbe 4096 bf3c d5c5 59bd
00000390: e984 ef3e 8049 adbd c22a 3e3c 04d5 d7bd
000003a0: 9e2b 99be ef63 36bf 5f0d 243f 4c03 693d
000003b0: 0e7d 1cbf fc21 a33e 4f64 c83d 0b75 46bf
000003c0: b220 e7be 7da7 173e b0a8 003d c071 0d3e
000003d0: 1895 10bb 5860 603d 73fa 4c3d fb9e aa3e
000003e0: e52a cc3d 5a46 4abf 5614 86be 3fde 8abd
000003f0: 7e94 223f 055c 423c 675e 493d b17c 9abd
-0.03786798 0.080104075 0.5115772 -0.03238116 0.42894852 -0.16074565 -0.63027084 0.10027398
-0.095527016 0.2899202 -0.87921286 -0.03129232 -0.52984214 -0.0115568 0.84927344 -0.38495073
0.16455086 0.07485519 -0.30142626 -0.72435486 0.5960946 -0.14614229 0.016541205 -0.007447939
-0.0005816615 0.22147888 -0.02183373 -0.035996612 -0.4660193 0.064335234 -0.06473414 0.14368792
0.38232648 0.7125129 -0.5490908 -0.054051884 0.71533114 -0.3082775 -0.04173595 0.8148746
0.49293947 -0.17326276 -0.06668138 -0.13853092 0.062036406 0.056748454 0.0013417648 -0.4018707
-0.11778135 0.76980203 0.2103503 -0.032201584 -0.63962305 0.014962912 -0.044357512 -0.017845286
-0.10633152 -1.2438546 -0.89159906 -0.15504843 -0.98991776 0.053096864 -0.09298334 -0.032412276
-0.22035722 -0.84740245 0.0664531 -0.004136691 0.09102949 0.058000263 1.132586 0.44706076
-0.76259327 0.3553508 -0.044362705 0.03889383 0.032685753 0.72043693 -1.153043 -0.01113803
-0.07780431 1.3045336 -0.015249451 -0.08820592 -0.5780581 -0.034505434 -0.72942793 -0.051676735
-0.077290066 -0.46428528 1.0650173 -0.10243629 -0.024039181 0.509025 -0.07301037 0.5825232
-0.2805017 0.04768696 -0.018966788 0.038676746 0.031490766 0.16228013 -0.06929041 -0.023761105
1.2641604 -0.94112074 -1.0987757 -0.07479459 -0.09616095 -0.5985211 0.03719869 -0.34479937
-0.0842253 -0.04880982 0.16280995 0.05135553 -0.1370528 -0.1044929 0.1949896 0.117660895
0.25872323 -0.017814368 -1.0375029 -0.070701845 1.1391164 -0.015722817 -0.035118755 -0.02748266
0.020792495 0.63666403 -0.034200203 -0.30832696 0.15436494 0.784637 0.18080059 0.1559546
-0.07632593 -0.15600723 0.0003846501 0.053564966 0.048927773 1.209549 0.04686437 -0.018550698
-0.19362576 0.10545547 1.2469118 0.07051627 -1.0023451 -0.075920574 -1.1578621 0.4666265
-0.044953756 0.004158345 -0.7506654 -0.08659388 -0.09884602 0.093874246 0.05710126 -0.2527744
0.10740265 0.16578138 0.64322627 0.023249982 -0.09692464 -0.01873205 -0.0006099914 0.009551579
-0.0087149935 0.02699987 -0.96348995 0.0024441362 0.36594358 0.516244 0.31550065 -0.14017226
-0.08233855 0.19761957 0.03321813 -0.3912303 0.05470089 0.588876 -0.008401421 0.034530286
0.03048382 -0.8279548 -0.025365172 0.21204168 1.005042 -1.1138216 -0.19631612 0.05140308
0.5374334 0.059095345 -0.0015886736 0.06012035 0.14209948 0.04469075 1.1228908 -0.8814323
0.09122868 -0.16927782 -0.4533741 0.07873298 -0.44946852 0.1581164 0.732138 -0.013131675
0.11805707 -0.28128967 0.8368005 0.09994816 0.4776037 0.032431085 -0.9243554 0.3378509
-0.1411096 -0.059798654 0.3289621 0.72561896 -0.62288535 0.15186764 0.067021534 -0.03733318
0.020463947 -0.2305346 0.023387074 -0.053167183 0.4678109 -0.08461285 0.011606874 -0.105386764
-0.2991609 -0.71246237 0.640829 0.05688791 -0.6112832 0.31861866 0.09784757 -0.77522343
-0.45142132 0.14809985 0.031410873 0.13812923 -0.0022061523 0.05477938 0.050043534 0.33324417
0.09969119 -0.790136 -0.2618739 -0.06780671 0.6350783 0.0118627595 0.049162295 -0.07543314

A.bias f4 [2]
00000000: bd4e 5f3d 3291 513d
0.05451845 0.05116386
