3.2 PPO-Continuous/model/PV1_actor100.pth (torch, 97071 bytes, 6 tensors)

l1.weight f4 [150, 3]
000000 04 94 2b 3e 67 a5 f8 3e 30 2d 08 bf 78 09 07 bf
       0.16755682 0.48563692 -0.5319395 -0.52748823
000010 0f 27 28 be 1a c5 0a 3e 2c 84 cf bc c1 99 0d 3f
       -0.1642115 0.13551751 -0.02533158 0.55312735
000020 f1 98 86 bc 07 d5 3f 3e e4 e6 4b be a3 32 7d bd
       -0.01643035 0.18733607 -0.19912297 -0.06181587
000030 60 c8 30 bf 3e 2a d0 be 97 90 94 be 52 bc 5c 3e
       -0.6905575 -0.40657228 -0.29016563 0.21556213
000040 0c 5b 49 3e f9 cc bf 3e e4 36 e2 be 49 75 63 be
       0.19663638 0.3746107 -0.44182503 -0.2221271
000050 a5 50 df 3d be 64 11 3f 48 b9 90 bd 5f 65 e4 3e
       0.109040536 0.56794345 -0.070665896 0.4460859
000060 90 9c 86 be 7a 2c 09 be 36 b7 04 3f 02 9d 29 bf
       -0.26291323 -0.13395873 0.5184206 -0.662552
000070 6f 9f cd be 42 19 04 be 7a 68 a5 be 97 40 cf 3e
       -0.401607 -0.1290026 -0.32306272 0.40478966
000080 73 bb d4 be 87 dc c5 be ce 4a bf be 10 7f 08 bf
       -0.41549262 -0.38644812 -0.3736176 -0.5331888
000090 be 99 d3 be d1 dc 2c 3f 65 78 68 3e 68 81 f0 3e
       -0.41328233 0.6752444 0.22702177 0.4697373
0000a0 7f 3a e9 bd 04 2b 48 be 5c 38 28 3e 0d 16 cf be
       -0.1138811 -0.19547659 0.1642775 -0.4044651
0000b0 e8 71 de be a2 e6 e0 be 1c 7d 12 3f 95 90 80 3e
       -0.4344628 -0.4392596 0.5722215 0.25110307
0000c0 09 71 a3 be ef 75 44 be b5 cc ce 3e 81 92 21 3f
       -0.31922176 -0.19185613 0.40390554 0.6311417
0000d0 5e a7 77 3e 1a 0b 2f 3e 5f b4 04 3f 83 6f a9 be
       0.2418494 0.17094079 0.51837724 -0.3309289
0000e0 07 8c 10 3e 45 65 0c bf f9 7f 05 bf 31 55 87 be
       0.14115916 -0.54842025 -0.52148396 -0.26432183
0000f0 37 c7 d6 3e 28 76 76 3e a0 e8 ae be d1 7e 22 3e
       0.41948864 0.2406851 -0.34161854 0.15868689
000100 2e aa ac 3e 42 2b eb bc 9f 74 08 3e 3a 3d bf 3d
       0.33723587 -0.02870715 0.13325737 0.0933785
000110 0c 5f d2 3e 0b f9 22 3f 44 e7 10 bf 35 2c 29 be
       0.4108814 0.6366126 -0.56602883 -0.1652077
000120 a1 32 0c 3e 73 65 6c 3f f7 c5 00 3f f0 a2 2c 3f
       0.13691188 0.923423 0.5030207 0.6743612
000130 e6 ac 08 be 7a 98 8c be a1 74 c4 bd ab 63 87 be
       -0.13347206 -0.2746008 -0.09592558 -0.26443228
000140 74 7c 09 bf 76 3e 22 3f cd 99 03 3f 96 62 12 bf
       -0.53705525 0.6337656 0.51406556 -0.5718168
000150 c5 2f 62 3e 1a ff cb bd 62 f6 e1 bd cc ad 5a be
       0.22088535 -0.09960766 -0.11033322 -0.21355361
000160 d3 75 11 3f 8a 4a 7f be 29 c7 81 3e 94 44 22 3f
       0.5682041 -0.24930778 0.2534726 0.6338589
000170 0a 32 d1 3e ef 39 a5 3e e8 f1 5c bf 4f 13 a8 be
       0.4085849 0.32270762 -0.8630662 -0.3282723
000180 82 bc 11 3e e5 8d 09 3e 15 75 02 bf a1 63 da be
       0.14232066 0.13433035 -0.50959903 -0.42654136
000190 2c ea 4d 3f b7 48 a1 3e a4 2f 94 be 39 d2 46 bc
       0.8043544 0.3150079 -0.28942597 -0.012135082
0001a0 e2 0c 15 bf 50 ee 28 be 07 2c 4c bf 90 46 ef be
       -0.5822278 -0.16497159 -0.7975468 -0.46733522
0001b0 7d 16 8d bd 02 a5 90 3d 46 9c fc bd d2 2f c7 3e
       -0.06889055 0.07062723 -0.12334494 0.38903672
0001c0 55 06 c6 be 47 de 0d 3f 93 9e e2 3e 86 74 13 bf
       -0.38676706 0.55417293 0.44261608 -0.57599676
0001d0 4c aa 1a be be c3 77 3b 4d 7f ed 3d a0 a9 88 3d
       -0.15104026 0.003780588 0.11596546 0.066729784
0001e0 87 0d be 3e 29 7c 34 be 8e e0 1a be 6c 4b 82 3e
       0.37119696 -0.17625488 -0.15124723 0.25448167
0001f0 86 32 4d bf b6 73 90 be 6f 5e 8a be ab a2 ca be
       -0.8015522 -0.2821328 -0.27025172 -0.3957723
000200 8e ba 60 be 90 99 1c bf 5c 3a e8 bc 50 d4 03 3e
       -0.21946165 -0.6117182 -0.02834814 0.1287396
000210 b6 ab e5 be e4 0a dc 3d ce 44 93 3e ab db 49 bd
       -0.44857568 0.10744265 0.2876343 -0.049281757
000220 7f ab a6 3d cd 6f 62 bd 0c 09 10 bc e6 0d 99 3e
       0.08138179 -0.055282403 -0.008791219 0.29893416
000230 cc df 1a 3f 89 79 dd 3e d1 52 11 3f b9 d7 93 bd
       0.60497737 0.43256786 0.5676699 -0.0721888
000240 0e fd 32 bf ef 5b ac bd b0 3d 69 3e 96 cc 47 3d
       -0.6991738 -0.084159724 0.22777438 0.048779093
000250 51 88 91 be e3 1c af be 59 54 22 bf f8 25 11 bf
       -0.28424314 -0.34201726 -0.63409954 -0.5669856
000260 fa 8f f6 bd d3 cc ed 3e a4 40 d5 3e 58 4b 0c bf
       -0.1203918 0.4644533 0.4165088 -0.54802465
000270 7d 8d af 3e ef 43 12 bf 9a f3 ac bd 0f 6b af be
       0.34287634 -0.5713491 -0.08444901 -0.34261367
000280 fe e0 02 be 41 8a 13 be e6 10 0e bf 10 37 00 bf
       -0.1278114 -0.14408208 -0.55494535 -0.5008402
000290 e7 bb 31 be 22 22 fd bd 3b 84 aa be 37 4b 89 3e
       -0.17356835 -0.12360026 -0.3330401 0.26815197
0002a0 14 b3 0d bf 5e 34 a2 3e 6f 74 ba 3e d4 0d a6 be
       -0.55351377 0.31680578 0.36416957 -0.32432425
0002b0 a6 3e 29 3f fb 41 59 3e 26 3f 1e bf f7 3b d0 3e
       0.6611122 0.21216576 -0.61815107 0.4067075
0002c0 e5 0a 24 bd 6a 05 8d be 61 9c 10 3f e9 ca ea be
       -0.040049452 -0.27543193 0.56488615 -0.45857933
0002d0 43 18 f7 3c e5 c9 9f be 9c 73 de 3e e2 fd 53 3d
       0.030162936 -0.3120872 0.43447578 0.051755793
0002e0 35 23 e5 3e d1 76 03 3e 90 26 39 be 98 05 1a be
       0.44753423 0.12838294 -0.18081117 -0.15041196
0002f0 12 84 0c bf e8 b8 97 3e ea 23 41 3f de 72 c8 3e
       -0.54889023 0.2963326 0.75445426 0.39150137
000300 fc c1 c7 be 0d 3c fc 3d fa b2 f2 be cf 31 db be
       -0.39015186 0.12316141 -0.47402173 -0.42811438
000310 23 72 9a be 38 27 ff 3d 0a 7d cc be e9 93 b9 bc
       -0.30165204 0.12458652 -0.39939147 -0.022653537
000320 ab bd 17 3c eb f2 ce 3e 45 a1 3d bf c9 51 82 be
       0.009261529 0.40419707 -0.740742 -0.25453022
000330 e2 ff c7 be d6 8a 01 3f d6 cb fb bd 93 06 31 3f
       -0.3906241 0.5060247 -0.12294738 0.69150656
000340 84 41 30 3e 36 f8 3f 3d 58 4a 09 bd 91 5a 14 be
       0.17212492 0.04686757 -0.033518165 -0.14487673
000350 7c cd 6a 3d 0a 4c 20 be 76 57 86 bc 93 6e 4e 3d
       0.05732487 -0.15654007 -0.016399126 0.05039842
000360 91 97 f7 be 39 2d d5 be 76 45 00 3f dc 4d 28 bf
       -0.48357823 -0.41636065 0.5010599 -0.65743804
000370 e8 3e 1e be 45 d8 0a 3f 06 2d 3b 3e 77 85 1f 3e
       -0.15453684 0.5423625 0.18278894 0.15578257
000380 ca a9 0d bf 18 20 c1 3e 5c 2f f6 be a0 95 28 be
       -0.553372 0.37719798 -0.48083007 -0.16463327
000390 4d 5e 93 be 10 de e9 bd 89 46 96 3d bb 06 04 3f
       -0.28782883 -0.11419308 0.07337672 0.5157277
0003a0 e8 df c8 3e fe c3 df 3e 48 17 d8 3e f7 3c d7 be
       0.39233327 0.43704218 0.42205262 -0.420387
0003b0 17 eb 8b 3e 03 54 0a bf 5c c8 46 be c0 13 60 3e
       0.27327797 -0.5403444 -0.19412369 0.21882534
0003c0 ac 4f 91 3e 05 f0 bc 3e b6 c8 02 be 19 ff 1f 3e
       0.28381097 0.3690187 -0.12771878 0.15624656
0003d0 e8 21 e3 3e a3 ae 0c bf 50 51 f4 3e 43 5c 0c bf
       0.44361806 -0.54953974 0.47718287 -0.5482828
0003e0 e2 ef 8c 3d aa 69 e1 bc 7f 98 b3 be 23 de 5f 3d
       0.068816915 -0.027516205 -0.35077283 0.054655205
0003f0 6b 8c 1e 3f ca 35 a9 be 5a aa 6e be 7e 4b 8c be
       0.6193301 -0.3304885 -0.23307171 -0.27401346

l1.bias f4 [150]
000000 0a 20 eb 3e b8 7a d5 3e 2b 63 27 3f 4f d1 dc 3e
       0.4592288 0.4169519 0.65385693 0.4312844
000010 df a5 01 bf ba 4c 03 3f 3a e7 d7 3d c3 24 a4 3e
       -0.50643724 0.5128895 0.1054215 0.32059297
000020 13 df e8 be 7b 7c cc bd de 53 16 bf 34 2d ae be
       -0.45482692 -0.0998468 -0.5872172 -0.34018862
000030 81 6c 6a 3e df 25 15 bf 84 65 3d 3e cb c3 d6 3e
       0.22892953 -0.5826091 0.18495756 0.41946253
000040 da f6 1c 3c e3 a0 e1 be cc 47 03 bf e7 19 58 be
       0.009580338 -0.4406806 -0.5128143 -0.21103631
000050 14 e6 9b 3e 57 51 2a 3f cf 1d bb 3e c6 9f 2e be
       0.30448973 0.66530365 0.3654618 -0.17053136
000060 c7 c8 27 3e 98 ab 43 bf 26 61 0a bf 96 c1 ae 3e
       0.16385184 -0.76433706 -0.54054487 0.3413207
000070 09 c3 bb be 77 7b 92 3e de 70 e1 be 4a 00 ad be
       -0.36672238 0.2860982 -0.44031423 -0.33789283
000080 dc 6b dd be c2 0f c1 3e 80 b3 18 be 1d cc e2 3e
       -0.43246353 0.37707335 -0.14912224 0.4429635
000090 e7 19 e4 3e d1 2f bd 3e 03 a1 7b bd 0c b9 8c be
       0.44551012 0.36950544 -0.06143285 -0.2748493
0000a0 74 ce 44 be 20 90 71 ba fb e2 b1 3e 94 77 00 bf
       -0.1921938 -0.00092148967 0.34743485 -0.5018246
0000b0 6b 7b 06 3f 5a cb 80 bc 41 95 d1 be 87 88 b3 be
       0.5253207 -0.015721966 -0.40934184 -0.350651
0000c0 18 aa 3b 3f 6f d9 fb 3e 1f a3 0c bf 38 eb da 3e
       0.7330642 0.49189326 -0.54936403 0.42757583
0000d0 91 13 87 3e c9 50 ce 3e f4 87 0d 3f af 89 a6 be
       0.26382115 0.4029601 0.55285573 -0.3252692
0000e0 2f 60 96 3e 74 43 9b 3e 78 36 39 be 9c ab 2e 3e
       0.29370257 0.303249 -0.18087184 0.17057651
0000f0 de 63 18 be 02 ee d0 3e 82 e7 79 be 33 30 a5 be
       -0.14881846 0.40806586 -0.2440472 -0.32263336
000100 2e 54 0e 3c 17 aa 9a 3e cd 50 a7 be 0a b9 05 bd
       0.008687062 0.30207893 -0.32678834 -0.03264717
000110 d2 b5 d0 3e a9 a5 31 bd 4f 62 5c 3e ea c6 4d be
       0.40763718 -0.043370876 0.21521877 -0.20095411
000120 97 94 db 3d dc 20 fc be 14 c3 92 be 0c c7 c4 be
       0.10721701 -0.4924382 -0.28664458 -0.3843311
000130 c3 80 11 3f bb ae c0 be b4 70 be 3c 35 f4 c4 be
       0.568371 -0.3763331 0.0232471 -0.38467565
000140 25 10 28 3f 15 be 08 3f bc 53 fc be 9e ca 05 bf
       0.65649635 0.5341504 -0.49282634 -0.52262294
000150 20 da 1a bf 2a 91 8a bd 8d 02 56 bd 62 ac 9c be
       -0.6048908 -0.06765969 -0.052248526 -0.30600268
000160 07 20 90 be 30 18 a2 3d 7b 29 da be bb fe 05 3e
       -0.28149435 0.0791477 -0.42609772 0.13085453
000170 9a e2 48 be ce 7c 73 be f4 b4 38 3e 81 44 fc 3e
       -0.19617692 -0.23778078 0.18037778 0.49271014
000180 c3 44 e2 be 37 c4 6f 3d fa d1 71 be 5f bd 2a 3f
       -0.44193086 0.058536734 -0.23615256 0.6669521
000190 e6 8d 15 bf e0 8c 2c bf 35 70 19 3f d5 ca d6 be
       -0.58419645 -0.6740246 0.5993684 -0.41951624
0001a0 fc 98 2a 3e 54 00 db bd 0a 54 66 be 7c 6b 4a be
       0.16659921 -0.10693422 -0.22492996 -0.19767565
0001b0 ed 0d d6 3e e8 09 73 3d 98 3d 16 bf 3b d3 f1 be
       0.418075 0.05933562 -0.58687735 -0.4723147
0001c0 3d 97 a8 be 42 50 c2 3e 73 6f 85 be d3 5e 1b 3f
       -0.32927886 0.37951857 -0.26061592 0.60691565
0001d0 d9 69 be bd 0a e0 2a be 7e 01 1b 3f 63 aa 96 3e
       -0.092975326 -0.16687027 0.6054915 0.2942687
0001e0 f5 50 09 3f 2b e9 fb 3e d0 85 b4 be bf 52 c1 be
       0.53639156 0.4920133 -0.3525834 -0.37758443
0001f0 5e f3 40 be 31 b0 15 3f 14 ef b3 bd 9f 62 10 bf
       -0.18842837 0.5847197 -0.08785835 -0.56400484
000200 9d d5 41 3e 5b 13 1c 3f d3 a4 28 be a8 33 03 bf
       0.18929143 0.60967034 -0.16469125 -0.51250696
000210 17 81 2d bf 4b 35 36 3e d2 66 3f 3d 4a d0 da be
       -0.677751 0.17793767 0.046728916 -0.42737037
000220 0b f7 55 3e 88 0f 91 3e a6 33 0b 3f 1e b7 ed 3e
       0.2089502 0.28332162 0.54375684 0.4642877
000230 33 44 16 be 5d a2 da be e5 9c 19 bf e0 c8 0f 3f
       -0.14674453 -0.42701998 -0.6000503 0.56165886
000240 28 06 c0 3e da 78 af 3e e0 c1 f3 be 4a 07 3b 3f
       0.37504697 0.3427189 -0.47608852 0.73058
000250 40 2b 2a 3f b2 0e 07 3f
       0.66472244 0.527568

l2.weight f4 [150, 150]
000000 7e f6 23 bd 1d 25 5c bc b4 41 89 3c 91 29 39 3e
       -0.040029995 -0.013436583 0.016754963 0.18082263
000010 8c 63 69 bd 83 39 df bc df 43 7b bb a5 15 23 bd
       -0.0569797 -0.027249103 -0.0038340015 -0.039815564
000020 00 e0 8a bd 59 1e 7f bd d6 5b 01 bc 10 53 84 bd
       -0.06781006 -0.0622848 -0.007895431 -0.064611554
000030 68 46 8d 3d 43 96 9b bd 11 88 e4 3c 51 9b cf 3d
       0.068981946 -0.075970195 0.027896913 0.10137046
000040 2a df 5d 3c 9f 76 aa 3d 7e f5 e8 3d b5 b9 bb bc
       0.013541976 0.083234064 0.11374949 -0.0229157
000050 fd 42 14 3d 6f c5 2c 3e 43 bf b5 3c ee 43 a9 bc
       0.036196698 0.1687219 0.022185927 -0.020662274
000060 e1 54 fb ba da 4f c6 bd e4 b1 90 3d 01 3b 85 3d
       -0.0019175076 -0.09683199 0.0706518 0.06505395
000070 b4 b5 f9 bd a5 c7 a4 bc 62 76 be 3d 89 e7 a9 bc
       -0.1219286 -0.02011473 0.092999235 -0.020740287
000080 89 ca ed 3c 5e 62 2f 3d 90 07 0f 3d 7e b2 5f bd
       0.02902724 0.04281842 0.03491932 -0.054613583
000090 ec 51 60 3c 3a 50 b9 bd 0a 6d 36 3a a2 04 02 bd
       0.013691407 -0.09048505 0.0006958997 -0.0317427
0000a0 9d 15 e0 bc 33 0d d1 3c 2c 87 f5 bb 17 7e e6 bd
       -0.027354056 0.02551899 -0.0074929204 -0.112545185
0000b0 f6 60 0e bd ad d1 21 3d bf 85 13 bd e5 c2 3c 3d
       -0.034760438 0.039506603 -0.036016222 0.046084303
0000c0 26 df bc bc e2 8a 14 bc 57 2e 1c bc 8e 22 f4 3c
       -0.023055624 -0.009066315 -0.009532533 0.029801633
0000d0 a2 bf 34 3e 9c b4 ae bd 6b af f5 bd e7 c7 92 bd
       0.17651227 -0.08530542 -0.11996349 -0.071670346
0000e0 f3 38 1c bb 7c f3 e0 3d 47 ac ef bd 77 d6 f4 3c
       -0.0023837655 0.10983941 -0.11702781 0.029887421
0000f0 11 82 f9 bc e8 b3 e2 3c b1 78 83 3d 52 ce f2 bb
       -0.030457528 0.027673677 0.064195044 -0.007409849
000100 48 da 1a bb 57 91 a0 3d 49 ee e9 bd 0f 79 d1 3d
       -0.002362864 0.078402214 -0.114224024 0.10228168
000110 50 c5 70 bd 9b a2 03 3e 0b 5a cc bc 4f 96 e4 bd
       -0.058781922 0.12854998 -0.02494528 -0.111614816
000120 6a 15 3d bd 29 b3 5c bd 4f d9 36 3d 53 00 c1 3c
       -0.046163 -0.053881798 0.044640835 0.023559725
000130 90 77 58 3d a8 01 18 3d ef dd a0 3d a6 97 0c be
       0.0528484 0.037110955 0.078548305 -0.13729724
000140 a5 0f 26 3e a5 98 f7 bc b4 b5 ee 3b 8e 71 ab bd
       0.16216905 -0.030224154 0.0072848443 -0.08371268
000150 e2 e0 b5 bb 14 fb 57 3c 2d a2 3f bd a1 78 06 bd
       -0.0055504898 0.01318242 -0.046785522 -0.032829884
000160 49 86 af 3c 34 df 97 3d b1 f3 2b 3d 1c 53 1a bd
       0.021426337 0.074156195 0.04198045 -0.037676916
000170 1f 7e c9 3d 80 2b ab 3d 0e 81 12 bd ce a7 d2 bc
       0.09838509 0.08357906 -0.035767607 -0.025714781
000180 87 3c 63 3d a8 93 6c 3b 9d e7 df bc 60 45 4e bd
       0.055477645 0.0036098752 -0.027332122 -0.05035913
000190 b0 ca 2d bd 79 cd f3 38 ac 8c da bc c6 a0 2d bd
       -0.042429626 0.00011625415 -0.026678406 -0.042389654
0001a0 f7 91 23 bd 72 55 65 3d 95 af 66 3d 9c d1 aa 3d
       -0.039934125 0.05598969 0.05631979 0.08340761
0001b0 54 d1 98 bc ad 22 99 3d 66 44 bd bd a4 33 1b 3b
       -0.018654503 0.07477317 -0.092415616 0.0023681903
0001c0 98 1e b8 bb 1a e3 45 3d 96 69 bd 3d ee 52 80 bc
       -0.0056188814 0.048312284 0.092486545 -0.015664544
0001d0 d0 d7 2b bd 94 ee 8a 3d 01 22 05 3e d4 2a df 3d
       -0.04195386 0.067837864 0.13001253 0.10896841
0001e0 35 7c 70 bc 7d c8 8f bd 1f 5a 13 bd 46 1b c2 bd
       -0.014678051 -0.07020662 -0.035974618 -0.09477858
0001f0 5a 82 4a bd 55 30 8f 3d 52 40 d5 3d ba d4 e1 bd
       -0.04944072 0.069916405 0.10412659 -0.110269025
000200 03 3a ba 3d ee 39 0e bd 4b 55 d3 bc 47 e2 9b bc
       0.09093096 -0.034723215 -0.025797507 -0.019028796
000210 94 c9 89 bd 53 fe 93 3d 8d d2 a7 bd fe eb a0 bc
       -0.06727901 0.07226243 -0.08194456 -0.01964378
000220 11 c7 ec bc d7 c6 38 bd b3 ff 3a bd 9e f2 5d bd
       -0.028903516 -0.045111503 -0.04565401 -0.054186456
000230 fd 16 66 bd 52 c3 92 3c f2 cd e3 3c 8f fd e0 3b
       -0.056174267 0.017915402 0.027808163 0.006866164
000240 1f b3 15 3e 79 ba 54 3d 11 89 c8 3c 16 bc ed 3a
       0.1461911 0.051935647 0.02447942 0.0018137719
000250 b9 46 84 bd d6 38 c5 3c 87 1d e3 bd 33 13 31 bd
       -0.06458802 0.024074953 -0.11089616 -0.0432312
000260 81 51 e7 3d 4a 9c bf 3d 89 c4 8a bd e6 92 55 3d
       0.112948425 0.09355982 -0.06775767 0.052142046
000270 c0 27 48 bd 33 bb ee 3d 10 90 8c 3b 2c 9a c2 bd
       -0.048866034 0.11656799 0.0042896345 -0.09502062
000280 27 2d cf bc fa d6 48 3c cd c9 ed bd 77 a7 e4 3d
       -0.025290085 0.012258286 -0.11610756 0.11164754
000290 1d f9 ad 3c 64 9c c2 bd 74 18 13 3c 61 41 bb 3c
       0.02123695 -0.095024854 0.008977998 0.022858324
0002a0 6d 25 f9 bd 57 d8 84 bd 35 10 25 bc 64 ec e9 bc
       -0.121653415 -0.06486576 -0.010074665 -0.028555103
0002b0 e1 d1 97 3d ed 16 a2 3d 4d 8e 76 3d a4 b3 6c bc
       0.07413078 0.07914529 0.060194302 -0.014447127
0002c0 62 09 6c 3d 0a 55 db bd 1a 22 c3 3d 35 b9 c5 bd
       0.057626136 -0.10709579 0.09527989 -0.09654466
0002d0 e6 ae b2 bd 0c 78 b8 3d 7c a7 01 bc aa 6f 17 bd
       -0.087247655 0.09007272 -0.007913467 -0.036971726
0002e0 db 09 a3 bd e6 1c 96 bc b1 63 97 bc 2a cd f4 bc
       -0.07960864 -0.018324327 -0.018480154 -0.029882986
0002f0 97 92 12 3d e5 4a 09 bc 00 97 83 3b eb 63 4a 3d
       0.03578433 -0.008379673 0.0040158033 0.049411695
000300 1e 93 dd 3d 67 f2 23 3c 6d 93 13 bd ad 72 8a bc
       0.10819076 0.010006524 -0.036029268 -0.016900385
000310 c8 e5 13 bd 05 a7 93 bc 43 14 87 bd cd 42 ca bc
       -0.03610781 -0.018023977 -0.065956615 -0.024690056
000320 1c e0 0f bd e0 32 ba bd d5 d9 a1 3d 0d 6a 6c bc
       -0.035125837 -0.09091735 0.07902876 -0.014429581
000330 70 bc 46 3d e3 c0 af 3d 67 73 b8 3d 59 9a b4 bd
       0.04851955 0.08581712 0.09006386 -0.08818502
000340 f2 2a d5 3c 11 19 e2 bc 89 24 a2 bb 9e 4f 3f bb
       0.026021454 -0.027599843 -0.004948203 -0.0029191743
000350 6f 7a f1 bb 6e 55 9d bd 78 db 8f bc bc fb 42 3c
       -0.0073693315 -0.0768231 -0.017560706 0.011900838
000360 55 88 92 bd 22 71 9f 3d d3 68 c1 3c 39 c3 49 3d
       -0.071549095 0.0778525 0.023609554 0.049258444
000370 fb 3a 8b 3d 65 3c 75 bd 60 3e 95 3d 81 42 10 3d
       0.06798359 -0.05987205 0.07287288 0.035219673
000380 b9 5e 11 bd ac b2 cc 3c 2d b8 12 ba 60 15 d2 bc
       -0.035490725 0.024987541 -0.00055969023 -0.025644958
000390 33 64 29 3d 9f 11 4a 3c 88 61 86 3d f9 fa 77 bd
       0.041355323 0.012333303 0.06561571 -0.06054208
0003a0 dd 93 22 bd 06 8f 9c bd e0 0a 36 bc a2 5e 70 3d
       -0.039691795 -0.07644467 -0.011110991 0.058684
0003b0 0f b5 04 bb 30 13 03 bd 3e 9e 59 bb e0 68 08 3d
       -0.002024952 -0.03200072 -0.0033205892 0.03330314
0003c0 5c 8d 7c bd 96 4a fc 3c b4 fb 10 3d 98 b3 0e 3c
       -0.06165825 0.030797284 0.035396293 0.008709811
0003d0 2b cb f0 3a 04 2d 65 3c 68 f7 bf bb 10 4e eb 3d
       0.0018371096 0.013987783 -0.0058583505 0.114894986
0003e0 66 83 45 3d 20 1c 9f 3d c4 ba 50 bd bf 15 79 3d
       0.048221014 0.07769036 -0.050959364 0.060811754
0003f0 07 0c b8 bc dd 65 af bd 4f e5 79 3d 39 4a d0 bd
       -0.022466673 -0.08564351 0.0610097 -0.10170407

l2.bias f4 [150]
000000 39 f2 fb 3d 26 51 ce 3c 1e e3 45 3d 0d 9a 9f 3c
       0.1230206 0.025185179 0.0483123 0.019482637
000010 e4 92 6d 3d 4b 8b 28 3c c3 af 4c 3d ff 64 dd bd
       0.058001414 0.010287116 0.049972307 -0.10810279
000020 f8 c8 c9 3d 7f 18 b1 bd 97 4c 83 3a f4 16 ce 3c
       0.09852785 -0.086472504 0.0010017332 0.02515743
000030 c3 2f 25 3e cc c0 a9 3d 60 60 4d bb 41 8a c4 3d
       0.16131501 0.08288726 -0.0031337962 0.09596682
000040 91 ed 42 3c ec be 6e 3d c6 74 2a be 0a 42 c6 bd
       0.011897461 0.058287546 -0.16646108 -0.09680565
000050 f6 2c be bd 3d 6b fe 3d cb d0 a5 3d fa 38 a5 bd
       -0.09285919 0.12422798 0.08096465 -0.08067508
000060 a4 80 87 3d aa cb 90 3d 5d 6b 11 3e ad e8 45 bc
       0.06616333 0.07070096 0.14201112 -0.0120794
000070 e5 85 15 bc 53 d7 af 3d e1 00 01 bd 5b 3f c7 39
       -0.009126161 0.08585992 -0.03149498 0.0003800344
000080 4a 3f 07 be f9 cb d3 bd da 06 ac bb 34 9b 37 3c
       -0.13207737 -0.10341639 -0.00524984 0.011206437
000090 a5 3b 94 bc 2f c1 86 3a 5e 68 2e bc 5b b6 e4 bc
       -0.018094847 0.0010280962 -0.010645 -0.027918985
0000a0 aa 30 a2 bc 74 05 09 3d d6 c0 b0 3d 50 fb 33 3c
       -0.019798595 0.033452466 0.086305305 0.010985211
0000b0 26 43 aa 3d 48 fe cd 3c 2b 69 e3 3c 00 40 50 bd
       0.08313589 0.025145665 0.027760109 -0.050842285
0000c0 89 23 90 3c bf ee 2e bd a8 5a 06 be 77 63 2f 3c
       0.01759507 -0.042708155 -0.1312052 0.010704867
0000d0 bb 94 78 3d 1b 44 4f 3d 0f 7d 9e bd c9 f4 dc 3c
       0.060688715 0.05060206 -0.07738697 0.026972191
0000e0 4a 51 f4 bd 44 f5 65 3c b4 5a 99 bd 1f 59 bd 3d
       -0.11929567 0.014035527 -0.074880034 0.09245514
0000f0 eb 43 98 3c 32 15 f2 3c b1 17 b6 3b aa d5 b3 bd
       0.018587073 0.029551122 0.0055570235 -0.087809876
000100 a2 28 8a bc 77 3c a9 3d cc 3d 2f bd c8 a7 e0 3d
       -0.016865078 0.08263486 -0.042783543 0.10969502
000110 9e b7 93 3d 11 b1 33 3d 98 cd 5e 3c 8a 94 cd 3c
       0.072127566 0.043870036 0.013598822 0.025095243
000120 67 eb f5 bd 18 39 67 bd eb 7f 3c bc 9d b2 08 bd
       -0.1200779 -0.056450933 -0.011505107 -0.033373464
000130 e8 f9 5e bd 0c f1 e7 bb d2 0e d8 3d 92 67 66 bd
       -0.054437548 -0.0070782956 0.10549702 -0.056251116
000140 b9 08 83 bc 6e 15 38 bd 22 d9 c8 bb 63 9d 83 bd
       -0.01599537 -0.044942312 -0.0061294 -0.064265035
000150 61 70 87 bd f9 b9 85 bd ee 0e cb 3b f9 86 5d 3d
       -0.066132315 -0.06529612 0.006196848 0.054083798
000160 82 c9 57 3d e7 da 3f be 80 43 04 bd f6 3d bf bc
       0.052682407 -0.18735848 -0.032290936 -0.023344975
000170 d2 26 02 bc ea 42 b4 bc ec 6e 38 be 08 93 db bd
       -0.007943826 -0.022004563 -0.18011063 -0.10721403
000180 47 e6 d3 3d 06 4a 15 be 99 cd 31 3e e9 4b 4d be
       0.10346656 -0.14579019 0.17363586 -0.20048489
000190 68 fb 36 bd c0 e9 2e 3c 09 68 08 bd 98 96 be 3d
       -0.044673353 0.0106758475 -0.03330234 0.09306067
0001a0 d4 44 5e 3c d8 0c 97 3c 68 8e 14 3e a2 ef 5e 3d
       0.013566215 0.018438742 0.14507449 0.05442775
0001b0 a6 11 cc bd f3 16 b6 bd d7 e1 ac 3d 3c 79 84 bd
       -0.09964304 -0.08891096 0.08441513 -0.06468436
0001c0 2d dd 1c bd 39 57 29 be f1 94 8b bd b0 99 cd 3d
       -0.038296867 -0.16537179 -0.06815518 0.10039079
0001d0 91 e9 e5 bc 28 1e b6 bc 26 a3 9b 3c fa d9 92 3d
       -0.028065475 -0.022231176 0.018998694 0.07170482
0001e0 d9 56 ef bd 04 00 04 3e 84 e2 11 be c3 e2 fe 3d
       -0.11686487 0.12890631 -0.14246565 0.12445595
0001f0 57 b9 f1 bd 71 01 91 bc b7 5b 1c 3e 9f 85 80 bc
       -0.11802929 -0.017700883 0.15269361 -0.015688716
000200 e0 c6 8d 3d e2 ce 74 bd 14 47 9a bd ae dc 49 3d
       0.06922698 -0.05976761 -0.07533088 0.049282722
000210 ec 15 aa 3d 82 58 2c 3e 5c 6d 06 be 64 e9 57 3c
       0.083049625 0.16830638 -0.13127655 0.013178203
000220 15 49 35 3d af 30 ec 3b b5 01 18 bd f6 5c ad bd
       0.04425915 0.007207952 -0.037111003 -0.084649965
000230 26 25 9e 3b 7c 14 c2 3c a8 15 34 3d 27 f5 11 be
       0.004826206 0.023691408 0.043965966 -0.14253674
000240 f2 6c d9 bd d4 80 8f bb 94 4a a2 3d f6 ad 90 3d
       -0.10616483 -0.004379371 0.07924381 0.070644304
000250 5a a3 25 3d c5 c4 17 3e
       0.040438987 0.14821155

alpha_head.weight f4 [1, 150]
000000 7d a9 19 bd 7d 0f 74 3e 13 ca c1 be 5f 9e 23 3e
       -0.037515152 0.23834033 -0.37849483 0.15978383
000010 b6 26 2b be 48 d2 d2 bd fd c6 8e 3e 8f 7b 32 3e
       -0.16713986 -0.10294014 0.2788619 0.17429946
000020 ad 5a 15 3e 94 c0 5f be 37 b5 1f 3e 0b 09 75 be
       0.14585371 -0.21850806 0.15596472 -0.23929231
000030 3d 3a 20 3e c6 0e 2d 3e 56 d4 3d 3e 1d 91 3c 3e
       0.15647216 0.16900167 0.18538031 0.18414731
000040 57 ba 06 be 97 fb a8 3e 5d b1 c5 bd 94 f3 29 be
       -0.1315702 0.33004448 -0.0965297 -0.16596824
000050 23 e1 07 3e 56 c7 0a be 1a 12 aa be ac f6 21 bd
       0.13269477 -0.13552603 -0.33216935 -0.039541885
000060 38 2f 83 be f0 e0 0e 3e e0 c5 84 bd 5b 61 fe 3c
       -0.25621963 0.13952994 -0.06483054 0.031052282
000070 fd 35 9d 3e d3 a2 3d 3e c8 94 33 3e 60 91 f1 3d
       0.30705252 0.18519144 0.17537224 0.11795306
000080 90 81 df 3c cb bb 6e 3e e1 be 32 3e fd 3b 27 be
       0.02728346 0.23313825 0.17455627 -0.16331477
000090 06 21 35 3e c9 b5 8d 3e 68 be 3c be 56 0f c1 ba
       0.17688379 0.27677754 -0.18432009 -0.0014729302
0000a0 04 ec fb bd 67 45 b2 3e 67 19 51 3e a0 fe 0a be
       -0.12300876 0.34818575 0.20419846 -0.13573694
0000b0 0d 7e 30 be f0 41 29 3e f0 94 1c be 7f 10 be 3e
       -0.17235585 0.1652906 -0.1529119 0.3712196
0000c0 9a fc 0f be e7 f8 b0 be ad 49 0a 3e 3c 1e c4 3d
       -0.14061204 -0.34564897 0.13504668 0.09576079
0000d0 50 a9 b1 bd 60 80 25 3e 11 7d f0 b9 8a 14 ab 3d
       -0.08674872 0.16162252 -0.0004586955 0.08353527
0000e0 b3 3f d9 3d 18 2c 6a 3e 0d c1 36 be 80 11 09 3e
       0.10607853 0.22868383 -0.1784708 0.13385582
0000f0 79 f2 2b 3e a1 25 95 be b2 d9 e9 bc f8 78 e3 bd
       0.16791715 -0.2913027 -0.028546188 -0.11107057
000100 16 f8 a9 be ea d6 83 bd e5 63 64 3e 78 47 3b be
       -0.33197087 -0.06437476 0.22303732 -0.18288982
000110 38 eb 3c be db 5f 16 3e b3 c0 30 bc 84 a4 7f be
       -0.18449104 0.14685003 -0.010788131 -0.24965101
000120 bf 5b cd 3d 8e 41 fd 3c 2e 6f a3 3e 30 b1 e9 bd
       0.10027265 0.030915048 0.3192076 -0.11410749
000130 98 61 94 3e 93 2c 37 3e eb 0c 1e 3d 5a 31 37 be
       0.28980708 0.17888097 0.03858654 -0.1788992
000140 65 d8 24 be 1f 09 10 bd 91 09 35 3e 8a d9 d4 3d
       -0.16098173 -0.03516495 0.1767943 0.10393055
000150 69 24 a8 3e 31 c4 ce bd b9 88 fc 3d ec bf 3c 3e
       0.3284028 -0.10096014 0.12330765 0.18432587
000160 53 69 b3 bc 8f e3 90 3d 3b cc 8a 3d 58 45 c3 bd
       -0.021900808 0.07074653 0.06777235 -0.09534711
000170 0d 19 18 3e f4 02 9d bd 4b 33 9d bd 6b b1 ec bd
       0.14853306 -0.07666579 -0.07675799 -0.11557277
000180 4d 9f 0e 3e 45 01 6c bc 97 a8 b4 3d e3 be 01 be
       0.13927956 -0.0144046 0.088212185 -0.12670474
000190 57 e5 72 be d2 b0 75 3e 0b 42 00 be 5c 77 d4 3d
       -0.23720299 0.23993233 -0.12525193 0.103743285
0001a0 25 52 92 3d 73 e0 6d 3e 29 a8 78 bd 9e 17 d1 be
       0.07144574 0.23230152 -0.060707245 -0.4083833
0001b0 11 1f 84 3d 8c bd 3a be 56 05 60 3e 62 67 92 be
       0.06451238 -0.18236369 0.21877035 -0.285945
0001c0 88 d0 21 3d 88 ef 66 be 8f 66 11 3c 10 ec 68 bd
       0.03950551 -0.22552311 0.0088745495 -0.05686575
0001d0 bb 22 2d be 20 ab 6a 3e 8c 29 11 be 7b 63 53 be
       -0.1690778 0.22916842 -0.14176005 -0.20643418
0001e0 1e 4a d7 bd 71 51 45 3e 6f 6d b5 3d 91 c7 d9 3d
       -0.105121836 0.19269349 0.088587634 0.106337674
0001f0 a5 d9 2f be 6f 83 30 be a6 09 96 3d db 07 88 3e
       -0.17172869 -0.17237638 0.07326059 0.26568493
000200 c4 1a 02 bd 73 36 7e be 4b cd 15 be 7e 9b 8e be
       -0.031763807 -0.24825458 -0.14629094 -0.27853006
000210 a8 58 3b 3e 01 4a 8e 3d c7 c9 70 3e db 44 4c be
       0.18295538 0.06947709 0.23514472 -0.19948141
000220 b8 e5 07 3e 96 04 97 3e 1d 28 44 be ce a1 18 be
       0.13271224 0.29495686 -0.19155927 -0.14905474
000230 0b c2 2d 3e c4 ba b8 be 25 38 73 3e a1 ec 59 3d
       0.16968553 -0.3607999 0.23751886 0.053204183
000240 69 e3 40 3e 1a 39 0e be b9 c6 01 3e bd a6 41 be
       0.1883675 -0.1388897 0.12673463 -0.18911262
000250 17 27 64 3e dc fc af 3d
       0.22280537 0.08593151

beta_head.weight f4 [1, 150]
000000 52 f0 f1 3d 6f b6 88 bd ce f6 bd 3e a5 1b 3f be
       0.118134156 -0.066754214 0.3710236 -0.1866289
000010 c8 92 09 3e 65 eb 63 3d 75 71 a8 be ab 08 66 be
       0.13434899 0.05564441 -0.3289906 -0.22464244
000020 36 49 d3 bd 4e bd 17 3e f2 92 83 be 5d 48 7d 3e
       -0.10316698 0.14818308 -0.25698048 0.24734636
000030 9a 38 52 be 8d 6a 99 3c 97 8b 52 bc 42 dc 26 bd
       -0.20529404 0.018727565 -0.012850664 -0.040737398
000040 af 87 3e 3e c0 c5 c1 be f2 f7 c7 bd ef 0d f6 3d
       0.18606447 -0.37846184 -0.09764089 0.12014376
000050 a5 c9 01 be 0f c3 3c 3e 56 62 a3 3e 14 57 01 be
       -0.12674578 0.18433784 0.31910962 -0.12630874
000060 ca e0 2c 3e 51 99 94 3d 60 89 21 3e 6d fd 3e be
       0.16882625 0.07255805 0.1577506 -0.18651362
000070 a6 6c 69 be 79 2d 4d bd 3f ae 49 be e1 bc 85 bd
       -0.22795352 -0.050092194 -0.19695376 -0.065301664
000080 0f d4 46 be 69 98 1c be e1 5a 81 3c 31 05 40 3d
       -0.19416831 -0.15292515 0.015790405 0.04687995
000090 19 18 55 be 50 29 16 be 61 79 7c 3d f2 b0 da bd
       -0.20809974 -0.14664197 0.061639193 -0.10678281
0000a0 5c f6 ce 3d 80 50 a9 be 4f bb c4 3a 76 2b 49 3d
       0.10105583 -0.3306923 0.0015009436 0.049113713
0000b0 a4 5d 26 3e b7 40 54 3d 5b a3 55 3e 90 7f ba be
       0.16246659 0.05181953 0.20863096 -0.36425447
0000c0 db 14 31 3e 1f 81 ad 3e be 2a 07 be f8 4d 28 be
       0.17293112 0.33887574 -0.13199899 -0.16435993
0000d0 7a dd 2f 3e 2f c9 32 be 39 39 97 bd 6d cf 13 be
       0.1717433 -0.17459558 -0.07383961 -0.14434595
0000e0 a1 a5 7c bd 2a 15 60 be e6 20 8e 3c f9 11 c8 bc
       -0.061681394 -0.21883073 0.017349672 -0.024422633
0000f0 9b c2 14 be 47 96 1c 3e e2 58 05 3e 85 8d 57 3e
       -0.14527361 0.15291701 0.13022187 0.21050079
000100 10 94 72 3e 09 f2 00 3e 11 4e fa bd 61 34 3e 3e
       0.23689294 0.12592329 -0.12221921 0.18574668
000110 e1 c2 89 3e 30 66 11 be d4 20 e9 3d c6 c3 ea 3d
       0.26906493 -0.14199138 0.113832146 0.11463122
000120 0d c2 fc bd c6 99 c9 bd 77 25 4b be 9a c1 9b 3c
       -0.123417 -0.09843783 -0.1983851 0.019013215
000130 22 e7 95 be 6f 81 24 be 9c 92 e9 3d 6d b5 34 bc
       -0.29277903 -0.16065 0.11404917 -0.011029583
000140 fd b3 9f 3d ef 6b 76 3d 23 65 d4 bd c5 00 54 be
       0.07798002 0.060161527 -0.10370853 -0.20703419
000150 b5 d1 d0 be 10 52 f5 3d aa 80 71 be f0 a2 4e bd
       -0.40784994 0.11978543 -0.23584238 -0.050448358
000160 09 3c 17 3e 80 c0 f2 bd a4 6e e9 bd a5 50 05 3e
       0.14768995 -0.11853123 -0.11398056 0.13019045
000170 8a 7c 11 be 2d 2b 99 bc 23 61 bb bd 34 1d b1 bd
       -0.14207664 -0.018697346 -0.09149387 -0.08648148
000180 ed 13 b8 3d 04 91 f4 bd fa c1 c8 3d 1e e4 db bd
       0.089881755 -0.11941722 0.09802623 -0.10736869
000190 9e f2 8b 3e 80 2d 88 be 2c 10 cd bb 79 d4 f1 3d
       0.2733354 -0.26597214 -0.0062580314 0.11808104
0001a0 2c 2d e8 bd b8 56 ed bd 9d 7a 13 3e 00 63 ba 3e
       -0.11336741 -0.11588806 0.14402242 0.36403656
0001b0 04 d9 1f be ec 72 81 3c 15 7e cd bd 11 d9 57 3e
       -0.15610129 0.01580187 -0.10033814 0.21078898
0001c0 7e 60 ee bd 75 b4 1d 3e 1f 00 0e be 5f 2a 1a 3e
       -0.11639498 0.1540087 -0.13867234 0.15055226
0001d0 04 f5 28 3e 5d 4c 23 be f9 f2 c6 3d fc 74 85 3e
       0.16499716 -0.15947099 0.09714312 0.26065814
0001e0 19 66 e0 bd 88 fa da bc b3 d3 0b be d1 ae ce 3d
       -0.109569736 -0.02673079 -0.13654976 0.10091937
0001f0 bf c5 0a bc 30 01 4c 3e c5 0b e0 3d b9 56 1d be
       -0.008469998 0.19922328 0.10939745 -0.15365113
000200 ff e2 5a 3e df 74 88 3d c7 b5 b4 3d 18 e1 9f 3e
       0.21375655 0.066629164 0.08823734 0.3122642
000210 72 c3 49 bc 7e 9b fe 3d bc 0f aa be f2 77 b4 3d
       -0.012314664 0.124320015 -0.3321513 0.0881194
000220 64 3a 8b 3d e1 30 8c be dc 84 fc 3d b1 e1 b0 3d
       0.067982465 -0.27381042 0.123300284 0.08636797
000230 3a 8d 9f bd 4a 4c 86 3e 01 b9 d1 be 6a 64 3e be
       -0.07790609 0.2623008 -0.4096146 -0.18592992
000240 75 8d 91 bd 16 65 8d 3e cc 72 88 bd 18 b7 64 3e
       -0.07107059 0.27616185 -0.06662521 0.2233547
000250 51 84 39 be 4a 85 e7 3d
       -0.18116881 0.1130472
