2.3 Prioritized-Experience-Replay-DDQN-DQN/PriorDQN_gym0.1x/model/DDQN_LLdV2_50.pth (torch, 278855 bytes, 6 tensors)

Q.0.weight f4 [256, 8]
00000000: 0184 c2ba dc68 19bf 323c 66bd b98e 043e
00000010: cba6 493e 5987 f13e b9c4 fabe b280 00be
00000020: 362a 043e 12c5 32bd cd32 003e e791 b93d
00000030: a137 5abe 6dd8 2c3f 953e 0f3e 4880 0a3e
00000040: d58b 7bbd b412 9cbe 462d 3cbe 2f34 543e
00000050: 3d97 efbe 1629 9c3e de0e f63d ad37 d83e
00000060: ba18 5f3e a3b4 2b3e 2bd3 41be c64f 7b3a
00000070: d9b6 153e 98b3 3abf 45c5 14bf ce77 81be
00000080: c3cb 7f3e 49c2 e33e 39f4 46bd c293 6fbd
00000090: 2a28 903e b60c 2b3e 9465 a0bd 70eb 64bf
000000a0: 4c9f e4be 9cec abbe 70c6 ab3e 21db 523d
000000b0: 29d9 e43d 2b02 fa3e d1a7 ae3e 328f 723e
000000c0: ab23 933e f5a0 183e 84ae 7e3e eaee a03e
000000d0: 07b5 a83e de79 cd3e cf14 84be a181 2e3d
000000e0: 27c0 0cbf 7156 253c 6cdb 883c 686e 573f
000000f0: 0c62 0c3e a73c 2cbf 9229 473e f33f 4b3f
00000100: 479a 593e 9893 0b3d ec8a 863e 99e7 f9be
00000110: 5f3b f7be cd38 253e 411f 26bf c760 ca3e
00000120: bc3d 14bf 1f46 dcbb cd48 30be e407 513f
00000130: 6adf 1fbf 94aa 063d 723c c0bd 201f b3be
00000140: 1f12 1d3f 521d 573e ba49 31bf 233e 273e
00000150: e5bf dd3e 929b 983d 730b 88bd 551a aebd
00000160: 13be 14bf 05d7 4fbe 1715 1cbe cd99 80be
00000170: 2f0d fa3e f205 1d3d d035 883e 7a6a d93c
00000180: a633 7abe f49e f8be f17a d6be 5ecf 00bf
00000190: 1797 fd3d 4a17 92be ec82 03bf 9a25 ad3d
000001a0: 649e 193f ee9f 593e f222 223f 4bbc 0a3f
000001b0: 4031 1fbf 413d 3ebf b3cf a33e 43fc c43d
000001c0: 4ccb c0be b699 debd 7e0c 86be 2397 5dbc
000001d0: 9e6a 85bd 46df 183f ebd6 483e 2dd1 b03e
000001e0: 97d0 603e 01de 573e 2bfe a7be f585 073f
000001f0: 3573 e43e 9de6 20bc 7c16 6c3e c518 1b3f
00000200: 506b f2bd 78ea dcbe 1ba6 1abf 14ec bbbd
00000210: 3e81 7ebe 30da e8be 9e72 b13e 6315 833e
00000220: 0877 32bb a8d2 83bd 26cb e53e 1de4 00bf
00000230: bdc6 18bf 1afa e7be ad7f d53e 3606 043f
00000240: c799 793e 8a94 763e 0dd7 f8be 6373 e53e
00000250: ac65 2e3f 32ec 1fbe 3e9b 843e cb45 313d
00000260: 338c fbbe 8e2a 403e c688 3fbe de90 0dbf
00000270: cfee a6be ca6c 30be 31f8 be3e 5538 bf3d
00000280: c126 bcbe 12a3 3e3f 99dc 5b3e 1482 b2be
00000290: 4dda fd3d a197 f93d 3462 09bf b8c6 d0be
000002a0: 352b 1abf a5eb 81be ef51 b5be dfac 943d
000002b0: 2a8e 113f 6f4f 063e 1385 6ebc ec08 85bd
000002c0: 643f 2ebf 894a 203e b8a5 353f 464a 903c
000002d0: fa32 edbd 4f87 ecbe 1426 e73d fdd1 093f
000002e0: bb73 c3be 225e eebe 5131 ce3d e781 bc3d
000002f0: 2684 9e3e faef e63e cd18 1b3e 57c5 dcbe
00000300: ce2a a23e e9a4 f93d 26a8 62bd 1a22 dabe
00000310: 2d54 bd3e afb1 93be d960 30be 564f c83e
00000320: 177a d3be 7032 77be 2e2c 47be b142 14bf
00000330: 7c28 a8bd 39eb a33e c078 173e 706d e4be
00000340: 18e5 e13d 4d52 6b3d 0d69 23bf bdf6 96be
00000350: 4413 943e 357d 9fbe 7941 97be ca94 10be
00000360: 2502 423d 5028 543c 475d 4e3d 8ee8 a7bc
00000370: 6f9d c73d 3765 4abf 4f8e a43e d015 1e3f
00000380: 876e fabe 67b2 a6be bcf2 273f fefa e03e
00000390: e9de 093f 8b0f acbe f977 08bd 14d5 693e
000003a0: bb68 bf3d 0cdc a3bc 487b 3dbe 832d 32bc
000003b0: bf03 c8bd d913 f3bd 7978 33be 158c 2fbe
000003c0: e318 86be f0b8 c73e 2ef7 20be f71d e6be
000003d0: b1ca c33e acd3 513e a150 953e 595a 39bd
000003e0: b2c7 223d 6c03 56be e5af 47be a343 7dbe
000003f0: 30ec eb3e 0257 95be 28ad 24bf 2005 91be
-0.0014840366 -0.5992563 -0.05620975 0.1294507 0.19692533 0.47173575 -0.48978212 -0.12549093
0.12906727 -0.043644972 0.12519379 0.09061032 -0.21310283 0.6751774 0.13988717 0.13525498
-0.06141265 -0.3048302 -0.18376645 0.20723031 -0.46795073 0.30500096 0.120145544 0.42229977
0.21786776 0.16768126 -0.1892821 0.00095867773 0.14620532 -0.7293029 -0.5811351 -0.25286716
0.24980073 0.44484165 -0.048572753 -0.058490522 0.28155643 0.16704068 -0.078318745 -0.8942175
-0.44652784 -0.33578956 0.33549833 0.05147851 0.111742325 0.4882978 0.3411241 0.23687437
0.2873815 0.1490515 0.2487126 0.31432277 0.32950613 0.4013204 -0.25797126 0.042604093
-0.549807 0.01009141 0.016706191 0.8415284 0.13709277 -0.6728005 0.19449452 0.79394454
0.21250258 0.034076303 0.26277864 -0.48809507 -0.48287484 0.16134949 -0.6489144 0.3952696
-0.579067 -0.0067222263 -0.17215271 0.81652665 -0.6245028 0.03287752 -0.09386529 -0.34984684
0.61355776 0.21007279 -0.6925312 0.16332297 0.43310466 0.07451548 -0.06642809 -0.08501116
-0.5810253 -0.20296867 -0.1524242 -0.2511734 0.48838183 0.038335748 0.26603556 0.02654003
-0.24433765 -0.48558772 -0.41890672 -0.5031642 0.12382334 -0.28533393 -0.51371646 0.084544376
0.6000731 0.21252415 0.6333457 0.5419356 -0.62184525 -0.74312216 0.319944 0.096184276
-0.37655103 -0.10869162 -0.26181406 -0.013524803 -0.06514476 0.5971569 0.19613235 0.34534588
0.2195457 0.21080782 -0.32811102 0.5293878 0.44619146 -0.0098206075 0.23055452 0.6058467
-0.118368745 -0.43147635 -0.60409707 -0.09175888 -0.2485399 -0.45478964 0.34657758 0.25602254
-0.0027231593 -0.06436664 0.44881552 -0.50348073 -0.5967825 -0.45308 0.4169897 0.5157198
0.24375068 0.240801 -0.4860157 0.44814596 0.6812389 -0.15617445 0.2589969 0.04327945
-0.491304 0.18766233 -0.18704519 -0.55299175 -0.32604071 -0.17229 0.3729873 0.09336916
-0.36748317 0.74467576 0.2147087 -0.34864867 0.12395153 0.12187124 -0.5366547 -0.4077661
-0.6022218 -0.25375095 -0.35414073 0.07259535 0.5685755 0.13116239 -0.014558095 -0.06495842
-0.68065476 0.15653433 0.7095599 0.017613541 -0.11581989 -0.46196982 0.1128656 0.5383604
-0.38174233 -0.46556193 0.10068 0.092044644 0.30960196 0.45104963 0.1514618 -0.43119308
0.31673282 0.12189657 -0.05533614 -0.42604142 0.36978284 -0.288465 -0.17224444 0.3912303
-0.41304085 -0.24140334 -0.19450447 -0.57914263 -0.08210847 0.32015398 0.14792156 -0.44614744
0.11030024 0.057451535 -0.6383217 -0.2948512 0.28920949 -0.31150213 -0.2954214 -0.14119259
0.047365326 0.012949064 0.050381925 -0.020496633 0.09746825 -0.7906069 0.32139823 0.61752033
-0.4891245 -0.32557985 0.6560476 0.43941492 0.5385576 -0.33605608 -0.03331754 0.22835189
0.093461476 -0.020002387 -0.1850406 -0.010875109 -0.097663395 -0.1186902 -0.17526425 -0.17143281
-0.26190862 0.39008284 -0.15719292 -0.44944736 0.3824058 0.20490903 0.29163077 -0.045252178
0.039741226 -0.20899743 -0.19500692 -0.24732833 0.46078634 -0.29167944 -0.64326715 -0.28324223

Q.0.bias f4 [256]
00000000: 6eef 95be 4a83 713d 5a7a d13e 1cce 8dbe
00000010: 08d8 bebe 0534 e33e a43c 4abe 8e04 623e
00000020: 7283 03be d40c bbbd ed15 e03e 5a40 2e3e
00000030: d6f9 7ebb c0e2 5a3e 73ab 6ebe abab 143f
00000040: b563 673e 1cee 303f 44dd 6e3d 0708 d03e
00000050: c537 493d 4418 bf3e 8c58 b93e 6286 ce3e
00000060: c304 45be b933 083f 6088 463e 3717 973e
00000070: 8289 14be 2541 a4be adcd 073f 2d7e 413e
00000080: 2c5a 893e 1bb7 0e3e a568 a63e 157c 6abe
00000090: 97b3 2a3e c771 5d3c b411 053e ffa6 c53e
000000a0: 7f68 a63e fad2 6bbe f8f9 1ebe 01e9 7dbe
000000b0: b24f 82be e44b f23d 27d6 8e3e 49c7 e73d
000000c0: f7ee df3e a999 d43e 29d3 b93e f8d9 133d
000000d0: 41c8 e43e 3d11 963e 0cd6 b8bc 441f 763e
000000e0: 19a5 49be 7e06 a63d 46b1 bc3e ca55 e03e
000000f0: f60d 22be 0ceb cf3e bf63 22be ff31 213f
00000100: 3c62 bdbe 2ad6 0b3f 8ad4 85bd d728 00bf
00000110: 9e44 51be 2da5 c93e 16c0 04be d906 763e
00000120: 8cdd fa3d 4745 b6be e4fa 1abf 1338 c5bd
00000130: df73 983e 0fbe f13e e1bf 853e dadd 2fbe
00000140: d6b6 6b3e b6c9 263e 6643 f1bd 82b0 c33e
00000150: 8881 8fbe 9ba5 103f 9310 8e3e 73f5 2c3e
00000160: 7685 d2bd 80ed 45be aaa3 75be bb2c ad3e
00000170: 7ce2 b8bc c0bc c43e 0cdb 623e 70cd 0e3e
00000180: 52fb f53e b640 db3e e5f5 773e 23b0 033d
00000190: ae58 013f d996 dc3e 215c 8c3e 00f7 0f3f
000001a0: 20c0 13be 801b 9c3e 8f17 ecbe f6d6 ec3e
000001b0: bde0 f13d cf18 29be 2305 2f3e 4d5d 83bd
000001c0: b5de f93d 95e0 f63a 9cff 78bc bfb9 95bd
000001d0: 08d2 b13e da3b fe3d dd06 cf3e 9818 bf3e
000001e0: 1ff6 74be bc31 f7bd 5115 bc3e 6e23 f53d
000001f0: b601 dc3e b9fa 9fbd 82ed a23e 42e2 4e3d
00000200: 1dbd e6bd af1e 8d3e fbf5 c13b 52be f23e
00000210: 84af 9dbe 886f 26be 3fd9 243f 485b 0cbe
00000220: 903e 6bbe 0f4a c0be cbea cd3e ee38 c43d
00000230: 8242 0d3f 4cd6 97be a954 d2bc e1bb 853d
00000240: fd14 a73e 97cd f4bd 49cd 883e 4a11 b43d
00000250: c920 b4be 89cf 113e e677 a63d 323f 103d
00000260: e2cf 213e dd83 843e 4bec b9bd 5f0b 953e
00000270: f1b7 98be c1d0 393d 0393 5f3e 81e3 1a3c
00000280: c994 89be e097 fbbd 6a2b 733e 5688 bc3e
00000290: 7125 72be e07f 923e cdf4 01bf 1b6b 503e
000002a0: 3a49 3c3e 90a6 ec3d 34d3 dc3d 2c80 da3e
000002b0: 4389 143e 5420 853e 3e1c 8b3e 3bda 24bd
000002c0: d75b c93e 2dec 443f 4277 6dbe cf8c 8d3e
000002d0: b6c9 0dbd dec2 2d3e 21fb c73e 9e14 663e
000002e0: aa2d d83e 2970 443c 767e 30bd 3d79 a63e
000002f0: ab84 fd3c 89f4 e93c 36d0 d53e 16d9 2a3e
00000300: 7c14 85be be48 e73e b8b8 2c3d 06a4 f03c
00000310: ba68 17be d728 94bc b654 883d 0f24 a13e
00000320: f00b 813d 78b2 073e d317 e2bd cdb4 f43e
00000330: 4503 2e3e 63e0 c13e ec39 993d 088b 6fbe
00000340: 812c 21be abe9 a7be c7b4 2f3e 1951 76bd
00000350: 6234 9fbd 603c 333f 5300 c63c 75df 283e
00000360: 07a7 433e db4b 273f 56b2 13be ec8f 62be
00000370: 39fc 6f3e 2d1f 36be b8fb afbe 50f1 163c
00000380: dc81 a1be 3ed9 f03e 1a58 073f 6c33 4ebe
00000390: a92e 04be 7883 6e3c 865d 173d 7868 dfbe
000003a0: 33fc 263d 7824 88be 6d10 97be c5c5 b13d
000003b0: cc33 cebb 8711 dc3e 09ad 5f3d 134d a4be
000003c0: e8a9 203f 0792 8b3e f505 babd b1ec 7c3d
000003d0: c36d 663e 45dd c03d 1bdd d13e 1824 05be
000003e0: aa68 903e 9c61 ba3e fc04 9bbe 9430 a53e
000003f0: 7e3e 37bd 1eb8 213f 18e1 653d b0c9 333d
-0.29284233 0.058963098 0.4091366 -0.2769631 -0.37274194 0.44375625 -0.19749695 0.2207205
-0.12843111 -0.09133306 0.43766728 0.17016736 -0.0038906238 0.21375561 -0.2330759 0.58074445
0.22596629 0.69113326 0.058316484 0.40631124 0.04912545 0.373232 0.36200368 0.403369
-0.19240098 0.5320392 0.1938796 0.295099 -0.1450558 -0.3208095 0.5304821 0.18895788
0.26826608 0.13937037 0.32501712 -0.22898896 0.1667007 0.013515896 0.12995034 0.3860397
0.325016 -0.230297 -0.15525043 -0.24795915 -0.25451428 0.11830881 0.2789776 0.113173075
0.43737003 0.41523483 0.36293915 0.036096543 0.44684032 0.29310027 -0.022563003 0.24035364
-0.19691886 0.08106707 0.36854 0.43815452 -0.15825638 0.40609014 -0.15858363 0.62966913
-0.3698901 0.54623663 -0.06534679 -0.50062317 -0.20436332 0.39383832 -0.129639 0.2402605
0.12249288 -0.3559973 -0.6053908 -0.09629836 0.29775903 0.47215316 0.26122954 -0.17174473
0.23018965 0.16287884 -0.11780433 0.38220602 -0.28028512 0.56502694 0.2774702 0.16890506
-0.10279362 -0.1932888 -0.23988214 0.3382319 -0.022568934 0.38425255 0.22153872 0.13945556
0.48043305 0.42822808 0.24214895 0.0321504 0.5052594 0.43083838 0.2741404 0.5623627
-0.14428759 0.3048973 -0.46111724 0.46257752 0.118104436 -0.1651337 0.17091803 -0.0641428
0.12200681 0.0018835241 -0.015197661 -0.07310819 0.34730554 0.124137595 0.40434924 0.3732345
-0.23922013 -0.12070033 0.36735013 0.11969648 0.42970055 -0.078114934 0.3182183 0.050508745
-0.11266539 0.27562472 0.0059192157 0.47410828 -0.3079797 -0.16253483 0.6439399 -0.13706696
-0.22973084 -0.37556502 0.40218195 0.09581171 0.5517961 -0.29655683 -0.025675135 0.06529976
0.326332 -0.11953276 0.2671912 0.0879236 -0.35181263 0.14239325 0.081283376 0.035216518
0.15801957 0.25881854 -0.090782724 0.29110238 -0.29827836 0.0453651 0.21833424 0.009453655
-0.26871327 -0.12284827 0.2374703 0.36822766 -0.23647095 0.28613186 -0.5076416 0.20353357
0.18387309 0.11555207 0.10782471 0.42675912 0.14505486 0.26001227 0.27169985 -0.040247183
0.3932788 0.76922876 -0.23190024 0.2764649 -0.034616195 0.16968867 0.39058784 0.22468802
0.4222234 0.011989632 -0.043089353 0.32514372 0.03094705 0.028558986 0.41760415 0.16684374
-0.2599219 0.45172685 0.04216835 0.029375087 -0.14786044 -0.01808588 0.06656782 0.31472823
0.06301105 0.13251674 -0.110397 0.4779419 0.16993435 0.37866506 0.07481751 -0.2339288
-0.15739633 -0.32795462 0.17158805 -0.060135935 -0.07773663 0.70014 0.024170076 0.16491492
0.19106685 0.6535012 -0.14423499 -0.22125214 0.23436059 -0.1778533 -0.34371734 0.009212807
-0.31544387 0.47040743 0.5286881 -0.20136803 -0.12908424 0.014557712 0.036954425 -0.4363439
0.04076786 -0.26590323 -0.2950472 0.086803 -0.0062927958 0.42982122 0.05460838 -0.32090053
0.62759256 0.27259848 -0.090831675 0.061749164 0.22502808 0.09417204 0.40989003 -0.1300205
0.28204852 0.36402595 -0.3027724 0.32263625 -0.04473733 0.63171566 0.05612287 0.043893516

Q.2.weight f4 [256, 256]
00000000: f461 a9be 980c 01be 6f1b c23e fcad e6be
00000010: 3014 8dbe 443f 903c 3ea2 75be 6e29 273c
00000020: 5aea a83e 0bdc 533f c087 573e 9df5 773d
00000030: e8f8 693e 483f 263c fe7d bfbe 6dbe 4f3e
00000040: 362d 663e 0377 103e d73d 0bbe 4d4e d53d
00000050: c771 643d 79a8 0c3e 4fa8 823e aa1d 66bd
00000060: 501f d73e 00de 973d b345 433e 37d6 463e
00000070: 9263 7e3f f8c9 93bc 513a 973d cf74 c93e
00000080: cce0 11be b9e7 90bd 4327 153b 34bc 01be
00000090: 4381 513e 4839 d43d 2eb8 a8bd 4d28 b13e
000000a0: a3e1 a9be d7aa 3fbe a498 0dbf 9790 e3be
000000b0: 4e41 8d3f 6e4f 46bd 9cac e23d 37d9 74be
000000c0: ab11 233e 52e5 d73d 40b4 853e 1a8a 03bd
000000d0: aa9e 3e3e 4162 543d 8606 2b3f d8cf 123e
000000e0: bd37 623f 9f5d 5ebe b533 aa3e a344 133d
000000f0: 1b44 ebbd dbfc ba3e 55c4 80be e86b 4f3d
00000100: 3bb0 05be d521 3f3d 04b2 843e 7138 ecbe
00000110: 81a5 b3be b710 ce3d f2d1 64be 98aa f1bc
00000120: 2c1c 4fbe df42 f2be acf1 10bf 31b3 4d3e
00000130: 822e 843c 3bc4 033e 833d afbd b393 4ebe
00000140: 0eba 06bb c9a4 8fbc 02bc 57be a76f ec3c
00000150: dd44 acbe bd65 143e ef3c 113e 50c4 c33d
00000160: a099 20be f59b 68be fff0 c6be f7bb 833e
00000170: 7fc7 9dbd b76b d93c d955 2a3e e2d9 c63e
00000180: 46d6 983e 2417 4b3d ad86 3dbe 8b33 95be
00000190: c6ea 073e ca7e bd3d eb7c b43d 1465 bb3d
000001a0: 2116 933e 6fc2 b13d 21b8 d2be bd05 21bd
000001b0: 6dbd 22bd 70c4 833e fc22 303f 4ffc 7bbd
000001c0: 8683 123f b650 82be ac11 0cbd 4c9c 103d
000001d0: fa40 703e cc46 f5bd d581 da3c 1f29 bc3e
000001e0: 1d30 d7bc 9b9d dfbd 39b5 3a3e cc6d f03d
000001f0: b572 593e 7a65 5bbe 8834 6d3e f842 e03e
00000200: c347 9e3e 3356 d83e 5d62 36be 72b9 8ebd
00000210: cc28 edbe 9e58 12be 426d 293e 02b8 0a3d
00000220: f637 47be 7e09 32bf 6214 bbbd 6732 a1bd
00000230: 7c1f a63d c287 3cbe 9ba4 233f 7fe4 55bd
00000240: 2996 383c c8c0 9abe e476 113c 827d dc3e
00000250: 5539 90be 18aa 083b 95c8 3c3e 8f77 b13e
00000260: b060 a2bd 3c65 d0bd b12c 67be e95b 4dbe
00000270: ea68 283f f44a c7be dfab c83b e0f1 063d
00000280: 0727 973e 73fb 3dbd 9fb8 30be 2b48 2f3e
00000290: 6ac2 a3be 6725 743e c4ed 05bf 740b 2d3e
000002a0: 9dfd 163e c214 083f f453 e83c e7d9 a43e
000002b0: 8b2b b3bd 57f2 563e c1b5 6a3e 202a efbd
000002c0: a5da 9abc 604e a43c 75df cdbe 00aa 333d
000002d0: 2188 50be 8bf6 16bd 5a57 d9bd 9155 bd3e
000002e0: 6732 c93e eb6d 27bd 7406 cabe 39fa c73d
000002f0: aba1 f63e b669 023e df75 703e 914c 953e
00000300: a071 2cbf 6d3c 8f3b d287 3cbe 51b4 113e
00000310: 78d4 8cbd d8a1 8cbe 76ef bd3e a3d8 b63e
00000320: 4799 a0be 8f16 e53e 1017 743e 412c 8abd
00000330: 37e1 4f3e 4732 a5bd 5e1a 9d3e 143f 35be
00000340: 5767 acbe 2d99 58bf 5703 1e3e 8cc0 17bc
00000350: d1aa cbbe 4af9 0b3e e65e 1c3c 29e3 38bd
00000360: 9cff 16bd 68bf f93d feff 27bf 5287 acbe
00000370: 6efb 83be 5042 80be 2a16 683d 52d5 b83e
00000380: 088e 32bf ddcc 213e 6246 a23e bfa7 18be
00000390: 7b41 643e 7cf2 9dbd 0d81 dcbd 0a0b 37bf
000003a0: 27a0 5ebe bfe7 45be d255 59be 9d47 90be
000003b0: 94e6 503f 6985 e53d 89f9 8abe 4a86 e8bc
000003c0: 774b 4a3d e78f 5bbe d404 e6be 7385 1ebf
000003d0: f57c 9d3e 0885 9a3e 57a6 ff3d c605 d23e
000003e0: a237 78be 1cfd 9d3e 1cba 5bbe 4b1c 143e
000003f0: 81b6 1a3f e6f9 0e3e 89db ee3e 7554 833d
-0.33082545 -0.1260246 0.37911555 -0.45054615 -0.27554464 0.017608292 -0.23987672 0.010202749
0.32991296 0.82757634 0.21047878 0.06053697 0.22848856 0.010146923 -0.37400812 0.20287485
0.22478184 0.141079 -0.13597809 0.10415325 0.05577257 0.13736142 0.25519034 -0.056180634
0.42016077 0.0741539 0.19069557 0.19417654 0.9937068 -0.018040642 0.0738417 0.3934693
-0.1424591 -0.070754476 0.0022758998 -0.1266945 0.20459466 0.10362488 -0.082382545 0.3460106
-0.3317996 -0.18717514 -0.55311036 -0.4444625 1.1035554 -0.048415594 0.11068079 -0.23910986
0.15924709 0.10541786 0.26114082 -0.032114126 0.18615213 0.051851515 0.6680683 0.14337099
0.883663 -0.21715401 0.33242574 0.03595413 -0.114875995 0.36521038 -0.2514979 0.050640017
-0.13055508 0.046663124 0.25917065 -0.4613681 -0.35087207 0.10061782 -0.22345713 -0.02950029
-0.2022559 -0.47316644 -0.5661876 0.20087887 0.016135458 0.12867825 -0.08556654 -0.2017353
-0.0020557675 -0.01753463 -0.21067813 0.028861834 -0.3364629 0.14491935 0.141834 0.09558928
-0.15683603 -0.22715743 -0.3885574 0.25729343 -0.077040665 0.02654062 0.16634311 0.38838106
0.29850978 0.049582615 -0.18508406 -0.29140887 0.13273153 0.09252699 0.08812889 0.091501385
0.2872782 0.086796634 -0.41156104 -0.039312113 -0.03973143 0.25735807 0.6880338 -0.061519917
0.5723194 -0.25452203 -0.03419654 0.035305306 0.23462287 -0.11976394 0.026673237 0.36750123
-0.02626806 -0.10918733 0.18233193 0.11739692 0.21235164 -0.21425429 0.2316457 0.43801093
0.30914125 0.42253265 -0.1781096 -0.06968965 -0.46320188 -0.14291617 0.16545585 0.03386689
-0.19454941 -0.69545734 -0.09134747 -0.078709416 0.08111474 -0.18411162 0.63923043 -0.052219864
0.01126627 -0.30225205 0.008878443 0.43064505 -0.2816874 0.0020853337 0.18435891 0.34661528
-0.07928598 -0.10175559 -0.22575642 -0.20054592 0.65785086 -0.38924372 0.0061240043 0.032945514
0.29521963 -0.04638238 -0.17257927 0.17117374 -0.31984264 0.23842393 -0.52315927 0.168989
0.14745183 0.53156674 0.028360344 0.32197496 -0.087485395 0.20990883 0.22920896 -0.116779566
-0.018903086 0.020056903 -0.40209547 0.043863297 -0.20364429 -0.036856215 -0.10612364 0.36979344
0.39296266 -0.04087631 -0.39458048 0.09764523 0.48170218 0.12735638 0.23482464 0.29159978
-0.6736088 0.004371217 -0.18411186 0.14228942 -0.06876463 -0.27467227 0.37096757 0.35712156
-0.3136694 0.44743773 0.23836923 -0.06746722 0.20300756 -0.0806623 0.3068418 -0.17699844
-0.33672592 -0.8460873 0.15430962 -0.009262215 -0.3977876 0.13669315 0.00954411 -0.04513851
-0.03686486 0.12194711 -0.6562499 -0.3369699 -0.25777763 -0.25050592 0.056661762 0.3610025
-0.6974797 0.15800805 0.31694323 -0.1490774 0.22290604 -0.07712266 -0.10766802 -0.7150122
-0.21740781 -0.19326685 -0.21224144 -0.28179637 0.81601834 0.112070866 -0.27143505 -0.028384347
0.049388375 -0.21441613 -0.4492556 -0.6192238 0.30759397 0.3017962 0.12482899 0.4102003
-0.24239972 0.3085717 -0.21457714 0.14463918 0.6043473 0.13962516 0.46651867 0.06412593

Q.2.bias f4 [256]
00000000: 8273 413e 5444 eb3c 6ddf 9dbd b042 14bd
00000010: bea2 193d 3682 433e c7fa e33d 4d59 5ebd
00000020: c120 493e a50b e93d 0833 423d 82bc d13c
00000030: 62a7 f43c 8cbb 073e e20d 763b c84e 523c
00000040: 2d61 8f3d 6ea9 a53d ef97 61bc 8e40 3d3e
00000050: 93be 6d3e 7772 3dbd d584 033e 135d 16be
00000060: 44b0 a03b 4ca9 85bb e96f 5c3e 369f e03d
00000070: 5f9d 7abd 13dc 813d d6b2 823e 538e 14be
00000080: 9fcd d6bc 5226 153e a18e 573d e654 7abd
00000090: b471 163d ad6a 553e 8d5c 513d 52de 063e
000000a0: ba8f b23d 6b28 afbb 57be 29be 8358 b73d
000000b0: 2c98 293e 57e6 213e 255b 273e 1a3d c53d
000000c0: 731a 8e3b 1c26 c83c 814c b7bc e702 d73d
000000d0: 456b c43c 96df c4bc bdce 033e 0589 d83d
000000e0: 5466 803c f865 f43d 28a5 0f3e 2fb0 3e3d
000000f0: 1660 8b3b 1173 aebd 9ce4 b63c 7365 5ebc
00000100: 70fc 513d 2454 0e3d 8914 863e 97fc 473e
00000110: 3145 323d c68d e93c de59 31bd a3f8 c03d
00000120: badc dd3c a87a 173d 711b f13c d815 893d
00000130: e54e 003e d95b 96bd ede7 7dbc b608 a23d
00000140: 0c9a 883c 5613 d43d 492b 3fbd 0818 5f3d
00000150: 0f5f 19bc 8ef2 ad3d 0b3a e03c 91ac 94bc
00000160: 6753 fd3d 2385 843d b6dd 753d e320 213e
00000170: d88c 6c3d f4cf 2b3e 25f7 bc3d 9277 993d
00000180: e48c 343e 22dd c43d 0732 493d 8567 7d3e
00000190: 34da 8abb a419 d43d 27c1 a33d ca14 593c
000001a0: ea6f c63d d704 6d3d 504f 053d 8c06 b63d
000001b0: e009 92bc e435 ff38 00d6 363e 5319 b93b
000001c0: 29e4 19bd be23 e23d 02b0 003e 85ba 7e3c
000001d0: dad0 003e 9800 f23d 3f20 373c 7e8f 173e
000001e0: 9853 003e cd7c 303e 69ae 543e 0e98 e23d
000001f0: 7c11 a7bd 6067 dc3d a28a ed3c 0b4b f83d
00000200: 1428 163e 5e7f 913d 1392 46ba 1c6f cb3d
00000210: 5952 fabb 1043 c63b a7a9 5abd 9c48 db3d
00000220: b256 81bd 8b23 853d 13bc 50bc 3496 65bb
00000230: 1eb5 c1bc c7e2 683e e2a7 3f3e fe73 4e3d
00000240: 2baa 9abd 8404 1a3d e43b 893e 9624 903d
00000250: 0849 e83d be83 8a3b 9784 ae3d 56b6 7c3d
00000260: 5226 ed3d 5194 a03d 6710 ec3d 39b3 b53d
00000270: 5f14 ce3c d1cb f23b baf6 273e 58c5 853d
00000280: 2a1d ef3c da71 783c 7645 fe3d c116 78bd
00000290: 6174 5d3e 06bb 7dbc 4dbd 383d 5995 72bb
000002a0: aecb 5fbd f4b0 b13d 884a ba3d e0b9 563d
000002b0: ded1 103e 8d25 003c b020 7d3d d684 6b3c
000002c0: 2cea 08bd e4a6 333d 190c 723b f9f7 393e
000002d0: 5cc1 e83d e50e 823d 7c0d b53d 23bf d13d
000002e0: 5d09 c13d f31a e63d 0b84 18bb c5e7 12bd
000002f0: 056a 703d 906e 3e3e 57e9 40bd a783 89bd
00000300: 19f7 803d e8c0 223c 67d3 e73d 5b5f ac3c
00000310: b363 5a3e fff7 0e3e cdf9 213d 8fb7 3f3d
00000320: c57f b4bd fc84 8a3b 01af 29bc 15a5 103e
00000330: 9f73 023e 22b5 f83d 39f2 903c 234b b13b
00000340: a40c 913d 3dd8 70bd de8a 813d 5df0 7d3d
00000350: 968b cf3d d8d8 203d a97d 6e3b 73cd b9bd
00000360: 54b3 b33d 605c f3bc 2bbb 193e dfdf 5c3d
00000370: 87d4 7d3e ac86 473d 36ba 313e 911f 593e
00000380: d9f7 133c 3ca3 883d d931 1e3d bb6b 043d
00000390: 6d0e 123d e73b 933d bd1c 6d3d 4678 e53c
000003a0: 2047 663d 8db0 293d 9533 b8ba 6d9f 083e
000003b0: 343a b33d 0716 1ebd 4e7c 8e3d 9bef 0e3e
000003c0: aa0f cb3d df21 1bbe 5e51 973d 7076 0f3d
000003d0: 9ddf 6ebd 6ca4 2a3d 9417 133e 2931 f3bb
000003e0: ace9 fabc c43d 993d 7632 53bd ae21 093e
000003f0: b06e 163c 19a8 1d3b 1f2f 6bbd 1acc be3c
0.18891719 0.028719105 -0.07708631 -0.03619641 0.03750872 0.1909264 0.11131816 -0.054284383
0.19641401 0.11379174 0.04741195 0.025602583 0.02986497 0.13255137 0.0037544896 0.012836166
0.07000957 0.08088957 -0.013769134 0.18481657 0.2321723 -0.04625174 0.1284364 -0.14683942
0.004903825 -0.0040790197 0.21527065 0.10967867 -0.061185237 0.06340804 0.25527066 -0.14507417
-0.026221095 0.145654 0.052626256 -0.06111612 0.03672953 0.20841475 0.051113654 0.13170746
0.0871882 -0.0053453944 -0.16576515 0.08952429 0.16561955 0.15810524 0.16343363 0.09630795
0.004336649 0.024432234 -0.022375347 0.104986005 0.023976931 -0.024032395 0.12871833 0.105730094
0.015673794 0.119335115 0.14027846 0.04655474 0.0042533977 -0.08518041 0.022325806 -0.013573992
0.051266134 0.03474821 0.26187542 0.19529949 0.043523017 0.028509986 -0.043298595 0.09422424
0.02708279 0.03698221 0.02943203 0.066936195 0.12530096 -0.07341737 -0.01549719 0.07911818
0.016675018 0.103552505 -0.04667214 0.054466277 -0.009361043 0.08493529 0.027371427 -0.018148692
0.12369423 0.06470706 0.060025893 0.15735202 0.057751507 0.16778547 0.092268266 0.07493509
0.1763187 0.0961249 0.049119975 0.24746521 -0.0042374376 0.10356453 0.07995825 0.013249585
0.09689315 0.057865944 0.03254634 0.088879675 -0.017826974 0.000121693854 0.17855072 0.005648771
-0.037571106 0.110419735 0.12567142 0.015547399 0.1257967 0.118165195 0.011177122 0.14800832
0.12531888 0.17235108 0.20769657 0.110641584 -0.08157632 0.10761905 0.02899677 0.12123688
0.14663726 0.071043715 -0.00075748673 0.09933302 -0.007639211 0.006050475 -0.05338445 0.107072085
-0.06315364 0.0650092 -0.012740153 -0.0035032155 -0.023645934 0.22742759 0.18716386 0.050403588
-0.07551988 0.037601963 0.26803505 0.07038228 0.113420546 0.0042271307 0.08521383 0.061697327
0.11579575 0.07840789 0.11526566 0.08872075 0.025156198 0.0074095507 0.16402712 0.06531781
0.029188711 0.015163863 0.12415592 -0.060568575 0.21626426 -0.015486484 0.045102406 -0.0037015288
-0.054637603 0.08676329 0.09096247 0.052423358 0.14142558 0.007821453 0.06179875 0.014374932
-0.03342645 0.04386033 0.003693348 0.18161 0.113650054 0.06350497 0.088404626 0.102415346
0.09425614 0.11235609 -0.0023272063 -0.035865564 0.058694858 0.18596864 -0.04709753 -0.06714564
0.0629713 0.009933688 0.11319619 0.021041563 0.21327095 0.1396179 0.03954487 0.046805914
-0.088134326 0.0042272788 -0.010356666 0.14125474 0.12739418 0.12143923 0.017693626 0.0054105683
0.07082489 -0.05879997 0.06325315 0.061996806 0.10134046 0.0392693 0.0036390817 -0.090723895
0.087744385 -0.029707134 0.15012805 0.053924438 0.24788104 0.048712417 0.1735619 0.21203448
0.009031259 0.066717595 0.038621757 0.032329302 0.03565829 0.0718916 0.057888735 0.028011452
0.056220174 0.041428138 -0.0014053459 0.13342066 0.08751336 -0.038595226 0.06957303 0.1395859
0.09915097 -0.1514964 0.073885664 0.03502506 -0.058318723 0.04166071 0.14364463 -0.007421632
-0.030629002 0.07482484 -0.051561795 0.13391754 0.009181663 0.0024056493 -0.057417985 0.023290683

Q.4.weight f4 [4, 256]
00000000: 2c35 293f d455 aabe 722b 2d3f 3cd9 d3be
00000010: 71a3 c9be fab3 fa3e c12a 643f 46aa 03bf
00000020: 1dae 0a3f d655 15bf 2f55 bebe 118a ea3e
00000030: d5a4 0ebc c5f4 e1bd cbb5 9dbe 20ca fbbe
00000040: 38ff db3e 90b7 64be a31d f0be af0c 063f
00000050: f65e 133f 704c ddbb d645 3a3f d897 f03e
00000060: 019c b6be ec78 4c3f 1911 e33e 7f3b 13bf
00000070: b7ac e33e 1948 ebbe 51a4 f13e d4b7 1dbf
00000080: 40b2 f83c 075f 92be 8468 bcbe 787c 003f
00000090: 4d2b e0be a56b ed3e 0ef2 67be 2d20 86bf
000000a0: b766 75be 657f 95be 4f7b a83f 2496 61be
000000b0: 8492 0dbf 4d70 743f e169 fa3e 5762 f23e
000000c0: 86d3 44bf bf96 8dbe 9149 d93e 9ba6 a8be
000000d0: 50eb d8be 7bef e2bc 61c1 f5be 3f41 86bc
000000e0: 9c0e 62be ac6e ecbe a70a 303f 6694 e53b
000000f0: 394f bb3c fb4e ecbd 973a 7fbe d7f2 06bf
00000100: 55af d83e 3cb5 3dbf 4f43 063f 968b ca3e
00000110: 86ce 073f 28ac 70be a43a dfbc 1741 b1be
00000120: c97a a4be 32c9 27bf da64 d9be 1bf2 b5be
00000130: b1c9 81be a775 22bf ec50 0cbd dff5 84be
00000140: 27ad b3be 8bf9 d1be faee 55bd 91f5 5a3e
00000150: 8b4a c4be 6e8f 1cbf a2a8 143d e22e a7bf
00000160: 86f4 00bf 0142 c6be 81e7 963c e747 333f
00000170: 8bb0 c6be c28a 3a3f ece7 28be 7e12 33bf
00000180: 8a26 893f e1a1 1dbe e657 9fbe d1e2 383f
00000190: 3359 063f c792 00bf 9482 48be 2625 e2be
000001a0: 3a8a e3be 477b b7be 2c93 a8be 319e 97be
000001b0: b99c 28bc 43e7 a5be 5275 95be 3dca fcbe
000001c0: 6754 bfbe 2d1d 0dbf 6e68 b8be 4dde 75bc
000001d0: 274f 743f fa70 dc3e 5e7e 85be c33e 3a3f
000001e0: dcc1 1d3f b80d 113f 960a 2b3e 4723 12bf
000001f0: 0299 cebe 72e6 0cbf d7cb 05bf a599 f6bd
00000200: e581 183f e7c3 afbe e87d 13bf d2ac 87be
00000210: 6a5e e3be 7966 8bbe fb91 1a3f 670b 91be
00000220: fa11 4a3d 52fb 85bd e327 e0be a4b0 35bc
00000230: e6ca 5c3d e147 093f 1cad 12bc ca4d 99be
00000240: 9d91 00bf 8599 123f fcef 0f3f 36f2 00be
00000250: cc1d d3be 5f52 9fbe 1155 9abe 952d 8bbe
00000260: df95 1fbf 7a48 bc3e cefc 48be 70c3 ec3e
00000270: 3126 e0be b5eb 7ebe b2db ffbe ec45 0d3f
00000280: 4b32 03bf af85 f23e 934f 78be 9938 6e3d
00000290: c75b 7e3e 674d aebe 67fa 73be 9340 bbbe
000002a0: 4179 f5be bc3d 9fbe 9211 153f d80d b7bd
000002b0: d4d0 f33e 1e0d 2fbe 026f c5be 8822 acbe
000002c0: 90a0 15bf 3002 d23e 0601 babe c894 ea3e
000002d0: 4c73 d5be ccfc c4be 4b91 c2be 64ea 39bf
000002e0: c211 e2be 3b86 30bf 8936 353f d0db 93be
000002f0: 105f 79be 45ef ca3e f3a4 223d e4a8 aa3b
00000300: 0699 84be 3e25 2f3d 0c19 283e 1484 1f3d
00000310: cd2a c73e 4c53 82be 11dc 60be 04fe 8dbe
00000320: 7db3 e2be b6ca 163f e9d8 e9be fd05 ddbe
00000330: b737 d13e b874 183f 38e0 c33d 6408 babe
00000340: e2ca ee3e 3d1e 2d3d fbba 22bf 8d08 b6be
00000350: 0cc9 00bf 99e7 e1be 3e67 e0be 05c4 6f3f
00000360: 7f0e 83be 17c1 64be c5ad 20be bad2 e9be
00000370: 89d2 fd3e 9c10 e1be b8dc 353f 24b4 393f
00000380: 690b fcbe 4d46 eebe 7ccb 0d3d 02f8 99be
00000390: 32b6 a2be d091 09bf 0fc1 b1be 226c f33e
000003a0: c48d d2be 59a8 a6be 995d 363f d03d 033f
000003b0: c021 2fbe 76f5 7bbd 5e2b 08bf 1bef 333f
000003c0: 9f40 fb3e b1fd 1e3f 53c4 06bf 1009 fabe
000003d0: c14a 6f3d 12a1 1c3f 1158 193f e349 42bd
000003e0: 11ca 103d bd67 41be 3684 28bb ce85 00bf
000003f0: a0d5 723c 87db 59bd d16d a5be 969e b03e
0.6609676 -0.33268607 0.6764442 -0.41376674 -0.39382508 0.48965436 0.8912774 -0.5143169
0.54171926 -0.583341 -0.37174365 0.4580846 -0.008706291 -0.11033014 -0.3080276 -0.49177647
0.42968154 -0.22335649 -0.4689761 0.52363104 0.57566774 -0.006753497 0.7276281 0.46990848
-0.35665897 0.7987201 0.44348982 -0.5751266 0.44467708 -0.45953444 0.47195676 -0.61608624
0.030358434 -0.28588125 -0.3679849 0.50189924 -0.43783036 0.4637119 -0.2265093 -1.0478569
-0.23964964 -0.29198757 1.3162631 -0.2202993 -0.5530169 0.9548386 0.48908904 0.47340652
-0.7688526 -0.27654073 0.4243894 -0.3293961 -0.4236703 -0.027702084 -0.479991 -0.016388534
-0.22075886 -0.46178186 0.68766254 0.007006216 0.022864925 -0.11538502 -0.24924694 -0.52714294
0.42321268 -0.74104667 0.52446455 0.3955962 0.53049505 -0.23503172 -0.027249642 -0.34619972
-0.32124928 -0.65541375 -0.42459756 -0.35536274 -0.2534919 -0.63460773 -0.03425686 -0.25968835
-0.35093042 -0.410107 -0.05222986 0.21382739 -0.38338122 -0.61156356 0.036293633 -1.3061182
-0.50373113 -0.38722232 0.018420937 0.7003159 -0.38806567 0.7286798 -0.16494721 -0.6995009
1.0714886 -0.15393783 -0.3112175 0.72221094 0.5247986 -0.50223964 -0.19581062 -0.44168967
-0.44441396 -0.3583624 -0.32924783 -0.29612878 -0.010291272 -0.32403 -0.2919107 -0.49373046
-0.3736908 -0.55122644 -0.36017174 -0.015006614 0.95433277 0.43054944 -0.26072973 0.72752017
0.6162393 0.5666156 0.16703257 -0.5708508 -0.4035111 -0.5503913 -0.5226416 -0.12041024
0.59573203 -0.3432915 -0.5761399 -0.2649904 -0.4440797 -0.27226618 0.60379 -0.28329012
0.04933355 -0.06542076 -0.4378043 -0.011089478 0.053904437 0.53625304 -0.008952405 -0.2994216
-0.5022219 0.572655 0.5622556 -0.12592396 -0.4123367 -0.31117532 -0.30143026 -0.27183214
-0.6233806 0.36774045 -0.19627687 0.46242857 -0.43779138 -0.24894603 -0.49972302 0.5518482
-0.51248616 0.47367617 -0.24249105 0.058159444 0.24839698 -0.34043428 -0.2382599 -0.36572704
-0.47944072 -0.31101787 0.58229935 -0.08938187 0.4762026 -0.17094848 -0.38561255 -0.33620095
-0.58448124 0.41017294 -0.36328906 0.45816636 -0.41689527 -0.3847412 -0.38001475 -0.72623277
-0.44154173 -0.6895482 0.7078634 -0.2887864 -0.2435267 0.39635673 0.03970809 0.0052081216
-0.25897998 0.042760126 0.16415805 0.03894432 0.38899842 -0.25454175 -0.21958949 -0.2773286
-0.44277564 0.5890306 -0.45673302 -0.4316863 0.4086282 0.595531 0.09564251 -0.36334527
0.46639162 0.042265166 -0.6356656 -0.355534 -0.50306773 -0.44122007 -0.43828768 0.9365848
-0.25596997 -0.22339283 -0.15691288 -0.45668584 0.49574688 -0.43957984 0.71039915 0.725405
-0.49227455 -0.4653801 0.034617886 -0.30072027 -0.3177963 -0.5373812 -0.34717605 0.47543436
-0.41123784 -0.32550314 0.7123657 0.51266193 -0.17102718 -0.061513387 -0.53191173 0.7028672
0.4907274 0.6210585 -0.52643317 -0.4883504 0.0584209 0.61183274 0.59900004 -0.047433745
0.035348956 -0.1888723 -0.002571357 -0.5020417 0.01482144 -0.053187873 -0.32310346 0.3449599

Q.4.bias f4 [4]
00000000: 77d2 f13d a16f 303a 1463 303d 847d e73d
0.11807721 0.0006730501 0.04306324 0.11303237
