2.3 Prioritized-Experience-Replay-DDQN-DQN/PriorDQN_gym0.1x/model/DDQN_CPV1_100.pth (torch, 272711 bytes, 6 tensors)

Q.0.weight f4 [256, 4]
00000000: e694 283e 175f 82be ac13 513f c65e 063e
00000010: ca8a cd3e 4cba 7a3e c215 e0bf bdd8 a6be
00000020: c2dd fbbb d49d 46be 8fb2 90bf b70b f93e
00000030: 09ee 13bf 9f3d 843e d858 6a3f c6b9 a23e
00000040: ede9 86bd 2f4b cdbc a71b f0bf 7e69 543f
00000050: 9467 57bf 25ea 423e ab7a 603f add1 173f
00000060: 87ee 9fbd 3471 e63d 527a 09be e1d7 e8be
00000070: 151a 313b 3752 d4bb 37be 0ec0 b2ac 7cbe
00000080: 1d6c bb3e 0695 073f 67c5 c7bf a236 b1be
00000090: e98a 293b 21c9 f8bb 6d07 f0bf 3e8c 62be
000000a0: f68c 89be e866 eabe ebb5 ac3f 213e 903e
000000b0: a031 6b3d c7b0 1e3e 5ef4 cf3f 1d10 04bf
000000c0: a873 bfbb 67e5 873b 739b 2240 3520 193e
000000d0: e996 f43e a6ea ca3e 6d3f 13bf 5833 0dbd
000000e0: f464 f73d 2804 a93e c9a8 ae3f c71f ca3e
000000f0: bfd4 d33e 6564 fbbe fe2d e2bb 65fa fd3e
00000100: cc17 5e3f 526d 7d3c 8961 3dbf e5ad 0dbf
00000110: bc89 ecbe 047d 2e3e b596 fc3f 807d a93e
00000120: 5376 20bf 5274 ad3e 2c6b 5e3f 2216 be3e
00000130: e8a2 febe 2b1f 1bbf 45eb 46bf 39e9 82be
00000140: 2bc4 083f 5f9b 8f3d 1b26 6dbe 11b4 ed3e
00000150: e94f a83e b211 9c3c ccc9 8ebf 60cb 073f
00000160: 8a4d 70bd 687e 07bb 2ee9 1ac0 0080 9bbe
00000170: 74d2 793b 8c72 c03b 8046 1240 c33b 783e
00000180: 9034 8cbf 7a71 85be 6d3c 7cbf 661a 133d
00000190: a5c0 f1bd 0db8 be3d 0d1c e73f 594f 873e
000001a0: f148 473e 2c7e 503e f324 ed3f f960 2c3e
000001b0: 6ea5 59bf fff8 3c3c 6dd0 eb3f d249 ebbe
000001c0: 6703 d8be e31e 27be 3031 86bf a952 49be
000001d0: 984e 653c 24d0 0d3f 428e 703f d8c4 8e3e
000001e0: 59f8 523e e90e 8b3e eaa0 29bf d315 b33e
000001f0: 686b ba3e 3ba8 8dbe 2256 20bf e548 933e
00000200: 51e8 86bf 1940 bdbe faae 8fbf 9535 193e
00000210: cc27 aebe 1d3b 92be 3c30 5ebf 05c0 233f
00000220: d2bc b33e 5a5f 38bf ec5d 883e da39 903c
00000230: dd18 d33a b444 bf3b 2777 0640 e059 683e
00000240: bbb8 47be ee66 1e3f 7d62 0ebf 4d34 1c3f
00000250: 92f9 293f 2752 b6be 5e29 62be 67fd b1be
00000260: cf98 f0be 91f8 fb3d 3aff 7fbf 41fa 00bf
00000270: 6526 b3be 1821 adbb 4d08 c63f fd3b 6e3e
00000280: b938 67bf e8d6 3c3e 1409 e2bf afd6 50bf
00000290: e69a 5f3e 253e a43e 59ca 9abf 1d37 71be
000002a0: faae 2cbf 7fcb 3bbe 5d92 a2bf cbf2 823e
000002b0: 63b9 e73e 27c0 a13d 9719 2abf 08db 03be
000002c0: 67c3 0a39 1287 69bc 4c51 1240 2316 823e
000002d0: 1dfa d3be 9ae6 ac3d 9b64 a93f ef7f 7b3e
000002e0: 0ed9 8cbf 51f5 67be 41cf c53e 7520 3d3e
000002f0: 37ac 233f 2266 8a3e a0fc 0c3f c6ff 0ebf
00000300: 9c37 063f 6d6e 2a3e 5ac4 e2bf d694 c6bd
00000310: 75cc b63e a390 febe 5a9c c63c 0f02 813f
00000320: cf57 533c b7f8 bb3b 9dbe 1dc0 8751 9cbe
00000330: 3b56 bc3e 713a a43e 4e2e 2cbf 0080 aebe
00000340: 1165 89be f94b 86be f639 60bf 493f 60be
00000350: d2f7 893d 9d2d bbbe affc 653f f301 df3e
00000360: 2f62 713d d4bc 86bd d6d3 d03f 87e9 003f
00000370: 1d7f 0ebb f975 00be 90f7 fd3f ba78 cb3e
00000380: c977 953d 4ba6 383e 828c a7bf 0ff3 773f
00000390: ced4 c13e 2712 6abe 51fe 65bf 865d d33d
000003a0: 602c e13c dfd5 893b 9907 d1be dbe4 21bd
000003b0: 1235 04be 3101 64be b128 24bf 2004 83be
000003c0: 4dcb 82be cc05 403e fed5 8fbf 4b89 eabe
000003d0: bb29 043f c73d 4e3e 6362 a43f 9f0e cf3d
000003e0: ba4d a7be d0d9 8abe aa7e a4bf 876b 553e
000003f0: ba0e 143e f277 92be 76cc bebf 5bbd 373f
0.1646305 -0.25463173 0.8167064 0.1312209 0.4014495 0.24485129 -1.750664 -0.32587233
-0.0076863477 -0.19396144 -1.1304492 0.4864175 -0.5778509 0.25828263 0.91541815 0.3178236
-0.065875866 -0.025060264 -1.8758439 0.8297347 -0.8414242 0.19034632 0.87687176 0.59304315
-0.07809167 0.112520605 -0.13425568 -0.45477203 0.0027023603 -0.0064795273 -2.2303598 -0.24675253
0.3660592 0.52961767 -1.5607117 -0.34611994 0.002587015 -0.007592336 -1.8752266 -0.2212381
-0.26865357 -0.45781636 1.3493017 0.281724 0.057420373 0.15497123 1.624645 -0.51587087
-0.0058426447 0.00414722 2.5407379 0.14953692 0.47771385 0.39632148 -0.57518655 -0.034472793
0.12079802 0.33010983 1.3645259 0.3947737 0.4137325 -0.49100032 -0.0069024554 0.49605098
0.8675506 0.0154679585 -0.7397695 -0.55343467 -0.46198833 0.17039877 1.9733492 0.3310356
-0.6268055 0.33877808 0.8688228 0.3712626 -0.49733663 -0.60594434 -0.7770274 -0.2556856
0.5342433 0.070120566 -0.23159067 0.46426442 0.32873467 0.019051407 -1.1155334 0.530447
-0.058667697 -0.002067471 -2.4204822 -0.30371094 0.0038119825 0.00587303 2.285553 0.24241547
-1.0953541 -0.26063138 -0.985297 0.035913847 -0.11804322 0.09312449 1.8055435 0.26427725
0.19461419 0.20360631 1.8526901 0.16833867 -0.8501805 0.011533975 1.8422982 -0.45954758
-0.42190096 -0.16320376 -1.0483761 -0.19660439 0.013995789 0.5539572 0.9396707 0.27884555
0.2060255 0.27159813 -0.6626116 0.34977588 0.3641007 -0.27667412 -0.6263143 0.28766552
-1.0539647 -0.36962965 -1.1225274 0.14961846 -0.34014738 -0.28560725 -0.8679235 0.63964874
0.35104996 -0.72020495 0.26634157 0.01760571 0.0016105432 0.0058370475 2.1010225 0.22690535
-0.19504063 0.6187581 -0.5561903 0.61017305 0.6639644 -0.35609552 -0.22086093 -0.34763643
-0.46991584 0.1230327 -0.9999882 -0.5038186 -0.3499023 -0.005283486 1.5471283 0.23265071
-0.90320927 0.18441355 -1.765902 -0.8157758 0.21836433 0.32078663 -1.2093002 -0.2355618
-0.67454493 -0.18339346 -1.2700917 0.2557586 0.45258626 0.07897978 -0.66445297 -0.12876523
0.00013233499 -0.014253395 2.286212 0.25407514 -0.4140176 0.08442421 1.3233827 0.24560522
-1.100374 -0.22652175 0.38634685 0.18469413 0.63934654 0.27031046 0.55072975 -0.5585903
0.52428603 0.16643687 -1.7716172 -0.09696357 0.35702863 -0.49719724 0.024244476 1.0078753
0.012899353 0.005736436 -2.464759 -0.3053095 0.3678454 0.32075837 -0.67258155 -0.3408203
-0.2683492 -0.26229838 -0.8758844 -0.21899141 0.06736721 -0.36558238 0.8983869 0.43556175
0.058931526 -0.06578985 1.6314647 0.50356334 -0.0021743246 -0.12545003 1.9841175 0.39740545
0.07298238 0.18032186 -1.3089755 0.96855253 0.3785767 -0.22858487 -0.8984118 0.103205726
0.02748698 0.0042064036 -0.4082611 -0.039524894 -0.1291087 -0.2226608 -0.6412459 -0.25589085
-0.2554573 0.18752211 -1.123718 -0.4580787 0.51626176 0.20140754 1.2842525 0.101102106
-0.32676488 -0.27119303 -1.2851155 0.208418 0.14458743 -0.28607136 -1.4906147 0.7177331

Q.0.bias f4 [256]
00000000: d94f 46bd bc89 373e 4069 a03e ca1c d93e
00000010: 8a4b 4e3e 285a 08be 52b1 9e3e 02ef 1b3f
00000020: 5892 533c 3559 073f 171d 1cbf 7600 b83e
00000030: d401 efbe 2ed5 d4be 4c40 d83e 29d7 043f
00000040: 83d0 b3be a686 a7be 8e5a e13e b202 913e
00000050: 1e16 29bf 0271 9c3d 0815 f3be 3040 1d3f
00000060: 6e61 ca3e ba40 03bf f912 86be 9431 9f3d
00000070: 5430 22bf 8d90 523e 9b97 0f3f 816e 1d3f
00000080: 25b4 f23d 4b76 ab3e 6d74 25bd 8aff 113f
00000090: 0a88 853d 4c32 e73e a020 0c3f 6f20 0f3f
000000a0: 2096 5fbf a157 0dbf 28d6 903e 6960 dbbe
000000b0: 97ec e7be 1247 a7be e95c e1bd 8dde 083f
000000c0: 0c8e 87be ca19 1b3e af27 03bf ed25 73bf
000000d0: 9cd2 14bf 4a5e 53bf 43a1 e1be a62a 87be
000000e0: 7c1d 983e c3d1 913e 287d 133f eb53 213f
000000f0: e5c1 0a3f f74d be3e c525 f3be f6d4 c83e
00000100: 1586 e43e e927 20bf 29ca 333f 98b3 f6be
00000110: 05c3 0c3f 620a 233f 7bfa fa3e 7758 f7be
00000120: 4859 9a3e 61d9 803e fc80 233e ee15 0ebe
00000130: 66f4 ebbe 17d0 b2bd fe9a dcbe 041d 6d3d
00000140: da4f 1c3f da86 953d fb55 21be 6584 033f
00000150: 0748 f9be 5f3f e73e fcdc 64be ba2f a8be
00000160: 8677 dfbe b306 133f c6fa 203f 01af a63e
00000170: 65f3 e9be 7e83 183f 1b4e 2abe 04ac a4bd
00000180: 893c e0be d706 2e3f e79d 82be 06ee a0be
00000190: ed0e aa3e f33a 273f cc9c 54bf a354 11bf
000001a0: ad2f f5bc 2eac 093f 669f 0e3f 74a7 11bf
000001b0: 920a b1be 1557 2a3f 7f76 073f d742 fa3d
000001c0: f4b5 7cbd f2b1 c9be c33e 2d3f 610d e6be
000001d0: f8dd 6abe 4fb6 1b3f 43ce a03d c715 90be
000001e0: 8bb7 d7be 71ce c5bd 26e9 783e f678 9ebd
000001f0: 6c15 3b3e 885a ce3e 5a77 313f 7914 4b3e
00000200: 5c1d abbe 453d 9e3d cddc abbe 5c1d 153d
00000210: fcb0 093f 7ee2 f83e 5df5 fcbe 218b 1f3f
00000220: 9c2b 553d 92e4 9cbd e6f4 0c3f f3f0 d33e
00000230: a80d c1be 6ffc 2dbf 3bd9 40bf d2db 203f
00000240: a02c 8bbe 4184 ae3e 3180 87bd 9aaa 9c3e
00000250: 52a4 e63e 5d2d df3e 8305 eabe 25c9 073f
00000260: 18f6 053f 324a e3be 0f42 15be 3feb 063f
00000270: fb38 2c3f 19d9 97be 20c9 253e 9ce9 083f
00000280: 2dd5 183f bf8c 433e 01a8 293f 1b85 4dbf
00000290: e0c6 5dbf 9297 a73e f40a 9cbd ccea 573e
000002a0: 0ecf 193f 4fb8 b93d b622 72be 0e92 173e
000002b0: 8741 c03d 09ef 993e 679b 1cbe f728 cb3e
000002c0: f3bd cdbe 1294 323f d13a ad3d d87f 023f
000002d0: f90c 8f3d df70 89bf ea7b 983e 34c2 093f
000002e0: e46c 053f 509d 043f 8ba4 35be f2d5 013e
000002f0: ca4d 813d 9f33 8bbe 6494 f2be b859 253f
00000300: d3aa 12bf 341b 89be 1e52 d83e 59bb 4e3d
00000310: 1397 07bf 2e60 11bf 2745 113f 588b 02bf
00000320: a929 0d3f 89b8 75be 6af2 a43e fb4e 5ebd
00000330: 4372 f8be a6a3 64bf 109b f9be 7e23 ee3e
00000340: a1b7 9ebe 3342 c73e 5a98 4cbe ca89 ba3e
00000350: a233 30bd 2b1d 073f 080a f4be 87de f93e
00000360: d3a9 b83e 029c 26be 4421 8a3e f6fd 9f3e
00000370: 2206 4f3e 7ff0 6cbe a0ab 1e3f 14d5 b93c
00000380: 0a3e ddbe 63e2 1b3f 41d1 e63d 5bd8 8ebe
00000390: 619b 8ebe 7d07 f13e 8b16 523e 9ed5 d4be
000003a0: c998 6c3e c5b3 f63e f711 dd3d 19bf e53e
000003b0: b168 1fbf 5c51 fcbe 581b 503e 03c9 00bf
000003c0: 57a6 f3be 206b 63be 683e 67be 14e4 a63e
000003d0: cd0f e9be 732f 4fbd 4573 6dbe f1f9 473e
000003e0: 6855 5a3e 0a73 f43e 7c0b cd3e b8e9 3fbf
000003f0: 63d2 22be c0e9 78bd 3200 1ebc 15d0 e5be
-0.048415992 0.17923635 0.313303 0.42404777 0.20146003 -0.13315642 0.3099466 0.6091157
0.012913309 0.52870494 -0.6098189 0.35937852 -0.46681082 -0.41568893 0.42236555 0.5189081
-0.3512002 -0.32719916 0.440144 0.2832237 -0.66049373 0.07638742 -0.47476983 0.6142607
0.39527458 -0.5127064 -0.2618635 0.07773128 -0.6335499 0.20562954 0.56090707 0.6149674
0.11850766 0.33488688 -0.040394235 0.57030547 0.06520088 0.4515556 0.5473728 0.55908865
-0.8733845 -0.55211836 0.28288388 -0.42846993 -0.4529769 -0.3267141 -0.11004049 0.53464586
-0.2647556 0.15146556 -0.5123243 -0.94979745 -0.58133864 -0.8256575 -0.44068345 -0.26399726
0.29709995 0.28480348 0.5761285 0.63018674 0.5420211 0.37168857 -0.47489753 0.39224976
0.44633546 -0.625609 0.70230347 -0.48183894 0.54985076 0.6368772 0.49019226 -0.4830968
0.3014624 0.25165847 0.15967172 -0.13875553 -0.460849 -0.08731096 -0.43087 0.057889
0.61059344 0.073011115 -0.15755455 0.51373893 -0.48687765 0.45165536 -0.22349924 -0.32848912
-0.43645877 0.574321 0.6288265 0.32555392 -0.45693508 0.5957564 -0.16631357 -0.08040622
-0.43796185 0.67979187 -0.25511095 -0.31431597 0.33214512 0.65324324 -0.83051753 -0.5676977
-0.02992996 0.5377835 0.5571197 -0.5689614 -0.34578377 0.66539127 0.52915186 0.1221978
-0.06169696 -0.39393574 0.6767389 -0.44932082 -0.22936237 0.60825056 0.07851841 -0.28141615
-0.4213222 -0.09658516 0.24307689 -0.07737915 0.1826989 0.40303445 0.6932274 0.19832028
-0.33420837 0.0772653 -0.33566895 0.036404952 0.5378568 0.486103 -0.49405947 0.6232167
0.052043542 -0.07660784 0.55061185 0.41394767 -0.3770573 -0.6796331 -0.7533147 0.6283542
-0.27182484 0.34085277 -0.066162474 0.3059891 0.4504724 0.43589297 -0.4570733 0.530413
0.52328634 -0.44392544 -0.1457598 0.5270271 0.67274445 -0.2965782 0.16190004 0.5348146
0.5970028 0.19096659 0.6627198 -0.8028123 -0.86631584 0.32732826 -0.07619277 0.21085662
0.60081565 0.09068357 -0.23646054 0.14801809 0.09387498 0.30065182 -0.15293656 0.3967969
-0.40183982 0.6975719 0.08458484 0.50976324 0.06984896 -1.073757 0.2978204 0.53811955
0.5211928 0.5180254 -0.1773855 0.1267927 0.06313665 -0.2718782 -0.47378838 0.64590025
-0.5729191 -0.26778567 0.4225015 0.050471637 -0.52964896 -0.56787384 0.56746143 -0.5099387
0.55141693 -0.23996176 0.32216197 -0.05427454 -0.48524675 -0.8931221 -0.48751116 0.46511453
-0.30999473 0.38917693 -0.19979993 0.3643325 -0.04301799 0.5277888 -0.47663903 0.48802587
0.36067066 -0.1627045 0.26978505 0.31248444 0.20217183 -0.23138617 0.6198063 0.022684611
-0.43211395 0.60892314 0.11270381 -0.2789944 -0.2785292 0.47076026 0.20516412 -0.41569227
0.23105158 0.48184028 0.10794442 0.44872358 -0.6226912 -0.49280822 0.20322931 -0.5030672
-0.47587845 -0.22208834 -0.225824 0.32595885 -0.45519868 -0.05058236 -0.23188503 0.19528939
0.21321642 0.47744018 0.40047824 -0.74966 -0.15900569 -0.060769796 -0.009643601 -0.44885316

Q.2.weight f4 [256, 256]
00000000: 63f6 a63e 70aa a73d d461 f23e 82e4 043c
00000010: 74dd 863f 0f6e 32bf 8589 d5bc 4779 523a
00000020: 6a90 ca3d 94d5 1f3d 2049 cabe 407f 17be
00000030: 96b0 443d c448 963d 28c5 b9bf c820 abbe
00000040: 092a 703d 7981 b53c 5796 153e 5beb bd3d
00000050: ac69 193f 0fb9 e23e 0b8e 793e df94 82c0
00000060: 5722 153e 10df 3fbe 8a6b 55bf 9f82 483e
00000070: 2275 6ebe 4500 36bd 3b3e 243e a66a b73d
00000080: 37d2 333f 0cb8 253f 28b9 abbe c0b5 9bc0
00000090: 1f13 383f c3df e7bc 6579 703d 97f2 21c0
000000a0: 4e79 a4be c7e5 0e3d 7672 353f 9585 a6bf
000000b0: 1a22 3cbd 5359 c1bd b7d3 363c 5c54 3dbc
000000c0: 1ac1 253d 2166 423d aaef e63e 276c 22bf
000000d0: 7e87 25be 3076 df3b 4809 3f3d 8c3c 90bd
000000e0: b364 763f 300f c43e 742e 273d 1a2c 5e3d
000000f0: 0f07 a73d 838b c6be b693 f63e 4eb2 f73e
00000100: 5df0 b0be 2e34 66bd 4ca1 543d a76f 46be
00000110: 639e d83c 9a34 3dbf 4341 743b 247d 66bd
00000120: c52b 133f b18c 7fbe 8c52 93bd f0cf a2be
00000130: fe00 993d 3a63 60bc fbeb 293e 3532 34c0
00000140: eff9 c8bf c92b 633e a943 0d3e 554a 483e
00000150: 0d8a e43e 0b1c 01be c3e8 ca3e 6b07 833c
00000160: 9025 d5bb 99ec 11be cfe7 0fbc 4f24 6abd
00000170: 0e27 f83e 97cc 213d a324 00bd cb0b 983e
00000180: a6cd 8c3e ded2 ccbe 1c61 1abe fa5b 1d3d
00000190: 8cd0 f1be 03e8 a43d c101 153e 9b7f 04be
000001a0: 4df0 ae3d ada9 7ebf 2ed5 69c0 9e0c 66bd
000001b0: bb8a 4dbd c29d 183d a6f6 91bf 1727 933d
000001c0: 8b8b 55be 9c16 a43d 8975 66be 097d af3e
000001d0: 7b62 97bb 4aea 763d 7c78 183e 4b02 08be
000001e0: be2c 90bf ae50 8d3f 61b9 c0bd a811 823e
000001f0: d944 353f d25e 053c f2b4 c33c 6d8d b1bc
00000200: 20f7 753e b4f6 2ebe 62b3 70be 8ebb 953d
00000210: ce61 73be d24b 59be 9223 80be 2e54 d23d
00000220: a2d2 323f f700 923e d7e6 ad3d 987f 8abd
00000230: 1e08 983d 0068 6a3d b248 81be 4a5d 35be
00000240: ac02 113d b625 ff3d 75dd f13e 84e3 163d
00000250: 6465 0bbd 95ab 5fbf 32f2 233d 4a4e 92bd
00000260: 51e8 553b dced 33bd 1b7e 03bf ea9b 1ac0
00000270: 59fd b03e d0c7 49bd 8b92 a8bc f783 03bf
00000280: 26c2 79bd 905e 5b3f 1ec9 0fbf 2c4a e0bf
00000290: f1a4 d4bf 0488 3f3e 17e5 95be 8ea4 483e
000002a0: 8e44 6cc0 b5e5 01bc 29ee 813e 3d22 f7bd
000002b0: 65b9 c7be f802 acbb 638c 843d 4f70 833d
000002c0: 803f 573f 0f68 76be b1c6 c0bd e396 783d
000002d0: f227 0e3f bc78 683e ec98 b4bd 7ec7 db3c
000002e0: 6bf7 a33d bbb4 ba3d 0d65 09bf 9415 27c0
000002f0: 9134 b63b aa32 28bf dd82 07bd be15 0cbe
00000300: 4e17 14c0 4cdd f8bf 0dc5 8ebd 7d1a a43e
00000310: 5056 13bc 6463 7dbd 5344 dcbd 1d65 d23e
00000320: d0bc c93d 13f6 d8be 4c10 33be a0ff 763f
00000330: 5405 ed3e 6fea 8abf 2eb9 e73d 88f4 4dc0
00000340: a85f 143c 0d19 c53e e7da 423f 52e9 863d
00000350: 9050 853d b4e9 b83d 4578 22bd 264a acbf
00000360: 8eaf 69bf aed1 28be a050 123f 45f7 a53e
00000370: bb6d 0dbc ff27 febd 05c4 f43c e0d7 42bc
00000380: cedf 033f fb3d ffbc 06f6 023f 9748 fe3d
00000390: 771a e63e 847d 8ebe f93c a1bd b9fd 743f
000003a0: 718f ffbd cc67 edbf d080 813e a2d4 543d
000003b0: 2955 d63d c437 d93e 64b6 d23d 65d0 9fbd
000003c0: e998 853b bc0d 373e 0914 d9be 6b39 923c
000003d0: 45fc e73e b3c3 323e d2eb fb3d 33b0 e63d
000003e0: 7b86 83be a3cc 533d 4cec 833e 4858 a8bf
000003f0: 55da 13bd c366 b73e 996c fabe cb2f 143f
0.32609853 0.08186805 0.47340262 0.008111121 1.0536332 -0.69699186 -0.026066551 0.0008028936
0.09890826 0.039022043 -0.39508915 -0.14794636 0.048019968 0.07338098 -1.4513292 -0.33423448
0.058633838 0.022156464 0.14608131 0.09273406 0.5992687 0.44281814 0.24370591 -4.0806727
0.14563881 -0.18737435 -0.83367217 0.19581078 -0.2328687 -0.04443385 0.16039364 0.089558885
0.7024264 0.6473396 -0.335397 -4.8659363 0.71904176 -0.02830494 0.05870952 -2.5304315
-0.32123798 0.0348871 0.7087778 -1.3009516 -0.04593096 -0.09440865 0.011158875 -0.011555757
0.04046736 0.04746068 0.45104724 -0.6344628 -0.16164967 0.006819509 0.04663971 -0.070427984
0.96247405 0.38292837 0.040815786 0.054241277 0.08155643 -0.38778314 0.4815957 0.48378223
-0.34558383 -0.056202106 0.051911637 -0.1937853 0.026442712 -0.7390839 0.0037270344 -0.056271687
0.5748866 -0.24956013 -0.07193479 -0.3179927 0.07470892 -0.013695532 0.16593926 -2.8155644
-1.5701274 0.22184671 0.13795342 0.19559605 0.44636574 -0.12608354 0.39630708 0.015994748
-0.006504722 -0.14250411 -0.008783295 -0.057163533 0.48467296 0.039501753 -0.03128494 0.29696497
0.27500647 -0.4000463 -0.15076107 0.038417794 -0.4722942 0.08052065 0.1455145 -0.12939303
0.085419275 -0.99477655 -3.6536365 -0.056164376 -0.05018113 0.037259825 -1.1403396 0.0718519
-0.20854013 0.08012125 -0.22505774 0.34275082 -0.004619894 0.06028203 0.14889711 -0.13282125
-1.1263654 1.1040246 -0.09410358 0.25404096 0.7080818 0.008140283 0.023889992 -0.021673882
0.24020052 -0.17086297 -0.23505929 0.07311164 -0.23767778 -0.2122033 -0.25027138 0.10269962
0.6985265 0.2851636 0.08491295 -0.06762618 0.07423423 0.05722809 -0.25250775 -0.17711368
0.03540294 0.12458365 0.4723927 0.03683807 -0.03403224 -0.8737119 0.040025897 -0.07143839
0.0032639692 -0.043928012 -0.51364297 -2.4157662 0.3456829 -0.04926282 -0.02057769 -0.5137324
-0.06097617 0.85691166 -0.56166255 -1.7522635 -1.6612836 0.1870423 -0.29276344 0.19594023
-3.6916842 -0.007928302 0.25377014 -0.12067077 -0.39008632 -0.0052493773 0.06472089 0.064179055
0.8408127 -0.24063133 -0.094128974 0.06069077 0.555297 0.22702307 -0.0881823 0.026828524
0.080061756 0.09116503 -0.53669816 -2.610692 0.0055604656 -0.6570231 -0.033083785 -0.13680169
-2.3139224 -1.9442534 -0.06971178 0.3205146 -0.0089927465 -0.061862364 -0.10755219 0.41092768
0.09850466 -0.4237524 -0.17486686 0.964838 0.46293128 -1.0852793 0.11314617 -3.21805
0.009056009 0.38495675 0.7611527 0.06587471 0.06509507 0.0902895 -0.03966548 -1.3460128
-0.912835 -0.16486236 0.57154274 0.32415214 -0.008632119 -0.124099724 0.029878626 -0.011892289
0.51513374 -0.031157484 0.5115665 0.12416189 0.44942066 -0.27830136 -0.07872958 0.9569965
-0.12478531 -1.8547301 0.2529359 0.051960595 0.10465462 0.42425358 0.102886945 -0.0780342
0.004077066 0.17876333 -0.42398098 0.017849645 0.45309654 0.17457466 0.123008385 0.11264076
-0.25688538 0.05170883 0.25766218 -1.3151941 -0.03609689 0.35820588 -0.48910978 0.57885426

Q.2.bias f4 [256]
00000000: 6487 57bd 3a70 21be 7472 b1bd a288 bcbd
00000010: 340b 19bc a03b 07bd cff9 a83d 086d cc3d
00000020: d778 37bd d631 d43d 655c bf3d 6f56 5bbd
00000030: 3545 4d3d 0290 73bd 1d5d 303e 8e87 68bd
00000040: 9469 8abc 662a fb3d ded0 6abd 3e5f 113e
00000050: 607b acbb 497f 70bd 9a93 c8bd cd39 3abd
00000060: e647 083e 5638 983b cf48 be3d d589 5c3d
00000070: b61e 583d bbbb 4a3d d993 93bc de95 85bc
00000080: 1c6f 593b 74a0 883d f1f4 e73d c86e 863d
00000090: 8fd6 0fbc a043 a73d 83a7 d3bc 097d 0abe
000000a0: 2126 62bd b456 d63c 7444 903d 95df 3f3d
000000b0: 10eb 723d 734e 9c3d f656 1d3e 7f77 113b
000000c0: 309f 843d 58f1 6c3d badb d43d 5ce9 c2bd
000000d0: c333 b5b7 bf71 943d 2463 deba 51b1 a33c
000000e0: 2b99 8bbd 4027 023e c40c b13d e29c 4dbd
000000f0: 32a4 f63d 6931 b73d bb83 033e a0f6 dabd
00000100: 69ff 49bd 56b2 ba3d c8ef 26bd b4ea 59bc
00000110: 80b6 263d 9e5e ed3c c89d 433d b919 6dbe
00000120: 9c2b 5fbd 706d cd3d e905 893d 7863 073e
00000130: a646 923d 9796 85bc 66eb 103e 45bf 09be
00000140: 8b72 8d3c fe2c a23d 12f4 a5bd 033a a1bc
00000150: 8dd4 0e3e e3d2 d0bd 7fe8 113e 8080 bf3b
00000160: 228c ec3d 9f0e dc3d aaef 3ebd 5904 91bc
00000170: fe33 76bd ac4f ad3d b047 da3c 39ae 44bd
00000180: 08fe 19bd acb6 883d 4175 f03c cb76 f93d
00000190: c5a5 05bd 75f6 2b3d d3b3 6f3d 5d74 083d
000001a0: 4ae2 97bd 5fb0 383e 3940 d53c 1219 233b
000001b0: 0695 e73d ba06 59bd 0133 c23d 5041 81bd
000001c0: 5c60 593e 13dd 133e cf14 11bd a922 b8bd
000001d0: f4a2 ae3c 5206 ef3d 4a3c 9c3d 11ab 1e3b
000001e0: 61f5 6d3d e06c 6fbc 4798 063e 2806 ce3d
000001f0: 9790 f1bc dc61 c33d 8b90 1b3e fb40 17bd
00000200: 3f95 4dbd 8edd 7f3d 0ee4 0dbe 85e8 283e
00000210: 5b1b 69bd e434 123e 6fdc 86bd 2716 c7ba
00000220: 022e 81ba f02d 4c3d fecb b4bd 4b1c 053e
00000230: 2f07 ef3d e4c0 d23c 3c67 6cbb 63df 3bbe
00000240: f3e7 10bc 400b a73d d048 963d 832a 173c
00000250: 6501 75bd 6bc0 b1bd d124 043e ad4e f8bd
00000260: 1cf2 5c3d 7a29 013e 4f2d e1bc 99d4 e63d
00000270: d2a5 eabc d786 05bd b3ab 0f3e 2c55 db3d
00000280: 112d 183c d427 f23d 8dd8 f63d c13b b53d
00000290: b184 be3d f8b9 aabd ea00 843d bd31 b63d
000002a0: 8dc1 9a3d f7bf c33d 9aa2 533c 7fab b23d
000002b0: efbb 233d bc79 6bbd e8fe d33d 8387 58bc
000002c0: b13b e63d 474e d33d 7ad6 e03d 4321 5fbd
000002d0: 3a0c bd3d 5218 e93c 217c 1e3d 8fbf 933c
000002e0: 208a a6bd fa38 6cbc df55 b83d 389a 203e
000002f0: 51e6 ed3d 2f72 7cbd 0bb2 b0bc 36b3 97bd
00000300: e05f f83c 488e ca3c 993b a63d fa0c 64bd
00000310: e653 0fbd aa60 53bc d37e 2a3e 9eba bcbc
00000320: 1d73 42bd a665 fa3b 3571 ff3d 10ad dabc
00000330: e76c 8d3d 69e8 2f3d 75d4 263e 20f2 5f3d
00000340: fa36 003e f8df 463d 7805 073d 78e7 c43d
00000350: 4183 99bc d3f4 22bd 3e07 2f3e 70dc 98bc
00000360: a41f 1dbd af75 5d3d 08f1 82bc b178 7bbd
00000370: ab31 45bd bd9e 6f3e 5fad 083d 2b0b 183d
00000380: 3fc3 4e3d b612 93bc 38af 3fbd 83e3 bdbc
00000390: bcb9 b63d b6c6 36bd 0a59 923c 154c 8d3c
000003a0: 9d9a b9bc 2010 253e a649 5a3d 6a68 9d3d
000003b0: 4282 c83c ef75 61bd 9373 22be 75ca 693d
000003c0: 0c6d 583d ceb0 15bd a7cf 72bd 8864 a93c
000003d0: 26a8 98bc 3bfc c33d 29e5 ba3d 3662 313d
000003e0: dc2e bbbc d3bb 76bc b6c3 d93d 1679 023c
000003f0: 56f6 bd3d f30d f1bd 35d1 403d 88ec 603d
-0.052619353 -0.15765467 -0.08664408 -0.09205748 -0.00934105 -0.033015847 0.08250772 0.099817336
-0.044792976 0.10361068 0.09343795 -0.053549226 0.05011483 -0.05946351 0.1722302 -0.0567699
-0.016896047 0.12263946 -0.057328098 0.14196488 -0.005263731 -0.05871514 -0.09793778 -0.04546528
0.13308677 0.0046453876 0.09291231 0.053842384 0.052763663 0.04949544 -0.018014835 -0.016306814
0.0033177799 0.06671229 0.11326016 0.065640986 -0.008779182 0.08167195 -0.025836712 -0.1352426
-0.055212144 0.02616439 0.070443064 0.046844084 0.059306204 0.076321505 0.15365204 0.002219647
0.06475675 0.05784735 0.10393472 -0.09517166 -2.1600985e-05 0.07248258 -0.0016966802 0.019982012
-0.06816324 0.12710285 0.08645013 -0.050198443 0.120430365 0.08944971 0.1284322 -0.10691571
-0.049315844 0.09116046 -0.040756017 -0.0133005865 0.04070139 0.028975781 0.047757894 -0.23154344
-0.05448495 0.10030639 0.066905804 0.13221538 0.07142381 -0.016307158 0.14152297 -0.1345187
0.017266532 0.07918738 -0.08103193 -0.019680982 0.13948269 -0.101964734 0.14248846 0.005844176
0.11550166 0.10744976 -0.04661528 -0.017702268 -0.060108177 0.08462462 0.026645511 -0.048017714
-0.03759578 0.06675467 0.029352786 0.12180861 -0.032628793 0.041983087 0.058521103 0.033314098
-0.07416208 0.1803603 0.0260316 0.002488677 0.11307721 -0.05298493 0.094823845 -0.063112855
0.21228164 0.14439802 -0.035420235 -0.08990986 0.021317936 0.116711274 0.07628687 0.002421085
0.05809534 -0.01461336 0.13144027 0.10059768 -0.029487891 0.095401496 0.15191858 -0.036927205
-0.05019116 0.06246715 -0.13856527 0.16494949 -0.056910854 0.14277989 -0.06585013 -0.0015189097
-0.000985563 0.049848497 -0.08827971 0.12999074 0.11671292 0.025726743 -0.0036072275 -0.18346934
-0.0088443635 0.08156443 0.07338107 0.009226444 -0.059815783 -0.08679279 0.1290467 -0.12124381
0.05394183 0.12613478 -0.027487425 0.112710185 -0.028643522 -0.032599296 0.14030342 0.107096046
0.009288088 0.11824003 0.120530225 0.08849288 0.093026526 -0.08336252 0.06445487 0.088962056
0.07556448 0.09558099 0.012917185 0.087241165 0.03997415 -0.05748914 0.10351354 -0.013215902
0.11241854 0.103176646 0.10978408 -0.05447508 0.09230848 0.02845398 0.038692597 0.018035678
-0.08131814 -0.014417881 0.090007536 0.1568383 0.11616195 -0.06163233 -0.021569273 -0.07407229
0.030319154 0.024726048 0.08116836 -0.055676438 -0.03499212 -0.0129014645 0.16649942 -0.023038205
-0.04747306 0.007641512 0.124727644 -0.02669385 0.06905537 0.042946253 0.16291983 0.054674268
0.12520972 0.048553437 0.0329642 0.09614462 -0.018739345 -0.039784264 0.17092606 -0.0186598
-0.038360253 0.05406731 -0.015984073 -0.061394397 -0.04814307 0.23400398 0.033368465 0.037120026
0.05047917 -0.017953258 -0.04679796 -0.023179775 0.08922145 -0.0446231 0.017864723 0.017248193
-0.022656733 0.16119432 0.053292893 0.07685931 0.024476174 -0.05504411 -0.158644 0.057077844
0.05283837 -0.036545567 -0.059280064 0.02067782 -0.018634867 0.095695935 0.0912574 0.043306552
-0.022849493 -0.015059429 0.10633032 0.007963439 0.092755005 -0.11770239 0.047074515 0.054913074

Q.4.weight f4 [2, 256]
00000000: d5a7 85c0 1a98 c9bf 9eb1 3b40 6d77 6340
00000010: becb 84bf 7e26 d13c a9d1 f6bf b108 71bf
00000020: cfcc d93d 2322 923d 7d1b 12bf 48ba fa3c
00000030: bede 2e3d 3001 653f 89fe ec3f 047c 5bbd
00000040: 3abd 183c beb8 acbf e6d5 39bd 60c2 da3c
00000050: 9ce1 6ebd 45dd 77c0 788b 10c0 acfa b63e
00000060: 94a9 18bf 788f a43e 74b1 513f d19c 063f
00000070: 24cd 953f e175 203f 678d da3a bb6b 0e3f
00000080: c0eb 293f c619 373f abea 7dbf 8bde e7be
00000090: 6099 803b 4a60 343f 7473 b53e 0ac1 42c0
000000a0: 621b 33bd c805 f53e d39b 4fbf bd36 2a3f
000000b0: 6c7a d5bf 3294 4c3f caab 503f ed10 d1be
000000c0: 68a4 9c3e e439 aebf fe2e 8d3e 66a8 26c0
000000d0: 98d3 933f 99f6 a8bf 6377 87bf f4c2 19bf
000000e0: e120 133f 460b 213f 006e 323f e7e1 42c0
000000f0: 0729 4f3f 3756 493f 1c20 4abf f700 be3f
00000100: cac7 2bbd 8df8 f5bc 99e8 0840 de69 b73e
00000110: 97db 543f f6e0 98bf d315 1bbf 4235 4c3f
00000120: 7265 343d 77a9 f1bc ea3f 483f f313 9a3f
00000130: 002d 563f 84ee fb3c de6f 9f3f 033a ea3f
00000140: 75aa ae3e 6531 4d3f 3462 70c0 7636 343d
00000150: fe2c 883f 34dc 7b40 9a18 70bf 12fb 3fbd
00000160: 9f61 6cbf f3b4 debf 3ee0 54bd df4d ab3f
00000170: 6276 77bf e6e5 1a40 92b7 34bd 231a 2d3e
00000180: 9d95 203f 8085 9f3e a2f5 953d 9cdd 583f
00000190: bbd9 dbbe 8fdb 623f 616b 923f 1a31 adbd
000001a0: e392 e33e 8900 b23e 50c5 66bd b647 f03e
000001b0: da1c 503f 8cbc 32bf 1dc5 5b3f f5b1 043f
000001c0: 1f38 a53e cb54 64bf 6a3e 30bd 20ca 843e
000001d0: 2036 833a 7971 6abf 8ec0 3e3e 83fd 793c
000001e0: fec3 47bd e7a2 d8bf 4ca4 c9bf b447 76bf
000001f0: dd27 c43e 2c41 9e3e d51f f33e 3f56 48bd
00000200: c0fe f9bf 3749 dd3e 36fb 33c0 4284 54bf
00000210: 8e0f ea3e 8b7e 693f 53ce 1cbd babf 343f
00000220: d5dd fbbe 1ca3 a93e 45fc d93e 599e bb3e
00000230: 3d36 353f 768e 083f 6208 6cc0 0170 32c0
00000240: 82ab e8bf 4fc7 263f d097 943e e42e c23e
00000250: e001 07be 4c65 4340 2628 fb3f 46b0 d13f
00000260: a4a2 9fbf 524d 503f 63ef 373f 5e3e 9e3f
00000270: 2ce5 333d 0968 89be 0f10 683f ac10 c8bf
00000280: 2a04 10bd 3823 183f 016a fc3f 646c 993f
00000290: 2f94 e43e e0e5 d13e b396 4fbf 7797 19bf
000002a0: 4fb6 583f 603b 573f fe29 ef3e 7acc 573f
000002b0: 1636 aa3e 1199 74bd b1d8 61bf 8b32 f43f
000002c0: 2545 4bbf aa2b 1240 8903 bd3e a10d e6ba
000002d0: e3e0 ef3e 357f 423d ec4d 603e 3d7e f3bf
000002e0: 9fa7 02c0 caa7 e93e 548a f93e 3ef7 5dbf
000002f0: 6125 993e be1d 7dbc c81c 30bc 6aac 6fc0
00000300: 2f7d c73e 3f19 283e 3bf6 5f3f 964b a93f
00000310: 9918 03bf fccd f33f f4f4 b5bf 20b6 d93e
00000320: 96f9 84c0 b1a6 b43f eac0 9a3f 005d 043a
00000330: b5ff 4b3f 9db1 1cbd 5025 4e3f a007 6a3f
00000340: 43df 29be 36e1 18c0 97f5 f4bb d149 d93e
00000350: c083 273c 09a4 963c ca52 e23e 331d 5abd
00000360: 136f 47bd b2b5 0340 70cd 723d 7a7c d7bb
00000370: 3ead 13bd 8031 6abf 18d4 33bf 0bcb 3ebf
00000380: 1a42 a73e 4749 0b40 e5fc 2fc0 d999 60bc
00000390: 6931 b03e 5b1f 06bd a0ce 99bc 0d15 6bbc
000003a0: 6243 d33e 0280 413f 9fea a83e 5f71 a9bf
000003b0: be4e 4fbd 0a43 e33f da23 bebf 6906 ccbf
000003c0: 66b4 8f3e 88c8 8f3c 60f7 923f 0593 46bf
000003d0: ab8f 83bf 3864 05be cf49 3fbe 6881 4dbc
000003e0: 74bd 5a3d 7ea3 273e 5234 3c3f baed 24be
000003f0: a21e 613e 8507 803f 8bd6 5dbb 929f 983f
-4.1767373 -1.5749543 2.932716 3.5541642 -1.0374677 0.02553105 -1.9282733 -0.9415389
0.10634767 0.07135417 -0.57073194 0.030606404 0.042692892 0.89454937 1.8515178 -0.053585067
0.009322459 -1.3493879 -0.045370005 0.026704013 -0.058320627 -3.8728802 -2.2585125 0.35738122
-0.59633756 0.32140708 0.81911397 0.5258303 1.1703229 0.6267987 0.0016674221 0.55633134
0.6637535 0.715237 -0.991862 -0.45286974 0.0039245337 0.70459425 0.35439646 -3.0430322
-0.043727286 0.47855973 -0.81097144 0.66489774 -1.6677985 0.7991363 0.8151213 -0.40833226
0.30594182 -1.3611417 0.27574915 -2.6040282 1.1548948 -1.3200256 -1.0583309 -0.600631
0.57472044 0.62907827 0.69699097 -3.045038 0.8092198 0.7864718 -0.78955245 1.4844044
-0.04193858 -0.030025745 2.1391966 0.35822958 0.8314757 -1.1943653 -0.60580176 0.79768765
0.04404206 -0.029499752 0.78222525 1.2037338 0.83662415 0.030753382 1.2456014 1.8298954
0.34114423 0.80153495 -3.7559938 0.04399725 1.063873 3.9353151 -0.9378754 -0.0468703
-0.9233646 -1.7398971 -0.051971667 1.3383139 -0.9666501 2.420282 -0.04412038 0.16904502
0.6272829 0.3115654 0.07322241 0.8471315 -0.42939553 0.8861627 1.143902 -0.08456631
0.44448003 0.34766033 -0.056340516 0.4692971 0.81294024 -0.6981895 0.85847646 0.5183404
0.3226938 -0.89191884 -0.043028273 0.2593546 0.0010010637 -0.91579396 0.18628141 0.015258196
-0.048770897 -1.6924714 -1.5753264 -0.9620316 0.38311663 0.30909097 0.47485223 -0.048910376
-1.9530869 0.4321992 -2.8122077 -0.8301431 0.45714992 0.91208714 -0.038282704 0.7060505
-0.49192682 0.33132255 0.4257528 0.36644247 0.70785886 0.5334238 -3.6880116 -2.7880862
-1.817734 0.6514787 0.29022074 0.379264 -0.13184309 3.0530577 1.9621627 1.6381919
-1.2471509 0.8136798 0.7184965 1.2362783 0.043919727 -0.26837185 0.90649503 -1.5630088
-0.03516022 0.5942874 1.971985 1.1986203 0.44644305 0.40995693 -0.81089324 -0.5999674
0.8465318 0.84074974 0.46711725 0.8429638 0.3324439 -0.059716288 -0.8822127 1.9077924
-0.7940238 2.283915 0.3691676 -0.0017551669 0.46851262 0.047484595 0.21904725 -1.90229
-2.0414808 0.45635825 0.48738348 -0.86705387 0.2991133 -0.015448986 -0.0107490495 -3.7448983
0.38962695 0.1641588 0.8748509 1.3226192 -0.5120941 1.9047236 -1.4215379 0.42521763
-4.155467 1.411337 1.2090123 0.00050492585 0.7968705 -0.038255323 0.80525684 0.91417885
-0.16589074 -2.3887458 -0.0074755657 0.4243913 0.010224283 0.018388765 0.44203788 -0.053250503
-0.048689913 2.0579648 0.05927795 -0.006576118 -0.03605389 -0.9148178 -0.70245504 -0.7452857
0.3266762 2.1763475 -2.7498105 -0.013708555 0.34412697 -0.032744747 -0.018775284 -0.014348281
0.41262347 0.7558595 0.32991502 -1.3237723 -0.050612204 1.7754834 -1.4854691 -1.5939456
0.2806732 0.017551675 1.1481743 -0.77568084 -1.0278219 -0.13026512 -0.186805 -0.01254306
0.053403333 0.16370961 0.73517334 -0.1610631 0.21984342 1.0002295 -0.0033849801 1.1923697

Q.4.bias f4 [2]
00000000: 5033 cdbd 4c16 6ebd
-0.10019553 -0.058126733
