2.3 Prioritized-Experience-Replay-DDQN-DQN/LightPriorDQN_gym0.2x/model/DDQN_LLdV2_200.pth (torch, 278863 bytes, 6 tensors)

Q.0.weight f4 [256, 8]
0	0x3d4862a9	0.048922215
1	0xbf371e62	-0.71530735
2	0xbe561c5c	-0.20909256
3	0x3eb4ec1d	0.3533639
4	0x3ebb5e74	0.365955
5	0x3ef4abed	0.4778742
6	0xbeb57d02	-0.35446936
7	0x3d02539c	0.031818017
8	0x3df5d7db	0.12004062
9	0xbd91597c	-0.07097146
10	0x3e88e5b2	0.26737744
11	0xbde8a8e9	-0.11360342
12	0xbe9594bd	-0.2921504
13	0x3f6a0282	0.91410077
14	0x3a99cfdb	0.0011734919
15	0x3d87817a	0.066164926
16	0xbd089bcc	-0.033351704
17	0xbe76a9ff	-0.24088286
18	0xbe7d285e	-0.2472243
19	0x3e46c5ff	0.19411467
20	0xbf0f8762	-0.5606595
21	0x3ebc8e5a	0.36827356
22	0x3e0004cc	0.1250183
23	0x3ed1fab4	0.41011584
24	0x3e57502a	0.21026674
25	0x3e16290d	0.14664097
26	0xbda6bd40	-0.08141565
27	0x3e26f0c9	0.1630279
28	0x3f1459dd	0.5794962
29	0xbf406ac2	-0.751629
30	0xbf933fa9	-1.1503803
31	0xbbf1f944	-0.007384451
32	0x3e9333ac	0.2875036
33	0x3ecf311b	0.40467152
34	0xbbb5095a	-0.0055247964
35	0x3d9560c8	0.0729385
36	0x3ec6a7d4	0.38799918
37	0x3e3f3f37	0.18676458
38	0xbda06594	-0.078318745
39	0xbf83f1f1	-1.030821
40	0xbf20516d	-0.62624246
41	0xbeab8800	-0.33502197
42	0x3e02b5d0	0.12764668
43	0xbd047a6f	-0.032343324
44	0x3d81b97a	0.06334205
45	0x3f08b603	0.5340273
46	0x3eb65b7c	0.35616672
47	0x3e57c448	0.21070969
48	0x3e672742	0.2257357
49	0xbdd6cc82	-0.104882255
50	0x3eae9dc6	0.34104747
51	0x3e444fa4	0.19171005
52	0x3ee3ad3d	0.44468108
53	0x3f212fad	0.6296337
54	0xbebf1120	-0.37317753
55	0x3c0a6cdf	0.008448808
56	0xbf6abda5	-0.91695625
57	0xbed00add	-0.40633288
58	0xbef955ca	-0.48698264
59	0x3f50c652	0.8155261
60	0x3ebf2758	0.37334704
61	0xbf03d8ee	-0.51502883
62	0x3df87b0f	0.121328466
63	0x3f599f61	0.8500882
64	0x3ebd54d1	0.36978772
65	0x3e32e7b4	0.174712
66	0x3e12b178	0.14325511
67	0xbf05832c	-0.5215328
68	0xbeef2aec	-0.46712434
69	0xbbbaac9b	-0.0056968457
70	0xbf012692	-0.5044948
71	0x3ed17922	0.4091273
72	0xbf1d2c88	-0.61396074
73	0xbe5e2e6d	-0.21697398
74	0xbef19f30	-0.47191763
75	0x3f00cd57	0.50313324
76	0xbf149848	-0.5804486
77	0xbe12631d	-0.14295621
78	0xbe87b1a6	-0.26502723
79	0x3c2332b9	0.009960824
80	0x3f732f7d	0.94994336
81	0x3e62d272	0.22150591
82	0xbf482531	-0.7818175
83	0x3bdc7487	0.0067277583
84	0x3eefe35c	0.4685315
85	0x3e991cd8	0.2990482
86	0xbe1a342f	-0.15058969
87	0xbe95f4a8	-0.2928822
88	0xbf4e19a0	-0.8050785
89	0xbe36c0e2	-0.17847016
90	0xbe992544	-0.29911244
91	0xbe944654	-0.28959906
92	0x3ef9efbd	0.48815718
93	0x3da873c6	0.08225207
94	0x3e71fea5	0.23632295
95	0x3ccf9042	0.025337342
96	0xbe81c6fe	-0.25347131
97	0xbe95136d	-0.29116383
98	0xbf1c5924	-0.6107352
99	0xbf02e0ec	-0.51124454
100	0x3eb6df3a	0.35717183
101	0xbe4b1d25	-0.19835337
102	0xbf1ef15b	-0.6208703
103	0xbd3411bf	-0.043962236
104	0x3f5099ad	0.8148449
105	0x3e0f5d76	0.14000496
106	0x3f0f5de3	0.56002635
107	0x3f17a0af	0.5922956
108	0xbf580707	-0.8438572
109	0xbf51deba	-0.8198048
110	0x3ea6ba84	0.32564175
111	0xbcb56051	-0.022140654
112	0xbf23f3a8	-0.64043665
113	0xbed06356	-0.40700787
114	0xbf0b495a	-0.544088
115	0xbe36e89b	-0.1786217
116	0xbe068cbf	-0.13139628
117	0x3ea577db	0.32318005
118	0x3e527a33	0.20554428
119	0x3ea69ee7	0.32543108
120	0x3f010259	0.5039421
121	0x3e067967	0.13132249
122	0xbe96622f	-0.29371783
123	0x3f4bbbd9	0.7958351
124	0x3efd7f9c	0.4951142
125	0x3d22d7a9	0.03975645
126	0x3e7c44a4	0.2463556
127	0x3f270e7a	0.65256464
128	0x3de0518b	0.10953053
129	0xbf014d76	-0.5050882
130	0xbeecdbbc	-0.46261394
131	0xbe83448e	-0.2563824
132	0x3d70e7ce	0.058814816
133	0xbef8f94a	-0.48627692
134	0x3ea5d799	0.3239105
135	0x3e8ddec4	0.2770902
136	0xbdf6347c	-0.12021729
137	0xbd677e24	-0.05651678
138	0x3f26ec1f	0.6520404
139	0xbf1e10ea	-0.6174456
140	0xbf2b3b83	-0.6688768
141	0xbed1a7f5	-0.40948454
142	0x3ee84b15	0.45369783
143	0x3ee3534e	0.44399494
144	0x3eed2ad3	0.46321735
145	0xbe6cc260	-0.23121023
146	0xbf343d33	-0.7040588
147	0x3f1d22e2	0.6138135
148	0x3f2506de	0.64463603
149	0xbd42926f	-0.04750293
150	0x3e9e909c	0.30969703
151	0x3db1d686	0.08683495
152	0xbf06aa58	-0.52603674
153	0x3e8f696e	0.28010124
154	0xbdb8823d	-0.09009216
155	0xbf2a1e78	-0.6645274
156	0xbec26935	-0.37970892
157	0xbe84f5ad	-0.25968686
158	0x3ebe1c1f	0.3713083
159	0x3dcd4d24	0.10024479
160	0xbef0d59f	-0.4703798
161	0x3f4fa8a1	0.8111668
162	0x3e68de07	0.22740947
163	0xbedbc32c	-0.42922342
164	0x3e2d5a75	0.16929038
165	0x3e844f2f	0.25841662
166	0xbf19788a	-0.59949553
167	0xbef72638	-0.48271346
168	0xbf13a431	-0.5767241
169	0xbe558969	-0.20853199
170	0xbec533ab	-0.38515982
171	0xbc6137d4	-0.013746221
172	0x3f4a84cb	0.79108876
173	0x3e4efe43	0.2021418
174	0xba25dda2	-0.00063272764
175	0xbda5c465	-0.080941
176	0xbf71472e	-0.94249237
177	0x3e609159	0.21930446
178	0x3f3914d3	0.722974
179	0xbcfc8bc9	-0.030828374
180	0x3de4b581	0.111674316
181	0xbed976c9	-0.42473438
182	0x3dd9e138	0.1063866
183	0x3f121741	0.5706673
184	0xbf05c61b	-0.5225541
185	0xbf00dbe1	-0.5033551
186	0x3e40fbfc	0.18846124
187	0xbc02a69d	-0.007974294
188	0x3ee5acf4	0.44858515
189	0x3eb76c6a	0.358249
190	0x3e4602a0	0.19336939
191	0xbf0c4fa0	-0.54809
192	0x3ecdce2e	0.40196365
193	0x3e352db9	0.17693223
194	0xbd6b6d34	-0.05747719
195	0xbece5e2b	-0.4030622
196	0x3eac4269	0.33644417
197	0xbcb6f184	-0.02233196
198	0xbddbbe63	-0.10729673
199	0x3ea91009	0.33020046
200	0xbf15ca84	-0.5851214
201	0xbe31ef09	-0.17376341
202	0xbed17e50	-0.4091668
203	0xbf173cb1	-0.5907698
204	0xbe0efc91	-0.13963534
205	0x3eb0159f	0.34391496
206	0x3e809e89	0.25120953
207	0xbefbe06f	-0.49194667
208	0x3e82a57d	0.25516883
209	0x3dcf991f	0.101366274
210	0xbf07af4b	-0.5300185
211	0xbec6f0a9	-0.38855484
212	0x3ed26237	0.41090557
213	0xbeed1102	-0.46302038
214	0xbf1504c4	-0.58210397
215	0xbe0fe71f	-0.1405301
216	0x3c87e27f	0.016587494
217	0x3d277d7b	0.040891152
218	0x3e15ebd0	0.14640737
219	0xbc9c5d06	-0.019087326
220	0x3e8fd886	0.28094882
221	0xbf612254	-0.87943006
222	0x3ea6386e	0.32464927
223	0x3f348778	0.7051921
224	0xbf2c6802	-0.67346203
225	0xbde172cb	-0.11008223
226	0x3e3046f2	0.17214563
227	0x3e8d0582	0.27543265
228	0x3eda4b7b	0.42635712
229	0xbe38b4f7	-0.18037783
230	0xbd9938ce	-0.07481538
231	0x3e732b2c	0.23746938
232	0x3dbf68bb	0.093461476
233	0xbca3dc0c	-0.020002387
234	0xbe3d7b48	-0.1850406
235	0xbc322d83	-0.010875109
236	0xbdc803bf	-0.097663395
237	0xbdf313d9	-0.1186902
238	0xbe337879	-0.17526425
239	0xbe2f8c15	-0.17143281
240	0xbe88dd84	-0.26731503
241	0x3ed97c20	0.42477512
242	0xbe502e03	-0.20330052
243	0xbeed8b6d	-0.46395436
244	0x3ebdb34a	0.3705085
245	0x3e777ef8	0.24169528
246	0x3e953ff8	0.29150367
247	0xbd4e3c07	-0.050350215
248	0x3d836be3	0.06417062
249	0xbe442abc	-0.19156927
250	0xbe93fbe6	-0.2890312
251	0xbea7d8f7	-0.3278272
252	0x3f1c6f63	0.6110746
253	0x3bfd3ef9	0.007728454
254	0xbf07df06	-0.5307468
255	0xbee166a8	-0.44023633

Q.0.bias f4 [256]
0	0xbebf5cfc	-0.3737563
1	0xbcbb6cbd	-0.022878999
2	0x3ecc5373	0.39907417
3	0xbe68792c	-0.22702473
4	0xbeea03e8	-0.45706105
5	0x3ef46166	0.4773056
6	0xbe94dc1d	-0.29074183
7	0x3e77fd1c	0.24217647
8	0xbe7feb47	-0.24992095
9	0xbdac340e	-0.08408366
10	0x3ef2b8c0	0.47406578
11	0x3e031310	0.1280024
12	0x3dba3b08	0.090932906
13	0x3ec01d5f	0.37522408
14	0xbe7cac1a	-0.24675027
15	0x3f452a73	0.770179
16	0x3e87946a	0.26480418
17	0x3f5ad747	0.8548474
18	0x3e21eec7	0.15813743
19	0x3edcde95	0.43138567
20	0xbdaede48	-0.085384905
21	0x3ed3c67a	0.41362363
22	0x3ed9ac6f	0.4251437
23	0x3ed5a1be	0.41724962
24	0xbe8ee42c	-0.27908456
25	0x3f10e816	0.56604135
26	0x3e6c5f4b	0.23083226
27	0x3eaf6997	0.34260246
28	0xbdcde4f4	-0.10053435
29	0xbea44125	-0.3208095
30	0x3f0a3800	0.539917
31	0x3e8b9ced	0.27268162
32	0x3ea20cd3	0.3165041
33	0x3e031e16	0.12804446
34	0x3e9c5eb9	0.30541018
35	0xbeca5bf2	-0.39523274
36	0x3e314c95	0.1731437
37	0xbaade890	-0.0013268162
38	0x3e01e12e	0.12683555
39	0x3eadecde	0.33969778
40	0x3eb618d2	0.3556581
41	0xbeaccf68	-0.33751988
42	0xbdb4d7d2	-0.08830227
43	0xbdeef456	-0.11667697
44	0xbefe3611	-0.49650624
45	0x3e194edb	0.14971487
46	0x3e9d61f4	0.30738795
47	0x3d08e4ee	0.03342145
48	0x3eeeaac5	0.46614662
49	0x3eff7be7	0.49899217
50	0x3ef59951	0.47968534
51	0x3d809619	0.06278629
52	0x3edb5483	0.42837915
53	0x3e8cf3aa	0.2752965
54	0xbb08017a	-0.0020752833
55	0x3ec6745c	0.3876065
56	0x3c57d2dc	0.013172831
57	0x3e61ea31	0.22061993
58	0x3eb4dbb0	0.35323858
59	0x3ee44599	0.4458435
60	0xbe166536	-0.14687046
61	0x3ed8ad3d	0.4231967
62	0xbe17d95c	-0.1482901
63	0x3f464ee9	0.7746416
64	0xbed7bd0d	-0.42136422
65	0x3f1264c4	0.57185006
66	0xbdd60906	-0.1045094
67	0xbefff178	-0.49988914
68	0xbeab5686	-0.3346445
69	0x3ee1e088	0.44116616
70	0xbe90035b	-0.2812756
71	0x3e84ba22	0.25923258
72	0x3e7ab5e9	0.24483456
73	0xbed44f13	-0.4146658
74	0xbf0769ba	-0.528957
75	0xbeda9297	-0.42689964
76	0x3ea24065	0.31689754
77	0x3ef6d4d7	0.4820926
78	0x3e7b90bd	0.24566932
79	0xbe2bc600	-0.1677475
80	0x3e52fb54	0.20603687
81	0x3e7775f0	0.24166083
82	0xbe2bb00f	-0.1676638
83	0x3f036a98	0.51334524
84	0xbedf9453	-0.4366785
85	0x3f183e62	0.5947019
86	0x3ec89ab8	0.3918054
87	0x3e276285	0.16346176
88	0xbe10dcc8	-0.14146721
89	0xbe2f969b	-0.17147295
90	0xbe847869	-0.25873116
91	0x3ecfd774	0.40594065
92	0xbdb9eeba	-0.090787366
93	0x3ecd731f	0.40126893
94	0x3e413aa5	0.18870027
95	0x3e52d9a2	0.20590833
96	0x3efb4e90	0.49083376
97	0x3eecbf96	0.46239918
98	0x3ea0085b	0.31256375
99	0x3d9ab9a6	0.07554941
100	0x3f04ff21	0.51951796
101	0x3ef0c8f1	0.47028306
102	0x3ebd0bc0	0.36923027
103	0x3f211e17	0.6293654
104	0xbe810875	-0.25201765
105	0x3e58a0f3	0.21155147
106	0xbf033d07	-0.51264995
107	0x3ef60964	0.4805404
108	0x3ea47fe7	0.32128832
109	0xbe1f16cc	-0.1553604
110	0x3e43bc35	0.19114764
111	0xbe5d3d40	-0.21605396
112	0x3e8a8999	0.27058104
113	0xbc877f49	-0.016540186
114	0xbe387141	-0.18011953
115	0xbe0682d1	-0.1313584
116	0x3eb91cb8	0.36154723
117	0x3e91e082	0.28491598
118	0x3f0405d2	0.5157138
119	0x3ed63822	0.418397
120	0xbe186ecb	-0.14886014
121	0xbe631e5c	-0.2217955
122	0x3ec281d4	0.37989676
123	0xbd2e6ed0	-0.042586148
124	0x3eddee14	0.43345702
125	0xbe2fd192	-0.17169788
126	0x3eb19e9b	0.3469132
127	0xbc1ffdf8	-0.009765141
128	0x3db0ac36	0.08626597
129	0x3ea7c089	0.3276408
130	0x3de6e8e3	0.11274888
131	0x3ef968be	0.48712724
132	0xbeab4b7c	-0.33456028
133	0xbe9bfe87	-0.30467626
134	0x3f2cf9b9	0.67568547
135	0xbc62e3bb	-0.0138482405
136	0xbeb059ae	-0.3444342
137	0xbef2ac83	-0.4739724
138	0x3ef0bfb5	0.4702126
139	0x3e824868	0.25445867
140	0x3f13dc3c	0.57757926
141	0xbea192ed	-0.31557408
142	0x3b29c3bd	0.0025904023
143	0x3cc1f107	0.023674501
144	0x3ebdeeaf	0.37096164
145	0xbe1d92d9	-0.15388049
146	0x3ec3b999	0.38227537
147	0x3de9b25b	0.11410972
148	0xbeaf5589	-0.34244946
149	0x3e24151a	0.16023675
150	0x3e213b95	0.15745385
151	0xbd4a57cf	-0.049400147
152	0x3e409078	0.1880511
153	0x3e8ed004	0.27893078
154	0xbe254af3	-0.16141872
155	0x3ea26b8c	0.31722677
156	0xbea0760c	-0.31340063
157	0x3cffb3d1	0.031213673
158	0x3e4bdff1	0.19909646
159	0xbcce0f77	-0.025153859
160	0xbed128f3	-0.40851554
161	0xbdd89ca0	-0.10576749
162	0x3e61922a	0.22028413
163	0x3eca9109	0.39563778
164	0xbe6cee1d	-0.23137708
165	0x3e958690	0.29204226
166	0xbec73723	-0.38909253
167	0x3dfd3731	0.123640426
168	0x3e7a5cf7	0.24449526
169	0x3e92e539	0.28690508
170	0x3e4d2fac	0.20037717
171	0x3e64308c	0.22284144
172	0x3e913b05	0.2836534
173	0x3e8d6c58	0.27621722
174	0x3e977153	0.29578647
175	0xbe48b2d6	-0.1959947
176	0x3ed04066	0.40674132
177	0x3f66b6c7	0.90122646
178	0xbecf2b93	-0.40462932
179	0x3e9653ce	0.29360813
180	0xbdf2c1c9	-0.11853368
181	0x3e802879	0.25030878
182	0x3ef0844d	0.46975937
183	0x3e65ea2a	0.22452608
184	0x3ec0b33e	0.3763675
185	0x3e002dd2	0.12517479
186	0xbe204f72	-0.15655306
187	0x3eb55abd	0.3542079
188	0x3d93a20d	0.07208643
189	0x3da14de8	0.078761876
190	0x3edd19f7	0.43183872
191	0x3e49c9d8	0.19705904
192	0xbe64145c	-0.22273391
193	0x3ef48a65	0.47761837
194	0x3dfb31d0	0.1226536
195	0xbd6afa71	-0.057367746
196	0xbe2a9040	-0.1665659
197	0xbb97f4d4	-0.00463734
198	0x3d90614e	0.070498094
199	0x3ea1e7cf	0.31622168
200	0x3dc365b2	0.09540881
201	0x3e109f82	0.14123347
202	0xbe123186	-0.14276704
203	0x3efdd86e	0.49579185
204	0x3e6f8d26	0.23393688
205	0x3eedddab	0.46458182
206	0x3e026b94	0.1273635
207	0xbec9a5fb	-0.39384446
208	0xbe3d95a7	-0.18514119
209	0xbf101d31	-0.5629454
210	0x3e19bb35	0.1501282
211	0xbdb2da97	-0.08733099
212	0xbd9fc8c7	-0.07801967
213	0x3f4799eb	0.77969235
214	0x3bb89d3d	0.0056339786
215	0x3e6b2aca	0.22965541
216	0x3e5ba83b	0.21450894
217	0x3f324003	0.69628924
218	0xbe37dd61	-0.17955543
219	0xbe61a751	-0.22036482
220	0x3e830582	0.2559014
221	0xbe9229fb	-0.28547654
222	0xbf1b2ecc	-0.6061828
223	0x3a161dcc	0.0005726486
224	0xbf256fdd	-0.64623815
225	0x3f005151	0.5012408
226	0x3f0fc145	0.5615428
227	0xbe5920e2	-0.2120395
228	0xbe47aa3f	-0.19498537
229	0x3d9303a3	0.07178428
230	0x3ba6299e	0.005070879
231	0xbefe5b63	-0.49679098
232	0x3e210b2c	0.15726918
233	0xbe81da44	-0.25361836
234	0xbeb2b5a5	-0.3490421
235	0x3e2813b1	0.16413762
236	0xbe6a007d	-0.22851749
237	0x3eeb6759	0.45977286
238	0x3df66601	0.120311745
239	0xbe9ed6f6	-0.31023377
240	0x3f26b7e9	0.65124375
241	0x3e968141	0.29395488
242	0xbe2720ea	-0.1632115
243	0x3e377af7	0.17918001
244	0x3e5fd868	0.21859896
245	0x3e1c3d32	0.15257719
246	0x3ed643ed	0.41848698
247	0xbe1be9fa	-0.15225974
248	0x3e98b3f6	0.298248
249	0x3ecc9b1a	0.39962083
250	0xbed15a5d	-0.40889254
251	0x3eb82ae2	0.35970217
252	0xbc361b09	-0.011114844
253	0x3f416343	0.75542086
254	0xbc89590c	-0.016766094
255	0x3d14710b	0.03624062

Q.2.weight f4 [256, 256]
0	0xbf4b1596	-0.7932981
1	0xbddae169	-0.10687525
2	0x3ebf1bac	0.373258
3	0xbe938ba1	-0.28817466
4	0xbe9d66e8	-0.30742574
5	0x3ceee062	0.029159728
6	0xbedd98cf	-0.43280646
7	0xbc35d22d	-0.011097473
8	0x3ed3abdb	0.41342053
9	0x3f485e8f	0.78269285
10	0x3e90bafa	0.28267652
11	0x3d8ace7b	0.06777664
12	0x3eb0c9eb	0.3452905
13	0xbc80ab82	-0.015706781
14	0xbed1b17a	-0.40955716
15	0x3e51cadb	0.2048754
16	0x3e71ab4e	0.23600504
17	0x3e1022ad	0.14075728
18	0xbe843a64	-0.258258
19	0x3df55ca0	0.119805574
20	0x3e0569bf	0.1302862
21	0x3e3c100f	0.18365501
22	0x3e8c1cd1	0.27365735
23	0xbe0ea9dc	-0.13931984
24	0x3f025a91	0.50919443
25	0x3d8d7a19	0.06908054
26	0x3e852576	0.26005143
27	0x3e468f6a	0.19390646
28	0x3f386df7	0.72042793
29	0xbc93c9f8	-0.018040642
30	0x3dafe041	0.08587695
31	0x3f10ee4e	0.56613624
32	0xbe1443f9	-0.14479055
33	0xbdd1a986	-0.10237412
34	0xbb570817	-0.0032811218
35	0xbc21d725	-0.009877955
36	0x3e0f1f7b	0.13976853
37	0x3c10f156	0.0088466015
38	0xbdaf66fe	-0.08564566
39	0x3eb56cf2	0.3543468
40	0xbe9ce259	-0.3064144
41	0xbe85ad18	-0.26108623
42	0xbf0c7aa8	-0.5487466
43	0xbf21998a	-0.63124907
44	0x3f79d652	0.9759265
45	0xbdf9821b	-0.12183019
46	0x3e2b0a10	0.16703057
47	0xbe8f2293	-0.27956066
48	0x3e3a5952	0.18198135
49	0x3e14050a	0.14455047
50	0x3ea310ec	0.31848848
51	0xbcc96d55	-0.024588266
52	0x3e4c5d43	0.19957452
53	0x3dec5dbc	0.11541316
54	0x3ed40270	0.4140811
55	0x3e4204e2	0.18947175
56	0x3f0f5268	0.55985117
57	0xbe9701fb	-0.29493698
58	0x3eca3c95	0.39499345
59	0x3d1b8177	0.037965264
60	0xbdb63666	-0.088970944
61	0x3ecbfab4	0.3983971
62	0xbe9c3b0d	-0.30513802
63	0x3d819758	0.06327695
64	0xbe430dbf	-0.19048212
65	0x3d7fe1ac	0.062471077
66	0x3e9334bb	0.28751168
67	0xbf2d816b	-0.677756
68	0xbeff5fa0	-0.49877644
69	0x3e085ff6	0.13317856
70	0xbed85dff	-0.42259213
71	0xbccad74e	-0.024760868
72	0xbe8b6ec5	-0.27232948
73	0xbf06111d	-0.5236986
74	0xbf74c6c9	-0.9561582
75	0x3e963ae2	0.293418
76	0x3b68f8e9	0.0035548753
77	0x3e061e45	0.13097484
78	0xbdebc733	-0.115126036
79	0xbe6bea54	-0.23038608
80	0xbc0cb934	-0.008589078
81	0xbe0c6a31	-0.13712384
82	0xbe825567	-0.25455782
83	0xbce09270	-0.027413577
84	0xbf15396c	-0.58290744
85	0x3e1dd004	0.15411383
86	0x3e22fd4d	0.15916939
87	0x3e0aacb8	0.1354245
88	0xbe0d6b88	-0.13810551
89	0xbe844707	-0.2583544
90	0xbedf19b8	-0.4357431
91	0x3e96ecb9	0.2947748
92	0x3d17a7d0	0.037025273
93	0x3cc8d9e3	0.024517959
94	0x3e5ffee4	0.21874577
95	0x3e6c75d7	0.23091827
96	0x3e9b0083	0.30273828
97	0x3d958840	0.07301378
98	0xbe4b7c4f	-0.19871639
99	0xbebfeb5f	-0.3748426
100	0x3e0ec00a	0.13940445
101	0x3de3b31d	0.111181475
102	0x3e093ab7	0.13401304
103	0x3ddcda64	0.10783842
104	0x3ebfeb08	0.37484002
105	0x3dc2f7d8	0.09519929
106	0xbe4797cc	-0.194915
107	0xbd49673c	-0.049170718
108	0x3cdfabc9	0.027303593
109	0x3e97b64b	0.29631266
110	0x3f203020	0.6257343
111	0xbdce5498	-0.10074729
112	0x3f04d816	0.5189222
113	0xbe91a66f	-0.2844729
114	0xbd811050	-0.063019395
115	0x3dd20ddc	0.1025655
116	0x3e739d7c	0.23790544
117	0xbe346e37	-0.17620169
118	0xbd82aa57	-0.06380146
119	0x3ed64282	0.41847616
120	0x3da0a78a	0.078444555
121	0xbea5bb6a	-0.32369548
122	0x3e4c1073	0.1992815
123	0x3e5f47b8	0.21804702
124	0x3e5792b9	0.21052064
125	0xbe00fb85	-0.12595947
126	0x3e7698a0	0.2408166
127	0x3f09f488	0.5388875
128	0x3eaef5d9	0.34171942
129	0x3edfa6cc	0.43681943
130	0xbe24819f	-0.16065072
131	0xbd80f8c8	-0.06297451
132	0xbf097c91	-0.537057
133	0xbe48f9e7	-0.1962658
134	0x3e495706	0.19662103
135	0x3e62ac60	0.22136068
136	0xbeb1e754	-0.34746802
137	0xbf65e4ef	-0.8980245
138	0xbd947cfd	-0.07250402
139	0xbcd1412d	-0.025543774
140	0x3dd54394	0.1041328
141	0xbe407025	-0.1879278
142	0x3f541598	0.8284545
143	0xbd7e2272	-0.06204457
144	0x3cf2fe22	0.029662196
145	0xbeae8cb5	-0.34091726
146	0xbdfb4287	-0.122685485
147	0x3edacf8d	0.42736474
148	0xbeb40b61	-0.3516493
149	0xbcb56449	-0.022142546
150	0x3e4761ca	0.19470897
151	0x3eb6c826	0.35699576
152	0xbd80a16f	-0.06280791
153	0xbdb1384a	-0.086533144
154	0xbe610e90	-0.21978211
155	0xbe3b23cb	-0.18275373
156	0x3f358718	0.7090926
157	0xbf0e274e	-0.55528724
158	0x3c3873a7	0.011258042
159	0x3d800efa	0.062528566
160	0x3e9e7a3d	0.30952635
161	0xbc95b35a	-0.018273998
162	0xbe312ca5	-0.17302187
163	0x3e5c7fc7	0.21533118
164	0xbeaefa77	-0.34175465
165	0x3e934ab3	0.28767928
166	0xbf2873ed	-0.6580189
167	0x3e319210	0.17340875
168	0x3e32bedd	0.17455621
169	0x3ed8886d	0.42291585
170	0xbcf40131	-0.029785724
171	0x3eba3dfa	0.3637541
172	0xbdc552e5	-0.096349515
173	0x3e6059ba	0.21909228
174	0x3e972064	0.295169
175	0xbe1f63da	-0.15565434
176	0xbd0ef264	-0.03489913
177	0x3d0c3694	0.034231737
178	0xbf070136	-0.5273622
179	0x3d82186c	0.06352314
180	0xbe83fc1e	-0.25778288
181	0xba3b072d	-0.0007134553
182	0xbea87a52	-0.32905823
183	0x3ee57b1b	0.44820485
184	0x3ed382f1	0.41310838
185	0xbdec3dc9	-0.11535222
186	0xbefc6a3c	-0.492998
187	0x3dd67de4	0.104732305
188	0x3eee61cd	0.4655899
189	0x3e80dedf	0.25170037
190	0x3e7ab261	0.24482109
191	0x3e99d4b4	0.30045092
192	0xbf22853c	-0.6348455
193	0x3d1b98e0	0.03798759
194	0xbe5dc1fa	-0.21656027
195	0x3e213ed9	0.1574663
196	0x3d13fd72	0.036130376
197	0xbe975776	-0.29558915
198	0x3ebf01a5	0.37305942
199	0x3ed78a78	0.4209783
200	0xbec9edb8	-0.39439178
201	0x3ed560ca	0.41675407
202	0x3e7349aa	0.2375857
203	0xbd987b65	-0.07445411
204	0x3e5cd0a8	0.21563971
205	0xbe2b42ca	-0.16724697
206	0x3eb85329	0.36000946
207	0xbe71bca6	-0.2360712
208	0xbea9d77c	-0.33172214
209	0xbf773b88	-0.9657521
210	0x3e4c8579	0.19972791
211	0xbbf239df	-0.0073921527
212	0xbede21a5	-0.43385044
213	0x3e1daa29	0.15396942
214	0x3c4b8765	0.012422417
215	0xbdbbb656	-0.09165637
216	0x3c2ccbf6	0.010546675
217	0x3e0bc5e9	0.13649715
218	0xbf51128d	-0.8166893
219	0xbf0664ff	-0.5249786
220	0xbe50253f	-0.20326708
221	0xbea6ad79	-0.32554224
222	0xbd87021b	-0.065921985
223	0x3ef27690	0.4735608
224	0xbf940e96	-1.1566951
225	0x3e33769a	0.17525712
226	0x3eb80996	0.35944813
227	0xbe17871f	-0.14797638
228	0x3dd18986	0.10231309
229	0xbe11fa88	-0.14255726
230	0xbe3f9415	-0.18708833
231	0xbf556b39	-0.83366734
232	0xbe9d782b	-0.30755743
233	0xbe67422b	-0.22583835
234	0xbeaeada6	-0.34116858
235	0xbe91799e	-0.284131
236	0x3f298c8b	0.66230077
237	0x3de1b15b	0.11020156
238	0xbe8fc1b8	-0.28077483
239	0xbcb01974	-0.021496512
240	0x3d7b73fa	0.0613899
241	0xbe4c1f4e	-0.19933817
242	0xbee0d730	-0.43914175
243	0xbf11dbb2	-0.56975853
244	0x3eb30479	0.3496435
245	0x3ec00a64	0.37507927
246	0x3e02e3ee	0.12782261
247	0x3edf222c	0.4358076
248	0xbe756500	-0.2396431
249	0x3eab2dcf	0.33433387
250	0xbe29439c	-0.16529697
251	0x3e73e544	0.23817927
252	0x3f0d2d4c	0.5514724
253	0x3e25e9c5	0.16202457
254	0x3f14b450	0.58087635
255	0x3dabd5ad	0.08390365

Q.2.bias f4 [256]
0	0x3e4baf9f	0.19891213
1	0x3d0c6f36	0.034285747
2	0xbda354c1	-0.0797515
3	0xbdaaf248	-0.08346993
4	0x3c3ba28b	0.0114523275
5	0x3e66855c	0.2251181
6	0x3e025a5b	0.1272978
7	0xbdbb7bb0	-0.09154451
8	0x3e589e77	0.211542
9	0x3e23147f	0.15925787
10	0x3dbc6fa8	0.09200984
11	0xbbd9eb22	-0.0066503445
12	0x3d491d3c	0.049100146
13	0x3e25df70	0.16198516
14	0x3bf6788d	0.007521695
15	0xbcdcccd0	-0.026953131
16	0x3d931d7b	0.07183357
17	0x3d944ee1	0.072416075
18	0xbd3d9f8a	-0.046294726
19	0x3e44f01b	0.19232218
20	0x3e884e00	0.2662201
21	0xbd3d7277	-0.04625174
22	0x3e0d9e30	0.13829875
23	0xbdeea8c2	-0.11653282
24	0x3c1f3d8b	0.009719263
25	0xbd2938e9	-0.04131404
26	0x3e7ab7d8	0.24484193
27	0x3e18a1de	0.14905497
28	0xbc879268	-0.016549304
29	0x3dae3e87	0.0850802
30	0x3e865442	0.2623616
31	0xbe4e6848	-0.20156968
32	0xbcf69442	-0.030099992
33	0x3e2fc1e3	0.17163806
34	0x3dbb1b29	0.0913604
35	0xbcda6fce	-0.02666464
36	0xbccf8745	-0.025333056
37	0x3e67acb9	0.22624482
38	0x3db91e35	0.09038965
39	0x3e22278c	0.15835398
40	0x3dfefa38	0.12450069
41	0xbd091063	-0.033462893
42	0xbe661c71	-0.22471787
43	0x3de08e54	0.10964647
44	0x3e58cf23	0.21172766
45	0x3e43c35a	0.1911749
46	0x3e207a28	0.15671599
47	0x3dea4fa0	0.114409685
48	0x3da8fb30	0.08251035
49	0x3d28851f	0.04114258
50	0xbcc725f0	-0.024310082
51	0x3dfdba16	0.12389009
52	0xbb3651f5	-0.0027819846
53	0xbcc4df96	-0.024032395
54	0x3e275b65	0.16343458
55	0x3ddc6823	0.1076205
56	0x3c507d5c	0.0127252005
57	0x3dba61e9	0.09100706
58	0x3e15688d	0.14590664
59	0x3d39ed10	0.045392096
60	0xbe012c2a	-0.12614504
61	0xbd93c5b9	-0.07215447
62	0x3bfb5dc5	0.0076710903
63	0x3b9f1259	0.004854482
64	0x3d9631f0	0.073337436
65	0x3d904ab5	0.07045499
66	0x3e873a7f	0.26411816
67	0x3e582f50	0.21111798
68	0x3d749a62	0.059717543
69	0x3d6f550c	0.058430716
70	0xbd343d5e	-0.044003837
71	0x3e190acb	0.14945523
72	0xbd051eb2	-0.032499976
73	0x3d4b18be	0.049584143
74	0x3d3b978e	0.04579883
75	0x3d0f24ac	0.034947082
76	0x3ddd015d	0.10791276
77	0xbd60aab3	-0.05485029
78	0xbc7de7ed	-0.01549719
79	0x3db35c77	0.08757871
80	0x3cb5d240	0.022194982
81	0x3e074de0	0.132133
82	0xbd3f2b49	-0.04667214
83	0x3db2ba86	0.08726983
84	0xbc63d740	-0.0139063
85	0x3d94e270	0.07269752
86	0x3ce03a0b	0.027371427
87	0xbe19f6f7	-0.15035616
88	0x3e141e7a	0.14464751
89	0x3dc1e34b	0.09467181
90	0x3d70bde1	0.058774833
91	0x3e27dfd4	0.16393977
92	0x3c9b7cff	0.018980501
93	0x3e0a41ec	0.1350171
94	0x3de5efa5	0.11227349
95	0x3d6ed222	0.058305867
96	0x3e16e127	0.14734326
97	0x3dfcb3d5	0.12338988
98	0x3d7fdd2f	0.062466796
99	0x3e826904	0.25470746
100	0xbb88f423	-0.004179494
101	0x3dc2a30f	0.09503757
102	0x3ddd9266	0.10818939
103	0xbcd72418	-0.026262328
104	0x3de1fad3	0.11034169
105	0x3da730ce	0.08163606
106	0x3d9a1f88	0.07525545
107	0x3de2dc97	0.110772304
108	0xbc9209e0	-0.017826974
109	0xbc008f7f	-0.007846712
110	0x3e678c50	0.22612119
111	0x3ba048c9	0.004891489
112	0xbd31f509	-0.043446574
113	0x3da80cf0	0.08205593
114	0x3e2003d1	0.15626456
115	0x3c76a3d3	0.015053707
116	0x3deb4ca9	0.11489231
117	0x3e254bfd	0.16142268
118	0x3c1cd423	0.009572062
119	0x3e2b039a	0.16700593
120	0x3dcb9b52	0.099417344
121	0x3e3aa180	0.1822567
122	0x3e50f34b	0.20405309
123	0x3dccfb9e	0.1000893
124	0xbde22a77	-0.11043256
125	0x3dc8e150	0.098086
126	0x3d6c5ea0	0.05770743
127	0x3e25c0c6	0.16186818
128	0x3e2f5321	0.17121555
129	0x3d87cafb	0.06630512
130	0xbce8d668	-0.02842255
131	0x3e02264e	0.12709925
132	0xba690767	-0.00088893477
133	0x3c5c5849	0.013448783
134	0xbd2de28b	-0.042452376
135	0x3e156692	0.14589909
136	0xbd8156b2	-0.06315364
137	0x3dda445f	0.10657572
138	0xbc7fd74f	-0.015615298
139	0xbb659634	-0.0035032155
140	0xbcc1b51e	-0.023645934
141	0x3e8656ed	0.26238194
142	0x3e49ca8c	0.19706172
143	0x3d32c10c	0.043641135
144	0xbe214d55	-0.15752156
145	0x3d728e39	0.059217665
146	0x3e977186	0.295788
147	0x3df4e2d0	0.119573236
148	0x3e183db0	0.14867282
149	0x3bbf88b7	0.005845155
150	0x3d9c73e4	0.07639292
151	0x3dcf4895	0.10121266
152	0x3dd1c7a4	0.102431566
153	0x3d654b9e	0.055980317
154	0x3e007a32	0.12546614
155	0x3db5d63d	0.08878753
156	0x3d4a5f04	0.04940702
157	0x3cb74c84	0.022375353
158	0x3e51aa32	0.2047508
159	0x3d507873	0.05089612
160	0x3cdada2a	0.026715357
161	0x3c0ee13d	0.008720693
162	0x3e056d00	0.13029861
163	0xbd7816c1	-0.060568575
164	0x3e6a5b00	0.22886276
165	0xbd42228e	-0.047396235
166	0x3d934608	0.07191092
167	0x3bd4b3df	0.006491169
168	0xbda615f1	-0.08109654
169	0x3de2a2c3	0.110662006
170	0x3ddcc57f	0.10779857
171	0x3dd76a22	0.1051829
172	0x3e309106	0.17242822
173	0x3cfe2c15	0.03102688
174	0x3d93321c	0.07187292
175	0x3e1434da	0.14473286
176	0xbd68372e	-0.05669325
177	0x3dc58173	0.09643831
178	0x3c75877d	0.014985916
179	0x3e3e03ee	0.18556187
180	0x3e192b54	0.14957935
181	0x3da90922	0.08253695
182	0x3e01be73	0.12670307
183	0x3e05d1ef	0.13068365
184	0x3de507f4	0.111831576
185	0x3da16cee	0.07882105
186	0x3cd52f9a	0.026023675
187	0xbd742dda	-0.05961404
188	0x3d9ee97c	0.07759377
189	0x3e59461f	0.21218155
190	0xbd40e957	-0.04709753
191	0xbd8983a7	-0.06714564
192	0x3d8389ee	0.064227924
193	0x3c22c0e8	0.009933688
194	0x3deaf819	0.11473102
195	0xbc8966d2	-0.016772661
196	0x3e679a09	0.22617353
197	0x3e489f6a	0.19592062
198	0xbd04d1d2	-0.032426663
199	0x3db9730a	0.09055145
200	0xbd92ae39	-0.071621366
201	0x3d449759	0.0479959
202	0xbd130a1e	-0.03589832
203	0x3e35d5c8	0.17757332
204	0x3e11ef2b	0.14251392
205	0x3e000ef3	0.12505703
206	0x3d9c234e	0.07623921
207	0x3cdc3f94	0.026885785
208	0x3d90bd51	0.07067359
209	0xbd70d83d	-0.05879997
210	0x3d4cf97a	0.050042607
211	0x3d74107c	0.059586033
212	0x3e05d8f5	0.13071044
213	0x3d9c49b9	0.07631249
214	0x3c17b149	0.009258577
215	0xbd6146d7	-0.0549992
216	0x3d49625a	0.04916606
217	0xbdf69524	-0.12040165
218	0x3e4957d3	0.19662409
219	0x3c516a0c	0.012781631
220	0x3e89fa48	0.26948762
221	0x3dbb51b2	0.091464415
222	0x3e3ad622	0.18245748
223	0x3e6b0c8c	0.22954005
224	0x3d269660	0.040670753
225	0x3d3ff97b	0.046868782
226	0x3d1e31d9	0.038621757
227	0x3d241375	0.04005762
228	0x3da25db0	0.07928026
229	0x3dee5340	0.116369724
230	0x3da382ac	0.07983908
231	0x3c8399bd	0.016064519
232	0x3d9243eb	0.071418606
233	0x3d420818	0.047371
234	0x3d1b924e	0.037981324
235	0x3e170868	0.147493
236	0x3d936713	0.07197394
237	0xbd1e1607	-0.038595226
238	0x3d7dd67f	0.061972138
239	0xbc658774	-0.014009345
240	0x3d12b5a0	0.035817742
241	0xbe2be606	-0.16786966
242	0x3db62e48	0.08895546
243	0x3d7b389f	0.061333295
244	0xbd6edf9d	-0.058318723
245	0x3d582b53	0.052775692
246	0x3e15d331	0.14631344
247	0xbbf33129	-0.007421632
248	0x3d25bea4	0.040465012
249	0x3dafc14a	0.08581789
250	0xbd533276	-0.051561795
251	0x3e22bcc2	0.15892318
252	0x3c166eb0	0.009181663
253	0x3b1da819	0.0024056493
254	0xbd9627d3	-0.073318146
255	0x3cb7f400	0.022455215

Q.4.weight f4 [4, 256]
0	0x3f372003	0.7153322
1	0xbecf77e7	-0.40521166
2	0x3fb12d91	1.3842031
3	0xbf1eb291	-0.6199122
4	0xbf2474b6	-0.64240587
5	0x3f1cf958	0.6131797
6	0x3f8944c4	1.0724111
7	0xbf7c60f3	-0.9858543
8	0x3f234e0f	0.6379098
9	0xbf282abc	-0.6569021
10	0xbefd437b	-0.49465546
11	0x3f0491a0	0.51784706
12	0x3d53ffbe	0.051757567
13	0xbe2209c3	-0.15824036
14	0xbedeeecf	-0.43541571
15	0xbf1c606a	-0.61084616
16	0x3ef23c84	0.47311795
17	0xbea93aec	-0.33052766
18	0xbf3351d0	-0.7004671
19	0x3f19ef04	0.60130334
20	0x3f2a6eb4	0.6657517
21	0xbbdd4c70	-0.006753497
22	0x3f632918	0.8873458
23	0x3f0ac5b1	0.54207903
24	0xbedc1002	-0.42980963
25	0x3f9411f2	1.1567976
26	0x3f057176	0.5212625
27	0xbf37db33	-0.71818846
28	0x3efdbf89	0.49560192
29	0xbf125340	-0.5715828
30	0x3f0c2f2d	0.54759485
31	0xbfa741eb	-1.3066992
32	0x3cf8b240	0.030358434
33	0xbeb3f6b3	-0.35149154
34	0xbef4be93	-0.47801647
35	0x3f0a9964	0.54140306
36	0xbf44a620	-0.76815987
37	0x3f10c016	0.565431
38	0xbe93ba06	-0.28852862
39	0xbfa59a27	-1.2937669
40	0xbea597ca	-0.32342368
41	0xbef50da8	-0.4786198
42	0x401c68f7	2.4439065
43	0xbe9c3607	-0.3050997
44	0xbf1f5e66	-0.62253416
45	0x3f90ee8a	1.1322796
46	0x3f2aacbe	0.66669834
47	0x3f21414b	0.62990254
48	0xbfa5f478	-1.2965231
49	0xbecba47e	-0.39773935
50	0x3efcd295	0.4937941
51	0xbed0633c	-0.4070071
52	0xbf3b1ada	-0.7308785
53	0xbce2ef7b	-0.027702084
54	0xbf1789f7	-0.5919489
55	0x3ccdf866	0.02514286
56	0xbeb72826	-0.35772818
57	0xbfa8d654	-1.3190408
58	0x3f3b0b66	0.7306427
59	0x3c21b774	0.009870399
60	0x3e392f7b	0.18084519
61	0xbe20b057	-0.15692268
62	0xbece0fd8	-0.40246463
63	0xbf2d99a6	-0.67812574
64	0x3f04be0d	0.51852494
65	0xbf5fdec6	-0.874493
66	0x3f132b50	0.57487965
67	0x3eecf9f9	0.46284464
68	0x3f154a78	0.58316755
69	0xbec057ca	-0.37566978
70	0xbcdf3aa4	-0.027249642
71	0xbee78486	-0.45218295
72	0xbee15dea	-0.44016963
73	0xbf4f2195	-0.8091062
74	0xbf11da47	-0.5697369
75	0xbf2e1bf9	-0.6801143
76	0xbe8d1f7d	-0.27563086
77	0xbf4bceb6	-0.7961229
78	0xbd0c50ec	-0.03425686
79	0xbeb13174	-0.34608042
80	0xbeea8a49	-0.45808628
81	0xbefd4303	-0.49465188
82	0xbd55eefa	-0.05222986
83	0x3dc9f93e	0.09861992
84	0xbf161029	-0.5861841
85	0xbf39e1aa	-0.7260996
86	0x3d14a8a2	0.036293633
87	0xbfc045a9	-1.5021259
88	0xbebdfe51	-0.3710809
89	0xbf0213c2	-0.508114
90	0x3c96e781	0.018420937
91	0x3f4695b0	0.77572155
92	0xbf1fb59d	-0.62386495
93	0x3f5dd280	0.8664932
94	0xbe80a364	-0.25124657
95	0xbf54cf62	-0.8312894
96	0x3fba4f25	1.4555403
97	0xbe66108c	-0.2246725
98	0xbed219a7	-0.41035196
99	0x3f4c26dd	0.797468
100	0x3f0f2ae1	0.55924803
101	0xbf23a4ba	-0.6392323
102	0xbeaf9d08	-0.34299493
103	0xbf4f3fc3	-0.8095667
104	0xbf08eb9d	-0.5348452
105	0xbed3c57c	-0.41361606
106	0xbecace76	-0.39610642
107	0xbe9c9685	-0.30583587
108	0xbc289cb9	-0.010291272
109	0xbec7c7cb	-0.39019617
110	0xbeba8cba	-0.3643549
111	0xbf2a6d68	-0.6657319
112	0xbef628e8	-0.48078084
113	0xbf46fb3a	-0.7772709
114	0xbebf7b39	-0.373987
115	0xbc70ff4f	-0.014709308
116	0x3f8e1acb	1.1101927
117	0x3efc50c4	0.4928037
118	0xbebe82b0	-0.37209082
119	0x3f57cb96	0.8429502
120	0x3f4f9478	0.8108592
121	0x3f1f0508	0.6211705
122	0x3e48da1a	0.19614449
123	0xbf10c173	-0.5654518
124	0xbf75a1c2	-0.9594995
125	0xbf42f000	-0.7614746
126	0xbf2cb2fa	-0.67460597
127	0xbe054f1c	-0.13018459
128	0x3f61a212	0.88137925
129	0xbef4fbc2	-0.47848326
130	0xbf4f5533	-0.8098938
131	0xbea0410c	-0.31299627
132	0xbf26a3a9	-0.65093476
133	0xbf1c51e7	-0.61062473
134	0x3f25e902	0.64808667
135	0xbeb9e7e1	-0.36309722
136	0x3d4a11fa	0.04933355
137	0x3e26fa11	0.1630633
138	0xbf0dbda5	-0.553675
139	0xbc35b0a4	-0.011089478
140	0x3d5ccae6	0.053904437
141	0x3f17bc63	0.5927183
142	0x3bdca637	0.0067336815
143	0xbec5f813	-0.38665828
144	0xbf2266be	-0.6343802
145	0x3f2dc1bf	0.6787376
146	0x3f24a392	0.6431209
147	0xbe07aec1	-0.13250257
148	0xbf0e651e	-0.5562304
149	0xbef7f764	-0.48430932
150	0xbe956782	-0.29180533
151	0xbea1e5d8	-0.3162067
152	0xbf528f49	-0.82249886
153	0x3f00d86f	0.5033025
154	0xbe8d1cb0	-0.2756095
155	0x3f0b2de2	0.54366887
156	0xbee4c5a5	-0.4468204
157	0xbebe82d3	-0.37209186
158	0xbf11b3d4	-0.5691502
159	0x3f398496	0.72467935
160	0xbf22e18d	-0.63625413
161	0x3f61ecb3	0.882518
162	0xbea02932	-0.3128143
163	0x3d6e3899	0.058159444
164	0x3e95e5f9	0.29277018
165	0xbf2ab461	-0.66681486
166	0xbed04cd1	-0.40683606
167	0xbefb8d5c	-0.49131286
168	0xbf25bc21	-0.64740187
169	0xbeeb483b	-0.45953545
170	0x3f34d8f2	0.7064353
171	0xbe0cffbf	-0.13769434
172	0x3f1406d5	0.57822925
173	0xbe8410c2	-0.25794035
174	0xbefec030	-0.49756002
175	0xbf039ca1	-0.5141087
176	0xbf4be711	-0.79649454
177	0x3f0482c6	0.51762044
178	0xbeec39d7	-0.46137878
179	0x3f02d686	0.51108587
180	0xbf01b5d9	-0.506681
181	0xbf007268	-0.5017457
182	0xbef7c3a0	-0.48391438
183	0xbf8ad043	-1.0844806
184	0xbf0e9141	-0.5569039
185	0xbf3bb1e5	-0.7331832
186	0x3f4eb1cc	0.80740047
187	0xbf006002	-0.50146496
188	0xbec6cd2f	-0.38828418
189	0x3efa6622	0.48906046
190	0x3d22a4f3	0.03970809
191	0x3baaa8e4	0.0052081216
192	0xbef0ecb0	-0.47055578
193	0x3d2f253e	0.042760126
194	0x3e45b449	0.19307055
195	0x3df034bf	0.117288105
196	0x3edfe2af	0.43727633
197	0xbea913dd	-0.33022967
198	0xbf24d5bb	-0.64388627
199	0x3def1be4	0.116752416
200	0xbf1ce701	-0.61289984
201	0x3f350490	0.70710087
202	0xbf2b0f58	-0.6682029
203	0xbf285f68	-0.6577058
204	0x3ee953c4	0.4557172
205	0x3f81ce48	1.0141077
206	0x3e5eac9d	0.21745534
207	0xbee84a35	-0.45369115
208	0x3f11f594	0.5701535
209	0x3d2d1e3d	0.042265166
210	0xbf4f8978	-0.81069136
211	0xbee0c5db	-0.43900952
212	0xbf1418fd	-0.5785063
213	0xbf01c131	-0.5068541
214	0xbf132f77	-0.574943
215	0x3f9c3d0f	1.2206134
216	0xbf1981c9	-0.5996366
217	0xbf1cfad6	-0.61320245
218	0xbe5669b4	-0.2093876
219	0xbf3906d6	-0.72276056
220	0x3f10ccad	0.5656231
221	0xbf1b3d62	-0.6064054
222	0x3f45fd62	0.77339756
223	0x3f40a495	0.7525113
224	0xbf11e517	-0.5699019
225	0xbf31d7e0	-0.69470024
226	0x3d0dcb7c	0.034617886
227	0xbec885c6	-0.3916456
228	0xbf039020	-0.5139179
229	0xbf285f77	-0.6577067
230	0xbef8e1c4	-0.48609746
231	0x3f045b6e	0.5170201
232	0xbf3f05ae	-0.7461804
233	0xbed17116	-0.4090659
234	0x3f42a58c	0.76033854
235	0x3f12c761	0.5733548
236	0xbf76eb0a	-0.9645239
237	0xbd7bf576	-0.061513387
238	0xbf29eeee	-0.663802
239	0x3f8ad918	1.0847502
240	0x3f5ce60a	0.8628851
241	0x3f36a8c8	0.7135129
242	0xbf1a4626	-0.6026329
243	0xbf2601a2	-0.6484624
244	0x3d6f4ac1	0.0584209
245	0x3f72b8ac	0.94813037
246	0x3f37c91e	0.71791255
247	0xbd4249e3	-0.047433745
248	0x3f0936e4	0.5359938
249	0xbe862ff0	-0.26208448
250	0xbb288436	-0.002571357
251	0xbf22caa8	-0.6359048
252	0x3c72d5a0	0.01482144
253	0xbd59db87	-0.053187873
254	0xbec32d48	-0.38120484
255	0x3f11e5a5	0.56991035

Q.4.bias f4 [4]
0	0x3e0969dc	0.13419288
1	0x3bf75040	0.0075474083
2	0x3d3af960	0.04564798
3	0x3dd58bcd	0.104270555
