2.3 Prioritized-Experience-Replay-DDQN-DQN/LightPriorDQN_gym0.2x/model/DDQN_CPV1_50.pth (torch, 272703 bytes, 6 tensors)

Q.0.weight f4 [256, 4]
000000 a0 d9 3f 3e 34 db 8a be c7 a7 57 3f 3d 56 c3 3d
       0.18735361 -0.27120364 0.8424038 0.09537933
000010 37 ed c0 3e 4f d2 59 3e c7 0e c8 bf e7 cc c3 be
       0.3768098 0.21271633 -1.562951 -0.38242266
000020 8e 89 c9 3c 72 12 b8 be 21 8c 59 bf e9 d9 9c 3e
       0.024601724 -0.35951573 -0.84979445 0.30635002
000030 d9 f6 0c bf a3 8c 8f 3e 15 23 52 3f 7c 59 77 3e
       -0.5506416 0.28036985 0.8208478 0.2415523
000040 43 64 f4 3d a8 65 5d be 98 2c b5 bf 3b e2 25 3f
       0.11933186 -0.2162081 -1.4154234 0.64798325
000050 73 7d 4c bf a7 f3 06 3e 9f ca 4a 3f 59 60 f9 3e
       -0.7987892 0.13178883 0.79215425 0.4870632
000060 84 fe c7 bd 31 9f 32 3e 1a ac 24 bd 8a 06 bf be
       -0.09765342 0.17443539 -0.04020319 -0.37309676
000070 a9 6d 22 bd ce 01 1f bd 4a 9d de bf 0b 09 a6 be
       -0.03965536 -0.03882008 -1.7391751 -0.32428774
000080 91 d2 b2 3e 8a b8 10 3f 85 d4 a0 bf 6c 0e d4 be
       0.34926274 0.56531584 -1.2564856 -0.41417253
000090 eb 78 09 3e 2e 65 b4 bd 53 26 b5 bf d5 1c 9f be
       0.13425033 -0.08808361 -1.4152321 -0.31076685
0000a0 7c 85 a3 be e9 b1 10 bf 38 44 8f 3f 19 9a 85 3e
       -0.31937778 -0.5652147 1.1192694 0.2609413
0000b0 8d 7d b8 3d fc 0c 4d 3e 6f 2c bc 3f 17 3c b2 be
       0.09008322 0.20024484 1.470106 -0.3481147
0000c0 0e e0 67 bc 82 ee 27 bc 63 18 0f 40 13 61 41 3e
       -0.01415254 -0.010249736 2.2358634 0.18884687
0000d0 7e 2a 04 3f e4 c7 cb 3e c2 26 0f bf 24 fd 98 bc
       0.5162734 0.39800942 -0.55918515 -0.018675394
0000e0 05 00 d9 3d 84 2e aa 3e 72 11 96 3f 83 da ba 3e
       0.10595707 0.33238614 1.1724074 0.36494836
0000f0 71 7d d6 3e e7 a7 ff be da 9f 38 3c 4c 62 f1 3e
       0.4189258 -0.49932787 0.01126858 0.47145307
000100 1b f0 5c 3f cb 53 0d bc 4e db 4e bf 08 a1 d9 be
       0.8630387 -0.008625935 -0.8080338 -0.4250567
000110 7a 89 f0 be 76 e7 41 3e 5e 84 b9 3f 10 c8 d6 3e
       -0.46979886 0.18935952 1.449352 0.4194951
000120 b4 24 19 bf 9f c5 b5 3e b7 8c 34 3f 90 46 93 3e
       -0.5982163 0.35502335 0.70527214 0.28764772
000130 50 b6 df be c4 8b 20 bf 37 73 3e bf e1 1d 3c be
       -0.4369378 -0.62713265 -0.74394554 -0.18370773
000140 16 76 00 3f c9 9e b1 3d 7c ad 8d 3c 5d 71 bb 3e
       0.50180185 0.08672864 0.017294638 0.36609927
000150 aa 75 da 3e 60 d1 42 be e6 bf 5a bf 7c 39 b2 3e
       0.42667896 -0.19025183 -0.85449064 0.34809482
000160 86 0a 66 bd 48 e5 6f bd 56 31 06 c0 25 81 8c be
       -0.05616238 -0.05856827 -2.0967612 -0.2744228
000170 9f 70 f5 bb 62 a0 b3 3b d0 da f1 3f b2 8d 70 3e
       -0.007490232 0.0054817656 1.8894901 0.23491552
000180 e8 0d 7b bf cf f4 b3 be 7f 70 6e bf 44 8b 48 3d
       -0.98068094 -0.35147712 -0.93140405 0.04896094
000190 f4 4d 8a be ac ce 1e 3e 55 52 b1 3f 26 df 97 3e
       -0.270126 0.15508527 1.3853251 0.29662436
0001a0 b6 c2 38 3e 99 c7 65 3e 7c 39 d4 3f a8 d7 6b 3e
       0.18043026 0.22439422 1.6580043 0.23031485
0001b0 1d 1e 78 bf f1 2b 93 3d 60 52 de 3f 1c e8 e0 be
       -0.9692095 0.071861155 1.7368889 -0.43927085
0001c0 ac 49 dc be 8e 6a c1 bd 52 9b 5b bf 85 11 30 be
       -0.43024957 -0.09444152 -0.85783875 -0.17194183
0001d0 22 e2 a7 3b dd b1 0b 3f 36 2f 54 3f 81 67 f7 3d
       0.0051233927 0.5456827 0.8288454 0.12080289
0001e0 10 b8 08 3e 00 dc 8c 3e 70 31 2e bf 97 4b cd 3e
       0.13351464 0.27511597 -0.68044186 0.40096733
0001f0 ab 31 bd 3e 28 3b 8e be 46 47 15 bf ed 41 96 3e
       0.36951956 -0.27779508 -0.5831188 0.29347172
000200 ca 9f 50 bf b1 5c df be 52 d9 94 bf cf 59 1c 3e
       -0.8149382 -0.43625405 -1.1628821 0.15268634
000210 6e 50 ac be 45 68 a5 be 63 49 1f bf 34 48 fa 3e
       -0.33655113 -0.32306114 -0.62221354 0.48883212
000220 a7 25 c0 3e 62 bf 33 bf f6 f5 f9 3e 7e bf a1 bc
       0.37528726 -0.702139 0.48820466 -0.01974463
000230 72 5e 44 be 49 56 9c 3d c1 cb dc 3f 4d 86 77 3e
       -0.19176653 0.07633645 1.7249681 0.24172325
000240 ff c0 70 be 84 b9 12 3f a2 80 0f bf 0b d8 cd 3e
       -0.23511122 0.57314324 -0.56055653 0.4020389
000250 01 d1 ef 3e 56 8b bb be c7 1f 40 be 9b 96 4c be
       0.46839145 -0.36629742 -0.18762122 -0.19979326
000260 76 2b de be 2d a6 61 3d 85 99 48 bf d6 e8 dc be
       -0.43392533 0.05509012 -0.7835925 -0.4314639
000270 3d b2 c4 be c7 d2 94 3a 51 d3 b2 3f e2 d5 5f 3e
       -0.38417235 0.001135432 1.3970739 0.21858934
000280 cc c1 7f bf 25 0c 51 3e eb d0 9c bf 8f b9 45 bf
       -0.99905086 0.20414789 -1.2251257 -0.77236265
000290 40 76 21 3e 3c d2 ca 3e 08 a2 73 bf 85 f3 38 be
       0.15767765 0.3961352 -0.95169115 -0.18061645
0002a0 ac fc 28 bf 55 d3 7f be 10 84 89 bf ed b1 31 3e
       -0.66010547 -0.2498296 -1.0743427 0.1735303
0002b0 79 b0 e7 3e ca 7f 32 3c 3a 2c 21 bf 76 c4 37 be
       0.45251825 0.010894725 -0.6295811 -0.17946038
0002c0 8a 18 26 bb c4 2c 9c bc 47 21 03 40 40 47 55 3e
       -0.0025344216 -0.019064315 2.048906 0.20827961
0002d0 f4 09 d4 be 25 ca 92 3d 3a 6b a0 3f af 05 42 3e
       -0.41413844 0.07167462 1.2532723 0.1894748
0002e0 96 c4 96 bf 35 be 71 be b9 06 bc 3e 1d 0e 97 3d
       -1.1778743 -0.23607714 0.3672388 0.07375739
0002f0 31 c4 15 3f e8 91 9a 3e 96 f6 d0 3e d9 56 0e bf
       0.5850249 0.30189443 0.4081313 -0.5560127
000300 44 42 fa 3e 5f df fc 3d 17 f0 c4 bf fc b7 12 be
       0.48878682 0.12347292 -1.538577 -0.14327997
000310 4b 53 bf 3e e1 c9 16 bf 5f 59 cc bd 9b 9d 69 3f
       0.37368235 -0.5890179 -0.09977984 0.9125611
000320 50 ba c3 3c 7c c7 09 bd ae 0b 0c c0 2f b6 9c be
       0.023892552 -0.03363751 -2.1882129 -0.30607745
000330 7d 6c b1 3e 13 56 ac 3e 79 1d e8 be 11 dc 91 be
       0.34653082 0.3365942 -0.45334986 -0.2848821
000340 f2 c3 8d be e4 f9 d8 be dd 3a 82 bf 95 7f a4 be
       -0.27688557 -0.4237815 -1.0174214 -0.32128587
000350 42 19 d3 3d 20 8f a0 be d1 91 63 3f a8 42 9f 3e
       0.10307552 -0.31359196 0.88894373 0.31105542
000360 17 22 c3 3d 0f 53 fb bd 1d 24 ab 3f 0d 29 06 3f
       0.095279865 -0.122717015 1.3370396 0.5240639
000370 ed 9d c7 3d 85 8a 4d be 9d 10 e2 3f 6e 21 ce 3e
       0.09746919 -0.20072372 1.766132 0.4025988
000380 d8 72 29 3e 11 a3 11 bd d7 1e 74 bf 51 45 26 3f
       0.16547716 -0.035555903 -0.9535956 0.6494952
000390 39 dd e1 3e 2f 8b 5b be 25 87 63 bf e9 55 dd 3d
       0.44114092 -0.21439813 -0.8887809 0.10807402
0003a0 4a d6 6a 3a 61 da 64 3c ec 0e d8 be 8f 4d 1d 3c
       0.0008958323 0.013968081 -0.42198884 0.009601011
0003b0 44 de 1b be 7d a6 35 be fc 10 22 bf d3 60 58 be
       -0.15221506 -0.17739291 -0.63307166 -0.21130686
0003c0 af 81 02 be 03 9a 71 3e 83 15 67 bf e9 b4 d7 be
       -0.12744783 0.23593907 -0.902672 -0.4213021
0003d0 6a 85 eb 3e a8 86 48 3e 65 0c 9a 3f ce 35 8a 3d
       0.46000224 0.19582617 1.2035033 0.06748544
0003e0 67 2e 44 be 81 3d aa be 86 8b 8e bf 46 82 15 3e
       -0.19158326 -0.3325005 -1.1136329 0.14600477
0003f0 04 3e 5e 3e 76 0a bf be a2 ae a5 bf 88 8e eb 3e
       0.21703345 -0.3731267 -1.2943919 0.4600718

Q.0.bias f4 [256]
000000 4f cf 0f bc 57 ed 2c 3e bc 07 92 3e 4f 17 cc 3e
       -0.008777454 0.16887413 0.28521526 0.39861533
000010 b0 25 9d 3d 40 65 0f bd b4 97 91 3e a9 e6 28 3f
       0.07673204 -0.03500867 0.28436053 0.6597696
000020 06 84 a2 3d 9d c2 11 3f ae b5 e5 be 4d ca a4 3e
       0.07935338 0.5693758 -0.44865173 0.32185593
000030 54 d6 ce be f7 02 af be e4 dc c8 3e 4d 11 fc 3e
       -0.40397894 -0.3418195 0.39231026 0.4923195
000040 cd 4a ca be 03 0a 7c be 06 d6 ca 3e 52 af 8c 3e
       -0.39510193 -0.24613194 0.39616412 0.2747751
000050 cc cd 10 bf c7 fc f6 3d 86 23 bb be 7c f0 15 3f
       -0.5656402 0.12059932 -0.3655054 0.58570075
000060 1c 12 ca 3e 05 d6 fe be 53 36 9b be f9 97 c4 3d
       0.3946694 -0.4977266 -0.30314884 0.09599299
000070 be d8 14 bf 93 8a 4d 3e e0 c9 12 3f 79 4e 1f 3f
       -0.5814322 0.20072393 0.57339287 0.62229115
000080 f0 73 25 3e 5d 48 a4 3e 02 3d 00 bd 6f 61 09 3f
       0.16157508 0.3208646 -0.03130818 0.53664297
000090 5f d4 08 3e ea bf 08 3f 3c 9b 0b 3f 8b 0a 0b 3f
       0.13362263 0.5341784 0.54533744 0.5431296
0000a0 f2 ee 27 bf 6e 4d fb be ab f8 9e 3e c8 98 d4 be
       -0.65598977 -0.49082512 0.31049094 -0.41522813
0000b0 61 99 c3 be f7 dd 93 be fe f9 bd bd 4f 83 00 3f
       -0.38202956 -0.28880283 -0.09276198 0.5020036
0000c0 bd 64 79 be e2 5f e3 3d d2 7f e0 be 0d c3 62 bf
       -0.24354835 0.111022726 -0.4384752 -0.88578874
0000d0 78 e8 a9 be 19 04 32 bf e0 9f e2 be 25 4b 3f be
       -0.33185172 -0.695375 -0.442626 -0.18681009
0000e0 3a c1 a4 3e 51 bb 82 3e c0 56 10 3f 8c d7 1a 3f
       0.3217867 0.25533536 0.5638237 0.6048515
0000f0 52 e3 0a 3f 56 b4 ae 3e 3e 0c ed be 00 39 e1 3e
       0.54253113 0.3412196 -0.46298403 0.439888
000100 46 1e d4 3e 9d a6 01 bf fa a4 26 3f be a3 05 bf
       0.41429347 -0.50644857 0.65095484 -0.52202976
000110 14 a4 fe 3e 9b f0 21 3f 65 80 01 3f 6d b5 f2 be
       0.49734557 0.6325776 0.5058654 -0.47404042
000120 44 5e 78 3e 09 7e 5f 3e 29 05 59 3e cd 86 bc bd
       0.2425471 0.21825422 0.21193375 -0.09205399
000130 53 3b a8 be 9f 9c 29 be 59 33 cb be c5 85 ed 3d
       -0.3285776 -0.16563652 -0.39687613 0.1159778
000140 01 15 2a 3f aa d2 ba 3d b2 fa 11 be 57 62 e2 3e
       0.664383 0.09122212 -0.14255789 0.44215652
000150 3d f6 fa be f5 c0 d6 3e b9 e7 5b be c8 e7 b4 be
       -0.4901599 0.4194409 -0.21475114 -0.35333085
000160 22 7c d6 be b3 ab 11 3f 7f 2c 1e 3f c0 27 a2 3e
       -0.4189158 0.5690262 0.61786646 0.31670952
000170 ef 8b c5 be cf ac 16 3f ce e4 f9 bd e8 c9 67 bd
       -0.38583323 0.58857435 -0.12201844 -0.056589037
000180 8b 20 b7 be 89 9e 2a 3f 2f 10 81 be 21 8b 8e be
       -0.35767016 0.66648155 -0.2520766 -0.27840522
000190 12 72 a4 3e e5 f7 20 3f e5 3f 43 bf 38 82 02 bf
       0.3211828 0.6287826 -0.7626937 -0.5097995
0001a0 a7 92 54 bd 71 7f 02 3f ad 52 05 3f d0 a2 06 bf
       -0.05189767 0.5097571 0.5207928 -0.5259218
0001b0 74 6c a5 be 2d de 23 3f 7c 79 0e 3f 99 c7 f7 3d
       -0.32309306 0.6401089 0.5565412 0.12098617
0001c0 31 23 a2 bd 3a 99 99 be 15 a5 2a 3f 41 15 c6 be
       -0.079168685 -0.29999715 0.66658145 -0.3868809
0001d0 21 2a 7e be 8d 68 1a 3f 17 81 dd 3d 31 0d 92 be
       -0.24820758 0.6031578 0.108156376 -0.2852569
0001e0 a2 e1 16 bf ea 4a 5c bd a6 76 63 3e f3 43 5d be
       -0.5893804 -0.05378238 0.2221323 -0.21607952
0001f0 63 c6 35 3e 03 46 b2 3e 80 76 2b 3f 1e 76 5d 3e
       0.1775146 0.3481904 0.6697769 0.2162709
000200 73 44 af be 73 02 dc 3d df fd c5 be e1 e3 78 3d
       -0.3423191 0.10742655 -0.3867025 0.060764197
000210 49 b2 08 3f 43 13 f9 3e 3f ee cc be ff 06 15 3f
       0.5339704 0.48647508 -0.40025517 0.582138
000220 69 27 58 3d 11 f5 bf bd c9 51 0d 3f 6b 01 c1 3e
       0.05277196 -0.093729146 0.5520292 0.37696394
000230 7e b6 9a be dc 56 19 bf 04 83 25 bf 85 b4 1e 3f
       -0.30217355 -0.5989816 -0.6465304 0.619942
000240 c5 68 89 be e0 0a c2 3e 9e 7e 3d bc ea c0 cd 3e
       -0.26837745 0.37898922 -0.011565832 0.40186244
000250 d1 2b e5 3e e3 89 cf 3e ae 11 c6 be f9 62 00 3f
       0.44759992 0.40534887 -0.38685364 0.5015102
000260 03 cf 0f 3f 87 07 ce be b7 74 12 be 48 1d fd 3e
       0.5617525 -0.40240118 -0.14302336 0.49436402
000270 a2 2e 22 3f 9e c6 86 be c7 39 5c 3e 3b 2b 05 3f
       0.63352406 -0.26323408 0.21506415 0.5201909
000280 57 e1 10 3f 78 61 5f 3e e1 86 23 3f e7 81 30 bf
       0.5659384 0.21814525 0.63877684 -0.68948215
000290 7f 4c 3b bf ab 43 82 3e 1d aa 6c bd 35 0b 94 3e
       -0.731636 0.25442252 -0.05777942 0.289148
0002a0 00 b5 0c 3f 12 fc d8 3c 4a 89 68 be 92 98 a2 3d
       0.54963684 0.026487384 -0.22708622 0.07939257
0002b0 2a 8a f5 3d 3e 9d 76 3e 60 cb 09 be 49 13 cd 3e
       0.11989243 0.2408342 -0.13456488 0.40053776
0002c0 3f 2d b0 be fa fd 2c 3f 4c 3b d6 3d 2a 21 00 3f
       -0.3440952 0.6757504 0.10460529 0.50050604
0002d0 07 d3 8b 3d 07 d6 60 bf 03 1b 3f 3e 88 52 07 3f
       0.0682736 -0.8782658 0.18662648 0.5286031
0002e0 56 02 f6 3e a3 08 f9 3e c6 04 0b be 38 5a 03 3e
       0.48048657 0.48639402 -0.1357604 0.12827384
0002f0 45 71 97 bd bf ab 80 be c4 43 cd be 76 7a 25 3f
       -0.07394651 -0.25131032 -0.40090764 0.64639986
000300 90 8c 08 bf ad 3c 6a be f9 3d ee 3e 7c 09 89 bd
       -0.5333948 -0.22874708 0.46531656 -0.06691262
000310 cf ee eb be 2e 60 11 bf 3b c3 08 3f e3 e1 e1 be
       -0.46080634 -0.56787384 0.534229 -0.4411765
000320 cd 7c 12 3f 7c ae 41 be a8 f7 8a 3e b0 9f 9d 3c
       0.5722168 -0.18914217 0.27142072 0.019241184
000330 5e 3e e6 be b0 60 2b bf e0 8b e2 be 40 1f e0 3e
       -0.44969457 -0.6694441 -0.4424734 0.43773842
000340 89 66 a5 be 69 10 e7 3e f0 b4 59 be d8 06 98 3e
       -0.3230479 0.45129707 -0.21260428 0.2969272
000350 7d dc 72 3d ef 7f f9 3e c5 58 dc be 53 67 e1 3e
       0.059292305 0.48730418 -0.43036476 0.44024143
000360 ae a7 ac 3e 5f 9e de bd dd 61 82 3e 0c fe bb 3e
       0.3372168 -0.10870051 0.2546529 0.3671726
000370 2b 5d 11 3e 45 8a 89 be be 0d 1d 3f 45 fe 8b 3c
       0.14195697 -0.26863304 0.61349094 0.017089019
000380 80 45 b8 be 7a 63 17 3f 2f 43 e4 3d ec 16 67 be
       -0.35990524 0.59136164 0.11145627 -0.22567338
000390 2a 03 8f be 2c d1 07 3f 12 35 9d 3e fb fa a0 be
       -0.279321 0.53053546 0.30704552 -0.31441483
0003a0 e8 a0 28 3e 51 f8 03 3f 4e 94 03 3e 4c 06 ac 3e
       0.16467631 0.51550776 0.12849542 0.33598554
0003b0 0c e2 0b bf dd 59 e8 be f7 1a 44 3e 70 1c 17 bf
       -0.54641795 -0.4538106 0.19150911 -0.5902777
0003c0 a8 36 ee be b4 1f 1a be 7b ad 8a be b6 39 93 3e
       -0.46526074 -0.15051156 -0.2708548 0.28754967
0003d0 5a 21 ca be 05 66 09 be 63 1d 68 be db 10 1d 3e
       -0.3947857 -0.13417824 -0.2266746 0.15338461
0003e0 90 d9 56 3e d8 83 fa 3e 7d 97 aa 3e a2 1e 45 bf
       0.20981431 0.48928714 0.333187 -0.76999867
0003f0 cf 8f ff bd 2e 54 0a be d6 84 32 3d 1c 84 c7 be
       -0.12478601 -0.13508675 0.043583713 -0.3896798

Q.2.weight f4 [256, 256]
000000 0c 72 cc bc 20 27 a9 3d bb e0 93 3e 47 34 57 3d
       -0.024956726 0.082594156 0.28882393 0.05254009
000010 d4 36 15 3f 4c 6a 36 bf 7e a5 d6 bc 38 be 6c 3c
       0.58286786 -0.71255946 -0.02620196 0.014449649
000020 9f 5b d0 3d 78 74 4c 3d aa bb d9 be 81 db 1c be
       0.10173725 0.04991576 -0.4252599 -0.15318109
000030 96 b0 44 3d bc 68 61 3d 10 13 a2 bf 02 6f 5a be
       0.048019968 0.055031523 -1.2662067 -0.21331409
000040 4f 67 af bc bb 09 83 be 34 12 0c 3e e9 2d ae 3d
       -0.021411566 -0.2559336 0.13678819 0.085048504
000050 a8 5b 67 3e 64 59 d0 3e d3 b7 55 3e e3 14 13 c0
       0.22593558 0.406932 0.20870905 -2.2981498
000060 97 06 63 3e 10 df 3f be 70 db c0 be 48 83 59 3e
       0.22170483 -0.18737435 -0.37667418 0.21241486
000070 2e bc 1b 3e b9 02 5f bd 6e 1f 60 3e ec b8 c7 3d
       0.15208504 -0.054445956 0.2188699 0.09752068
000080 2e 3b 09 3f 0d 29 86 3e 81 bb f3 be e0 11 4b c0
       0.53605926 0.26203194 -0.47603992 -3.172966
000090 64 df f9 3e fd 5e 1d bd 9a 12 89 3d 80 3f 0b c0
       0.48803246 -0.038420666 0.06693001 -2.1757507
0000a0 fa 08 d8 bd 77 88 f5 3c cc c0 14 3f 06 9f a8 bf
       -0.10548587 0.029972298 0.58106685 -1.317353
0000b0 1a 22 3c bd 9c 9d 3d be 89 8d 2f 3e 28 0d 7a bc
       -0.04593096 -0.18517154 0.17143835 -0.015261926
0000c0 f5 39 16 3d 7a 1b c0 bd 29 2d c0 3e 3e 2d 48 bf
       0.036676366 -0.09380241 0.37534454 -0.78194034
0000d0 cc ea ba 3c 30 76 df 3b 48 09 3f 3d 8c 3c 90 bd
       0.022817038 0.006819509 0.04663971 -0.070427984
0000e0 db c1 15 3f 83 d6 ca 3e 58 c6 88 3d ed 96 87 3d
       0.58498925 0.39616784 0.06678456 0.06620584
0000f0 1a 36 bc 3d f4 33 ab be a0 3d 80 3e 81 af ba 3e
       0.091900066 -0.33438075 0.25047016 0.36462024
000100 04 5d 7c be 2e 34 66 bd 06 e3 8a 3d a7 6f 46 be
       -0.24644858 -0.056202106 0.067815825 -0.1937853
000110 6f 3f 29 3d 66 43 12 bf 29 11 82 3c 24 7d 66 bd
       0.04132026 -0.5713409 0.015877323 -0.056271687
000120 d4 1a 18 3f 57 16 92 be 5f ff ff bc 5f ff fb be
       0.59415936 -0.2853267 -0.0312497 -0.4921827
000130 d6 f5 86 3c f2 60 c9 bd b9 bd 42 be 82 0f b8 bf
       0.016474646 -0.09832944 -0.19017686 -1.4379733
000140 aa 60 6d bf 87 17 3d 3e e2 4e 0a 3e 61 98 57 3e
       -0.9272562 0.18466006 0.13506654 0.21054222
000150 c1 6c 36 3d a7 21 2e bc 0f 17 63 3e 1a 3b 01 3e
       0.04453731 -0.0106281405 0.22176765 0.12620202
000160 90 25 d5 bb c9 c2 20 be 85 a6 1a bc 79 55 62 bd
       -0.006504722 -0.15699305 -0.009439115 -0.055257294
000170 28 1a a9 3e eb 8c aa 3d 90 2b 81 bd 83 07 d2 bc
       0.33027768 0.08327659 -0.06307137 -0.025638347
000180 15 f2 57 3e 80 3a 9a be d9 74 9a bd 51 2c 9e 3d
       0.2108844 -0.30122757 -0.07541818 0.077232964
000190 ac d5 ca be 9f a2 c6 3d f8 05 1d 3d 7a be d4 3d
       -0.39616144 0.09698986 0.03833577 0.10387893
0001a0 b8 ca cc 3d 81 51 74 bf 2c 5b de bf 9e 0c 66 bd
       0.09999603 -0.95436865 -1.7371573 -0.056164376
0001b0 bb 8a 4d bd 41 27 37 3d d6 f2 39 bf a1 79 e2 3b
       -0.05018113 0.04471517 -0.72636163 0.006911472
0001c0 e7 6a 68 bd 9c 16 a4 3d 98 48 1a be 00 66 93 3e
       -0.056742575 0.08012125 -0.15066755 0.28788757
0001d0 79 2a 36 be 52 ca ea 3d 3f 20 cc 3d 94 5b 66 bc
       -0.1778964 0.11464371 0.09967088 -0.01405992
0001e0 b4 93 0d bf c2 cb 8e 3f c1 74 c6 bc 7a df 6e 3e
       -0.553035 1.1155932 -0.024225594 0.23327437
0001f0 8b 9d 34 3f b5 6f 0c 3c ff 25 22 3d 71 fb a4 bd
       0.7055289 0.008571555 0.039587017 -0.08055771
000200 36 07 26 3e 7b 11 4b be 52 8c b3 bd 36 b6 95 3d
       0.16213688 -0.19830887 -0.08766998 0.073101446
000210 f3 96 d9 bd 34 4c 10 be 48 ff bd bc 6d 54 fe 3d
       -0.106244944 -0.14091569 -0.023193017 0.12418447
000220 bb e0 24 3f 00 4b 9a 3e 9b 4c d8 3d 8d bb 6d bd
       0.6440541 0.30135345 0.10561486 -0.05804019
000230 f7 94 19 3d 78 2d 85 3c 91 37 89 be e3 80 fc bd
       0.03749558 0.016257033 -0.26800206 -0.12329271
000240 ac 02 11 3d df 10 13 3e d4 20 b4 3e a4 c2 d1 bd
       0.03540294 0.14361905 0.35181296 -0.10242203
000250 e6 4d 14 bd 9a 5e 31 bf 32 f2 23 3d 1c 78 8e bd
       -0.036207102 -0.69284976 0.040025897 -0.06956503
000260 e0 38 8d 3c dc ed 33 bd 79 e3 09 bf 12 42 02 c0
       0.017239034 -0.043928012 -0.5386272 -2.0352826
000270 10 25 95 3e e4 ab e9 bc a9 fc e0 bc 6a 4d df be
       0.2912984 -0.028524347 -0.027464228 -0.4361375
000280 38 75 4f bd 86 f5 01 3f 97 3e e3 be 5a 45 25 bf
       -0.050648898 0.50765264 -0.4438369 -0.6455895
000290 a1 5a 8a bf 51 b5 54 3e fd fb 55 be df c6 63 3e
       -1.0808908 0.20772292 -0.20896907 0.22243832
0002a0 fa d6 06 c0 68 17 0f 3a c7 f4 75 3e 6c ad 29 be
       -2.1068711 0.0005458505 0.24019156 -0.16570061
0002b0 2a cb 00 bf f5 c0 c5 b9 8f 11 95 3d f6 64 d9 3d
       -0.50310004 -0.00037718532 0.0727874 0.1061496
0002c0 c5 62 46 3f 71 a3 58 be 03 41 9e be 3f a1 9c 3d
       0.7749446 -0.21156098 -0.30908975 0.07647943
0002d0 14 cd e5 3e 0c 82 aa bd ae e4 f6 bd 3a f0 41 3d
       0.44883025 -0.08325586 -0.12055336 0.04734824
0002e0 2a bf b6 3d f4 20 d9 3d 6a c3 df be 1e d3 cf bf
       0.089231804 0.106019884 -0.43703777 -1.6236303
0002f0 09 ae 9a 3d ea eb 58 bd dd 82 07 bd df e2 13 be
       0.07552726 -0.05295936 -0.033083785 -0.14442013
000300 38 00 80 bf e1 d0 37 bf 04 b6 73 bd 6a 96 b1 3e
       -1.0000067 -0.718031 -0.059499756 0.3468507
000310 50 56 13 bc 64 63 7d bd 13 14 a0 3b 94 98 ae 3e
       -0.0089927465 -0.061862364 0.0048852055 0.34100783
000320 ca 40 f7 3d 0a 9e e6 be 1a ce 40 be 7e 6d 09 3f
       0.120729044 -0.4504245 -0.18828622 0.53682697
000330 16 0b c5 3e ed 23 bd be 9b da d5 3c f6 d8 24 c0
       0.3848502 -0.36941472 0.026105216 -2.5757422
000340 d3 32 b8 bc bc c2 fe 3d 1f d1 43 3f 29 4d 8d 3d
       -0.022485172 0.124394864 0.7649097 0.06899483
000350 96 b8 66 3d d7 aa b5 3d 45 78 22 bd 75 f4 88 bf
       0.05632838 0.08870476 -0.03966548 -1.0699602
000360 24 b9 64 bf 5e 27 90 be 7b a4 ef 3e de 4b 48 3e
       -0.89345 -0.28155035 0.46805176 0.19560191
000370 00 e5 7d 3d 40 35 0f be d3 0c 22 3d f6 bb 72 3d
       0.06198597 -0.13985157 0.03956301 0.059261285
000380 65 c5 e1 3e 90 26 e4 bc e3 b1 cf 3e 00 ee fe 3d
       0.44095913 -0.02785042 0.40565404 0.12447739
000390 6e 66 19 3e fb ee 6b be e6 fe cb bd 9f 4f 2d 3f
       0.1498048 -0.23040383 -0.099607274 0.6769962
0003a0 89 e7 56 be ca e0 8c bf 02 ea 67 3e 06 71 85 3d
       -0.20986761 -1.10061 0.2264786 0.06515698
0003b0 29 55 d6 3d df bf 5a 3e 34 89 d1 bd 1c f6 ce 3d
       0.10465462 0.21362256 -0.102312475 0.101055354
0003c0 ca 09 83 3c b2 0b 2f 3e c3 b4 d8 be 94 0f 02 bc
       0.015995879 0.17094305 -0.4232541 -0.007938284
0003d0 20 4f c1 3e 29 fc 14 3e dd 83 f4 3d ad c5 fe 3d
       0.3775568 0.14549316 0.119392134 0.124400474
0003e0 97 48 3b be e9 47 78 3d bb 5c a4 3e 11 fa 3c bf
       -0.1828941 0.060615454 0.32101998 -0.7381907
0003f0 1f 29 8d bd 09 a7 5c 3e 7d 93 03 bf 04 24 03 3f
       -0.06892609 0.21548094 -0.51396924 0.5122683

Q.2.bias f4 [256]
000000 af a3 bc bc 06 a5 f7 bd cb 43 8e bd ee f6 ad bd
       -0.02302727 -0.120920226 -0.06946524 -0.08494364
000010 75 72 0d bb a8 b3 ee bc 21 87 8e 3d 1d 46 9d 3d
       -0.0021583114 -0.029138401 0.069593675 0.07679389
000020 03 a0 93 bc 4d 0a e5 3d a4 58 ad 3d 6f 56 5b bd
       -0.018020635 0.11183605 0.084641725 -0.053549226
000030 35 45 4d 3d 38 73 9c 3c 03 71 22 3e ee c2 57 bd
       0.05011483 0.01909791 0.15863423 -0.052676134
000040 94 69 8a bc 08 85 dc 3d de d0 6a bd 47 f7 1c 3e
       -0.016896047 0.10767561 -0.057328098 0.15328704
000050 60 7b ac bb e0 4e 16 bd f5 a5 8c bd 4d e3 21 bd
       -0.005263731 -0.036696315 -0.06867591 -0.03952341
000060 12 5b 12 3e 55 a9 8d 3c 5b 83 af 3d 48 dd 7d 3d
       0.14292553 0.017292658 0.08569976 0.06197861
000070 b1 41 64 3d 54 a2 81 3d d9 93 93 bc 61 ac 93 bc
       0.05572671 0.0632979 -0.018014835 -0.018026533
000080 f4 35 c7 bb db cc 80 3d 44 c6 cc 3d fc 63 a8 3c
       -0.0060794298 0.06289073 0.09998754 0.020555489
000090 8f d6 0f bc 51 f8 9e 3d 3b 11 30 bd 8d 9e bd bd
       -0.008779182 0.07762206 -0.042985182 -0.09258757
0000a0 21 26 62 bd 93 4c 6c 3c e3 d7 80 3d 2b 33 f4 3c
       -0.055212144 0.014422554 0.06291177 0.029809555
0000b0 79 c6 08 3d 8a 6a 91 3d f6 a7 1a 3e 9a 23 d9 3c
       0.033392403 0.07100399 0.15103135 0.026506234
0000c0 aa c4 86 3d e5 b6 22 3d 92 87 f1 3d 55 30 89 bd
       0.065804794 0.039725203 0.11793436 -0.06698672
0000d0 53 3b b8 3a b8 33 ba 3d c6 2a 0e bd 69 cc 78 3b
       0.0014055766 0.09091896 -0.03470876 0.0037963635
0000e0 8e b8 08 bd 1a 19 0a 3e c3 7d af 3d 04 f6 f8 bc
       -0.03337913 0.13486138 0.08568909 -0.030390747
0000f0 ea c4 f6 3d 40 6d 7b 3d a7 23 eb 3d ed 1d c1 bd
       0.12049277 0.061383486 0.114814095 -0.09429536
000100 42 db 3f bd 74 4f bd 3d 3d 7e 32 bd 57 df c6 ba
       -0.04683996 0.0924367 -0.04357742 -0.0015172762
000110 be 06 1a 3d af f2 49 3d 69 d3 01 3d 10 f2 1b be
       0.037604086 0.049303707 0.031695757 -0.15229058
000120 9c 2b 5f bd 58 31 e4 3d 25 b8 89 3d 84 79 10 3e
       -0.05448495 0.11142224 0.06724576 0.14108855
000130 c0 f7 83 3d 97 96 85 bc 2e cd 19 3e 83 fb fc bd
       0.06443739 -0.016307158 0.15019676 -0.123526596
000140 96 52 b3 3c d6 28 99 3d e1 1e 5f bd 03 3a a1 bc
       0.021889966 0.07478492 -0.054472808 -0.019680982
000150 86 34 1a 3e 0b db fa bd 7d 0a f4 3d 80 80 bf 3b
       0.15059099 -0.122488104 0.11916063 0.005844176
000160 e0 f6 b7 3d 6b 21 c7 3d aa ef 3e bd 10 9a f9 bc
       0.089826345 0.09723171 -0.04661528 -0.03046897
000170 c1 7a a4 bc 12 cd a9 3d b0 47 da 3c 76 f4 b5 bc
       -0.020078065 0.08291067 0.026645511 -0.022211295
000180 9e 84 f8 bc 42 b7 a0 3d 58 b8 05 3d cb 34 eb 3d
       -0.030336674 0.07847454 0.032646507 0.11484679
000190 c2 c8 d8 bc 2b a8 27 3d ce 8a 9b 3d 55 24 31 3d
       -0.026462916 0.04093186 0.07594834 0.04324754
0001a0 fd a4 78 bd a3 a9 17 3e 38 8c 93 3b 97 62 3e 3c
       -0.06070422 0.14810805 0.0045027994 0.011620185
0001b0 08 c4 e6 3d a7 ff 8b bd 07 39 b8 3d 8e f3 0c bd
       0.11267859 -0.06835871 0.08995252 -0.03441196
0001c0 2b 14 3f 3e 35 ae f6 3d cf 14 11 bd 3a 1b 95 bd
       0.18660037 0.12044946 -0.035420235 -0.07280584
0001d0 f4 a2 ae 3c 27 20 b6 3d 6a f6 99 3d 11 ab 1e 3b
       0.021317936 0.08892851 0.07517703 0.002421085
0001e0 61 f5 6d 3d 42 84 09 bd 68 af ea 3d 99 5e bb 3d
       0.05809534 -0.033573397 0.11459237 0.091489024
0001f0 2b a7 4c bd 62 b5 c8 3d d9 98 2c 3e fb 40 17 bd
       -0.04996411 0.09800221 0.16855182 -0.036927205
000200 a2 4c 8a bd 5d 23 91 3d 55 0a b5 bd 04 c2 10 3e
       -0.06752898 0.07086823 -0.08839861 0.14136511
000210 7e b6 51 bd 7f 10 ff 3d d2 f8 7c bd 20 e0 b8 bb
       -0.05119943 0.12454318 -0.06176073 -0.005641952
000220 f3 f4 1e bb a8 75 7f 3d ac de 91 bd f7 55 14 3e
       -0.0024254888 0.062368065 -0.071225494 0.14485918
000230 df ad ea 3d f0 8c 94 3c 8a 66 8d 3c 30 d6 e0 bd
       0.114589445 0.01813361 0.017260808 -0.10978353
000240 74 2a b4 ba 54 78 ad 3d f2 60 bc 3d ff b0 ac 3c
       -0.0013745562 0.084702164 0.09198178 0.021080492
000250 de 19 6d bd 41 7b 88 bd ed 66 f2 3d a6 92 d6 bd
       -0.057885997 -0.06664134 0.11836038 -0.1047719
000260 46 8d 25 3d e1 9e f9 3d 9f a4 4c bd de 95 d2 3d
       0.040417932 0.12188507 -0.049961682 0.10282491
000270 d2 a5 ea bc e1 69 18 3c b8 60 12 3e 4d 95 98 3d
       -0.028643522 0.009302587 0.14294708 0.07450352
000280 11 2d 18 3c 56 2a e9 3d c2 c1 e3 3d 60 1c c2 3d
       0.009288088 0.11385028 0.11120941 0.09478068
000290 ee e0 cc 3d c8 d3 94 bd 4a 41 88 3d 55 66 5f 3d
       0.100038394 -0.072669566 0.06653078 0.05454095
0002a0 86 f2 88 3d 5d b4 cd 3d fb b8 9e 3c 60 6a b9 3d
       0.06686883 0.10044167 0.019375315 0.090534925
0002b0 92 19 81 3d bc 79 6b bd 6f e6 a2 3d 82 cd 06 bd
       0.06303705 -0.05748914 0.07954108 -0.03291083
0002c0 45 b0 cb 3d 76 6d cd 3d a4 29 e8 3d 43 21 5f bd
       0.0994573 0.10030644 0.11336067 -0.05447508
0002d0 01 7d d3 3d 52 18 e9 3c d6 c8 17 3d 66 80 a1 3c
       0.10326577 0.02845398 0.037056766 0.019714545
0002e0 36 a7 1f bd 3c c3 fe ba dc 07 d5 3d d3 a6 04 3e
       -0.038977824 -0.0019436846 0.1040189 0.12954263
0002f0 ea f1 ef 3d 2f 72 7c bd 0b b2 b0 bc 25 c3 51 bd
       0.11716063 -0.06163233 -0.021569273 -0.051211495
000300 18 6a 0f 3d 75 2c e5 3c 0a df 9a 3d 2e 84 38 bd
       0.03501329 0.0279753 0.075620726 -0.04504793
000310 f3 4f 30 3c 58 7c 33 bb 19 97 17 3e 78 40 da bc
       0.010761249 -0.0027387347 0.14803733 -0.02664207
000320 22 a4 cb bc f5 6a 55 ba f5 ac 06 3e 10 ad da bc
       -0.024858538 -0.0008141243 0.13151915 -0.02669385
000330 e8 35 8a 3d 69 e8 2f 3d 42 08 1f 3e 07 ed 46 3d
       0.06748563 0.042946253 0.15530494 0.04856589
000340 6a 6e 0d 3e 09 c9 27 3d 78 05 07 3d 5c 68 d1 3d
       0.13811651 0.040963206 0.0329642 0.10224983
000350 ee 83 7f b9 d3 f4 22 bd 3e 3a 20 3e 1b 0d 71 bc
       -0.00024367843 -0.039784264 0.15647218 -0.014712597
000360 a4 1f 1d bd d4 ea 4e 3d 08 f1 82 bc b1 78 7b bd
       -0.038360253 0.05051692 -0.015984073 -0.061394397
000370 ab 31 45 bd 83 81 46 3e f1 82 5a 3d 03 c4 4c 3d
       -0.04814307 0.19385342 0.05334753 0.04999162
000380 20 d6 83 3d ae 76 0f bc 3d e2 bb bc 83 e3 bd bc
       0.064373255 -0.008756323 -0.022935027 -0.023179775
000390 b0 ee bd 3d b6 c6 36 bd bc e3 b1 3c 15 4c 8d 3c
       0.09274042 -0.0446231 0.021715038 0.017248193
0003a0 3e 88 83 bc dd 33 1d 3e f9 47 86 3d 05 a1 a5 3d
       -0.016056176 0.15351816 0.065566964 0.08087353
0003b0 42 82 c8 3c f7 74 0d bd 46 1e fb bd 94 bc 78 3d
       0.024476174 -0.034535374 -0.122616336 0.060726717
0003c0 35 c7 88 3d ce b0 15 bd c8 43 43 bd 57 ec 03 3d
       0.06678621 -0.036545567 -0.047672063 0.032207813
0003d0 31 0a fd bc 40 a3 d8 3d 60 a2 cf 3d 36 62 31 3d
       -0.030888649 0.105780125 0.101383924 0.043306552
0003e0 dc 2e bb bc 8e 60 b1 bb 10 d9 db 3d a2 24 86 3c
       -0.022849493 -0.0054131215 0.10734761 0.01637489
0003f0 c0 27 8d 3d 87 95 8c bd 35 d1 40 3d 5d 4f 10 3d
       0.06892347 -0.068644576 0.047074515 0.035231937

Q.4.weight f4 [2, 256]
000000 03 dd 1b c0 d3 fd ac bf 60 e9 08 40 d3 ca 15 40
       -2.4353645 -1.3514961 2.139244 2.3405044
000010 1d d4 75 bf 7c fe d2 3c 3c 2f cb bf 5a 79 3f bf
       -0.96026784 0.025756113 -1.587379 -0.7479454
000020 49 84 19 3e 10 9d 7a 3d 1d 91 e8 be 48 ba fa 3c
       0.14991869 0.061184943 -0.45423213 0.030606404
000030 be de 2e 3d d5 98 31 3f 2a 54 af 3f 04 7c 5b bd
       0.042692892 0.6937383 1.369756 -0.053585067
000040 3a bd 18 3c 6a cb 8c bf e6 d5 39 bd 35 e6 8f 3d
       0.009322459 -1.0999577 -0.045370005 0.070263304
000050 9c e1 6e bd ae 4c 13 c0 c7 d0 db bf 57 9d 9d 3e
       -0.058320627 -2.3015552 -1.7173089 0.30784103
000060 8c 00 0e bf 89 ac 87 3e 3a 1c 32 3f 24 16 fe 3e
       -0.55469584 0.2649882 0.6957432 0.49626267
000070 38 d2 8a 3f ae 78 27 3f 67 8d da 3a f6 cc e1 3e
       1.0845404 0.6541852 0.0016674221 0.44101685
000080 a5 15 f8 3e 01 1f 13 3f e5 52 49 bf ee d5 45 bc
       0.48454013 0.57469183 -0.7864211 -0.012074931
000090 60 99 80 3b 06 81 15 3f c3 e2 aa bc 05 43 d5 bf
       0.0039245337 0.584 -0.020860082 -1.6661078
0000a0 62 1b 33 bd c5 dd a8 3e 1e 08 45 bf 46 32 cd 3e
       -0.043727286 0.32981697 -0.7696551 0.40077418
0000b0 1b b3 a0 bf 9c c1 2c 3f 5c fd 2f 3f b7 60 53 bd
       -1.2554659 0.67482924 0.6874597 -0.051605906
0000c0 ec 2f cd 3e 68 ac 91 bf 65 fd 81 3e 11 5d 06 c0
       0.40075624 -1.1380739 0.25388637 -2.0994303
0000d0 e4 3c 10 3f e6 21 87 bf fe 02 80 bf 4f 76 04 bf
       0.5634291 -1.055722 -1.0000913 -0.51743025
0000e0 4e 3f c5 3e 83 57 03 3f 1b f1 0d 3f 63 37 e5 bf
       0.3852486 0.5130541 0.5544602 -1.7907528
0000f0 7e 8f 2e 3f 61 be e0 3e a5 a1 19 bf ca c4 79 3f
       0.681877 0.43895248 -0.60012275 0.975659
000100 e2 ae 3a bd 4f ef c2 3a b2 b8 a2 3f 1b 3a 81 3e
       -0.045576937 0.0014872345 1.2712615 0.25239643
000110 15 94 32 3f 85 12 6f bf d2 ca 10 bf 60 04 01 3f
       0.69757205 -0.93387634 -0.5655948 0.503973
000120 72 65 34 3d 42 72 08 bd d4 1a 26 3f 21 e2 8f 3f
       0.04404206 -0.03331209 0.64884686 1.1240884
000130 15 c5 34 3f 84 ee fb 3c cc b1 95 3f 54 2f 74 3f
       0.70613223 0.030753382 1.1694884 0.95384717
000140 bf 57 db 3e bb 5c 2b 3f 1e 7d 12 c0 76 36 34 3d
       0.42840382 0.6693837 -2.2888865 0.04399725
000150 3c 65 7f 3f ec e8 16 40 b1 5a 38 bf 12 fb 3f bd
       0.99763846 2.3579664 -0.72013384 -0.0468703
000160 8c 10 3f bf ab f1 d5 bf 3e e0 54 bd 18 8b 95 3f
       -0.74634624 -1.6714376 -0.051971667 1.1683073
000170 90 8c ff be 08 bd e1 3f 92 b7 34 bd a7 0a 4a 3e
       -0.49911928 1.7635813 -0.04412038 0.19730626
000180 7f c3 ca 3e ac 86 ce 3e 1c 9e eb 3d 3b 81 37 3f
       0.39602277 0.4033712 0.11504766 0.71681565
000190 bf 67 a9 be f3 71 40 3f 9a 6c 88 3f 35 31 a1 bd
       -0.33086964 0.7517387 1.0658143 -0.078707136
0001a0 cb f7 b9 3e 41 22 ad 3e 52 f4 cb bd b4 61 09 3f
       0.36321864 0.33815196 -0.0995871 0.5366471
0001b0 81 6c 2f 3f 3b db 51 bf 35 57 3a 3f 74 41 b6 3e
       0.6852494 -0.81975144 0.7278932 0.35596812
0001c0 6e 39 a5 3e de ee 32 bf 6a 3e 30 bd d4 e1 84 3e
       0.32270378 -0.6989573 -0.043028273 0.25953543
0001d0 20 36 83 3a aa 78 3c bf 18 8e 98 3e 83 fd 79 3c
       0.0010010637 -0.7362162 0.2979591 0.015258196
0001e0 fe c3 47 bd ee 2d a9 bf 4d 70 b4 bf 1a 7a 51 bf
       -0.048770897 -1.3217142 -1.4096771 -0.8182694
0001f0 44 4d c3 3c 89 4e c9 3e 9c b2 04 3f 3f 56 48 bd
       0.023840554 0.3931773 0.51835036 -0.048910376
000200 b3 f6 c9 bf 68 73 fe 3e 93 f8 0e c0 d3 90 2a bf
       -1.5778412 0.49697423 -2.2339218 -0.66627234
000210 8f ec bd 3e 74 d9 3f 3f 1a 6a 2d bd 1a 5e 04 3f
       0.37094542 0.7494118 -0.042337514 0.5170609
000220 3a c0 17 bf f9 fb d6 3e 47 fe a7 3e 62 ce d3 3e
       -0.5927769 0.41989115 0.32811186 0.41368395
000230 c8 d5 0e 3f 96 2e c4 3e 6b 70 0a c0 a1 80 0f c0
       0.55794954 0.38316792 -2.1631114 -2.242226
000240 f0 71 53 bf ec a0 05 3f 4d e8 81 3e a8 bb ef 3e
       -0.8259573 0.5219867 0.25372544 0.46822858
000250 e9 a6 61 be df c0 0c 40 58 2e bc 3f fc a8 90 3f
       -0.22036327 2.199272 1.4701643 1.130157
000260 b9 23 80 bf 8f dd 2e 3f d0 59 0e 3f f5 f0 9c 3f
       -1.0010902 0.6830682 0.55605793 1.2261034
000270 2c e5 33 3d 0e 3d 93 be a8 20 37 3f 07 a5 9b bf
       0.043919727 -0.2875752 0.71534204 -1.2159737
000280 2a 04 10 bd 8d 6b 0f 3f 56 e6 ba 3f 44 3b 8f 3f
       -0.03516022 0.56023484 1.4601543 1.1189961
000290 d1 97 05 3f d6 4c a9 3e 21 e8 49 bf 61 c5 10 bf
       0.5218478 0.33066434 -0.78869826 -0.56551176
0002a0 0a 30 0b 3f aa bd 18 3f 37 32 0a 3f 59 66 2b 3f
       0.54370177 0.59664404 0.5398287 0.66953045
0002b0 94 fe 99 3e 11 99 74 bd 84 9f 33 bf 93 56 cb 3f
       0.3007704 -0.059716288 -0.70165277 1.5885795
0002c0 9a 0d 2c bf 1b 36 da 3f 8d 70 e5 3e a1 0d e6 ba
       -0.67208254 1.7047762 0.44812432 -0.0017551669
0002d0 34 ad 07 3f 35 7f 42 3d 8c a4 a4 3e 7d 6c a1 bf
       0.5299866 0.047484595 0.3215679 -1.2611233
0002e0 ee c6 bc bf 91 87 a7 3e e6 43 c3 3e 3b 2e 30 bf
       -1.4748209 0.32720616 0.3813774 -0.6882054
0002f0 14 ce c7 3e be 1d 7d bc c8 1c 30 bc 9f 2d 0d c0
       0.39024413 -0.015448986 -0.0107490495 -2.2059095
000300 c0 4a f4 3e 11 86 19 3e bd 64 40 3f 63 1b 48 3f
       0.4771328 0.14992549 0.75153714 0.7816679
000310 b6 1f ed be 36 1c a8 3f 72 bf 8c bf 99 2d af 3e
       -0.46313256 1.3133609 -1.0995924 0.34214476
000320 92 e0 17 c0 64 a8 83 3f ef ee 90 3f 00 5d 04 3a
       -2.3730817 1.0285764 1.1322917 0.00050492585
000330 2c 00 2d 3f 9d b1 1c bd 7e 1d 2a 3f ec 0f 40 3f
       0.6757839 -0.038255323 0.6645125 0.75024295
000340 7c 42 23 be 1b 35 e3 bf 97 f5 f4 bb ad 39 ff 3e
       -0.1594333 -1.7750582 -0.0074755657 0.4984869
000350 71 f8 66 be 09 a4 96 3c 59 ba b9 3e 33 1d 5a bd
       -0.2255571 0.018388765 0.36274984 -0.053250503
000360 13 6f 47 bd 9a 06 c4 3f 70 cd 72 3d 7a 7c d7 bb
       -0.048689913 1.5314515 0.05927795 -0.006576118
000370 3e ad 13 bd 59 4b 3b bf df 19 29 bf c6 21 0d bf
       -0.03605389 -0.73161846 -0.660551 -0.5512966
000380 5a 70 c2 3e 6a 71 bf 3f d7 dd d7 bf d9 99 60 bc
       0.37976342 1.4956486 -1.6864575 -0.013708555
000390 be 0c db 3e 5b 1f 06 bd 24 04 ad bc 0d 15 6b bc
       0.4278316 -0.032744747 -0.021120138 -0.014348281
0003a0 9a cf e0 3e 18 d0 20 3f 83 c8 d7 3e 68 38 9b bf
       0.43908387 0.62817526 0.42145166 -1.2126589
0003b0 be 4e 4f bd 8d fb a5 3f d8 8d 96 bf 9f 6c 99 bf
       -0.050612204 1.2967392 -1.1762037 -1.1986274
0003c0 b9 0b 88 3e 88 c8 8f 3c 7d 0c 4f 3f ce a1 16 bf
       0.26571444 0.017551675 0.8087843 -0.58840644
0003d0 30 0f 64 bf 11 7d ee bd 5c 20 2e be 68 81 4d bc
       -0.89085674 -0.11644948 -0.17004532 -0.01254306
0003e0 74 bd 5a 3d bd 7d 37 3e 04 c0 1d 3f 13 27 1b be
       0.053403333 0.17919059 0.6162112 -0.15151624
0003f0 c8 af 8c 3e c1 22 40 3e 8b d6 5d bb 65 00 5c 3f
       0.2747786 0.18763258 -0.0033849801 0.859381

Q.4.bias f4 [2]
000000 86 9a a4 bd 08 f3 08 bd
       -0.080372855 -0.033434898
