2.3 Prioritized-Experience-Replay-DDQN-DQN/LightPriorDQN_gym0.2x/model/DDQN_LLdV2_100.pth (torch, 278863 bytes, 6 tensors)

Q.0.weight f4 [256, 8]
-0.22088085 -0.6706307 -0.16510403 0.28807807 0.22679752 0.48587656 -0.41899353 -0.18792924
0.20984247 -0.050307773 0.20326976 0.010336147 -0.17767219 0.73776114 0.089901835 0.106218755
-0.041248687 -0.2550675 -0.13010967 0.18255533 -0.50055856 0.34176418 0.14548728 0.4012068
0.24910387 0.15510912 -0.24526827 0.036848743 0.53510624 -0.6166696 -0.93674284 -0.06615189
0.2801819 0.43040204 -0.027265638 -0.033194315 0.3861682 0.1780689 -0.078318745 -1.030821
-0.52531207 -0.32739225 0.18976377 0.02772307 0.15082124 0.5080213 0.34624633 0.21757966
0.3780738 0.11910316 0.23587736 0.2904302 0.36750555 0.47864968 -0.2734065 0.013108275
-0.93470865 0.009442062 -0.100549795 0.90102404 0.20226519 -0.4516882 0.14822555 0.84811467
0.26927662 0.073498875 0.18969004 -0.54454416 -0.4541789 0.16551131 -0.60084563 0.35755584
-0.68404007 -0.18073489 -0.21719316 0.814762 -0.66793674 -0.01848817 -0.11133126 -0.040024415
0.838964 0.1924946 -0.85274637 0.047614705 0.4974466 0.18065488 -0.14001836 -0.22357734
-0.69918275 -0.20544201 -0.14417648 -0.25252315 0.53507537 0.13868546 0.27256346 0.042732187
-0.31522077 -0.36026415 -0.6025428 -0.47908497 0.18182254 -0.35248742 -0.6178706 0.0367356
0.6948089 0.22568996 0.56907636 0.5942155 -0.6552995 -0.8396595 0.31704974 -0.02949193
-0.6002327 -0.25391567 -0.34517288 -0.08624883 -0.06029148 0.57485324 0.19806129 0.3374584
0.2987282 0.113359794 -0.24259096 0.6180126 0.55086005 0.040286865 0.2726078 0.6423554
-0.09457257 -0.5119288 -0.60233176 -0.11170409 -0.21060361 -0.5070653 0.3396553 0.2753567
-0.093531564 -0.105458505 0.6391504 -0.584505 -0.6529328 -0.46770638 0.4932697 0.56019986
0.33997217 -0.04896305 -0.6731357 0.60257107 0.66897124 -0.17266369 0.31933737 0.088406965
-0.55345243 0.30951822 -0.14978787 -0.6552778 -0.37497562 -0.19260725 0.36885765 0.111115195
-0.39991057 0.78946656 0.23285912 -0.37920046 0.18714719 0.20907162 -0.5957888 -0.6289309
-0.61982733 -0.35459262 -0.42008492 0.034399062 0.6803603 0.16658226 0.0125371795 -0.07141503
-0.8691037 0.19575524 0.7493197 0.054031953 -0.07184228 -0.49715805 0.1172125 0.55870503
-0.37776178 -0.5196377 0.2509643 0.023308892 0.49398854 0.4042541 0.16791922 -0.52265024
0.36134788 0.13132161 -0.047992613 -0.4424725 0.371977 -0.25585404 -0.15487374 0.37269357
-0.605406 -0.15470229 -0.28780353 -0.6274871 -0.16244787 0.3104324 0.20181426 -0.47664064
0.24155448 0.087096006 -0.68072194 -0.3755392 0.34824905 -0.3057156 -0.306562 -0.31973958
0.010530351 0.03317101 0.11723306 -0.04013255 0.1871453 -0.87077767 0.364524 0.7011213
-0.6288387 -0.33340737 0.5372894 0.32521823 0.5234595 -0.28837872 -0.038321692 0.19752543
0.093461476 -0.020002387 -0.1850406 -0.010875109 -0.097663395 -0.1186902 -0.17526425 -0.17143281
-0.2699651 0.4119566 -0.122879736 -0.47301644 0.41821337 0.25654808 0.30054036 -0.04520581
0.12397392 -0.18406656 -0.24381042 -0.28571427 0.52215165 -0.19022153 -0.5260273 -0.40839988
00000000: 972e 62be 74ae 2bbf 0811 29be f87e 933e
00000010: 9c3d 683e d0c4 f83e 5286 d6be 8670 40be
00000020: f2e0 563e 860f 4ebd f325 503e f158 293c
00000030: b3ef 35be eadd 3c3f 741e b83d 3889 d93d
00000040: 62f4 28bd 3598 82be 783b 05be c9ef 3a3e
00000050: 9b24 00bf b7fb ae3e 9efa 143e fa6a cd3e
00000060: 1615 7f3e edd4 1e3e 9b27 7bbe b5ee 163d
00000070: b9fc 083f 0fde 1dbf 61ce 6fbf a47a 87bd
00000080: 0174 8f3e a85d dc3e 305c dfbc c3f6 07bd
00000090: d7b7 c53e b257 363e 9465 a0bd f1f1 83bf
000000a0: da7a 06bf f59f a7be 6f51 423e 7e1b e33c
000000b0: e270 1a3e af0d 023f 3347 b13e 34cd 5e3e
000000c0: e492 c13e 5cec f33d d689 713e 44b3 943e
000000d0: b029 bc3e 9211 f53e f0fb 8bbe 17c4 563c
000000e0: 1149 6fbf e1b2 1a3c 0ded cdbd 83a9 663f
000000f0: 9b1e 4f3e ad43 e7be 70c8 173e 0b1e 593f
00000100: a0de 893e 9486 963d 1b3e 423e 3f67 0bbf
00000110: 238a e8be cc7b 293e 05d1 19bf 8f11 b73e
00000120: 401d 2fbf 9112 39be e267 5ebe 3e94 503f
00000130: e7fd 2abf 8174 97bc a501 e4bd a4f0 23bd
00000140: 58c6 563f 4e1d 453e 964d 5abf a307 433d
00000150: 52b1 fe3e 98fd 383e f960 0fbe 75f1 64be
00000160: a4fd 32bf 645f 52be 00a3 13be b74a 81be
00000170: b3fa 083f 9003 0e3e 708d 8b3e f207 2f3d
00000180: 9e64 a1be 8b74 b8be 3f40 1abf a04a f5be
00000190: b02f 3a3e 3b79 b4be c52c 1ebf 1278 163d
000001a0: ffde 313f 451b 673e fdae 113f 821e 183f
000001b0: b5c1 27bf edf3 56bf 5854 a23e 0f99 f1bc
000001c0: daa8 19bf 3c01 82be 80ba b0be 3aa3 b0bd
000001d0: 33f4 76bd 9529 133f 94d0 4a3e 59c7 ac3e
000001e0: e7f2 983e 2e29 e83d c469 78be 1336 1e3f
000001f0: 2a05 0d3f d703 253d 4093 8b3e 6771 243f
00000200: 43af c1bd c40d 03bf 6a32 1abf 1dc5 e4bd
00000210: 79a8 57be 08cf 01bf 4de7 ad3e 8efb 8c3e
00000220: 7a8d bfbd a1fa d7bd 5c9f 233f 1fa2 15bf
00000230: 9b26 27bf 3677 efbe d98d fc3e 4269 0f3f
00000240: d510 ae3e 7b8d 48bd 9f52 2cbf 1942 1a3f
00000250: b341 2b3f c0ce 30be 3080 a33e b60e b53d
00000260: 0faf 0dbf 2c79 9e3e fe61 19be 49c0 27bf
00000270: cefc bfbe d63a 45be e9da bc3e 5d90 e33d
00000280: 14c1 ccbe 7b1a 4a3f 9f72 6e3e 9026 c2be
00000290: 83a3 3f3e df16 563e 9d85 18bf 9e01 21bf
000002a0: 01ad 1ebf 2a8d b5be 5f15 d7be 08e6 0c3d
000002b0: 182c 2e3f 8a94 2a3e be68 4d3c 0b42 92bd
000002c0: 957d 5ebf 1074 483e 6ad3 3f3f 9c50 5d3d
000002d0: 0c22 93bd 808b febe 1b0d f03d 4b07 0f3f
000002e0: fe69 c1be fa06 05bf 657e 803e 4af2 be3c
000002f0: 11ec fc3e 65fa ce3e 04f3 2b3e 68cc 05bf
00000300: 9702 b93e 2c79 063e e793 44bd c18b e2be
00000310: c573 be3e 4dff 82be 3997 1ebe b1d1 be3e
00000320: e3fb 1abf 476a 1ebe fc5a 93be ffa2 20bf
00000330: bc58 26be fff0 9e3e 66a8 4e3e 3e0a f4be
00000340: 0f5a 773e 645f b23d cb43 2ebf ad46 c0be
00000350: b34d b23e c186 9cbe b2f5 9cbe e8b4 a3be
00000360: 7e87 2c3c 53de 073d e317 f03d 0762 24bd
00000370: 04a3 3f3e 49eb 5ebf e4a2 ba3e af7c 333f
00000380: 93fb 20bf 5fb4 aabe cc8b 093f 0183 a63e
00000390: 7101 063f 60a6 93be 35f7 1cbd 1b44 4a3e
000003a0: bb68 bf3d 0cdc a3bc 487b 3dbe 832d 32bc
000003b0: bf03 c8bd d913 f3bd 7978 33be 158c 2fbe
000003c0: de38 8abe faeb d23e 5fa8 fbbd 362f f2be
000003d0: 1020 d63e 455a 833e 6de0 993e ba29 39bd
000003e0: 0ae6 fd3d f27b 3cbe 70a9 79be 2449 92be
000003f0: bbab 053f 6fc9 42be baa9 06bf ca19 d1be

Q.0.bias f4 [256]
-0.36098734 0.019893425 0.40999585 -0.27779377 -0.43616864 0.46541473 -0.2512382 0.22169794
-0.17885272 -0.120789185 0.44388658 0.13009204 0.086653 0.32897866 -0.24014024 0.7388523
0.24195223 0.82019687 0.08874953 0.41757795 0.051369913 0.37617868 0.39222804 0.3834098
-0.2262467 0.5566366 0.19670387 0.3309563 -0.100413285 -0.3208095 0.54452586 0.24465193
0.25259575 0.110892765 0.3237406 -0.24273917 0.1322252 0.024445271 0.16024585 0.37385863
0.33864468 -0.32717156 -0.14568098 -0.17703573 -0.3287949 0.13872743 0.2806266 0.07037792
0.46937215 0.47901317 0.40588585 0.06881389 0.43848267 0.30397296 -0.006401428 0.32494065
-0.13175756 0.16582821 0.3611099 0.4426499 -0.15142941 0.39991975 -0.17045322 0.7017806
-0.426887 0.55707103 -0.10165799 -0.54362583 -0.26532593 0.43487313 -0.23398967 0.2690147
0.20222425 -0.37524888 -0.58124983 -0.23779939 0.30811626 0.4768523 0.2930353 -0.18890226
0.23532826 0.21720466 -0.14517885 0.45721364 -0.32560712 0.58674675 0.28348672 0.17449969
-0.099534556 -0.121250786 -0.26203647 0.3710537 -0.13936125 0.38971633 0.22023521 0.124477476
0.49472994 0.4690173 0.29742873 0.06438609 0.51046467 0.46706834 0.33863616 0.6117795
-0.2061168 0.27425295 -0.5033488 0.47270185 0.29743826 -0.19153234 0.16529505 -0.13070616
0.23593913 0.024351187 -0.082453884 -0.13794936 0.37538874 0.22799243 0.4974291 0.401486
-0.22979945 -0.21286881 0.38865435 -0.0032278027 0.43758276 -0.19509348 0.33030605 0.065881655
-0.055894647 0.3199846 0.052646484 0.47838932 -0.3244569 -0.23900808 0.6542779 -0.07271593
-0.24076794 -0.3933471 0.45282224 0.2488801 0.5699 -0.28202626 0.0076477085 0.067865886
0.351168 -0.14663036 0.33129418 0.07000774 -0.37825027 0.15858808 0.15717813 0.015539255
0.15459356 0.28294703 -0.160555 0.32051 -0.27791524 0.05026333 0.18704042 0.00206306
-0.3439215 -0.118547656 0.2271142 0.386298 -0.23522045 0.2956623 -0.55875146 0.1456595
0.23420626 0.15119837 0.19539984 0.33142436 0.24128212 0.27618715 0.2686303 -0.13470383
0.43152943 0.8767927 -0.33463493 0.27052394 -0.043951325 0.2156604 0.46960953 0.24338306
0.38071895 0.08039535 -0.08939803 0.34859782 0.08040741 0.02726552 0.43095773 0.18844377
-0.2262769 0.4674528 0.07932686 -0.015717441 -0.13623314 -0.037710965 0.0617588 0.29579452
0.071083754 0.11386446 -0.123501435 0.48734814 0.23329745 0.4392378 0.12289912 -0.28272304
-0.18097945 -0.49232808 0.13274202 -0.09905287 -0.05070237 0.76474774 0.018691596 0.17339961
0.24129322 0.67924726 -0.21047102 -0.22235312 0.26346478 -0.19548132 -0.43153924 0.017943766
-0.47225463 0.50179 0.5517785 -0.1847697 -0.16747229 0.009500697 0.00097277417 -0.45290375
0.11873518 -0.27037862 -0.36582217 0.15046427 -0.040073037 0.46424907 0.07357079 -0.3656773
0.6399879 0.29562962 -0.11577668 0.12502627 0.22398756 0.115684286 0.42366403 -0.13255778
0.30619684 0.39004403 -0.41591763 0.37505418 -0.0019917807 0.70217025 0.022146733 0.066393755
00000000: 55d3 b8be 89f7 a23c faea d13e fc3a 8ebe
00000010: 7f51 dfbe d74a ee3e 4ba2 80be c904 633e
00000020: 2b25 37be 5260 f7bd 1a45 e33e d936 053e
00000030: 2177 b13d e46f a83e 53e7 75be 6d25 3d3f
00000040: 53c2 773e 6cf8 513f 50c2 b53d c7cc d53e
00000050: 4269 523d 7e9a c03e 1dd2 c83e 4a4e c43e
00000060: 37ad 67be bc7f 0e3f bd6c 493e 1b73 a93e
00000070: 7ba5 cdbd 2541 a4be 0c66 0b3f 0986 7a3e
00000080: 3b54 813e bf1b e33d 54c1 a53e 9e90 78be
00000090: 0b66 073e 7341 c83c 7d17 243e 666a bf3e
000000a0: d662 ad3e 0883 a7be 652d 15be db48 35be
000000b0: ce57 a8be 900e 0e3e 4aae 8f3e 4d22 903d
000000c0: 8c51 f03e 3741 f53e 45d0 cf3e 4cee 8c3d
000000d0: cd80 e03e 58a2 9b3e 12c3 d1bb 9f5e a63e
000000e0: 74eb 06be dfce 293e 66e3 b83e 02a3 e23e
000000f0: 5010 1bbe 48c2 cc3e 4a8b 2ebe e5a7 333f
00000100: ef90 dabe 359c 0e3f 1032 d0bd 102b 0bbf
00000110: cdd8 87be b1a7 de3e fd9a 6fbe 4bbc 893e
00000120: e013 4f3e 9f20 c0be cacc 14bf af81 73be
00000130: 6ac1 9d3e fc25 f43e b908 963e 986f 41be
00000140: e4f9 703e e66a 5e3e c4a9 14be e817 ea3e
00000150: fab5 a6be 0935 163f 2c25 913e 0cb0 323e
00000160: c6d8 cbbd 5552 f8bd a529 86be c0fa bd3e
00000170: b7b4 0ebe e688 c73e 5785 613e 0cee fe3d
00000180: 3e4d fd3e 0923 f03e 9448 983e dbdc 833d
00000190: d0ad 023f 9523 ef3e b861 ad3e 959d 1c3f
000001a0: 4810 53be e26a 8c3e 78db 00bf fa05 f23e
000001b0: d449 983e 0e21 44be 1b43 293e d6d7 05be
000001c0: 079a 713e 247c c73c 95dd a8bd 9942 0dbe
000001d0: f432 c03e d976 693e 07af fe3e 938f cd3e
000001e0: 8c50 6bbe 48fa 59be b4fd c63e 8b89 53bb
000001f0: d90a e03e 96c6 47be e01d a93e f6ec 863d
00000200: c9f1 64bd 06d5 a33e d7a3 573d 72ef f43e
00000210: 371f a6be 89be 74be c27e 273f 17ec 94bd
00000220: df8b 76be cb64 c9be 51d8 e73e 6dda 7e3e
00000230: f7e4 113f bf65 90be a199 fa3b 45fd 8a3d
00000240: 4bcc b33e 4526 16be 649f a93e 3860 8f3d
00000250: 05aa c1be ea64 223e 4ef3 203e 5c98 7e3c
00000260: c64d 1e3e 6fde 903e 8868 24be e319 a43e
00000270: e84a 8ebe ece0 4d3d 8687 3f3e 6734 073b
00000280: 7b16 b0be 1dc9 f2bd a090 683e dac8 c53e
00000290: a1dd 70be 0d61 973e 560a 0fbf c427 153e
000002a0: c4d3 6f3e bfd3 1a3e e516 483e 74b0 a93e
000002b0: a912 773e 6768 8d3e e989 893e cdef 09be
000002c0: 6df1 dc3e 7d75 603f 4555 abbe 1d82 8a3e
000002d0: 4e06 34bd 14d6 5c3e a970 f03e 6939 793e
000002e0: 98ed c23e 51a6 a43d 5016 b7bd 6a7b b23e
000002f0: a4ac a43d f15b df3c 7ea6 dc3e 67f7 403e
00000300: 22b5 67be f955 ef3e 1f76 a23d ddc1 80bc
00000310: b380 0bbe d076 1abd ccf6 7c3d 6172 973e
00000320: 5c94 913d c531 e93d 52ee fcbd b285 f93e
00000330: 87e5 6e3e c7e3 e03e 89b2 fb3d 13c1 90be
00000340: ad52 39be 6d12 fcbe 86ed 073e 3bdc cabd
00000350: 4aad 4fbd 82c6 433f 1e1f 993c ab8f 313e
00000360: 9215 773e 26e3 2d3f b785 57be 89b0 63be
00000370: dbe4 863e 412c 48be b6f2 dcbe cefe 923c
00000380: 5ccb f1be 4f75 003f 5b41 0d3f 4534 3dbe
00000390: db7d 2bbe d0a8 1b3c c501 7f3a 00e3 e7be
000003a0: 6e2b f33d 116f 8abe 0b4d bbbe 4e13 1a3e
000003b0: a023 24bd 0eb2 ed3e 48ac 963d 0e3a bbbe
000003c0: 3fd6 233f c45c 973e 531c edbd e306 003e
000003d0: ff5c 653e e2eb ec3d 7eea d83e 3abd 07be
000003e0: d5c5 9c3e dab3 c73e 28f3 d4be 1a07 c03e
000003f0: 8988 02bb 6ec1 333f 116d b53c 73f9 873d

Q.2.weight f4 [256, 256]
-0.64729244 -0.10842761 0.36895344 -0.3653192 -0.3676496 0.03425285 -0.24532399 -0.0060228105
0.3606824 0.8797194 0.23665003 0.05188263 0.31543493 -0.0045022517 -0.42647827 0.2017134
0.24560982 0.14738466 -0.24176227 0.110454895 0.103806004 0.16154361 0.27419725 -0.10462926
0.5105982 0.06121651 0.23994194 0.19649127 0.9250296 -0.018040642 0.07937488 0.48314214
-0.14978729 -0.09532349 -0.009883525 -0.07791888 0.1846467 0.02694587 -0.087963864 0.36438766
-0.32261473 -0.23127078 -0.54248476 -0.6305176 1.0119756 -0.096483804 0.12875248 -0.23763955
0.17865694 0.1382747 0.31920284 -0.030850777 0.19186026 0.13463892 0.580117 0.18226874
0.689064 -0.30463672 0.38820013 0.040048297 -0.093596704 0.39657456 -0.3143976 0.05355553
-0.15608823 0.05146489 0.28403515 -0.68596655 -0.40024418 0.11798136 -0.30820176 -0.071469195
-0.266159 -0.38102114 -0.8306448 0.21616127 -0.004657939 0.13497595 -0.10448703 -0.23699382
-0.005267008 -0.10477837 -0.2640748 -0.022464229 -0.37580615 0.1488193 0.13836215 0.11259313
-0.15825924 -0.27962023 -0.49024633 0.27951926 -0.0011409577 0.026289904 0.20186715 0.3576639
0.31162304 0.06440998 -0.18316251 -0.3445829 0.12952593 0.10794264 0.13374045 0.10127039
0.32507393 0.13105679 -0.32346216 -0.052438952 0.007820891 0.25432697 0.73437864 -0.104457475
0.516564 -0.29305568 -0.046305317 0.08801259 0.24449186 -0.16441241 -0.021517072 0.39308867
0.031264428 -0.22001599 0.19768332 0.16131064 0.2122218 -0.19386186 0.23909149 0.39825127
0.36583206 0.43964654 -0.15617883 -0.06230227 -0.5211843 -0.17684484 0.18461967 0.21722037
-0.3238682 -0.8790153 -0.08309474 -0.057223704 0.09678987 -0.18527544 0.6860644 -0.055520337
0.017216584 -0.3262883 -0.06974459 0.48018563 -0.32043475 -0.030569172 0.20221518 0.348876
-0.07524658 -0.07518748 -0.24614199 -0.18857104 0.68377775 -0.50115645 -0.015556435 0.040170558
0.3147516 -0.019108964 -0.17081656 0.21396911 -0.32454556 0.27242234 -0.717115 0.22064331
0.1520283 0.4761752 -0.020226313 0.36176243 -0.09922434 0.21590266 0.28173554 -0.16039972
-0.031043675 0.030160466 -0.43931702 0.055704325 -0.23262183 -0.0032600763 -0.3581173 0.4188598
0.41787332 -0.07966033 -0.3646622 0.10203555 0.5511724 0.20217131 0.23546676 0.29472446
-0.6129446 0.022730108 -0.22332314 0.14220281 0.03831709 -0.2732605 0.36486736 0.36329347
-0.3774293 0.42513365 0.24085711 -0.07124167 0.21533719 -0.12961939 0.29810962 -0.2305794
-0.36222675 -1.2505887 0.18827116 0.014231152 -0.418591 0.14905941 -0.027006414 -0.11894259
-0.0035733976 0.12767191 -0.86683625 -0.4803325 -0.23094462 -0.29794922 0.0064854426 0.4436085
-1.0919961 0.18695931 0.35624143 -0.1345105 0.12923476 -0.12944129 -0.16114883 -0.8400726
-0.30853832 -0.19512169 -0.3079276 -0.27573147 0.64432615 0.07041698 -0.30230203 -0.03297243
0.053244777 -0.19879971 -0.4438255 -0.5919601 0.33777022 0.3806452 0.12944858 0.4022791
-0.24554387 0.33165452 -0.23708817 0.21973921 0.6221638 0.15264827 0.5605954 0.06972825
00000000: f5b4 25bf 4b0f debd 77e7 bc3e 1e0b bbbe
00000010: 923c bcbe b74c 0c3d 3636 7bbe ff5a c5bb
00000020: 5dab b83e 4a35 613f 6354 723e e182 543d
00000030: b080 a13e a087 93bb 5c5b dabe f58d 4e3e
00000040: 2481 7b3e 01ec 163e 8790 77be 2d36 e23d
00000050: 3e98 d43d b06b 253e 9563 8c3e de47 d6bd
00000060: 90b6 023f 2abe 7a3d 57b3 753e 0235 493e
00000070: bdce 6c3f f8c9 93bc 4c8f a23d 685e f73e
00000080: d761 19be f638 c3bd 82ee 21bc ef93 9fbd
00000090: 0614 3d3e 96bd dc3c 6626 b4bd 0591 ba3e
000000a0: c22d a5be 3fd2 6cbe 48e0 0abf 9a69 21bf
000000b0: 6b88 813f 4d99 c5bd b1d7 033e c857 73be
000000c0: d8f1 363e e297 0d3e 8e6e a33e c5ba fcbc
000000d0: 0477 443e c9de 093e 8c82 143f a8a4 3a3e
000000e0: 8066 303f 58f9 9bbe 2bc2 c63e af09 243d
000000f0: a1af bfbd d20b cb3e b9f8 a0be 0b5d 5b3d
00000100: 98d5 1fbe d9cc 523d 0e6d 913e 819b 2fbf
00000110: ceec ccbe 36a0 f13d 9fcc 9dbe 715e 92bd
00000120: fe45 88be 3415 c3be 23a5 54bf 6159 5d3e
00000130: a0a1 98bb 2337 0a3e 4cfd d5bd 82ae 72be
00000140: de96 acbb 0b96 d6bd d034 87be e706 b8bc
00000150: aa69 c0be 1664 183e cfae 0d3e 3a97 e63d
00000160: b60e 22be 622a 8fbe 9101 fbbe 261d 8f3e
00000170: 308c 95ba ed5d d73c 43b6 4e3e b91f b73e
00000180: 0e8d 9f3e 61e9 833d f48e 3bbe 2b6d b0be
00000190: 72a2 043e 0811 dd3d 42f3 083e da66 cf3d
000001a0: 1770 a63e c033 063e d59c a5be 3aca 56bd
000001b0: 3223 003c 2537 823e 3d00 3c3f cded d5bd
000001c0: 8a3d 043f 650b 96be a5aa 3dbd f23f b43d
000001d0: 135c 7a3e ba5b 28be 9244 b0bc eb42 c93e
000001e0: 210f 003d df4b 61be 7f6d 4a3e 9e2e 253e
000001f0: ac50 593e b983 46be 66d4 743e 97e7 cb3e
00000200: 574e bb3e 5a19 e13e 58ed 1fbe aa30 7fbd
00000210: 566c 05bf d016 35be f00c 3d3e 046f 5e3e
00000220: 0dd2 a5be 2607 61bf 932d aabd 6763 6abd
00000230: c439 c63d d8b8 3dbe eba1 2f3f 4b69 63bd
00000240: cb09 8d3c 430f a7be 40d6 8ebd e4da f53e
00000250: 0610 a4be 336c fabc 7f11 4f3e e09f b23e
00000260: e11a 9abd e5fb 99bd a50c 7cbe c418 41be
00000270: 0f0c 2f3f ca4b 00bf 6be0 7ebc e289 243d
00000280: 1f27 a13e 678a 9cbc 89ea 2ebe b81a 5b3e
00000290: d62a a6be f17a 8b3e d994 37bf 52f0 613e
000002a0: 4fad 1b3e 3ccd f33e a7b1 a5bc ed38 b93e
000002b0: 2136 cbbd 9615 5d3e a43f 903e d33f 24be
000002c0: 4e4f febc 1513 f73c 29ee e0be 382a 643d
000002d0: 6b34 6ebe 01a7 55bb 275b b7be cb74 d63e
000002e0: 7ef3 d53e f524 a3bd 01b5 babe 04f8 d03d
000002f0: a219 0d3f ff05 4f3e 331e 713e 20e6 963e
00000300: f0e9 1cbf 7e34 ba3c d2ae 64be 9d9d 113e
00000310: 62f2 1c3d cde8 8bbe e5cf ba3e 9a01 ba3e
00000320: 6a3e c1be 1eab d93e 3fa3 763e 27e7 91bd
00000330: 5a81 5c3e f2ba 04be d3a1 983e 021d 6cbe
00000340: c975 b9be 4a13 a0bf 28ca 403e c729 693c
00000350: 8f51 d6be 08a3 183e 8e3c ddbc 2c98 f3bd
00000360: aa2f 6abb 6dbc 023e fbe8 5dbf 24ee f5be
00000370: bf7c 6cbe cd8c 98be d683 d43b a720 e33e
00000380: 87c6 8bbf 4372 3f3e 4765 b63e 1fbd 09be
00000390: 1e56 043e 428c 04be 3304 25be ff0e 57bf
000003a0: bcf8 9dbe fbcd 47be b0a8 9dbe ad2c 8dbe
000003b0: 8ff2 243f c736 903d 55c7 9abe 190e 07bd
000003c0: 3217 5a3d 2792 4bbe 193d e3be b28a 17bf
000003d0: 38f0 ac3e ede3 c23e 2b8e 043e 87f7 cd3e
000003e0: da6f 7bbe 9fce a93e 3ec7 72be 5103 613e
000003f0: 2046 1f3f d44f 1c3e 2e83 0f3f afcd 8e3d

Q.2.bias f4 [256]
0.20103955 0.031187288 -0.07642991 -0.062134445 -0.0005168064 0.21036066 0.11456267 -0.08060217
0.20913099 0.14165932 0.06848843 0.018329952 0.05193302 0.15216039 0.0142723825 -0.02652931
0.07101877 0.05154296 -0.048723724 0.19855574 0.25412342 -0.04625174 0.14670472 -0.058079135
0.0086341025 0.005498757 0.2412049 0.13875122 -0.031683058 0.07332628 0.26893225 -0.16366489
-0.030099992 0.16591607 0.071963444 -0.045722775 -0.0025623827 0.21995667 0.076118916 0.13354222
0.10897317 -0.019524997 -0.21356753 0.09998313 0.19719847 0.18451346 0.13687456 0.1141753
0.07571218 0.028478874 -0.018148823 0.10141511 -0.005159089 -0.024032395 0.14652766 0.10250376
0.013577551 0.10631864 0.15074174 0.04655474 -0.034686413 -0.07731975 0.019969964 0.003315886
0.07535011 0.049542118 0.27190474 0.21321426 0.052158486 0.045354605 -0.043298595 0.12386736
-0.032631364 0.029071836 0.031770844 0.043145925 0.10670854 -0.06763558 -0.01549719 0.08444735
0.02521232 0.12487779 -0.04667214 0.07700395 -0.033959396 0.076312736 0.027371427 -0.0807322
0.13016503 0.08642131 0.060025893 0.1672159 0.03250698 0.14767876 0.101431966 0.0683021
0.17479241 0.11256967 0.046289258 0.2621651 0.0025391118 0.09614798 0.09322285 -0.01311255
0.09925451 0.083756894 0.06892834 0.09578797 -0.017826974 -0.0152902445 0.18946429 -0.0030914538
-0.061484862 0.11233316 0.15805209 0.015547399 0.12003409 0.14445896 -0.015081326 0.17659414
0.12766595 0.18367901 0.22024557 0.10363394 -0.120262265 0.1258439 0.04797366 0.13553981
0.17030588 0.061712623 -0.021169215 0.11762549 0.007213875 0.012338099 -0.03917534 0.12691362
-0.06315364 0.096719995 -0.0064170035 -0.0035032155 -0.023645934 0.25162184 0.20499218 0.05415475
-0.1336324 0.050704375 0.28514928 0.08493672 0.136654 0.0039168024 0.09266254 0.08372027
0.108199276 0.069311805 0.114017464 0.110458314 0.03794628 0.010158127 0.18557136 0.035962783
0.025242567 0.012639747 0.12685347 -0.060568575 0.23397106 -0.031687524 0.06641696 -0.0070016035
-0.06646693 0.09801806 0.10224537 0.08865103 0.16827573 0.012853674 0.061151363 0.10609611
-0.05532574 0.082036205 0.002065481 0.19622421 0.13036004 0.067555375 0.105849355 0.12698054
0.107526 0.097775064 0.017551085 -0.057481177 0.061195437 0.20433205 -0.04709753 -0.06714564
0.06536925 0.009933688 0.12433215 -0.0055519817 0.22879085 0.1698967 0.013175851 0.077969745
-0.10685603 0.04910446 -0.041513618 0.16854447 0.14048156 0.12807415 0.060680162 0.012446455
0.09188181 -0.05879997 0.06369756 0.066619515 0.12035784 0.06883956 0.0077758376 -0.07216506
0.07350919 -0.0740833 0.18491183 0.005822375 0.26387274 0.072380856 0.18833098 0.22510345
0.02744057 0.04195921 0.038621757 0.02794514 0.0637036 0.107974514 0.07391357 0.03235672
0.069117025 0.044703726 0.026294801 0.15072435 0.055657934 -0.038595226 0.05117112 0.013348354
0.05393058 -0.1605182 0.085803166 0.044970363 -0.058318723 0.06331754 0.15546678 -0.007421632
0.009466687 0.08862612 -0.051561795 0.1543288 0.009181663 0.0024056493 -0.069601156 0.023481198
00000000: 50dd 4d3e 7c7c ff3c 4987 9cbd b080 7ebd
00000010: 4a7a 07ba c968 573e d59f ea3d c012 a5bd
00000020: 6f26 563e 240f 113e a943 8c3d b228 963c
00000030: b8b7 543d efcf 1b3e b6d6 693c ff53 d9bc
00000040: 4a72 913d b61e 533d 8792 47bd 3252 4b3e
00000050: 771c 823e 7772 3dbd c339 163e 63e4 6dbd
00000060: 0d76 0d3c eb2e b43b 6bfe 763e cd14 0e3e
00000070: 18c6 01bd 172c 963d 7db1 893e c597 27be
00000080: 4294 f6bc e7e5 293e 9261 933d ce47 3bbd
00000090: a6ed 27bb 523c 613e 3ce4 9b3d 4bbf 083e
000000a0: 532d df3d e3f2 9fbc 72b1 5abe f5c3 cc3d
000000b0: 65ee 493e 19f1 3c3e d828 0c3e bdd4 e93d
000000c0: fd0e 9b3d 874c e93c d7ac 94bc bab2 cf3d
000000d0: 930d a9bb 96df c4bc 590b 163e 7eed d13d
000000e0: 6074 5e3c 96bd d93d 0b5c 1a3e 2fb0 3e3d
000000f0: 5713 0ebd d159 9ebd 0d98 a33c 564f 593b
00000100: 2951 9a3d adec 4a3d 1937 8b3e d754 5a3e
00000110: 23a4 553d c0c5 393d de59 31bd 2cae fd3d
00000120: 77a8 05bd 0f28 ee3c 2522 023d c8b9 303d
00000130: 028a da3d 8684 8abd ede7 7dbc bbf2 ac3d
00000140: 118a ce3c edbf ff3d 492b 3fbd 3fb4 9d3d
00000150: 0219 0bbd da49 9c3d 0b3a e03c ec56 a5bd
00000160: fb49 053e a8fd b03d b6dd 753d a53a 2b3e
00000170: 0a26 053d 1a39 173e 90bb cf3d f9e1 8b3d
00000180: c8fc 323e ed8a e63d ce99 3d3d 813a 863e
00000190: 3a67 263b 3be9 c43d 9feb be3d 05d6 56bc
000001a0: f345 cb3d bc88 ab3d 4d2a 8d3d 7c2c c43d
000001b0: e009 92bc ef83 7abc ed02 423e fd99 4abb
000001c0: 8dd7 7bbd ee0e e63d 68d8 213e 85ba 7e3c
000001d0: 6fd4 f53d 0ded 133e aa17 77bc 18d5 343e
000001e0: ddba 023e 5a16 3c3e 0e88 613e 083e d43d
000001f0: 104c f6bd 39dd 003e 0780 443d f3ca 0a3e
00000200: aa64 2e3e 60c6 7c3d 106b adbc a2e5 f03d
00000210: 5f62 ec3b bd25 4a3c 5276 20bd a5f5 013e
00000220: b256 81bd 2215 c63d ba45 d2bb 3496 65bb
00000230: 1eb5 c1bc 94d4 803e 78e9 513e 5fd1 5d3d
00000240: efd6 08be 64af 4f3d 16ff 913e 4ef3 ad3d
00000250: 07ef 0b3e 8558 803b dcc5 bd3d 8875 ab3d
00000260: 9597 dd3d 59f3 8d3d fd81 e93d f837 e23d
00000270: 8f6d 1b3d 466e 263c 6b06 3e3e b64d 133d
00000280: 80c9 ce3c f116 4f3c e0e5 013e c116 78bd
00000290: 1c96 6f3e c7ca 01bd 9d05 883d b56d e5bb
000002a0: d01f 88bd b1bd c83d 0566 d13d ac8e b53d
000002b0: 7950 2c3e 3798 523c da79 7a3d eb48 d93d
000002c0: 3e9d 62bd 9902 a83d 055d 073b 00ef 483e
000002d0: 1a7d 053e 795a 8a3d 8cc7 d83d 3007 023e
000002e0: 9736 dc3d 4b3e c83d 4bc7 8f3c 6271 6bbd
000002f0: 11a8 7a3d 6c3c 513e 57e9 40bd a783 89bd
00000300: 50e0 853d e8c0 223c dba1 fe3d 66ed b5bb
00000310: 2648 6a3e 67f9 2d3e 86df 573c 9aae 9f3d
00000320: 56d7 dabd c221 493d 2f0a 2abd ec96 2c3e
00000330: 66da 0f3e df25 033e c38b 783d 37ec 4b3c
00000340: 882c bc3d 3dd8 70bd de73 823d d06f 883d
00000350: 2c7e f63d c1fb 8c3d 74cc fe3b 46cb 93bd
00000360: fc8b 963d fcb8 97bd 8759 3d3e 9fc9 be3b
00000370: 541a 873e 6a3c 943d d6d9 403e 8581 663e
00000380: 0ccb e03c 6cdd 2b3d d931 1e3d 35ed e43c
00000390: 0877 823d be21 dd3d ff5f 973d 7b88 043d
000003a0: 3a8d 8d3d 411b 373d 3268 d73c 7c57 1a3e
000003b0: 93f9 633d 0716 1ebd cf98 513d 0eb3 5a3c
000003c0: 50e6 5c3d e25e 24be 92b9 af3d d832 383d
000003d0: 9ddf 6ebd a0ac 813d af32 1f3e 2931 f3bb
000003e0: 2a1a 1b3c 9c81 b53d 7632 53bd 5e08 1e3e
000003f0: b06e 163c 19a8 1d3b 0d8b 8ebd a45b c03c

Q.4.weight f4 [4, 256]
0.7077904 -0.38711175 1.1584666 -0.5643444 -0.58417815 0.5666756 1.0386136 -0.7138517
0.6065523 -0.6527804 -0.4706034 0.49928516 0.028803848 -0.14630602 -0.41432557 -0.59131867
0.46655998 -0.29953098 -0.6278726 0.5761008 0.6399171 -0.006753497 0.8671131 0.56843716
-0.39726636 1.0914861 0.492635 -0.6976213 0.5027424 -0.5474674 0.522688 -0.8851245
0.030358434 -0.34303808 -0.46559313 0.52378935 -0.5319822 0.53113496 -0.27221587 -1.212601
-0.29340687 -0.41324994 2.0644217 -0.28462452 -0.6222764 1.1052125 0.5706412 0.5835562
-1.1980376 -0.38562605 0.46865702 -0.38069117 -0.6424687 -0.027702084 -0.5811816 0.003609193
-0.31680152 -0.82696587 0.7289013 0.007006216 -0.031445213 -0.1423517 -0.32259992 -0.6535844
0.51117456 -0.85449886 0.56229323 0.4427004 0.56906253 -0.35127354 -0.027249642 -0.44764015
-0.42272967 -0.8167702 -0.5633038 -0.6213182 -0.26219997 -0.77948916 -0.03425686 -0.3158417
-0.4667377 -0.48248622 -0.05222986 0.14910707 -0.5207927 -0.7036903 0.036293633 -1.4856758
-0.57178396 -0.4960649 0.018420937 0.76212573 -0.5005955 0.8908214 -0.24034035 -0.79050624
1.4200923 -0.2062105 -0.3865239 0.7842533 0.5546945 -0.6265825 -0.32881737 -0.67398876
-0.5171427 -0.4552792 -0.36897597 -0.29715618 -0.010291272 -0.36662495 -0.3389232 -0.6383569
-0.49142674 -0.77499896 -0.4032631 -0.015006614 1.2117238 0.48965776 -0.334311 0.8325926
0.7504736 0.6075504 0.18991409 -0.574999 -0.72022796 -0.75686324 -0.65524846 -0.12444103
0.8204833 -0.41712308 -0.6386841 -0.30311623 -0.5949771 -0.44803995 0.63921183 -0.34721583
0.04933355 0.016441388 -0.5209026 -0.011089478 0.053904437 0.5726901 -0.0027493194 -0.3666091
-0.6112788 0.66456634 0.6117914 -0.14568509 -0.5519147 -0.4573023 -0.2890384 -0.2959247
-0.8422517 0.42753986 -0.254016 0.5181429 -0.44774073 -0.34181032 -0.5711804 0.69233733
-0.62161195 0.7430109 -0.29901427 0.058159444 0.28231162 -0.47380918 -0.3352168 -0.45781407
-0.5942047 -0.43385953 0.6707732 -0.13915418 0.5593401 -0.23654082 -0.46788704 -0.4495198
-0.76441765 0.45364857 -0.43340668 0.49947852 -0.4997674 -0.46939608 -0.47330326 -0.9981912
-0.54547906 -0.71309495 0.79150254 -0.38390648 -0.3572897 0.45954347 0.03970809 0.0052081216
-0.41466805 0.042760126 0.18821785 0.09486016 0.42444885 -0.32980314 -0.41892397 -0.18118966
-0.5618646 0.6519126 -0.63184 -0.64362365 0.44520482 0.8103836 0.20400868 -0.4302631
0.54250777 0.042265166 -0.7825773 -0.41248444 -0.5745884 -0.51022977 -0.5539832 1.1562419
-0.40086758 -0.4518909 -0.20645902 -0.64120626 0.5437619 -0.58460397 0.7700129 0.76500374
-0.56430215 -0.6400977 0.034617886 -0.37081894 -0.47101954 -0.6185006 -0.46213853 0.5112527
-0.6170141 -0.38559127 0.7762602 0.5603701 -0.7787745 -0.061513387 -0.67095006 0.94170326
0.6527258 0.7067269 -0.5947089 -0.62447965 0.0584209 0.7561714 0.68060607 -0.047433745
0.20788805 -0.24465916 -0.002571357 -0.61424786 0.01482144 -0.053187873 -0.34020972 0.48211896
00000000: c031 353f 8333 c6be a248 943f e078 10bf
00000010: b38c 15bf a711 113f 4af1 843f fcbe 36bf
00000020: 0347 1b3f 9e1c 27bf eef2 f0be 4ea2 ff3e
00000030: 0cf6 eb3c 3fd1 15be 7b22 d4be a960 17bf
00000040: f3e0 ee3e 205c 99be 42bc 20bf 587b 133f
00000050: 9bd1 233f 704c ddbb 20fb 5d3f 1985 113f
00000060: 7f66 cbbe d1b5 8b3f a83a fc3e 4f97 32bf
00000070: bab3 003f d326 0cbf e1ce 053f 8597 62bf
00000080: 40b2 f83c b0a2 afbe 3962 eebe 0f17 063f
00000090: fc2f 08bf 76f8 073f e15f 8bbe 8236 9bbf
000000a0: 6d39 96be 7f95 d3be 7c1f 0440 4eba 91be
000000b0: 824d 1fbf 9a77 8d3f 8b15 123f f063 153f
000000c0: 4c59 99bf c770 c5be d0f3 ef3e f4e9 c2be
000000d0: d478 24bf 7bef e2bc 51c8 14bf 3688 6c3b
000000e0: cf33 a2be 09b4 53bf 4799 3a3f 6694 e53b
000000f0: b2cc 00bd a5c4 11be d12b a5be 4f51 27bf
00000100: 56dc 023f 70c0 5abf 73f2 0f3f a0a9 e23e
00000110: 15ae 113f 20da b3be a43a dfbc 1731 e5be
00000120: 0670 d8be da17 51bf ae34 10bf b60e 1fbf
00000130: 133f 86be 9a8c 47bf ec50 0cbd 01b6 a1be
00000140: 3ef8 eebe 6f08 f7be faee 55bd 86af 183e
00000150: ac52 05bf 0c25 34bf a2a8 143d a02a bebf
00000160: 6f60 12bf 38fc fdbe 81e7 963c ac1a 433f
00000170: 0727 00bf df0c 643f c81b 76be 9e5e 4abf
00000180: 96c5 b53f d828 53be 76e6 c5be d3c4 483f
00000190: 7500 0e3f b667 20bf c05a a8be 878a 2cbf
000001a0: 7763 04bf 5b1a e9be 6bea bcbe db24 98be
000001b0: b99c 28bc 44b6 bbbe 5787 adbe 5c6b 23bf
000001c0: 499c fbbe 5566 46bf 8078 cebe 4dde 75bc
000001d0: c419 9b3f 6cb4 fa3e d02a abbe ca24 553f
000001e0: 0a1f 403f 6c88 1b3f d778 423e 2233 13bf
000001f0: dc60 38bf cac1 41bf 5dbe 27bf f0da febd
00000200: 320b 523f 2891 d5be cd80 23bf 0d32 9bbe
00000210: 6b50 18bf 7e65 e5be 63a3 233f 46c6 b1be
00000220: fa11 4a3d 17b0 863c df59 05bf a4b0 35bc
00000230: e6ca 5c3d d29b 123f ed2d 34bb 30b4 bbbe
00000240: c47c 1cbf 0521 2a3f 5c9e 1c3f 792e 15be
00000250: 484a 0dbf 8723 eabe d7fc 93be 7183 97be
00000260: cf9d 57bf 81e6 da3e 630e 82be 03a5 043f
00000270: 463e e5be c301 afbe e138 12bf 053d 313f
00000280: f621 1fbf f635 3e3f 6618 99be 9938 6e3d
00000290: 268b 903e 1e97 f2be 89a1 abbe 9b66 eabe
000002a0: cd1d 18bf d622 debe cbb7 2b3f 6f7e 0ebe
000002b0: ea30 0f3f c237 72be e48e efbe 7627 e6be
000002c0: e0b0 43bf a044 e83e 7be7 ddbe a6bb ff3e
000002d0: 83e1 ffbe af54 f0be ce54 f2be 7589 7fbf
000002e0: 84a4 0bbf 648d 36bf e99f 4a3f 648f c4be
000002f0: adee b6be 4849 eb3e f3a4 223d e4a8 aa3b
00000300: 5f4f d4be 3e25 2f3d 2ebc 403e 0b46 c23d
00000310: 5c51 d93e f5db a8be 347d d6be c889 39be
00000320: 5cd6 0fbf bfe3 263f 44c0 21bf 85c4 24bf
00000330: e3f1 e33e 4d75 4f3f a7e7 503e 724b dcbe
00000340: cae1 0a3f 3d1e 2d3d fc56 48bf 2931 d3be
00000350: 3a18 13bf 6b9e 02bf d8d1 0dbf bcff 933f
00000360: 843e cdbe 3e5e e7be fe69 53be 1826 24bf
00000370: fb33 0b3f 9ba8 15bf 911f 453f 49d7 433f
00000380: 1b76 10bf 71dd 23bf 7ccb 0d3d fbdb bdbe
00000390: 7929 f1be 0e56 1ebf 6c9d ecbe 75e1 023f
000003a0: a3f4 1dbf 386c c5be fdb8 463f 6a74 0f3f
000003b0: c45d 47bf 76f5 7bbd 62c3 2bbf 7713 713f
000003c0: 0a19 273f 0eec 343f d83e 18bf e6dd 1fbf
000003d0: c14a 6f3d 7394 413f 333c 2e3f e349 42bd
000003e0: 9be0 543e ee87 7abe 3684 28bb 593f 1dbf
000003f0: a0d5 723c 87db 59bd f82f aebe 4cd8 f63e

Q.4.bias f4 [4]
0.1347961 0.01208658 0.046484925 0.124838114
00000000: fd07 0a3e ca06 463c fa66 3e3d 20ab ff3d
