2.1 DQN-DDQN-Classic-Control/model/DDQN_CPV1_50000.pth (torch, 168799 bytes, 6 tensors)

Q.0.weight f4 [200, 4]
0.009803731 0.30172464 0.45484242 -0.11118313 -0.6359584 -0.43536496 0.5482706 0.30739602
0.2859464 0.3400794 1.0018728 0.49823606 -0.25419685 -0.573551 -0.53292847 -0.38654938
0.22199358 -0.1810158 1.4639752 0.021493016 0.36811724 0.3309559 1.3882245 0.47116938
0.19128056 0.16767298 -0.48595646 -0.25617015 0.5496265 0.10951381 -1.1289321 0.19130811
-0.31419307 0.24806947 -0.5023651 0.37657255 0.055596013 0.3588512 0.96829164 0.4130158
0.36290756 -0.48342323 -0.69046706 -0.045961056 0.13411836 0.42993742 0.57518655 0.19598596
0.74040097 -0.06252528 -0.48252827 0.43206394 -0.30701718 0.2624519 0.4840341 0.3856043
-0.011757481 0.39905483 -0.23114516 0.3974902 0.18938032 -0.16439222 -1.0128361 -0.26903912
-0.29430413 0.36545953 1.5453638 0.53399986 0.13515687 -0.10506315 -1.3286731 -0.26979834
-0.14313214 0.41907442 0.74323094 0.030945394 0.35930702 -0.4826347 -0.30550364 -0.54859245
0.012852975 -0.12808706 0.7661245 0.62140596 -0.52149874 -0.44841945 -0.26857123 -0.24644181
-0.025362683 0.0062890085 1.3976874 0.18769304 -0.20857777 -0.4885788 0.47815567 -0.21015206
0.8554962 0.41049698 0.44589952 0.47465697 0.36393306 -0.1950503 -0.94650614 -0.37952343
0.54146403 0.3091356 -0.94914436 0.045293186 0.13069448 -0.22468297 -0.9353116 -0.35623604
-0.72975385 0.1768397 1.0986003 0.40108398 0.06614632 -0.33026943 -0.803807 0.24101314
-0.99315935 -0.3088259 0.09826738 0.23603933 0.024798756 -0.059898917 -1.0106083 0.26878136
0.41730317 0.45121977 0.2746538 0.47295785 0.355437 0.11890445 -0.8644333 -0.04520519
0.486066 0.28481975 -0.7381012 -0.2753459 -0.1610556 0.05978235 0.015356509 -0.00060388475
-0.51256216 0.2947636 0.94724846 -0.4751723 0.03512832 -0.20892899 -0.8238596 -0.041520733
-0.43040255 0.4487624 0.6336829 -0.46312788 0.41532 0.20400284 -0.9621024 -0.052318048
0.40750065 0.14623378 -0.36153156 0.205028 -0.3594723 -0.3099287 0.07241834 0.40503713
-0.41511616 0.16369984 -1.1749067 -0.4971953 -0.2463355 0.22721057 -1.0815717 0.23726387
0.044245776 0.06219664 0.858817 -0.2789566 -0.35623527 0.35834843 0.6821446 -0.23356512
-0.27867177 0.290864 -0.37635878 -0.33401862 -0.062417556 0.39080837 0.08387715 0.18523672
0.7966256 -0.17872511 -0.5042181 -0.41476366 0.09282123 0.010483199 0.6890197 0.5611991
-0.53542876 0.43439472 0.6268087 0.038872607 0.47497904 0.027049398 -0.076031044 0.22140159
-1.034944 -0.4013603 0.51273066 0.14478107 -0.32045156 0.12756394 0.3256003 -0.28615022
0.35414937 -0.30183113 -0.14248826 -0.09283075 0.1832612 -0.28639174 -0.5548847 0.33489537
0.040089205 0.07368035 -0.17153502 0.350618 -0.26617888 0.0203455 0.7456021 -0.04049508
0.9265994 -0.46418396 0.11041301 0.23064181 0.81408244 -0.13045545 -0.6915798 -0.46198976
-0.6029513 0.23057044 1.1644901 0.40309674 -0.33293423 -0.53114986 0.7982882 -0.13877009
-0.09931483 0.4722303 -0.4910424 0.40601033 -0.479323 -0.3730072 0.54996914 -0.3364074
00000000: d49f 203c a77b 9a3e 1be1 e83e fbb3 e3bd
00000010: 2bce 22bf 28e8 debe 765b 0c3f 0363 9d3e
00000020: 9167 923e e31e ae3e 5e3d 803f cc18 ff3e
00000030: 1726 82be 3dd4 12bf 006e 08bf cde9 c5be
00000040: 4952 633e 355c 39be 8a63 bb3f 1f12 b03c
00000050: dd79 bc3e 0d73 a93e 57b1 b13f 1d3d f13e
00000060: 0ddf 433e 77b2 2b3e 49cf f8be bc28 83be
00000070: 53b4 0c3f c748 e03d d980 90bf 46e6 433e
00000080: eadd a0be ec05 7e3e 009b 00bf 1ece c03e
00000090: a5b8 633d 58bb b73e f6e1 773f cf76 d33e
000000a0: 05cf b93e 4083 f7be 73c2 30bf a941 3cbd
000000b0: 5356 093e c220 dc3e 6d3f 133f 8bb0 483e
000000c0: eb8a 3d3f 410d 80bd f20d f7be 7c37 dd3e
000000d0: 5b31 9dbe 1860 863e 51d3 f73e ed6d c53e
000000e0: 73a2 40bc ea50 cc3e 51b1 6cbe d683 cb3e
000000f0: eaec 413e 6f56 28be 9da4 81bf 7fbf 89be
00000100: 08af 96be 831d bb3e 7bce c53f 37b4 083f
00000110: 9066 0a3e 592b d7bd f611 aabf 0223 8abe
00000120: 3b91 12be ec90 d63e 6244 3e3f 3281 fd3c
00000130: 17f7 b73e e51b f7be f96a 9cbe 8e70 0cbf
00000140: 4995 523c 4129 03be bc20 443f 7614 1f3f
00000150: f180 05bf 3c97 e5be 2b82 89be 3e5b 7cbe
00000160: 67c5 cfbc 0714 ce3b 6ce7 b23f 9b32 403e
00000170: 6995 55be 0027 fabe d2d0 f43e 1a32 57be
00000180: cd01 5b3f a92c d23e f14c e43e 3d06 f33e
00000190: 6f55 ba3e 44bb 47be 3a4e 72bf e550 c2be
000001a0: 639d 0a3f 0547 9e3e 20fb 72bf 5985 393d
000001b0: c6d4 053e 4b13 66be 9570 6fbf 9264 b6be
000001c0: 26d1 3abf 7715 353e ef9e 8c3f e15a cd3e
000001d0: b977 873d 1319 a9be 4cc6 4dbf 26cc 763e
000001e0: b13f 7ebf 6e1e 9ebe 6840 c93d 4bb4 713e
000001f0: c326 cb3c 9158 75bd 9d5b 81bf b69d 893e
00000200: c3a8 d53e 4706 e73e 6c9f 8c3e 8827 f23e
00000210: d7fb b53e 2d84 f33d 804b 5dbf 1429 39bd
00000220: a5dd f83e e5d3 913e 33f4 3cbf 23fa 8cbe
00000230: c2eb 24be 56de 743d de99 7b3c 054e 1eba
00000240: 4637 03bf 41eb 963e e07e 723f c949 f3be
00000250: b7e2 0f3d 7bf1 55be 76e8 52bf a511 2abd
00000260: b95d dcbe 2fc4 e53e 0b39 223f 191f edbe
00000270: d3a4 d43e 1fe6 503e 584c 76bf 734b 56bd
00000280: eda3 d03e 4fbe 153e aa1a b9be dcf2 513e
00000290: c10c b8be f9ae 9ebe 1150 943d 0761 cf3e
000002a0: 1b8a d4be eea0 273e 5863 96bf 6290 febe
000002b0: 603f 7cbe e3a9 683e f170 8abf 4df5 723e
000002c0: 0f3b 353d e7c1 7e3d 6edb 5b3f 66d3 8ebe
000002d0: 7864 b6be 7279 b73e 07a1 2e3f b22b 6fbe
000002e0: 11ae 8ebe 20ec 943e 19b2 c0be 7d04 abbe
000002f0: 8da9 7fbd 0918 c83e c9c7 ab3d b2ae 3d3e
00000300: a8ef 4b3f b703 37be 7014 01bf e75b d4be
00000310: 0f19 be3d b9c1 2b3c 9863 303f bfaa 0f3f
00000320: dc11 09bf fc68 de3e 8976 203f e238 1f3d
00000330: 7430 f33e b396 dd3c 2ab6 9bbd 19b7 623e
00000340: 0c79 84bf 197f cdbe 5142 033f 7d41 143e
00000350: 3a12 a4be 1fa0 023e 15b5 a63e 4882 92be
00000360: 1153 b53e 9c89 9abe 71e8 11be 0c1e bebd
00000370: d3a8 3b3e f0a1 92be ec0c 0ebf 6877 ab3e
00000380: 9434 243d b9e5 963d e0a6 2fbe 3484 b33e
00000390: 9948 88be 9bab a63c c7df 3e3f 2bde 25bd
000003a0: 9e35 6d3f 85a9 edbe 3720 e23d 5e2d 6c3e
000003b0: b567 503f 1d96 05be 600b 31bf ec89 ecbe
000003c0: 045b 1abf a81a 6c3e 030e 953f b262 ce3e
000003d0: 5b76 aabe 70f9 07bf 9e5c 4c3f bf19 0ebe
000003e0: 9365 cbbd 2bc8 f13e e969 fbbe 96e0 cf3e
000003f0: d369 f5be cdfa bebe c7ca 0c3f 973d acbe

Q.0.bias f4 [200]
0.501911 0.40133506 0.5677003 -0.16117385 -0.23038587 -0.32719675 0.6954925 0.20904267
0.20515463 0.18329807 0.026311787 0.49910462 0.090710506 0.4320426 0.5677198 -0.21891703
-0.42279834 -0.27214986 0.5512471 0.45587853 -0.20350404 0.051836126 -0.26290393 0.5698672
-0.103177175 -0.2893684 -0.21444432 0.47792497 -0.3820494 0.27687153 -0.47497198 0.21268232
-0.2160223 0.34149173 -0.071753934 0.5607508 0.31538424 0.42137906 0.4787226 0.46443337
0.58290255 0.7298314 -0.091796376 0.2586463 0.4793066 0.5358209 0.51970816 0.4972008
-0.36998293 0.087295726 0.20545703 0.6161899 -0.34161824 0.6132211 0.44144946 0.089914106
0.47304264 0.5776615 -0.13189198 -0.5401116 0.60980725 0.48929295 0.46630865 0.34484115
0.3143833 -0.38958073 -0.07780731 0.25774008 -0.44321856 0.58775884 0.14744954 0.36398453
-0.31152 0.5735366 0.25037426 -0.15738973 -0.34816617 -0.40809616 0.42026088 0.44956806
0.47689766 -0.033232402 -0.15981603 0.2910486 -0.28725263 0.039433535 -0.4059497 -0.12161758
0.5755348 -0.2354576 0.38334215 0.49631113 0.18799575 -0.3715646 0.57011205 0.23337048
0.062273405 -0.5621072 -0.53526026 -0.26888943 0.21956107 0.42214862 -0.23979217 0.4065026
-0.048143137 -0.35672697 -0.67468065 -0.17582953 -0.1266435 -0.20748341 0.5004539 -0.3025476
-0.21048139 0.28623727 -0.5612706 0.16352919 0.346733 -0.27112132 0.5642133 -0.02672384
-0.08331458 0.48559055 0.0008119073 0.6375047 -0.4639154 0.19179359 -0.16070807 0.58914477
-0.28383216 0.45890588 0.34188932 -0.06396039 0.15064926 -0.33259335 0.3450034 0.37644243
-0.1671445 -0.4143591 0.16620919 0.31413233 -0.014955833 -0.17286782 0.55826616 -0.011469961
0.6449751 -0.29912826 0.56967425 -0.29997647 -0.4662078 0.5111427 0.49558172 -0.43115798
0.57203174 0.42569995 -0.31222454 0.38482332 -0.02217073 0.5830829 -0.3176255 -0.37893587
-0.21564324 -0.074012816 0.50291777 -0.32636178 0.58297396 0.19930007 0.57908934 -0.22199325
0.13425699 0.2453077 0.06721052 -0.35088885 -0.43180522 0.54625446 -0.3468202 -0.2573223
-0.2608902 -0.3200368 0.5488052 -0.38858643 0.51161975 -0.2801739 -0.29266974 -0.3884262
0.3163204 0.17254378 0.29635638 0.500636 -0.01173775 -0.35940316 0.51514935 -0.1329859
-0.24684775 0.19596437 -0.12175988 0.3435417 0.40270972 0.2610019 -0.19146673 -0.20111996
00000000: 3d7d 003f ca7b cd3e cf54 113f c20a 25be
00000010: 46ea 6bbe 5586 a7be cc0b 323f 480f 563e
00000020: 0e14 523e 7db2 3b3e d18b d73c a48a ff3e
00000030: 6ec6 b93d b034 dd3e 1656 113f c92b 60be
00000040: 0679 d8be 3a57 8bbe 881e 0d3f e968 e93e
00000050: 5d63 50be 1e52 543d 589b 86be d1e2 113f
00000060: 8e4e d3bd 1828 94be 4b97 5bbe 95b2 f43e
00000070: fb9b c3be 1bc2 8d3e 872f f3be 65c9 593e
00000080: f334 5dbe 01d8 ae3e baf3 92bd 5d8d 0f3f
00000090: 0b7a a13e ffbe d73e 211b f53e 36ca ed3e
000000a0: 1a39 153f 3bd6 3a3f bdff bbbd 4a6d 843e
000000b0: ad67 f53e 8f2b 093f 980b 053f 1a91 fe3e
000000c0: 676e bdbe 1ac8 b23d 5463 523e 9fbe 1d3f
000000d0: 96e8 aebe 0ffc 1c3f aa05 e23e e324 b83d
000000e0: a532 f23e a0e1 133f b10e 07be c144 0abf
000000f0: 541c 1c3f 9b84 fa3e 02c0 ee3e 058f b03e
00000100: d9f6 a03e 2077 c7be 7059 9fbd 82f6 833e
00000110: 8bed e2be 5d77 163f 03fd 163e 2e5c ba3e
00000120: 8d7f 9fbe 4bd3 123f 0e31 803e c62a 21be
00000130: d642 b2be fbf1 d0be 6f2c d73e c92d e63e
00000140: ee2b f43e b31e 08bd d0a6 23be 5204 953e
00000150: c712 93be 0f85 213d a4d8 cfbe a312 f9bd
00000160: 4056 133f cc1b 71be 6c45 c43e 7e1c fe3e
00000170: f581 403e b73d bebe ddf2 113f acf8 6e3e
00000180: 6612 7f3d 42e6 0fbf d106 09bf e0ab 89be
00000190: 9ed4 603e dd23 d83e 148c 75be 1c21 d03e
000001a0: bd31 45bd eba4 b6be dfb7 2cbf a80c 34be
000001b0: d5ae 01be 8876 54be bf1d 003f 85e7 9abe
000001c0: 6f88 57be b18d 923e 6eaf 0fbf 3274 273e
000001d0: fd86 b13e 6ad0 8abe 4870 103f f4eb dabc
000001e0: d6a0 aabd 539f f83e 2dd6 543a 8233 233f
000001f0: 5286 edbe 8a65 443e a890 24be 31d2 163f
00000200: 7352 91be b6f5 ea3e 1e0c af3e aafd 82bd
00000210: cd43 1a3e ad49 aabe 49a4 b03e 10bd c03e
00000220: ee27 2bbe e026 d4be be32 2a3e f4d5 a03e
00000230: 4f09 75bc 4304 31be 88ea 0e3f 81ec 3bbc
00000240: 171d 253f 5727 99be 2cd6 113f 8496 99be
00000250: cab2 eebe 3fda 023f e3bc fd3e bdc0 dcbe
00000260: ac70 123f 58f5 d93e e5db 9fbe 9007 c53e
00000270: 649f b5bc ec44 153f cf9f a2be e203 c2be
00000280: 95d1 5cbe 0894 97bd 38bf 003f e418 a7be
00000290: c83d 153f 5115 4c3e 333f 143f 3352 63be
000002a0: aa7a 093e f131 7b3e aba5 893d b4a7 b3be
000002b0: 9315 ddbe 55d7 0b3f 6b92 b1be c0bf 83be
000002c0: 6693 85be dddb a3be 7f7e 0c3f cdf4 c6be
000002d0: 83f9 023f f472 8fbe cfd8 95be cddf c6be
000002e0: bff4 a13e 51af 303e 06bc 973e ae29 003f
000002f0: b14f 40bc b103 b8be d4e0 033f 752d 08be
00000300: a8c5 7cbe e2aa 483e 3e5d f9bd b3e4 af3e
00000310: f82f ce3e 0ba2 853e db0f 44be 64f2 4dbe

Q.2.weight f4 [200, 200]
-0.031386394 0.011694194 0.061774503 -0.3169521 -0.8626004 -0.5747132 0.08733819 0.062114798
0.18146813 -0.038297605 -0.08131948 0.023585757 -0.014236173 0.11516041 -0.024855796 -0.6749883
-0.7538735 -0.60042566 0.057044614 0.080500975 -0.040632926 -0.377981 -0.8973332 0.069725186
0.016780872 -0.16597033 -0.08840198 0.068872735 -0.20026794 0.08504476 -0.22094202 0.10272799
-0.22451863 0.107571356 -0.01925088 0.027594298 -0.029086826 0.080606 0.0150216445 0.073191464
0.0325413 0.08572013 -0.16918038 0.17241691 0.013277156 -0.030451436 -0.0077564586 0.039637905
0.17746976 -0.06110041 0.04983047 0.02471149 -0.042360764 0.07852304 0.059364274 0.01927462
0.15265206 0.09458396 -0.07066939 0.3900035 0.0859597 0.058336727 0.11832055 0.025445195
0.009219216 -0.24049333 0.03727173 -0.014696171 0.01011047 0.015278972 -0.06355982 0.07956382
-0.23052315 0.12246388 0.03714408 0.019819852 -0.42952392 -0.934552 0.11884024 0.07355858
-0.005033845 0.07097402 -0.3749837 0.03695327 -0.5713967 0.012064835 -0.15219045 -0.17309499
0.14144109 -0.5367455 0.02336172 -0.03792149 0.1231809 -0.61848724 0.060510512 -0.07127185
-0.36091742 -0.07299185 -0.031179827 -0.3523759 0.054747637 0.0615477 -0.5598846 0.07140237
-0.019426595 -0.20985767 0.45752287 -0.25152296 -0.090981945 -0.26580322 0.055733975 -0.43835855
-0.09838215 0.0143484855 0.20527138 0.10824626 0.055269863 -0.41872734 0.063694894 0.029754657
0.1259307 0.12717775 -0.07897593 0.07538397 -0.06222471 -0.015307322 -0.08352455 0.00495402
-0.03875138 0.15012296 0.08370419 -0.07765191 0.06999289 -0.43351546 -0.10589249 0.03915934
-0.35500416 -0.03003319 -0.015099947 -0.039313197 -0.051262185 -0.70890474 0.07860906 0.11311022
0.097037986 0.07434122 0.11630516 -0.20629409 0.064494155 -0.00076268375 -0.10346049 -0.48721823
0.068315685 0.04637763 -0.05860149 0.022371747 -0.34092093 0.08058651 -0.34329486 -0.54765046
0.14413804 -0.013757039 0.055783715 0.04165684 0.022928236 0.03068499 0.08345071 -0.4584151
0.076410905 -0.08699753 -0.09208575 -0.25672215 -0.28390607 -0.06799048 -0.14105542 0.16831717
0.015035591 -0.39357144 0.0154292425 -0.35627326 0.034117684 -0.54724437 -0.07317521 -0.19178021
0.11977493 0.09927493 -0.13276702 0.1471855 -0.0076801362 -0.500099 0.033645533 -0.1388988
-0.02376739 -0.0132241845 -0.1588524 0.037337404 0.04256811 0.022522384 -0.52571154 -0.24400337
0.09099591 0.005059166 0.08259945 -0.73567 -0.6871804 -0.46645927 0.03553541 0.08932884
0.018870018 0.21495223 0.2855588 0.084310174 0.10378543 0.08687799 0.16872427 -0.15105617
-1.4327495 -0.2380876 0.07736011 0.10443614 0.012782308 -0.34843925 -0.93166226 0.10767368
-0.5084943 -0.6502236 0.08563981 0.12550738 -2.4868565 0.07534136 -0.75733006 0.08158736
-0.29683262 0.09748057 -0.021974556 0.06302449 0.12349336 0.035155956 0.14999402 0.036963142
0.1286132 0.014376738 0.046600204 0.11145929 0.11565915 0.07880474 0.012095996 0.051800244
-0.9328103 0.057425406 -0.1271029 0.14432584 -0.47735357 0.024719011 0.0952931 0.009541958
00000000: 058f 00bd 0199 3f3c 4307 7d3d 8c47 a2be
00000010: 61d3 5cbf 6720 13bf 5dde b23d 166c 7e3d
00000020: c8d2 393e f3dd 1cbd d48a a6bd eb36 c13c
00000030: d63e 69bc 39d9 eb3d 629e cbbc 09cc 2cbf
00000040: dbfd 40bf 7fb5 19bf 9da7 693d b2dd a43d
00000050: b66e 26bd ba86 c1be a1b7 65bf 14cc 8e3d
00000060: 0a78 893c 20f4 29be 190c b5bd 260d 8d3d
00000070: 0a13 4dbe f22b ae3d a03e 62be 0d63 d23d
00000080: 36e8 65be 5f4e dc3d 06b4 9dbc 700d e23c
00000090: 7f47 eebc c214 a53d 581d 763c 68e5 953d
000000a0: 074a 053d 098e af3d 9f3d 2dbe 0f8e 303e
000000b0: 6e88 593c 4a75 f9bc e429 febb 5b5b 223d
000000c0: a2ba 353e 6c44 7abd 091b 4c3d c06f ca3c
000000d0: 7b82 2dbd b0d0 a03d f427 733d cfe5 9d3c
000000e0: d250 1c3e 3cb5 c13d 1dbb 90bd 8aae c73e
000000f0: a40b b03d 7ef2 6e3d 0b52 f23d 7172 d03c
00000100: 320c 173c e243 76be 3eaa 183d 35c8 70bc
00000110: 62a6 253c a754 7a3c a72b 82bd 5bf2 a23d
00000120: 430e 6cbe 58ce fa3d 6424 183d 3e5d a23c
00000130: 8fea dbbe cd3e 6fbf 8362 f33d e1a5 963d
00000140: f4f2 a4bb d45a 913d ddfd bfbe 505c 173d
00000150: 0e47 12bf 96ab 453c d0d7 1bbe d03f 31be
00000160: efd5 103e 2768 09bf 1461 bf3c 9053 1bbd
00000170: 4546 fc3d 2e55 1ebf dfd9 773d faf6 91bd
00000180: 2bca b8be c07c 95bd d66c ffbc 9d6a b4be
00000190: 0f3f 603d 7119 7c3d 9954 0fbf 683b 923d
000001a0: 8624 9fbc eee4 56be 7040 ea3e 9ec7 80be
000001b0: be54 babd 5c17 88be 4f49 643d 8870 e0be
000001c0: 957c c9bd e915 6b3c a932 523e 37b0 dd3d
000001d0: a762 623d 6e63 d6be 7872 823d 0ac0 f33c
000001e0: faf3 003e e23a 023e 22be a1bd e962 9a3d
000001f0: 56df 7ebd 90cb 7abc eb0e abbd 5555 a23b
00000200: c4b9 1ebd d5b9 193e 1a6d ab3d f707 9fbd
00000210: 6f58 8f3d bdf5 ddbe 29de d8bd 8b65 203d
00000220: 1bc3 b5be 2a08 f6bc c565 77bc e006 21bd
00000230: 4cf8 51bd c87a 35bf c9fd a03d 55a6 e73d
00000240: dabb c63d 3640 983d 6631 ee3d c23e 53be
00000250: 8315 843d d7ee 47ba 18e3 d3bd ab74 f9be
00000260: 18e9 8b3d 78f6 3d3d 1e08 70bd f444 b73c
00000270: 308d aebe 8a0a a53d 58c4 afbe d232 0cbf
00000280: ec98 133e 3465 61bc 777d 643d 5da0 2a3d
00000290: ffd3 bb3c 175f fb3c 35e8 aa3d 62b5 eabe
000002a0: 527d 9c3d c32b b2bd 7497 bcbd 1671 83be
000002b0: 235c 91be 983e 8bbd d570 10be 565b 2c3e
000002c0: d757 763c 3282 c9be efca 7c3c 7369 b6be
000002d0: fcbe 0b3d 3518 0cbf e2dc 95bd 0862 44be
000002e0: 8f4c f53d a850 cb3d 14f4 07be ccb7 163e
000002f0: a7a9 fbbb 7d06 00bf e6cf 093d 7d3b 0ebe
00000300: d4b3 c2bc 40aa 58bc 34aa 22be 1bef 183d
00000310: e65b 2e3d dd80 b83c 0895 06bf 05dc 79be
00000320: 105c ba3d 5cc7 a53b e729 a93d de54 3cbf
00000330: 0eeb 2fbf c0d3 eebe 948d 113d 0af2 b63d
00000340: 4c95 9a3c 701c 5c3e c334 923e d0aa ac3d
00000350: 758d d43d 16ed b13d 0ec6 2c3e 78ae 1abe
00000360: 5664 b7bf 3ccd 73be fa6e 9e3d 9de2 d53d
00000370: e36c 513c a166 b2be 6b81 6ebf 0584 dc3d
00000380: af2c 02bf 0e75 26bf ed63 af3d 0285 003e
00000390: a828 1fc0 924c 9a3d 62e0 41bf 4617 a73d
000003a0: 72fa 97be e5a3 c73d fc03 b4bc fc12 813d
000003b0: 16ea fc3d b1ff 0f3d 0898 193e aa66 173d
000003c0: 2eb3 033e 698c 6b3c dbdf 3e3d c544 e43d
000003d0: b4de ec3d 6164 a13d 492e 463c 7e2c 543d
000003e0: a8cc 6ebf e736 6b3d 4327 02be 27ca 133e
000003f0: b067 f4be 867f ca3c 0729 c33d df55 1c3c

Q.2.bias f4 [200]
-0.01585894 0.105200574 0.13531348 0.039928406 0.13449536 0.0800248 0.06042328 0.051972732
0.052444443 0.16349241 0.104616456 0.12890446 0.057372045 -0.047758628 0.087683715 0.0853476
0.15271671 0.1902972 0.07282933 0.0054679345 0.07151903 0.13432625 -0.008878412 0.07942591
-0.0040069614 0.023322921 0.06297002 0.11922385 -0.015340444 0.0060695466 0.030109981 0.048673548
0.12870638 0.12045443 0.048491105 -0.051947813 0.11378761 0.15217738 0.034205977 0.04037254
0.09238793 0.03529935 0.14443226 -0.008067797 0.068012394 0.072067015 0.12218459 0.066415705
-0.05615705 0.025536872 0.12604472 0.11154648 -0.004265867 -0.07263622 0.037362147 -0.008741893
0.029207481 0.041866884 0.05059591 -0.044766206 -0.037428476 0.029343888 0.043998457 0.016990172
0.14460333 0.044454273 0.13712367 0.057559755 -0.0018230843 -0.03374545 -0.098315276 0.08129127
0.062578425 -0.068601675 0.1674629 0.058652487 0.048486557 0.04946371 0.06531377 0.046267346
0.030965386 0.059767876 -0.022503672 0.085277945 -0.017714415 0.053541735 0.06509893 0.040753808
-0.05431871 0.058858935 -0.051774684 0.056455042 0.1222803 0.043410253 0.10396676 0.14044777
0.13379836 0.048187554 0.004145922 0.009568652 0.03896692 0.08679834 0.088178344 0.08045695
0.12184392 0.036736056 0.119158514 -0.015450992 0.12842172 0.066753864 -0.043887928 0.15969883
0.03174263 0.1274275 0.03015093 -0.055928618 0.14938213 -0.0021166406 0.05205189 0.051908735
0.015201922 0.11849127 0.077533856 -0.0025817577 0.063743494 0.05129592 0.02123571 -0.124588765
0.13919453 0.033286948 0.044225916 -0.00018575678 0.03662669 0.11282637 0.066044934 0.06857111
0.040911138 0.047902074 0.008109736 -0.012779162 0.13867798 0.13865031 -0.051555116 0.021255555
-0.023045976 0.13815671 0.15422086 -0.053617377 0.1507607 0.04583592 0.15672952 -0.004933443
0.120435566 0.15623955 0.0035813292 0.16092092 0.022349264 0.032929886 0.055681087 0.0009548839
-0.08638502 0.105523646 0.099103965 0.0512375 0.016443197 0.05832099 -0.05307426 -0.0043523484
0.12565172 -0.0014009709 0.09268911 0.12705016 0.06675927 0.13925584 0.046440028 0.0021653492
-0.026086029 0.036430992 0.026638787 0.16284308 0.13463466 0.04298411 -0.0069216574 -0.003855516
0.05915831 0.078884214 0.08408746 0.07019688 -0.05323101 0.046470474 0.13350101 0.0628794
0.037624605 0.023395209 0.07366645 0.041398272 0.041470144 0.049285747 -0.00328152 -0.009558701
00000000: 9cea 81bc 6673 d73d 9e8f 0a3e f88b 233d
00000010: 27b9 093e 0be4 a33d 677e 773d 5ce1 543d
00000020: fccf 563d 8e6a 273e 2741 d63d 88ff 033e
00000030: f3fe 6a3d 8d9e 43bd 8593 b33d b9ca ae3d
00000040: c561 1c3e 45dd 423e 8b27 953d 5c2c b33b
00000050: 9278 923d d28c 093e c276 11bc 0daa a23d
00000060: d44c 83bb b60f bf3c 6df6 803d a22b f43d
00000070: 7c56 7bbc 0ce3 c63b 35a9 f63c ea5d 473d
00000080: 9bcb 033e d0b0 f63d 9c9e 463d 3bc7 54bd
00000090: 7a09 e93d 63d4 1b3e 911b 0c3d ad5d 253d
000000a0: e235 bd3d 0d96 103d 0de6 133e cb2e 04bc
000000b0: 154a 8b3d df97 933d ea3b fa3d f504 883d
000000c0: ef04 66bd b432 d13c de11 013e 7b72 e43d
000000d0: b0c8 8bbb 4cc2 94bd 0d09 193d 283a 0fbc
000000e0: 8744 ef3c 9c7c 2b3d a83d 4f3d c55c 37bd
000000f0: 9a4e 19bd 9862 f03c ba37 343d f92e 8b3c
00000100: e512 143e af15 363d 266a 0c3e c7c3 6b3d
00000110: 8ff4 eeba ab38 0abd 8559 c9bd 0a7c a63d
00000120: 1e29 803d 097f 8cbd 657b 2b3e 973d 703d
00000130: d799 463d 769a 4a3d 3ac3 853d d482 3d3d
00000140: 1fab fd3c 29cf 743d 9f59 b8bc 34a6 ae3d
00000150: d21d 91bc 944e 5b3d 9652 853d 77ed 263d
00000160: 4c7d 5ebd 1116 713d b111 54bd 673d 673d
00000170: 186e fa3d f3ce 313d 86ec d43d 8ad1 0f3e
00000180: 7002 093e 5060 453d 84da 873b d6c5 1c3c
00000190: c79b 1f3d 54c3 b13d d996 b43d 9dc6 a43d
000001a0: 4e89 f93d 8c78 163d 6109 f43d 2826 7dbc
000001b0: fc80 033e 40b6 883d d4c3 33bd 1788 233e
000001c0: 8f04 023d 5b7c 023e 15ff f63c 6815 65bd
000001d0: a1f7 183e 56b7 0abb 5d34 553d 419e 543d
000001e0: 7b11 793c 8dab f23d 12ca 9e3d b532 29bb
000001f0: f38b 823d ac1b 523d 83f6 ad3c 6528 ffbd
00000200: 0389 0e3e e557 083d 3c26 353d b5c7 42b9
00000210: de05 163d 8311 e73d 9142 873d 036f 8c3d
00000220: 7092 273d f734 443d b3de 043c b15f 51bc
00000230: 9a01 0e3e 59fa 0d3e 752b 53bd 2120 ae3c
00000240: eaca bcbc f478 0d3e 13ec 1d3e e59d 5bbd
00000250: 0361 1a3e 72be 3b3d b47d 203e b8a8 a1bb
00000260: eca6 f63d 43fd 1f3e bcb4 6a3b 74c8 243e
00000270: ce15 b73c 7de1 063d da11 643d 2c51 7a3a
00000280: a1ea b0bd c81c d83d 05f7 ca3d 6ade 513d
00000290: e2b3 863c fee1 6e3d 6564 59bd 259e 8ebb
000002a0: d8aa 003e c8a0 b7ba cad3 bd3d 7019 023e
000002b0: 16b9 883d 1599 0e3e e637 3e3d 88e8 0d3b
000002c0: 5eb2 d5bc aa38 153d 9639 da3c 56c0 263e
000002d0: abdd 093e 1b10 303d 12cf e2bb d3ac 7cbb
000002e0: fc4f 723d 0c8e a13d 0c36 ac3d 62c3 8f3d
000002f0: c208 5abd d357 3e3d 7db4 083e eac6 803d
00000300: 421c 1a3d 4fa7 bf3c 70de 963d 3c91 293d
00000310: 99dc 293d dadf 493d c50e 57bb 199c 1cbc

Q.4.weight f4 [2, 200]
0.08009877 0.5526818 0.047243964 0.06237755 0.5099697 0.43553746 0.31081557 0.2846429
0.2725901 0.46576533 0.15038326 0.57082397 -0.041630235 -0.008401249 -0.7844381 -0.58267623
0.85387874 -0.79729867 0.77016234 0.24595977 -0.43173692 0.10335673 -0.37618655 0.3457203
0.20339705 -0.120783314 0.17392237 0.5513046 -0.030143483 0.14029841 0.056942485 0.20731594
0.5593177 0.2426452 -0.6400293 -0.057249762 0.08760504 0.10898555 0.24826945 0.44887555
0.3938762 0.62895256 0.5818374 -1.021532 0.4909358 0.21336536 0.5029384 -0.46535435
-0.9468019 -0.046426207 0.15212782 0.5564175 -0.0069129914 0.027656311 -0.2807867 0.1661141
0.23149455 0.17493546 0.53097266 -0.015248991 0.23267731 0.62466985 -0.96686584 0.088552944
0.37212288 0.37782165 -1.3416232 -0.023716383 0.43788612 -0.8493816 -1.1828043 0.5528072
0.04339692 -0.6112435 0.8620557 0.04808272 0.20630419 0.52060527 0.54126036 0.3850401
0.23098251 0.11910716 -0.9831466 -0.48823315 -0.023772966 0.5117345 0.40237466 0.2509583
-0.05665509 -0.052078262 -0.027616272 -0.42707324 0.11310317 -0.86444956 0.5321713 0.31733784
0.049207337 -0.02710642 0.20820725 -0.010834627 0.08351472 0.10820702 0.4959109 0.091828376
0.21744959 -0.98742986 0.445058 0.05384215 0.54442257 -0.0049463743 0.06985039 0.56633943
-0.5414868 -1.2392194 0.22434926 0.8972478 0.45894516 0.14092305 -0.38386422 0.12808712
-0.4242859 0.55340326 0.3360833 -0.9916902 -0.6260549 -0.059827447 0.6344528 1.2442232
-0.47819567 0.49071383 0.65135187 0.31944355 0.1777839 0.31710178 0.79666424 0.44749713
0.2624842 0.32034245 -0.48283574 -0.97972864 -0.60632294 -0.1715384 -0.7783925 -0.05186172
-0.7680773 0.18503228 0.14452516 -0.018873317 0.13958153 -0.026369184 0.19832578 0.32864198
0.27880648 0.14282978 -0.68615127 0.4986563 -0.8534601 0.5083281 -0.7320041 0.6438838
1.1950191 0.36946896 0.07857132 -0.06386368 -1.0304996 -0.42945936 -0.03500761 -0.8668268
0.06497802 -0.71975553 0.17024317 0.5064285 0.38150147 0.78967404 0.25488463 0.92687654
0.025225816 0.6918748 0.733718 0.55099547 0.39791387 0.19190721 0.053232983 -0.04384678
0.7883944 0.072791524 0.3833296 0.27851534 0.02565182 -1.0819045 0.43877843 -0.5726066
-0.66703147 0.53785455 -0.72554284 -1.0177264 0.36671486 -0.100969374 -0.05868119 -0.04817258
0.5568375 -0.89741385 0.6311444 0.059612222 0.46652755 0.17200397 0.4019906 0.3452039
0.24094987 -0.09903019 0.308279 0.48176768 -0.025291922 -0.022732338 -0.41910893 -1.1096805
0.43617108 0.56612694 0.60182434 0.3374976 -0.38675395 -0.73033243 -0.7726718 -0.3070912
0.33486852 0.54780227 0.24028014 0.5064877 -0.052946627 0.33715937 0.29183322 0.25248447
0.10644909 0.68997717 -1.2940493 -0.06586513 -0.5001257 -0.60523003 0.73964053 0.52900565
-0.07194397 0.2074637 0.62890184 0.31870598 0.57206297 0.28721765 0.09865433 1.8173342
0.23353545 0.04504484 0.28801492 0.50010836 -0.001189433 -0.040705908 -0.37364295 0.2928935
00000000: d30a a43d 8e7c 0d3f e382 413d 9a7f 7f3d
00000010: 608d 023f c4fe de3e 3823 9f3e b7bc 913e
00000020: ee90 8b3e cb78 ee3e 12fe 193e 8521 123f
00000030: 7784 2abd 64a5 09bc efd0 48bf 452a 15bf
00000040: cc97 5a3f c41b 4cbf 5c29 453f e1dc 7b3e
00000050: 9f0c ddbe b1ac d33d 869b c0be 4002 b13e
00000060: 5147 503e 3e5d f7bd b518 323e 4c22 0d3f
00000070: 77ef f6bc 63aa 0f3e 863c 693d a14a 543e
00000080: 722f 0f3f fc77 783e f6d8 23bf ba7e 6abd
00000090: 456a b33d d133 df3d 593a 7e3e 04d3 e53e
000000a0: 24aa c93e 0903 213f 4cf3 143f 90c1 82bf
000000b0: f05b fb3e 737c 5a3e 92c0 003f ed42 eebe
000000c0: 9c61 72bf 6829 3ebd 65c7 1b3e 6171 0e3f
000000d0: 6086 e2bb 7d8f e23c 46c3 8fbe d119 2a3e
000000e0: e80c 6d3e 4822 333e d3ed 073f e7d6 79bc
000000f0: f642 6e3e 5dea 1f3f 8584 77bf 3f5b b53d
00000100: e486 be3e d771 c13e 4fba abbf dc48 c2bc
00000110: 9c32 e03e 1371 59bf 2266 97bf c684 0d3f
00000120: f8c0 313d 747a 1cbf afaf 5c3f 63f2 443d
00000130: 6841 533e 6346 053f 0a90 0a3f fa23 c53e
00000140: ae86 6c3e 74ee f33d 7faf 7bbf b2f9 f9be
00000150: 86bf c2bc 0801 033f 0d04 ce3e 9b7d 803e
00000160: 2b0f 68bd 0450 55bd 853b e2bc 58a9 dabe
00000170: a3a2 e73d 914c 5dbf 613c 083f 1b7a a23e
00000180: a28d 493d 480e debc 4834 553e b883 31bc
00000190: c409 ab3d a49b dd3d 09e8 fd3e 8410 bc3d
000001a0: 1bab 5e3e 34c8 7cbf a4de e33e 9689 5c3d
000001b0: 475f 0b3f 3215 a2bb b90d 8f3d 9ffb 103f
000001c0: e19e 0abf be9e 9ebf d0bb 653e 08b2 653f
000001d0: dcfa ea3e 224e 103e da89 c4be 4529 033e
000001e0: 003c d9be d6ab 0d3f 1c13 ac3e 69df 7dbf
000001f0: 2245 20bf a00d 75bd 806b 223f b542 9f3f
00000200: 10d6 f4be d83e fb3e ffbe 263f 1b8e a33e
00000210: fc0c 363e 2a5b a23e 30f2 4b3f 581e e53e
00000220: 5464 863e ed03 a43e 3f36 f7be 7fcf 7abf
00000230: fb37 1bbf c3a7 2fbe bb44 47bf f46c 54bd
00000240: b7a0 44bf 1a79 3d3e 67fe 133e 379c 9abc
00000250: 76ee 0e3e 3004 d8bc ea15 4b3e c343 a83e
00000260: b9bf 8e3e f841 123e 9ca7 2fbf e14f ff3e
00000270: 5c7c 5abf ca21 023f 9f64 3bbf 92d5 243f
00000280: 63f6 983f 092b bd3e 00ea a03d f6ca 82bd
00000290: 69e7 83bf 19e2 dbbe 2464 0fbd 5ce8 5dbf
000002a0: 3213 853d e641 38bf 3a54 2e3e 4ca5 013f
000002b0: 2954 c33e 1428 4a3f 3d80 823e c847 6d3f
000002c0: 5fa6 ce3c b51e 313f f1d4 3b3f 0a0e 0d3f
000002d0: 5ebb cb3e 5383 443e d40a 5a3d ae98 33bd
000002e0: 37d4 493f b913 953d c743 c43e 9099 8e3e
000002f0: c423 d23c d97b 8abf 91a7 e03e 5996 12bf
00000300: 93c2 2abf d6b0 093f 2dbd 39bf dc44 82bf
00000310: 0dc2 bb3e 08c9 cebd b05b 70bd 9c50 45bd
00000320: e78c 0e3f eabc 65bf ae92 213f f22b 743d
00000330: b3dc ee3e cf21 303e b6d1 cd3e 91be b03e
00000340: 90bb 763e 57d0 cabd bfd6 9d3e 41aa f63e
00000350: 0131 cfbc 2b39 babc 7295 d6be 030a 8ebf
00000360: d151 df3e b2ed 103f 2911 1a3f 7ccc ac3e
00000370: 9d04 c6be 11f7 3abf d2cd 45bf 0f3b 9dbe
00000380: e373 ab3e c53c 0c3f ff0b 763e 2ea9 013f
00000390: 90de 58bd 27a0 ac3e 2a6b 953e a545 813e
000003a0: fb01 da3d 58a2 303f 68a3 a5bf 4ce4 86bd
000003b0: 3d08 00bf 5bf0 1abf 1559 3d3f ea6c 073f
000003c0: 5c57 93bd 5d71 543e b6ff 203f 6e2d a33e
000003d0: b872 123f 310e 933e 480b ca3d 689e e83f
000003e0: eb23 6f3e f080 383d b176 933e 1a07 003f
000003f0: c0e6 9bba 3dbb 26bd 214e bfbe 23f6 953e

Q.4.bias f4 [2]
0.03798169 0.089606464
00000000: b092 1b3d 9883 b73d
