2.1 DQN-DDQN-Classic-Control/model/DQN_CPV1_100000.pth (torch, 168799 bytes, 6 tensors)

Q.0.weight f4 [200, 4]
000000 85 23 77 3e 6d 22 d7 3e 64 3a 27 3f e5 20 04 be
       0.24134643 0.42018452 0.6532347 -0.12903173
000010 9a 20 ac be 92 b9 02 bf a4 15 18 3e a6 c5 a6 3e
       -0.33618623 -0.5106441 0.14852005 0.3257267
000020 64 5f 82 3e e9 37 bf 3e c5 e7 80 3f e0 3f 01 3f
       0.25463402 0.37347344 1.007073 0.5048809
000030 df 38 2e be 55 6a c3 be a0 10 e9 bd 6d 68 78 be
       -0.17013882 -0.38167062 -0.11380124 -0.24258585
000040 97 1d fa 3d b6 be 35 be d1 5b c5 3f 24 03 da 3c
       0.12212675 -0.17748532 1.5418645 0.026612826
000050 eb 83 47 3f 8d 2e 30 3f 66 5c 77 3f 14 1a d6 3e
       0.77935666 0.6882103 0.96625364 0.4181677
000060 ff ee 18 3e 9d 5a 30 3d b8 e7 53 bf 6c 47 aa be
       0.1493492 0.043055166 -0.8277545 -0.33257616
000070 b1 fb b7 3e 89 63 26 3e 7d 37 83 bf 61 b1 82 3e
       0.35934213 0.16248907 -1.0251309 0.25525954
000080 73 8e 87 be 1e 90 91 3e 7b 6b a6 be 82 30 ae 3e
       -0.26475868 0.28430265 -0.32503876 0.34021384
000090 83 c4 7a be 96 af 49 3e ed 6b cc 3f 98 45 c4 3e
       -0.24489026 0.19695887 1.5970436 0.38334346
0000a0 45 02 ba 3e 26 e1 d8 be 23 3d 22 bf cf b3 b5 3d
       0.36329857 -0.42359275 -0.6337454 0.088721864
0000b0 20 d6 5a 3e 69 89 00 3f 04 77 bd 3e fe 2b 0d 3e
       0.21370745 0.5020967 0.37004864 0.13786313
0000c0 a7 ff fa 3e 04 eb 43 be eb 40 5b bf b4 24 e2 3e
       0.49023172 -0.1913262 -0.8564593 0.44168627
0000d0 5b 66 6e be 74 4a 6f 3e 19 46 b8 3e 5f 63 c1 3e
       -0.23281233 0.23368245 0.3599098 0.37771127
0000e0 2b d9 6a bd fe 82 ce 3e 4e e5 fb bd 2c 72 c5 3e
       -0.057336014 0.40334314 -0.12299596 0.3856367
0000f0 0e 45 cc bd a8 d1 91 be cd d8 fd be 66 63 95 3a
       -0.09974109 -0.28480268 -0.49579468 0.0011397421
000100 0c e0 86 be 08 de 8d 3e 8b 08 ca 3f 79 09 f7 3e
       -0.2634281 0.2770846 1.5783857 0.48249415
000110 fe 84 1d be e6 5c 2c bd 48 e1 af bf eb c5 74 be
       -0.15382764 -0.042080782 -1.3740625 -0.23903625
000120 6e 90 fc 3d dd fc f2 3e ce 05 80 3f 9b 14 a3 3d
       0.12332235 0.47458544 1.0001771 0.079629146
000130 a4 8e a5 3e d5 d1 ff be ba 8c 15 bf 55 10 11 bf
       0.3233539 -0.49964777 -0.58417857 -0.56665546
000140 1c 18 89 3c 14 76 81 be 9a a5 66 3f 74 b2 0d 3f
       0.016735129 -0.252854 0.9009644 0.5535042
000150 12 f8 7e be 87 11 5a bd ba 32 1c 3f f7 81 d5 be
       -0.24899319 -0.05323937 0.610149 -0.41700718
000160 cb 19 49 3e ee 14 c1 3c 7e 56 a6 3f 12 cc 57 3e
       0.19638745 0.02356955 1.2995145 0.2107394
000170 4c 31 78 be 0b 08 05 bf ee 14 91 3e 62 7b 81 be
       -0.24237555 -0.519654 0.2833628 -0.25289446
000180 1f c5 22 3f 12 90 12 3f 1b 64 e9 3e e0 d2 cf 3e
       0.6358203 0.57251084 0.45584187 0.40590572
000190 33 53 1d be 1d d9 89 be 3d 02 47 bf 30 36 9d be
       -0.15363769 -0.26923457 -0.7773779 -0.30705404
0001a0 dd 57 19 3f 2d 64 53 3e a4 b1 87 bf 97 47 23 3c
       0.59899694 0.20643683 -1.0601087 0.009965799
0001b0 e5 d0 24 3e 57 04 7f be 27 1e 86 bf 87 9b b6 be
       0.16095312 -0.24904 -1.0477952 -0.35665533
0001c0 88 a1 e1 be 0b 5d 01 3e c1 54 a7 3f d6 29 a2 3e
       -0.4406855 0.1263315 1.307274 0.31672543
0001d0 14 86 02 bd b9 a5 a4 be 1e b0 3c bf 0f 47 93 3e
       -0.031866148 -0.32157686 -0.73706234 0.2876515
0001e0 d4 c2 52 bf 48 e8 c0 be 67 e8 60 3e f2 ad 9f 3e
       -0.82328534 -0.37677217 0.21963654 0.31187397
0001f0 2f 8c 8b bd 27 c1 16 3d 9a 48 4b bf b5 28 85 3e
       -0.06813847 0.0368053 -0.79407656 0.2600762
000200 f6 72 9f 3e 62 23 14 3f 9c f1 45 3f bb 51 d7 3e
       0.31142396 0.5786649 0.7732179 0.42054543
000210 af e0 d1 3e 6a 74 1f 3d ca e4 81 bf ca 01 04 be
       0.40991732 0.03892938 -1.0147946 -0.12891307
000220 71 10 19 3f c0 ec a2 3e 41 c3 37 bf 2b 26 95 be
       0.5979071 0.3182125 -0.7178231 -0.29130682
000230 cb 5b 20 be a3 c4 53 3d 35 d0 b4 bd bb 75 94 bc
       -0.15660016 0.0517012 -0.08828775 -0.018122545
000240 27 40 23 bf 96 cc 42 3e d7 17 4a 3f d9 e6 e7 be
       -0.63769764 0.19023356 0.78942627 -0.4529331
000250 b3 df c0 bd b9 65 65 be e8 b7 5a bf f3 b2 c3 bc
       -0.09417667 -0.22402085 -0.8543687 -0.02388904
000260 36 98 c4 be d9 24 e2 3e 17 70 27 3f 54 63 ef be
       -0.38397378 0.44168738 0.6540541 -0.4675547
000270 17 1f 26 3f b6 cb 69 3e db 69 83 bf 91 ea 78 bc
       0.6489119 0.22831616 -1.026668 -0.015192644
000280 fa 91 e1 3e f8 bc 7f 3e 50 60 ea be ba 41 2d 3e
       0.44056684 0.2497443 -0.45776606 0.16919604
000290 68 7b 81 be 63 c4 b7 be ab 77 01 3d a8 da 09 3f
       -0.25289464 -0.3589202 0.031608265 0.5384927
0002a0 da 87 c5 be ce 3f b5 3d 90 0d 90 bf d4 ea 04 bf
       -0.3858021 0.088500604 -1.1254139 -0.5192082
0002b0 10 69 b0 be 55 e7 50 3e 3a d7 1b bf 74 e0 96 3e
       -0.34455156 0.20400746 -0.60875285 0.2946812
0002c0 62 1e 8b 3d a8 40 72 3d 37 35 7d 3f 9b 9f 99 be
       0.067929044 0.059143692 0.98909324 -0.30004582
0002d0 18 5b ea bd 39 5c 0d 3f ca d0 1e 3f 39 85 77 be
       -0.11443156 0.55218846 0.62037337 -0.24171914
0002e0 75 29 57 be 03 87 30 3d d2 99 22 bf 52 3c 83 be
       -0.21011908 0.043097507 -0.6351596 -0.25631958
0002f0 d2 83 c8 3d a3 62 e8 3e b1 6a ab ba 89 3d 5e 3e
       0.09790768 0.45387754 -0.0013078061 0.21703161
000300 ea 44 23 3f 49 cc 8f be 00 01 6c bf c2 3a d2 be
       0.6377703 -0.28085545 -0.92189026 -0.41060454
000310 52 ae 86 be a9 ef f9 3a 57 ab b7 3f c8 ec b7 3e
       -0.2630487 0.0019068617 1.4349164 0.35922837
000320 ea f6 fc be 2a 3d c7 3e e3 f6 45 3f d7 3f fd bd
       -0.4940713 0.38913852 0.77329844 -0.12365692
000330 eb bc 06 3f d7 3b 24 3e 20 42 9d bc f7 7c 2e 3e
       0.52632016 0.16038452 -0.01919657 0.17039858
000340 dc f8 83 bf dd 82 c8 be 63 ca 70 3f 01 94 46 3e
       -1.0310321 -0.3916234 0.9405882 0.19392397
000350 ef a0 75 be 9c 7c a6 3d e2 62 74 3e 1c bf 88 be
       -0.23987173 0.08129236 0.23865846 -0.26708305
000360 a9 16 8c 3e 8f 8d a4 be c4 a9 91 be 08 b5 05 be
       0.27361038 -0.3213925 -0.28449833 -0.13057339
000370 b1 9a 3f 3e c6 43 86 be 0f 59 4d bf 4c 21 9b 3e
       0.18711354 -0.26223582 -0.8021402 0.3029884
000380 5d 23 80 bd 9b 0a 14 3d 3d fd 86 be 18 ad b1 3e
       -0.06256745 0.036142927 -0.2636508 0.34702373
000390 c6 65 89 be 06 41 a5 bb 35 9c 4e 3f c1 13 a9 bd
       -0.2683546 -0.005043152 0.80707103 -0.08255721
0003a0 cf fe 05 3f 47 d6 44 be 87 33 80 3f 10 d3 d5 3e
       0.5234193 -0.19222365 1.0015725 0.4176259
0003b0 b0 4f 03 3f 14 f0 87 be 47 6c 88 bf 42 32 e4 be
       0.5129347 -0.26550353 -1.0658044 -0.44569594
0003c0 04 26 ef be 42 44 49 3e e6 39 8c 3f 1a 66 cb 3e
       -0.4670869 0.19654945 1.0955169 0.39726335
0003d0 2e 96 49 be 36 35 f5 be 17 91 48 3f 35 28 d8 bd
       -0.19686195 -0.4789216 0.7834639 -0.10554544
0003e0 08 df 1d bd 33 74 03 3f dc 9c 9f be 32 72 df 3e
       -0.038542777 0.5134918 -0.31174362 0.43641812
0003f0 5b 99 66 be 3b 03 aa be d1 95 60 3e dd dd c4 be
       -0.22519438 -0.3320559 0.2193215 -0.38450518

Q.0.bias f4 [200]
000000 f4 5d df 3e 8d ff d9 3e 2f b1 12 3f 74 66 8e be
       0.43626368 0.42577782 0.5730161 -0.2781254
000010 78 22 6b be 19 3c a0 be e6 f7 36 3f 09 12 66 3e
       -0.22962368 -0.3129585 0.71472013 0.22467817
000020 c6 59 74 3e a1 f6 9f be 83 5a b5 3d e8 de 00 3f
       0.23862371 -0.3124285 0.08855154 0.5034013
000030 3e 8c 11 3e 9e ac e3 3e 02 99 12 3f e1 65 80 be
       0.14213654 0.44467634 0.5726472 -0.25077727
000040 9c fe cb be d3 9d 84 be ed 7e 06 3f 92 a2 05 3f
       -0.3984269 -0.2590166 0.52537423 0.5220119
000050 61 bb d9 be 7a c3 b6 3b 80 5f 62 be 8a 77 17 3f
       -0.4252577 0.005577502 -0.22106743 0.5916678
000060 7b 74 57 be 51 8a 6e be b8 7b 4d be 09 5e f1 3e
       -0.21040528 -0.23294951 -0.20066726 0.47142056
000070 8a 7c ad be d6 e4 87 3e 44 c3 19 bf 93 79 8b 3e
       -0.33884078 0.26541775 -0.60063577 0.2724119
000080 16 04 2f be c6 7d d4 3e 84 bf c3 bd 01 2a 0e 3f
       -0.17091402 0.41502208 -0.09558013 0.5553284
000090 01 19 ae 3e 62 97 d3 3e ea 6a e9 3e e8 e1 e5 3e
       0.3400345 0.41326433 0.4558938 0.44898915
0000a0 b7 da 0a 3f e8 eb 29 3f 9c 5b 79 bd de c1 54 3e
       0.5423998 0.6637559 -0.06087838 0.2077708
0000b0 89 4e fe 3e 20 b3 e6 3e 9e b7 11 3f 69 43 dc 3e
       0.49669293 0.45058537 0.569208 0.4302018
0000c0 75 dc b5 be 92 a4 84 be 13 49 2a 3e 5c ab 16 3f
       -0.35519758 -0.25906807 0.16629438 0.58855224
0000d0 5e ec f9 bd b3 fe 21 3f a9 a1 ed 3e 92 09 1c 3e
       -0.122032866 0.63279265 0.464124 0.15238026
0000e0 9f dc f6 3e 10 b5 15 3f 5d f4 d7 bd 32 41 c6 be
       0.48215196 0.58479404 -0.105446555 -0.38721615
0000f0 ef 9d 27 3f a1 82 07 3f ed a5 ce 3e 3a 95 ed 3e
       0.6547536 0.529337 0.40360966 0.46402913
000100 94 e3 e0 3e 29 93 4b be 06 8f f9 bb ed bb 94 3e
       0.43923628 -0.19880356 -0.0076159267 0.29049626
000110 54 a3 03 bf c8 fd 14 3f 34 b5 05 3c a4 e1 d0 3e
       -0.51421094 0.5819974 0.008160878 0.4079715
000120 86 55 bb be 19 1e 0d 3f 48 53 16 3e 29 fb f7 bd
       -0.36588687 0.5512405 0.14680207 -0.12108452
000130 f9 2a e1 be 37 49 a8 be dd de da 3e 4a ad f3 3e
       -0.43978098 -0.32868358 0.42748156 0.47593147
000140 c6 a2 e3 3e ab c2 69 3c b8 0e 00 be fb 5c ba 3e
       0.44460124 0.014267604 -0.12505615 0.36399063
000150 68 14 c7 be ec c8 56 3e 61 b5 00 bf 06 23 1b 3e
       -0.38882756 0.20975083 -0.5027676 0.15150079
000160 cd 4b 0c 3f 77 be 9d be f8 39 09 3f 89 d2 1c 3f
       0.5480316 -0.30809376 0.5360408 0.6125875
000170 35 1c b5 3e 01 9c f3 be 81 7f 13 3f c6 4e bc 3d
       0.35373083 -0.4757996 0.5761643 0.09194712
000180 43 41 00 3e 27 4d 06 bf 1c c7 f6 be 43 f8 ac be
       0.12524895 -0.52461475 -0.48198783 -0.3378316
000190 7a 8e f3 3d b9 17 09 3f c7 9e af be 98 31 e1 3e
       0.118924096 0.5355182 -0.34300825 0.4398315
0001a0 e6 22 d5 be a4 5b 2a bf 1f 12 f1 be e9 1f ef bd
       -0.41628188 -0.6654608 -0.47084138 -0.11676008
0001b0 11 4e 94 be 33 06 be bd 53 84 0a 3f 7f 42 7e be
       -0.2896581 -0.09278526 0.5410816 -0.24830054
0001c0 f6 fe 80 be 68 55 25 3e 99 52 22 bf 75 90 47 3e
       -0.2519452 0.16145861 -0.63407284 0.194887
0001d0 ee ca a4 3e 31 70 89 be 3f bf 14 3f dd 86 95 3d
       0.32186073 -0.26843408 0.5810432 0.07301114
0001e0 1e e8 7a be d9 e0 e3 3e c4 0b 10 be 45 b2 1c 3f
       -0.24502608 0.44507483 -0.14066988 0.6120952
0001f0 52 86 ed be d3 6e 73 3c ba 37 e6 3d 0c 07 30 3f
       -0.4639154 0.0148579655 0.11241098 0.6876075
000200 15 75 71 be 58 c0 df 3e ed c2 a1 3e 07 6c 23 be
       -0.2357982 0.43701434 0.3159403 -0.15959178
000210 98 48 d7 3d 85 5e 9d be 1a d6 c3 3e 19 c6 af 3e
       0.10511893 -0.30736175 0.38249284 0.34330824
000220 84 cb 61 be e0 26 d4 be 42 dc 76 3e d4 e6 ee 3e
       -0.22050291 -0.4143591 0.24107459 0.46660483
000230 13 0f 95 be cc 03 bc be 78 b0 10 3f 0b e6 03 3e
       -0.29113063 -0.36721647 0.5651927 0.12880723
000240 8c 82 0f 3f 4f f1 b0 bd 50 e4 21 3f 4a 7e a4 be
       0.56058574 -0.08639776 0.63239 -0.321276
000250 f2 1b f5 be 32 75 03 3f 55 12 01 3f 6a 60 01 bf
       -0.47872883 0.513507 0.504186 -0.5053774
000260 c4 aa 1b 3f 2c a2 ec 3e b8 96 9b be 7c bb d5 3e
       0.6080744 0.46217477 -0.30388427 0.41744602
000270 5c fd 54 be 57 e3 10 3f c5 1a b9 be e9 d2 d9 be
       -0.20799774 0.56596893 -0.36153236 -0.42543724
000280 2f e0 5d be a7 d2 33 be 82 03 04 3f cc c3 09 bf
       -0.2166755 -0.17560826 0.5156785 -0.5381439
000290 ec 95 16 3f 95 06 b3 3b bc 39 11 3f d2 b4 1d be
       0.5882251 0.005463431 0.5672872 -0.15401009
0002a0 99 41 19 bc b1 dc 20 3e 6d 14 92 3e e8 a2 8d be
       -0.009354019 0.15709187 0.2853121 -0.2766335
0002b0 9b 04 be be 62 a1 15 3f 9b ca e4 be e5 15 ef be
       -0.3711289 0.58449376 -0.44685826 -0.46696392
0002c0 4c b6 e1 be 5f 0e b4 be 66 f9 1f 3f 99 c7 14 bf
       -0.44084394 -0.35167214 0.62489927 -0.5811706
0002d0 79 be 06 3f 83 d9 75 be 35 6b 91 be 91 f6 ae be
       0.5263439 -0.24008755 -0.28402105 -0.3417249
0002e0 48 31 67 3e 89 09 78 3e 41 7a 2e 3e ea 9d f8 3e
       0.22577393 0.24222387 0.17038824 0.4855798
0002f0 d2 60 09 bf 63 e0 9e be 42 c0 df 3e 92 44 b1 bc
       -0.5366336 -0.31030568 0.4370137 -0.021639142
000300 6b ca 96 be de 04 55 3e a7 bd 83 be a9 45 e5 3e
       -0.29451308 0.20802638 -0.2573063 0.4477971
000310 45 c1 a6 3e ef c2 b2 3e 3d bb 1b be a0 e0 a3 be
       0.32569328 0.34914348 -0.15208144 -0.32007313

Q.2.weight f4 [200, 200]
000000 3c 49 c4 3c 66 c1 27 3d b3 92 10 3e 6b 8e f1 be
       0.023960702 0.040955923 0.14118461 -0.4717897
000010 86 82 ce be df 0f 9d bd eb f3 43 3e f0 4c f5 3b
       -0.40333956 -0.07669043 0.19136016 0.0074859783
000020 d7 7e 28 3e a2 c8 39 3d 63 cf 30 3d f5 8f e9 3d
       0.16454636 0.045357354 0.04316653 0.11404411
000030 72 0c c2 3c 2f 0c 23 3e 2e 0c 42 3d c5 67 0b bf
       0.023687575 0.15922616 0.047374897 -0.54455215
000040 80 fc 6f be 48 18 87 bf 11 03 19 3e 9c d1 26 3e
       -0.23436165 -1.0554285 0.14942576 0.16290897
000050 d3 89 67 3d f6 15 03 3e 03 c3 a2 be 15 b9 b0 3d
       0.056527924 0.12801346 -0.31789407 0.086290516
000060 ed b8 8a bd 71 bb 0a bf a1 91 d6 bd 90 fc 42 3e
       -0.06773553 -0.5419226 -0.10476995 0.19041657
000070 c1 e1 1b 3d e0 ed e1 3d 1e 42 aa 3c 7b 8b d6 3d
       0.038057093 0.11031699 0.02078348 0.104758225
000080 56 43 b5 bd bf 98 67 3e 02 b8 94 bd 42 61 85 3d
       -0.08850734 0.22616862 -0.07261659 0.06512691
000090 cc f0 2a 3d c0 a1 18 3d 47 d7 b2 3d 9e 07 1c 3e
       0.041733548 0.03726363 0.08732467 0.1523728
0000a0 7f 41 59 3d c0 e1 be 3d f1 06 85 be 7e 5b 64 3e
       0.053040978 0.09320402 -0.25981858 0.22300526
0000b0 0b 51 d1 3d ec 7d 96 3d 21 55 f2 3d 9a d2 e8 3d
       0.10220536 0.073482364 0.11832643 0.11368294
0000c0 99 fe 2a bf 0c af 9f bb 8a 51 6f 3e 91 5c 53 3d
       -0.66794735 -0.004873162 0.23370948 0.05160195
0000d0 40 f4 0e bc 14 82 2e 3e 28 e4 de 3c 93 36 48 3d
       -0.008725226 0.17041808 0.027208403 0.04888017
0000e0 d8 0d 2d 3e 94 72 2b 3e b5 de 9c bb 8b 57 0b bf
       0.16899812 0.16742927 -0.004787291 -0.54430455
0000f0 b7 8d 03 3e e0 85 46 3d 7a a3 44 3e e1 63 b0 3c
       0.12847029 0.048467517 0.19202986 0.021532001
000100 cf d8 14 bd 75 7f ca be 4c 56 a5 3d 9d ca 13 3d
       -0.036339577 -0.39550367 0.080731004 0.0360819
000110 38 03 e2 be 4f d8 c1 bb 62 51 44 3e fc ed 22 3e
       -0.4414308 -0.0059156786 0.1917167 0.15911096
000120 7c bb 01 3e 11 b9 19 3e c9 ff 26 3c a3 c4 90 bd
       0.12669176 0.15012003 0.01019282 -0.070687555
000130 7d f5 f0 bf 0b f7 32 be 4e 50 ca 3d 57 18 3c 3e
       -1.8824917 -0.17477052 0.09878598 0.1836866
000140 53 09 9e 3b 38 df 86 3d 81 ae 85 be bc 3c 1b 3e
       0.004822889 0.06585544 -0.26109698 0.15159887
000150 c2 29 f7 bf d2 e7 69 3d 14 2b c2 bd b7 fb a8 be
       -1.9309618 0.057105847 -0.09480873 -0.33004543
000160 3d e9 31 3e 35 b3 9c bf a5 bd 21 3e f2 a0 c7 bc
       0.1737413 -1.224219 0.15795 -0.024368737
000170 16 81 44 3d a1 47 30 bc 4f f1 83 3b 2b c9 bf bd
       0.04797467 -0.010759265 0.004026569 -0.093645416
000180 98 35 de bd 5e ff 5d be b0 a9 9e bf 96 bf 87 bf
       -0.10850066 -0.21679446 -1.2395535 -1.0605342
000190 f8 58 80 bc 3f 1a 8a 3d bf 4a dc bf 2f 68 cc 3d
       -0.015667424 0.06743287 -1.7210311 0.09980809
0001a0 85 73 d1 3c c9 57 96 3d 45 e0 df be 45 76 37 be
       0.02556778 0.073409624 -0.43725792 -0.1791621
0001b0 10 a1 48 3d c0 51 45 be 82 b3 17 3e 31 58 f8 bd
       0.048981726 -0.19269466 0.1481457 -0.12126196
0001c0 4c 73 37 3f 21 af 08 3e 1d 92 e9 3d 3c 5e f4 3d
       0.71660304 0.13348056 0.11404822 0.11932036
0001d0 72 ee e2 3c c4 d3 fd bd 12 bc c3 3d 3f 82 75 3b
       0.02770159 -0.12393907 0.09557356 0.0037461666
0001e0 62 f0 0a 3e 00 e4 18 3e 56 3d 2f 3e 18 fe 1e 3e
       0.13568261 0.14930725 0.17113242 0.15526617
0001f0 56 df 7e bd bf 64 94 3c 57 53 41 bd be 2d cf 3d
       -0.06222471 0.018114446 -0.04719862 0.101161465
000200 61 1d 90 bc 6c 41 06 3e 16 42 c1 3d 9a cd 49 bc
       -0.017592134 0.13110894 0.09436433 -0.012317086
000210 35 e6 26 3e 88 73 90 bd 72 82 86 bc df 50 cd bd
       0.16298755 -0.07053286 -0.016419623 -0.100251906
000220 ea d7 16 be 2a 08 f6 bc 3c 40 4d 3d f2 55 bb 3b
       -0.14730802 -0.03003319 0.050110087 0.0057170326
000230 85 35 3b 3d da a6 ec be 0c 3d 54 3e 0d 7a e2 3d
       0.045705337 -0.46221048 0.20726413 0.110584356
000240 0d f2 c4 3d 6e 8e 0c 3e 5a ae 0e 3e c6 34 e8 3c
       0.0961648 0.13726208 0.13933697 0.028345477
000250 45 c2 0f be 20 b3 56 3b 1e 9e 31 3d a3 d3 aa bd
       -0.14038952 0.0032760575 0.043363683 -0.08341148
000260 af d5 89 3d 4b 94 3a 3d 6e 49 65 bd 55 8b 89 3d
       0.0673021 0.04555158 -0.05597823 0.067160286
000270 cc ce c1 bd 3f 92 c8 3d 51 54 89 3d 99 6f e0 bf
       -0.094632715 0.09793519 0.06705535 -1.7534057
000280 2d 6f 80 be da 56 81 3e 0d ef 33 3d 9d ab 14 3c
       -0.2508482 0.25261575 0.04392915 0.009074119
000290 d5 8a f3 3d d8 47 59 3d e6 9c a4 3d d3 2c 5c bf
       0.118917145 0.05304703 0.080377385 -0.86005896
0002a0 95 79 a3 3e 8f d0 d7 bc 5c 87 95 bd e2 07 b1 bd
       0.31928697 -0.026344566 -0.073012084 -0.08644082
0002b0 13 68 2b bd 9b 71 a9 3c 55 cc b1 bf 16 52 d2 bd
       -0.0418473 0.020684054 -1.3890482 -0.10269563
0002c0 ec 44 dc be 15 1a a8 be ed a5 8d 3d ac 9c 8c 3e
       -0.43021333 -0.328324 0.069164135 0.2746328
0002d0 9f 5a 13 3e 4c f5 17 be a3 9a a1 bd 4b 4a 0b bd
       0.14390038 -0.14839667 -0.07890823 -0.0340064
0002e0 3d 5a e9 3d 9d 08 14 bb 86 71 a8 bd 42 0c 26 3e
       0.11394165 -0.0022588142 -0.08224778 0.16215613
0002f0 0f f6 e2 3f 37 fd 32 be 6c 56 02 3e 95 f0 a4 3c
       1.7731341 -0.17479406 0.1272828 0.02013425
000300 e2 71 cb bd 1c 9e c3 3d d2 82 3a 3d e4 e3 28 3d
       -0.09933831 0.09551641 0.045534916 0.04123296
000310 e2 2b f9 bd c5 89 36 3d 70 68 b6 be bc 00 2f bf
       -0.12166573 0.04456498 -0.35626554 -0.68360496
000320 2c 31 69 3d 66 de 84 3d 69 19 0e 3e 8b d9 7c bd
       0.05693166 0.06487732 0.1387688 -0.061730903
000330 58 9b 77 c0 ed 79 a3 be 55 f0 05 3d 57 13 4f 3e
       -3.8688564 -0.3192896 0.0326999 0.20222221
000340 af 4d 8f 3e 14 68 44 c0 74 e1 ac 3e 9d 06 cb 3d
       0.27988955 -3.0688524 0.33765757 0.09913371
000350 bb ef f8 3d af d1 2d 3e 70 e0 6b 3e cd 5a ae bd
       0.121551 0.16974519 0.23034835 -0.085134126
000360 2d 80 74 c0 43 73 89 be bc b6 bf 3d ff 5a d5 3d
       -3.8203232 -0.2684575 0.09361026 0.10417747
000370 1a f4 c7 bd 61 6b 12 3c af a0 d8 bf 7d 93 13 3e
       -0.097633556 0.008936734 -1.6924037 0.14411731
000380 6d a1 d7 be 24 65 89 bf 8f db d5 bd a9 f8 ff 3d
       -0.42115346 -1.0733991 -0.10442268 0.124986
000390 90 46 0b c0 c7 30 e9 3d 37 00 bb be 63 84 4c 3e
       -2.1761818 0.11386257 -0.365236 0.19972377
0003a0 b9 96 b0 be ac 78 25 3e 93 34 4a bd 0c 08 c0 3d
       -0.34489992 0.16159314 -0.049366545 0.09376535
0003b0 ef 42 cf 3d 9b fd a9 3d 80 dc fe 3d 1f bf cd 3d
       0.101201884 0.083003245 0.12444401 0.10046219
0003c0 d3 9f 19 3e b6 14 ae 3c e2 b7 1f 3c 4e 02 4c 3e
       0.15002374 0.02125011 0.009748431 0.19922754
0003d0 52 0e f6 3d c4 25 0b 3d a6 79 5e 3c 23 90 ac 3d
       0.1201445 0.033971563 0.013578808 0.084259294
0003e0 57 ec 8a bf 6d 6e a1 3e b0 0f 96 3d 69 42 2d 3e
       -1.0853375 0.3152956 0.07327211 0.16919865
0003f0 5b 9f 86 be e7 84 10 3d 8a 3f e2 3d 88 58 cc 3d
       -0.26293454 0.035282996 0.11047275 0.099778235

Q.2.bias f4 [200]
000000 63 2a 7e 3c 43 82 06 3e b6 f7 24 3d e2 8a 16 3d
       0.0155130355 0.13135628 0.040275298 0.036753543
000010 a3 e4 df 3d 28 fd 91 3d 30 c2 df 3d 26 d3 e0 ba
       0.10932281 0.07128364 0.1092571 -0.0017152771
000020 b3 6a 6a bd 05 86 37 3e 54 ca 9c bb 6b a4 b1 3d
       -0.057230663 0.17922218 -0.0047848616 0.08673938
000030 a8 3b 6b 3d c5 58 2d 3d 5f ab c8 3d 30 51 e5 3d
       0.05742994 0.042320985 0.097983114 0.11197126
000040 8a bc 42 3e 9b 83 8a 3d a3 23 d3 bc b4 75 97 bd
       0.19017234 0.06763383 -0.025773829 -0.07395497
000050 94 2a 41 3d ed a8 f9 3d 5a 5b 97 3d 41 15 a5 3d
       0.047159746 0.12190423 0.07390471 0.080606945
000060 f2 a8 79 bd f1 95 29 be 61 ee 13 3d e1 c5 c0 3d
       -0.060952134 -0.16561104 0.036116008 0.094127424
000070 dc a4 54 bc 78 cc cc 3c 34 29 ff bc 03 f0 f6 bc
       -0.012978759 0.024999842 -0.031147577 -0.030143743
000080 31 3d 0c 3e 39 01 e4 3d 82 fb 1a 3d 23 1f 72 3c
       0.13695218 0.11133046 0.037837513 0.014777931
000090 d5 d8 a4 3d c2 08 37 3e 33 b2 0d 3d 8e 24 99 bd
       0.0804917 0.17874435 0.034593772 -0.074776754
0000a0 32 2d e7 3c 2b 60 47 bd 2b 7b 53 3e 27 62 0f bc
       0.028219793 -0.048675697 0.20652454 -0.008751429
0000b0 89 52 d0 3d 86 26 eb 3d 4b f9 fe 3d 57 b3 a5 bd
       0.10171992 0.11481957 0.124498926 -0.08090847
0000c0 87 4a 07 be b4 32 d1 3c 4c 23 a2 3c 2c 74 14 3e
       -0.13212024 0.025536872 0.019792221 0.14497441
0000d0 b0 c8 8b bb 88 47 93 3d 3b 78 20 3e 4e 2d 99 bd
       -0.004265867 0.07191378 0.15670864 -0.07479344
0000e0 58 26 1a 3e 9e bd f0 bc 42 bd 3c 3d c6 5a 32 bd
       0.1505369 -0.029387292 0.046078928 -0.0435436
0000f0 48 9b f0 3d ab 2b df 3c 57 d1 bc 3c 35 dc 4c bd
       0.117483675 0.027242502 0.02304904 -0.050014693
000100 c0 40 17 3d aa e4 6b bd 97 af e0 3d b6 d2 6a 3d
       0.036926985 -0.057591118 0.10970991 0.057329856
000110 8a 7d 10 3d b5 f5 6f 3c 29 db 85 bd 2f 1e 4a 3d
       0.035275973 0.014645983 -0.06535942 0.04934519
000120 48 11 80 3d 15 b9 c5 bd cf 00 0a 3e ee 8a 8d 3d
       0.06253296 -0.09654442 0.13476871 0.06911264
000130 a7 7c 8a 3d c7 0a be 3d 30 f0 98 3c e1 e7 e1 3d
       0.06762057 0.09279399 0.018669218 0.110305555
000140 78 f2 e7 3c 47 3f 10 bc b1 e5 19 bd e0 c3 c3 3d
       0.02831386 -0.008804149 -0.037572566 0.095588446
000150 d2 1d 91 bc 29 10 18 3d 1b 46 97 3d ad 59 4f bc
       -0.017714415 0.037124787 0.073864184 -0.012655658
000160 25 aa 44 bd 7f eb 6a 3b e3 58 36 3d 73 a2 d6 3d
       -0.048013825 0.0035845933 0.044518363 0.104802035
000170 c4 b9 7d 3d df 6e 43 3e 1b eb 12 3e 1d 26 ba 3d
       0.061944738 0.19085263 0.14347498 0.09089301
000180 3f 71 07 3e 50 60 45 3d 1f b3 69 bd f5 53 10 3c
       0.13226794 0.048187554 -0.05705559 0.008809079
000190 9a d0 f4 3b 55 73 32 3c 29 87 c8 3d 85 62 30 3c
       0.0074711563 0.010891755 0.09791405 0.010765676
0001a0 ce 3a 49 3d 29 e4 e5 bc 8f bb eb 3d 06 f7 8f bc
       0.049128346 -0.028062897 0.11510383 -0.017573845
0001b0 d2 21 eb 3d 7c a8 88 3d 90 cf fd bc e9 bb 02 3e
       0.1148106 0.06672761 -0.030982763 0.12766995
0001c0 44 5b 90 3d 7b cb 02 3d 46 4a 50 3d 3a a3 0d 3c
       0.070486575 0.031932335 0.050852083 0.008644873
0001d0 a5 98 19 3e 4e 45 81 bd 4e 34 1c 3d 8f 50 c4 3a
       0.14999636 -0.06312047 0.03813582 0.0014977622
0001e0 c0 74 14 3d 82 95 ae 3d 3e 3b a7 38 3c 59 fd 3d
       0.036244154 0.0852461 7.974215e-05 0.12370536
0001f0 f7 77 0e 3c fe 84 3f 3c 06 a8 84 3c 94 c9 a9 bc
       0.008695594 0.011689423 0.016193401 -0.020726003
000200 82 79 27 3e e2 ea 9f 3d c1 84 5b bd 5b 9f 3e 3d
       0.16354945 0.07808472 -0.0535934 0.046538692
000210 f5 09 ab 3c c8 be 5c 3d a5 0a af 3d d3 89 2e 3a
       0.020878771 0.05389288 0.08546952 0.00066581107
000220 f4 97 05 3e 8c 1d e5 3d 5b 04 20 bd a3 3d b4 3a
       0.13046247 0.11187276 -0.039066654 0.0013751279
000230 eb 6f 47 3d 0b 72 7d 3d 0c c4 5f 3d 62 c2 0f 3e
       0.048690718 0.061876338 0.054630324 0.14038995
000240 09 05 0e ba 88 e9 84 3d fa e1 98 3d 36 d1 f7 ba
       -0.00054176204 0.06489855 0.074649766 -0.0018906954
000250 cf 9c bc 3d 72 be 3b 3d d2 5d 33 3e 54 bc 43 3d
       0.09209596 0.04583592 0.17516258 0.047787026
000260 07 8c 76 3d df 51 2d 3e 34 b0 18 3c a0 a4 1b 3e
       0.060192134 0.16925763 0.009319354 0.15199518
000270 b3 4a 10 3d a9 f6 81 3d bf cc 4a 3c 64 eb fe 3c
       0.03522749 0.06345875 0.012377917 0.031118102
000280 78 6d 26 3c 05 23 c9 3d 42 b9 aa 3d e4 a4 c5 3d
       0.010157935 0.098211326 0.083361164 0.09650591
000290 f1 32 0c 3d 67 af c0 3d c4 66 81 3d a4 b7 dd 3c
       0.03422827 0.09408455 0.06318429 0.027065106
0002a0 c5 00 e8 3d 53 1d 00 3d 41 c7 1b 3d d8 0c b6 3d
       0.11328272 0.031277966 0.03803182 0.088891685
0002b0 32 71 7d 3c e1 4a 02 3e da a5 5d bd b1 e1 b1 3d
       0.015468882 0.12723877 -0.054113247 0.08685625
0002c0 fb 70 e2 bb 61 ab d8 3d 0a 4f c8 3d 03 68 29 3e
       -0.006910441 0.10579563 0.097807005 0.16543584
0002d0 dc a3 51 3e 65 80 0c bd 0f 6f b5 3d 07 ee 69 3d
       0.20472664 -0.034302134 0.08859073 0.057111766
0002e0 cc 8c 93 bd 1c 65 71 3c 34 cc c4 3d c0 db ab ba
       -0.07204589 0.014733579 0.09609261 -0.0013111755
0002f0 c2 08 5a bd 36 cb 1e 3e 05 da a3 3d 2f 52 04 bd
       -0.05323101 0.15507206 0.08000568 -0.03230494
000300 80 fa 44 3d 91 15 2b 3d 8a 35 9a bb bd 14 0f 3b
       0.048090458 0.041768614 -0.0047060894 0.002183243
000310 c2 09 bb 3d a3 92 37 3d af 48 b3 3c cd ca 43 3d
       0.091327205 0.044817578 0.021885244 0.047800828

Q.4.weight f4 [2, 200]
000000 1f 0e 49 3e a5 0e 56 3f 64 2d e7 bc cd 02 76 3d
       0.19634293 0.83616096 -0.028219886 0.060061265
000010 bb 90 fd 3e 0b 20 f5 3e dc 9c cf 3e b7 d1 b6 3e
       0.49524483 0.4787601 0.40549362 0.35706875
000020 41 4d a6 3f 37 90 05 3f b9 5f ca bc e9 2f 04 3f
       1.2992326 0.5217318 -0.024703847 0.51635605
000030 65 eb 2a bd 23 ba 8b be fc 82 71 bf c4 b4 7c 3e
       -0.041728396 -0.2729045 -0.9434049 0.24678332
000040 d8 bd 4f 3f a3 1f ce bf 07 eb 1e 3e 93 28 5b 3e
       0.81149054 -1.6103405 0.15519343 0.21402197
000050 91 27 59 bd 15 55 a7 bd 4a 44 e5 be 4e 34 0b 3f
       -0.05301625 -0.08170525 -0.44778663 0.54376686
000060 d5 15 44 3e 0e 57 b4 be 10 c6 e6 3e 03 80 f9 3e
       0.19148953 -0.35222667 0.45072985 0.48730478
000070 03 12 05 bd 74 04 b6 3e b5 c8 4b 3d e3 9c 38 3e
       -0.03248788 0.35550272 0.049751956 0.18028598
000080 fc 82 19 3f fa 92 94 3e cf 42 b6 be 41 8e 3d bf
       0.5996549 0.29018384 -0.35597846 -0.7404519
000090 d8 bb c6 bd e3 6e ff 3d 59 7f b9 3e 83 5b 72 3e
       -0.09703797 0.12472322 0.3622997 0.23667721
0000a0 07 b4 fd 3c b2 14 8b 3d b9 5f 34 3f 99 03 26 bd
       0.030969633 0.06791057 0.7045856 -0.040530775
0000b0 73 28 fc 3e 94 da 1b 3f 43 f6 02 3f 60 61 b8 be
       0.4924961 0.608804 0.51157016 -0.3601179
0000c0 82 2b b3 bf 68 29 3e bd e3 23 f3 bb 63 f2 05 3f
       -1.3997653 -0.046426207 -0.0074200495 0.5232298
0000d0 60 86 e2 bb 8a b5 e6 3e 81 e9 89 3e b7 9f 35 3e
       -0.0069129914 0.45060378 0.26935962 0.17736708
0000e0 4b e6 70 3f 05 86 32 3e 6a dd 05 3f f0 e8 ed bb
       0.941014 0.17433937 0.52290976 -0.0072604343
0000f0 7e 09 a8 3e 13 53 02 3f bd 89 8c bf 89 67 9a 3d
       0.32819742 0.5090801 -1.0979534 0.07539279
000100 29 9a 2b 3e 0d 72 81 3e ed d9 8f bf 37 e1 bf bc
       0.16758026 0.25282326 -1.1238381 -0.02342282
000110 fe 89 b7 3e d8 7b f6 3f a8 85 7d bd c6 07 de 3e
       0.35847467 1.9256544 -0.061895043 0.43365306
000120 92 47 36 3d f7 ca 4f bf ea 84 1f 3f 64 52 da 3d
       0.04450185 -0.81169075 0.62312186 0.10660246
000130 2f c8 8c 3e 09 6e 05 3f 14 98 fa 3e 64 4f 03 3f
       0.27496478 0.52121025 0.4894415 0.51293015
000140 41 a9 a1 3e 40 c7 a9 3d a9 07 9a bf 25 4f ed be
       0.31574443 0.08289957 -1.2033588 -0.46349445
000150 86 bf c2 bc 24 b7 d9 3e 6f 3f dd 3e 4e 5b 93 3e
       -0.023772966 0.42522538 0.43212458 0.28780597
000160 60 28 6f bd a0 cb 91 bd 56 c4 84 be 1f 04 9a be
       -0.058388114 -0.071189165 -0.25931042 -0.3008127
000170 f1 5a a8 3d 96 24 66 bf 0c 5b d4 3e d0 b6 6b bf
       0.08220471 -0.89899576 0.41475713 -0.92075825
000180 c2 ee 42 3e 48 0e de bc a3 55 75 3e 16 0d 35 bc
       0.19036391 -0.02710642 0.23958449 -0.011050483
000190 6b 29 35 3e 1f cf ae 3d 00 b6 0f 3f dc b1 a1 3d
       0.17691581 0.08535599 0.56137085 0.07895252
0001a0 cd 9c 51 3e 0c 49 5a bf 13 e9 b7 3e f4 ca 6c 3d
       0.20469971 -0.8526771 0.3592001 0.05781074
0001b0 e3 ee e4 3e 8c 46 a2 bb 82 4a ed 3f 9c c1 23 3f
       0.44713506 -0.0049522575 1.8538363 0.639673
0001c0 c9 dc f2 be 01 45 8c bf d6 b7 ea 3e 6d 4a af 3f
       -0.4743407 -1.0958558 0.4584338 1.3694588
0001d0 b7 9a 01 3f e5 a8 d5 3d d8 48 f3 3c 75 70 98 bd
       0.506267 0.10432605 0.02969782 -0.074433245
0001e0 08 91 b7 3e 2e 3a db 3e f0 c6 ae 3e 6d a3 dc be
       0.35852838 0.42817825 0.34136152 -0.43093434
0001f0 d2 7e 8d bf 65 3d 92 bf 52 f8 e4 3e ba cd 71 3f
       -1.1054327 -1.1424986 0.44720703 0.9445454
000200 8e 94 17 bf a1 94 d6 3e 38 c0 3a 3f 45 9a 91 3e
       -0.5921105 0.4191027 0.7294955 0.2843801
000210 c2 ba cf bd 54 b7 39 3e 9f b5 3b 3f 8c fb 85 3e
       -0.10143043 0.1813634 0.73324007 0.26168478
000220 ba 73 07 3f bf 77 f7 3e b5 16 8f bf e6 35 6b bf
       0.5291096 0.48333547 -1.1178805 -0.9187912
000230 4e 54 47 bf 6a 09 17 3d d6 b2 64 bf 6d ec 6a bf
       -0.77863014 0.036874212 -0.8933538 -0.9176701
000240 e8 7e 46 bf b6 b8 28 3e c0 42 01 bc 05 5b e3 3d
       -0.77537394 0.16476712 -0.00788945 0.11101345
000250 67 02 eb 3d 30 04 d8 bc 82 29 67 3e 28 74 99 3e
       0.114750676 -0.026369184 0.22574428 0.29971433
000260 65 f1 1a 3e 96 b4 5e bc 6b 7a 52 bd 65 35 07 3f
       0.15131147 -0.01359286 -0.051386278 0.5281585
000270 3f 9f 5f bf 38 05 ee 3e eb ab fe bc 77 fa e6 3e
       -0.87352365 0.46488357 -0.031087836 0.45112965
000280 ea 5f b9 3f 75 c5 c3 3e 92 6a 67 3e 48 a6 ea be
       1.4482396 0.38236585 0.22599247 -0.45829988
000290 0c df 3d bf 18 e5 82 be a1 f0 0d bf b2 c8 5b bf
       -0.7416847 -0.2556541 -0.55445296 -0.8585311
0002a0 5b 36 50 3e 8b 55 83 bf 0b 03 ac 3e 78 1a d3 3e
       0.20333235 -1.0260481 0.33596072 0.41231132
0002b0 aa f9 7e 3e 3a 78 2d 3f 8b e8 1d 3e 39 d3 fd be
       0.24899927 0.67761576 0.1542074 -0.49575213
0002c0 35 14 a3 3e 79 f4 39 3f cf eb 4c 3f ca 59 17 3f
       0.31851354 0.7263866 0.80047315 0.5912138
0002d0 c4 5e 26 3f a4 d4 2a 3e 17 80 67 3d e9 2e 5f bf
       0.6498835 0.16682678 0.05651864 -0.87180954
0002e0 83 02 c2 3b 28 57 13 3d 78 4d 03 3f dc de 89 3e
       0.0059207096 0.03597179 0.5129008 0.2692784
0002f0 c4 23 d2 3c 0c 49 7e bf 9c 9f a6 3e eb 0c 1c bf
       0.02565182 -0.9933021 0.32543647 -0.6095721
000300 ef c0 9f 3d 7a 4c 06 3f 9b f2 42 bf 5b 1c af bf
       0.07800471 0.52460444 -0.76151437 -1.3680528
000310 89 0a dd 3e 90 67 c8 bc cc d4 1e bf b9 0f 48 3e
       0.431721 -0.024463445 -0.6204345 0.19537248
000320 6c 65 12 3f 67 9d 46 bf d0 ea 84 3d f2 2b 74 3d
       0.5718601 -0.77583927 0.064900994 0.059612222
000330 6f 36 07 3f 8e 30 5d 3e d4 55 2c 3f 95 42 98 3e
       0.52817434 0.21600553 0.67318463 0.29738298
000340 a0 57 35 bf d3 6e 74 bd cc cc e3 3c 77 21 f6 3e
       -0.7083683 -0.059676003 0.027807616 0.48072407
000350 c8 d4 cd bc b1 73 cf be 23 83 de be bd cc 86 bf
       -0.025125876 -0.40517953 -0.43459424 -1.0531231
000360 2c 5e 6c 3f 9a ba be 3f ad 78 8f 3e 34 d7 8e 3e
       0.92331195 1.4900696 0.28021756 0.27898562
000370 98 42 7c bd 79 04 34 bf 04 e6 fc be 8a 05 e3 3d
       -0.061586946 -0.70319325 -0.49394238 0.11085041
000380 dd a7 82 3e 0a 20 a7 3f 18 02 3f 3e 8b c8 fc 3e
       0.25518695 1.3056653 0.18653142 0.49371752
000390 90 de 58 bd 22 1e 0c 3f 1d 85 89 3e e7 34 26 3e
       -0.052946627 0.5473348 0.2685937 0.16231118
0003a0 13 cd 39 3e 29 9b 0d 3f 1d ec 86 bf 44 e1 4e bf
       0.18144636 0.5531488 -1.0540806 -0.8081248
0003b0 02 84 8f bf 7b bb 2a bf 69 25 26 3f f6 7d 82 3e
       -1.121216 -0.6669232 0.64900833 0.25486726
0003c0 ed 57 9f bc e1 2d e9 bc bd 0b 85 3f 26 61 83 bb
       -0.019451106 -0.02846426 1.0394207 -0.0040093837
0003d0 aa a4 4d 3f 00 01 04 3f 5f f3 76 3e 95 f1 98 3f
       0.8032938 0.51564026 0.24116276 1.1948725
0003e0 61 19 6c 3f f0 80 38 3d e0 44 41 3b aa 90 39 3f
       0.92226225 0.04504484 0.0029490516 0.72486365
0003f0 c0 e6 9b ba 1f 8e f4 be d6 eb 0f bf c4 f7 69 3e
       -0.001189433 -0.4776468 -0.5621923 0.22848421

Q.4.bias f4 [2]
000000 a5 65 5b b9 dc 1b 3b 3c
       -0.00020923333 0.011420216
