2.1 DQN-DDQN-Classic-Control/model/DQN_LLdV2_250000.pth (torch, 173599 bytes, 6 tensors)

Q.0.weight f4 [200, 8]
000000 a9 69 4b 3e ea 09 1b be 8e 72 20 3e 8f fc 8c be
       0.19864525 -0.151405 0.15668699 -0.27536437
000010 0a fb 23 bf 42 aa 1d bf b1 c2 aa 3e cc 15 0c 3f
       -0.6405493 -0.6158792 0.33351663 0.5472076
000020 bc 9e a7 3e b8 d5 18 3e 7e 18 44 3f b4 73 19 3f
       0.32738292 0.14925277 0.7659987 0.59942174
000030 e5 64 d0 be 34 db 92 be a5 c7 84 3e 2b 5d 45 bd
       -0.40701976 -0.28682864 0.25933567 -0.048184555
000040 83 bb d1 3e 4b 4f b1 3d 94 78 68 3d ba 41 d6 be
       0.40963373 0.08657702 0.056755617 -0.4184702
000050 7f 40 e9 3e da 2a 07 3f 7f a2 89 3e 22 cd b0 3e
       0.4555702 0.5279976 0.26881787 0.34531504
000060 b9 bd 49 3e 74 5e 73 3d 0a 72 f2 bd 1a c3 99 bd
       0.1970128 0.05941625 -0.118381575 -0.07507916
000070 1a 18 c2 3f 27 2e 11 3e ed ae dc be a6 7d b4 3e
       1.5163605 0.14177762 -0.43102208 0.35252112
000080 32 93 a1 be 5e fe d5 3d 9e 56 3f bf d6 1d b5 3e
       -0.31557614 0.10448907 -0.7474154 0.35374326
000090 db 1d 54 be ee a9 c5 3e 27 4d cd 3d 64 7b c3 3e
       -0.20714514 0.3860621 0.10024481 0.38180077
0000a0 0d ea 3a be 5c d1 ae be 05 4f 0f be 78 7a 2c bf
       -0.18253346 -0.34144104 -0.13994987 -0.6737437
0000b0 76 29 84 3e 3d 31 c4 3e 29 e3 8f 3e a1 e9 84 3e
       0.25812882 0.38318816 0.28102997 0.25959495
0000c0 09 1e 7d bd 1e 3e 46 c0 3d 35 30 bd d2 fb 70 3d
       -0.061796222 -3.0975413 -0.043019522 0.058833905
0000d0 dd e8 4e 3e 8b 37 08 3f 35 c9 ff 3d c8 c2 72 3e
       0.20206018 0.5320975 0.12489549 0.23707116
0000e0 08 c0 7a 3f 32 00 e6 3c f0 b8 46 3f 45 19 a0 3d
       0.97949266 0.028076265 0.7762594 0.0781732
0000f0 29 79 9b 3e 35 c4 fb 3d aa 22 f2 3d d6 37 86 3d
       0.30365875 0.12293283 0.11823018 0.065536186
000100 ba e8 8c 3e 3a 29 96 3e 4a f8 13 bf e3 0b 3e 3f
       0.27521306 0.29328328 -0.57800734 0.7423689
000110 c6 57 f0 be 5c 6f 38 bf f0 a5 0b bf 24 b3 7f bd
       -0.46941966 -0.7204492 -0.54550076 -0.0624267
000120 5b bf aa 3e df c1 49 3f 88 35 e5 3e da 6c 85 3e
       0.33349118 0.7881145 0.44767404 0.2605961
000130 52 27 85 3d 74 0b ce be c2 d5 4f 3e 31 85 98 bf
       0.065016404 -0.40243113 0.20296386 -1.1915647
000140 91 cd 7b be 21 ad 81 be 11 0f 39 bf 47 23 91 3e
       -0.24590136 -0.253274 -0.72288615 0.28347227
000150 22 07 e1 be 3e 72 89 be 64 87 88 3e 07 b9 46 3d
       -0.43950754 -0.26844972 0.26665795 0.0485163
000160 83 8d 19 3f 55 e7 33 bd b6 37 80 3e 86 00 3c 3e
       0.59981555 -0.043921787 0.25042504 0.18359575
000170 2e 7b 23 bf 98 ad 54 bf 40 bc 84 bc 59 ba 20 3d
       -0.6385983 -0.83077383 -0.016203046 0.039240215
000180 15 76 94 3f 23 c9 32 3f f3 84 98 3c 00 0a fc 3e
       1.1598536 0.6983816 0.018618083 0.4922638
000190 be 10 a6 be fc c3 bc bd df 4d e8 3d 92 94 4c bf
       -0.32434648 -0.092170686 0.11342978 -0.799142
0001a0 85 5f 2b 3e cb 03 8e 3f ff 35 2c bf 05 8b ec bd
       0.16735657 1.1094908 -0.6726989 -0.11549953
0001b0 f8 85 35 3e 6b 65 31 3d 96 9c bc be 7a 4f be be
       0.17726886 0.04330961 -0.36838216 -0.3717001
0001c0 61 bf 40 3f b6 47 88 bf e5 0b e2 3e 6b 95 85 3d
       0.7529202 -1.0646884 0.441497 0.0652264
0001d0 ae 85 72 be ea af 33 be 03 51 25 bf c0 14 3b 3f
       -0.23683807 -0.17547575 -0.6457674 0.73078537
0001e0 d3 8a 0d bf 96 cb be 3d eb 44 3b bf 4f fd 68 3e
       -0.55289954 0.09316175 -0.73152035 0.2275288
0001f0 71 a2 c3 3d ac 5f 8f 3d 9d ef c8 be 38 4c 2b 3e
       0.095524676 0.0700067 -0.3924531 0.16728294
000200 e9 70 90 3d 9b c4 ad 3e f7 4f ef be 76 ae 0a 3e
       0.07052786 0.3393906 -0.46740696 0.13543114
000210 32 7b 58 3f 5a e0 63 3e 74 71 d4 3d ad 5a 1a bf
       0.8456298 0.22253552 0.10373202 -0.6029461
000220 ae c0 24 3e b4 79 fe 3e d5 71 ca bd f8 e4 77 be
       0.16089126 0.49702227 -0.09884993 -0.24208438
000230 65 53 b1 be 14 8d 07 bc 65 38 a7 bd 1b 63 6a bd
       -0.34633937 -0.008273382 -0.08165053 -0.05722342
000240 0a cb 82 be a5 c8 0b 3f 29 1f 2c 3f 75 30 95 be
       -0.25545532 0.54603034 0.67235047 -0.29138532
000250 f3 6e 51 be e2 fd 46 bf fa 31 9b be d5 fa b7 be
       -0.2045248 -0.77731144 -0.30311567 -0.35933557
000260 77 f8 ac be 72 c9 44 bf 22 77 11 3f 94 bf ec be
       -0.33783314 -0.7686988 0.5682241 -0.46239913
000270 60 58 09 3f 04 17 09 3f 16 06 cc 3b f0 f2 1f 3e
       0.53650475 0.53550744 0.0062263114 0.15620017
000280 9a 22 4b 3f ab 78 23 3e 4b 7f 40 be b2 ef 20 3e
       0.7934967 0.15964 -0.18798558 0.15716437
000290 a5 ca 60 bd 52 0a f4 be aa 2e ce bd 33 bc aa 3e
       -0.054880757 -0.47664124 -0.10067494 0.3334671
0002a0 5f f8 e6 be e6 1d 1c 3e 9c 71 7a bf 69 8b 42 bd
       -0.45111367 0.1524578 -0.97829604 -0.047496233
0002b0 33 1b d1 be c2 ca 17 3e a8 57 82 bf fa a0 cb 3d
       -0.40841064 0.1482344 -1.0183 0.09942813
0002c0 01 78 3d 3c 11 5b a2 bd 43 c1 b7 3e 0f 36 fa be
       0.011564256 -0.07927526 0.35889634 -0.48869368
0002d0 81 a2 07 bf d3 8b a4 3e 37 a6 9d 3e 24 23 c6 bd
       -0.52982336 0.32137927 0.30790874 -0.09674671
0002e0 78 fd ad be a5 ef a9 3e ef ac 9a be 22 03 fd be
       -0.33982444 0.33190647 -0.30210063 -0.49416453
0002f0 a2 ac 0a 3d ba 71 15 3f dc c5 69 be 15 59 4e 3d
       0.03385604 0.5837666 -0.22829384 0.050377924
000300 16 66 4e 3f 1f cd 64 be 0b 55 81 3e 43 a9 04 bf
       0.8062452 -0.22343872 0.25260195 -0.5182077
000310 df 6d 0e bf f2 53 d0 bd 8f cd 0b 3c 2e a8 d0 3e
       -0.556364 -0.10172261 0.008532896 0.4075331
000320 2c 40 43 bf b1 34 a4 3d e9 f4 db 3e 71 ba 3a 3e
       -0.76269794 0.080178626 0.4296029 0.18235184
000330 35 b6 26 3f 74 2e f7 3d b3 b6 41 3e 0a d3 ad 3d
       0.65121776 0.12069407 0.1891735 0.08487518
000340 26 3b 23 bf c4 6b 36 be 94 c5 09 be f8 80 b2 3e
       -0.6376213 -0.17814547 -0.13454276 0.3486402
000350 0d 13 3e be fc ad 40 3e 5c eb a9 3e 1c 9e 9b be
       -0.18561955 0.1881637 0.33187377 -0.30394065
000360 ce f7 48 3f 4b 64 b7 bd 9d f4 b9 3d 63 eb aa be
       0.7850312 -0.08954676 0.090798594 -0.3338271
000370 16 01 33 3e 19 95 2e be 49 88 03 bf 33 dd db 3e
       0.17480883 -0.17049064 -0.5137983 0.429422
000380 7e 13 ee 3e 5a 43 28 bf 03 f1 33 3b d9 b3 d3 3e
       0.46499246 -0.6572777 0.0027456887 0.4134815
000390 69 98 a6 be be be 8b bd b1 09 95 3e 1f c2 a4 3e
       -0.32538155 -0.068234906 0.29108956 0.32179353
0003a0 c4 24 85 3f 5d b3 3a be b7 00 4a 3f 85 74 92 3e
       1.0401845 -0.18232484 0.7890734 0.28604522
0003b0 11 0f 49 bd ba 4b d2 bc 5d 9a 7c bd 98 27 52 be
       -0.049086634 -0.025670875 -0.06167065 -0.20522916
0003c0 83 c5 2f bf 56 68 c7 be 1f 25 00 bf 5d 88 7b bc
       -0.68660754 -0.3894679 -0.5005664 -0.015352336
0003d0 9f 9a 07 bf 87 ad 89 bf e5 b8 20 3f f7 c0 f2 3e
       -0.5297031 -1.0756081 0.62782127 0.47412845
0003e0 90 f3 75 3b d2 fb 84 be bd 81 42 bf b0 a0 db 3e
       0.0037529208 -0.25973374 -0.75979215 0.42896032
0003f0 70 ef 0f 3f 54 e8 0e bf af 28 c1 3e d0 51 b0 bd
       0.5622473 -0.55823255 0.37726352 -0.086093545

Q.0.bias f4 [200]
000000 31 f3 ae 3d b5 c2 e2 3d fe 19 8e 3e cb 65 db bd
       0.08542479 0.11072294 0.27754205 -0.10712775
000010 9f b6 b0 be 0f 5e e8 be 5f 57 a2 3e d9 24 e9 be
       -0.3451433 -0.4538426 0.31707284 -0.45535925
000020 ca 01 0b 3d cf b7 50 3f ed c1 12 3f c9 32 ee be
       0.033937253 0.8153047 0.5732716 -0.4652312
000030 5a ac e9 3e fa 72 37 3f 23 b6 b8 be 29 78 26 3f
       0.45639306 0.71659815 -0.3607646 0.650271
000040 d3 e9 26 3d a6 c2 08 3f dc d8 a0 bd eb 45 cc be
       0.040750336 0.5342201 -0.07853863 -0.39897093
000050 bd 67 18 3e 6c 3b b7 be 79 2f 33 3e 40 6f f7 3e
       0.14883323 -0.35787523 0.17498578 0.48327065
000060 1d 9d 02 bf c4 6a c2 3e 68 00 14 3f 0a 3b 17 be
       -0.51020986 0.3797208 0.5781312 -0.14768615
000070 2f ed eb be b3 92 1e 3e ab 39 a3 bd 88 c2 60 be
       -0.46079394 0.15485649 -0.07969984 -0.21949208
000080 c4 44 a3 3e 65 8e b3 3d 3b 1e 93 3c c2 90 bd 3d
       0.31888402 0.08767394 0.017958751 0.09256126
000090 05 ce 48 bd 47 f3 3a 3d 97 cd ea 3e ec 6b b0 bb
       -0.0490246 0.045642164 0.45859978 -0.005383959
0000a0 5b 66 23 bf fa 04 df be af a8 c3 3e cb 2a 28 be
       -0.6382806 -0.43558484 0.38214633 -0.16422574
0000b0 58 e0 be bb da 83 f0 be 02 9b e6 be 07 32 c3 bd
       -0.0058250837 -0.46975595 -0.45040137 -0.09531026
0000c0 f1 e9 09 bf 08 a8 ef bd ac ef ea 3d 0a 85 99 3e
       -0.5387259 -0.11701971 0.11471495 0.29984313
0000d0 52 e8 cd be 6c 85 1e 3f d5 78 ab 3e ac df c2 3e
       -0.4021631 0.61922336 0.33490625 0.38061273
0000e0 a8 ae 91 be 7d b1 02 bf 98 40 8a 3c 85 2d bc be
       -0.28453565 -0.51052076 0.016876504 -0.3675348
0000f0 dc 69 10 3f 57 9b 07 be e8 85 ba 3e 1f fc 06 3f
       0.5641153 -0.13242851 0.36430287 0.52728456
000100 cc d4 fb 3e 18 83 ca 3e 50 f3 26 3f d2 d2 57 be
       0.4918579 0.39553142 0.65215015 -0.21076515
000110 d5 e0 c4 3e ed 5e c3 3e 84 cd a0 3e 88 3c 25 3f
       0.38452783 0.3815836 0.31406796 0.6454549
000120 bb 9f 0d 3e 7c 9a 08 be 67 ae 74 3d b6 65 39 3e
       0.13830464 -0.13340181 0.059736636 0.18105206
000130 81 fb bd 3e 3b ef 88 3d 80 b8 32 bd 58 e5 0d 3f
       0.37105945 0.066862546 -0.043632984 0.55428076
000140 87 d8 7f 3d a2 4e 9b be 47 01 51 3f 12 2d 07 3f
       0.062462356 -0.3033343 0.81642574 0.52803147
000150 15 de eb be 53 4c ad bd de a6 ef 3e b6 e1 24 3e
       -0.46067873 -0.08461823 0.46806997 0.16101727
000160 03 fd 45 3f 14 9e 85 be 8a 45 eb bd 68 d3 85 3e
       0.7733919 -0.26097167 -0.11487873 0.26137853
000170 f5 88 cf 3e 8f 6d da 39 29 b2 f6 bd c2 34 19 3e
       0.40534177 0.00041661828 -0.120457 0.14961532
000180 fb cc 7c ba f3 f0 74 3e 76 12 29 3d 60 f9 36 3e
       -0.00096435816 0.2392004 0.04127737 0.17868567
000190 c3 9c a1 3e 9b a6 b5 3d 2f 09 01 3f e0 a8 41 3f
       0.31564912 0.08869668 0.5040464 0.7564831
0001a0 6d 83 d4 3e 62 11 0d bf 8d 04 b5 3e 4b 0f b6 3d
       0.4150652 -0.5510465 0.35355034 0.08889636
0001b0 35 59 ff be 04 33 ef be 20 a6 9c 3d 91 9b 3f 3f
       -0.49872747 -0.4671861 0.07648873 0.7484675
0001c0 c0 01 2b 3c 5c 89 73 be 78 1f 03 3f 5b de 34 3f
       0.010437429 -0.23782867 0.5121989 0.7065179
0001d0 14 db 3b be 97 b0 2f 3c 78 7b e1 be b0 8d 1a 3f
       -0.1834529 0.010723255 -0.44039512 0.6037245
0001e0 96 79 ec 3e 5d d7 d2 3c 77 c7 ed bc 34 90 97 3e
       0.46186513 0.025737459 -0.029025776 0.29602206
0001f0 55 29 c9 3e 3d be 98 3e 52 8b 96 3e 18 6c 42 3c
       0.39289346 0.2983264 0.29403168 0.011866592
000200 e7 06 a5 3e b8 bf 3e 3f 4b 86 07 be 14 9e 08 be
       0.3223183 0.7451129 -0.13234822 -0.13341552
000210 c0 a1 41 3f 30 49 20 3f 0d 33 e9 3d 46 d2 ff 3e
       0.75637436 0.62611675 0.1138669 0.49965113
000220 a0 ed c1 3e ac f7 93 3e ae 36 bf 3e f7 65 ce 3e
       0.37876606 0.28899896 0.37346405 0.40312168
000230 58 b0 18 bf 32 25 70 bd 19 a0 9c 3e cd 99 3b 3f
       -0.5964408 -0.058629222 0.30590895 0.73281556
000240 f4 0a eb 3e 8c ff 9c 3e a8 7d 10 3f cc 21 80 be
       0.45906794 0.30663717 0.56441736 -0.25025785
000250 4b df 0e 3f 52 78 fa be 32 b9 16 be f3 f9 b7 3d
       0.5580947 -0.48919922 -0.14719084 0.08983221
000260 63 93 99 3d 82 d8 a8 3e 1f 4e 89 be 51 85 15 bf
       0.07498815 0.32977682 -0.26817414 -0.5840655
000270 d9 b7 4d 3e e0 18 c4 bd 0a 55 1d 3f 0e 83 2e bd
       0.20089664 -0.09575057 0.61457884 -0.042605452
000280 c5 bc c6 3e 94 d5 05 bb 60 b1 fc 3d 2a be a9 3e
       0.38815895 -0.0020421492 0.12338519 0.33152896
000290 47 98 e7 3c f6 a3 10 be d3 95 87 3e 1e dc 2c be
       0.028270854 -0.14125046 0.26481494 -0.16880843
0002a0 1e e2 b1 3e d9 7a 3a bd 29 89 a6 3e 59 25 c2 3c
       0.34742826 -0.045527313 0.3252652 0.02369945
0002b0 1b be a6 3e 79 24 15 3e b5 39 82 bd ab a4 e5 3a
       0.32566914 0.14564694 -0.06358663 0.0017520388
0002c0 da a3 af 3e 86 b6 f5 3e 6d 51 0f 3f 3a 0d a6 3e
       0.34304696 0.47990817 0.5598362 0.32431966
0002d0 f3 b9 93 3d f4 a1 f2 3e 89 97 d4 3e 4b cd cb 3e
       0.072132014 0.47389185 0.41521862 0.39805064
0002e0 a3 8d f2 3e 98 ed ac be 5b 49 9c bd cd 49 c4 3d
       0.47373685 -0.3377502 -0.07631179 0.09584389
0002f0 d2 e3 5e be c0 ab 0a 3f b3 27 f8 3e ad 5c 4c 3e
       -0.21766594 0.5416832 0.48467788 0.19957228
000300 e0 6b 84 be 4b d3 5c 3f 48 5f b3 bc 82 0b c2 3d
       -0.25863552 0.8625991 -0.02189602 0.09474851
000310 88 05 d8 3d a4 e8 85 3e 7b e0 29 be 9c e3 94 3e
       0.1054793 0.26154053 -0.16589539 0.29079902

Q.2.weight f4 [200, 200]
000000 01 03 5a 3e 29 5a 46 3e 1c 2a 70 3e 82 72 3e 3c
       0.21290208 0.19370331 0.23453563 0.0116239805
000010 1c 1b 61 3e 98 63 05 bd cf 86 98 bf f2 ea 05 bc
       0.21982998 -0.032565683 -1.191614 -0.008173691
000020 0b dd 2e bd 88 98 e5 3d c9 b3 bb 3d 83 b9 bf 3e
       -0.04269127 0.11210734 0.09165151 0.37446222
000030 eb cf 3e 3e 93 09 4b 3e d5 07 9b be ff 5c b3 3e
       0.18634002 0.19827871 -0.30279413 0.35031888
000040 88 a1 ec 3e 3b 63 69 ba 38 5e 8f be 19 6d 0b bf
       0.4621699 -0.0008903031 -0.2800157 -0.54463345
000050 80 27 82 3e fc 6a 03 be 36 63 97 be 42 5d a4 be
       0.2542076 -0.1283378 -0.2956788 -0.321024
000060 50 ff d5 3e ca d9 97 be 29 c4 b7 3d 7a 37 23 3e
       0.4179635 -0.29658347 0.089729615 0.15939131
000070 fb 4d 4b be ee f4 ef 3e dd 14 fe 3d e3 28 d7 3e
       -0.19853966 0.46866554 0.12406323 0.42023382
000080 b0 65 69 be 79 32 6e 3e cd d7 15 3e 91 30 00 bf
       -0.22792697 0.23261441 0.14633103 -0.50074106
000090 4e e7 5c bf 93 25 21 bf 18 16 05 bc 22 8e 20 bf
       -0.8629044 -0.6294796 -0.008122943 -0.6271688
0000a0 5c 22 c6 3e 91 86 73 bf 38 b6 a3 3e 0a e8 35 3e
       0.3869809 -0.9512721 0.3197496 0.17764297
0000b0 42 ef f0 bc 78 92 82 3e 91 20 61 3d 4a 73 ae 3e
       -0.029410962 0.25502372 0.0549627 0.34072334
0000c0 91 74 c0 3c 6f 7c 7d bf 08 a4 cf ba 7b 39 db 3d
       0.023493083 -0.99017996 -0.0015841732 0.10704323
0000d0 0c f9 be 3b be d1 4e be 9d f1 9d 3d a2 9a fd 3d
       0.0058280285 -0.20197198 0.077121 0.123830095
0000e0 c3 f9 90 be fc d5 4b 3f e9 a6 5b 3e 2e 0f 5b 3d
       -0.28315553 0.7962339 0.2145039 0.053481273
0000f0 df dd e3 3e f6 96 d1 bf 45 fe 29 3e e0 84 28 be
       0.44505212 -1.6374195 0.16600902 -0.16456938
000100 65 2b 87 3e 87 03 5b bd 43 93 90 3d fb 35 72 3e
       0.26400295 -0.05347016 0.07059338 0.23653404
000110 d0 1a 4a 3e 94 db ea bd ee 87 b0 3d 69 64 50 3e
       0.1973679 -0.114676625 0.086196765 0.20350803
000120 57 4b 57 be e6 ad 7f be c9 82 26 3f 57 8f 23 bd
       -0.21024834 -0.2496868 0.6504331 -0.03993162
000130 a8 de 98 be b9 b5 d1 3a e4 53 df 3e 4e c2 c5 3e
       -0.29857373 0.0015999592 0.4361869 0.38624805
000140 54 df 39 3e 10 6f ba 3d 7a 80 5e 3e 27 4a 10 3e
       0.18151599 0.09103215 0.21728697 0.14090787
000150 78 b0 cf bd 3f d4 f0 be 26 bc df be 4e 45 03 bd
       -0.101410806 -0.4703693 -0.43698233 -0.032048516
000160 b4 be a6 3d bc 84 85 be 3d 3f ee bb d4 9d 37 3e
       0.081418425 -0.2607783 -0.007270722 0.179313
000170 c1 38 3a be 48 f1 89 be 0e fb 4d bf a6 f0 2d 3f
       -0.18185712 -0.26941895 -0.80461204 0.67945325
000180 22 92 87 3d 6a 6b 70 bd f0 25 d2 bd 6a 2d 42 bf
       0.066196695 -0.058696188 -0.10261142 -0.75850546
000190 87 4b 8b 3d 32 6e 6b be bc 3d e0 bd 09 8a 60 3d
       0.06801515 -0.22991255 -0.10949275 0.05481914
0001a0 75 24 81 bd a6 59 97 3f ee dd 68 bd 1d b0 75 be
       -0.06305782 1.1824234 -0.056852274 -0.23992963
0001b0 32 c0 c0 bf 82 89 08 3e 08 c1 b2 3e 3c 3d 93 be
       -1.5058653 0.13333705 0.34912896 -0.28757656
0001c0 94 57 5c be 21 af 6a be 3a 24 95 3e 31 d9 f0 3d
       -0.21517783 -0.22918369 0.291292 0.11760176
0001d0 b8 27 b2 3e ef 4e 91 3e c7 cb 93 3e 5d 11 cf be
       0.34795928 0.28380534 0.28866407 -0.40442935
0001e0 d9 19 9e be 2c 48 c8 be 2c db 09 3e ec 63 40 3e
       -0.30879095 -0.39117563 0.13462514 0.18788117
0001f0 b2 73 af 3e d0 26 13 3d 99 63 36 3b f7 82 ee 3c
       0.34267956 0.035925686 0.002783036 0.029115183
000200 75 70 eb 3c fc 69 24 3c bf fc 44 3e 58 d5 33 3f
       0.028740147 0.010035034 0.1923704 0.7024741
000210 75 d7 71 3d 4c 37 71 3d 7e a8 82 be 86 88 16 be
       0.059043366 0.058890626 -0.25519174 -0.14700517
000220 cd 4c 14 bf ca fb 26 bf be 3c f0 3d 8b 43 94 be
       -0.5792969 -0.6522795 0.11730336 -0.2895778
000230 7a 8b 9c 3e ec 9b 7b bf c8 2d ab 3e b7 71 76 be
       0.30575162 -0.9828479 0.33433366 -0.24066816
000240 5f 83 ae 3e be f0 24 3e f0 2e 80 3e a8 a1 20 3e
       0.34084603 0.16107461 0.2503581 0.15686667
000250 80 a1 8f be 1b ca d0 bd 8c 99 a4 3d e8 fb e4 3d
       -0.28052902 -0.101947986 0.08037099 0.1118086
000260 7d e8 a2 3e a0 cf c1 3e b4 21 ff be fa cc 87 bf
       0.31818 0.37853718 -0.498304 -1.0609429
000270 70 a6 24 be b6 46 3b 3e 6d 21 d0 3e 7c 0c d8 be
       -0.16079116 0.18288693 0.40650502 -0.42197025
000280 79 f3 0e be d7 35 23 3e 72 64 e5 3e bb 2e a9 bd
       -0.13960065 0.15938507 0.44803196 -0.08260866
000290 53 11 90 3e c8 b4 d9 3e af 92 01 be c4 2f 31 bf
       0.28138217 0.42520738 -0.12653612 -0.6921351
0002a0 74 0f 32 3d 98 5f 4e bf 72 90 3b be ce 4c cc 3e
       0.04347177 -0.80614614 -0.1831682 0.39902347
0002b0 94 56 69 bf a9 32 a7 3e 01 ce ca 3e 4e 92 a6 bf
       -0.9114773 0.32655838 0.39610294 -1.3013399
0002c0 94 88 27 3e c2 7e c4 3e 93 00 f4 be bc 73 83 3d
       0.16360694 0.3837796 -0.47656688 0.06418559
0002d0 0b 0e 84 3e ee 62 cc 3d e4 6c 36 3e 35 e7 8b 3e
       0.25791964 0.09979807 0.17814976 0.27324834
0002e0 c0 1d c2 be 8b 9e 06 be 86 e5 b9 3d 98 31 d8 3e
       -0.37913322 -0.13146417 0.09076981 0.42225337
0002f0 78 43 22 bf d6 8f b2 bd 59 dd 82 3e 68 8e 23 bf
       -0.633842 -0.08718841 0.255595 -0.6388917
000300 5c 09 98 3e a2 6c 8e 3c cf 60 02 3f d5 09 ae 3d
       0.2969464 0.017385785 0.5092897 0.08497969
000310 03 d5 1d be 16 7f 0a 3f 9d 07 4a bf a1 35 01 3f
       -0.15413289 0.5410017 -0.78917867 0.50472456
000320 e7 4e 98 bb dc 3d ed 3e f4 fa 05 3d 6d ed 7e be
       -0.004648078 0.46336257 0.03271003 -0.24895258
000330 52 d2 2d 3e bc cb 1d 3e 48 9e a2 be c2 89 a0 bf
       0.16974762 0.1540975 -0.31761384 -1.254204
000340 a7 ec 18 3f 97 80 4d 3d d0 84 18 bc 85 e1 15 3f
       0.597361 0.05017146 -0.009309009 0.5854724
000350 9e 89 33 bd 44 da 75 3e 66 c2 b0 bf 78 ce 36 3e
       -0.043832414 0.24009043 -1.3809326 0.17852199
000360 43 28 8a 3e da fc bb 3d 4a 30 bd bc 24 4a 80 be
       0.26983842 0.09179087 -0.023094315 -0.25056565
000370 26 cc e0 bc 6d 32 11 be 0c 23 26 be 30 b0 cc 3d
       -0.027441096 -0.14179392 -0.16224307 0.099945426
000380 b4 cd 94 bd 71 d5 56 bd 06 b1 62 3e 53 2d 50 3e
       -0.07265797 -0.052449647 0.22137842 0.2032979
000390 38 a6 87 bf 4d c1 86 3e 0a 22 a0 be ae 02 01 be
       -1.0597601 0.26319352 -0.3127597 -0.12598678
0003a0 9a d0 ee 3d d9 cb df bc a4 dc 66 3e c1 12 ea 3d
       0.11660881 -0.027318882 0.22545105 0.11429358
0003b0 9f 69 41 be 84 10 0d 3e 34 11 3f 3d a1 4e f0 be
       -0.18887947 0.13775831 0.046647266 -0.4693499
0003c0 f8 4b 1e bf eb 55 fc be f5 3f fa bd 17 10 2c be
       -0.6183467 -0.492843 -0.1221923 -0.16803013
0003d0 d2 df d8 be 73 c4 02 3f 97 4b 5e be b2 96 59 bd
       -0.4235826 0.5108101 -0.21708523 -0.05312223
0003e0 f0 28 bb 3d 20 67 e6 bd 05 9a 71 be 6a 46 0f be
       0.091386676 -0.11250138 -0.2359391 -0.13991705
0003f0 e5 b4 b6 3e 4e ce 2d 3d ed b0 95 3d 31 54 f0 3d
       0.35684887 0.042433076 0.073091365 0.11734808

Q.2.bias f4 [200]
000000 e0 c9 84 3d d8 f6 cb 3c 42 04 09 3d f9 44 ef 3d
       0.06483817 0.024897978 0.033451326 0.11683077
000010 b9 30 be 3d 35 1b dc 3e f3 2c 0d 3e d3 99 c9 3d
       0.09286637 0.42989507 0.13786678 0.09843793
000020 79 a8 83 3d 62 6e 42 3e cb 25 73 3e 40 57 99 3e
       0.06428618 0.1898742 0.23744886 0.2994938
000030 40 23 cd 3d fd 91 a3 3d 46 16 85 bd 7d 7a f5 3e
       0.10016489 0.079868294 -0.06498389 0.47945014
000040 9b d6 8a bd fe 6e 19 be 09 a2 a5 3d a8 e4 9b 3e
       -0.06779214 -0.14983746 0.080875464 0.30447888
000050 41 7f 37 3e e7 76 d3 3d 40 12 8c 3d 42 6c eb 3d
       0.17919637 0.10325413 0.068394184 0.11495258
000060 1a ee 55 3d d9 f5 0b bb a8 0e 68 3e c6 ad d4 3d
       0.052229024 -0.0021356253 0.22661841 0.10384707
000070 1c b2 c0 3d d6 c9 13 3d 79 cb cf 3d e0 16 8b 3d
       0.09408972 0.036081158 0.10146231 0.067914724
000080 e7 79 18 3d 9a 38 35 be b6 6d 4e 3e 1f c4 69 3e
       0.03722563 -0.17697373 0.20159039 0.2282872
000090 8e 68 a5 3e be 76 0d 3e 6f 09 b2 3d db 51 d4 3c
       0.3230633 0.13814828 0.086932056 0.025917938
0000a0 6a dd e0 bc 25 f9 99 bc fc 53 83 3e 69 c0 17 3e
       -0.027449328 -0.01879556 0.25650012 0.14819492
0000b0 36 a5 99 3d de 2d 9f 3e 27 27 9b 3d db ca cc 3d
       0.075022146 0.3108968 0.07575827 0.09999629
0000c0 1e 2a d2 bc 70 77 e0 bc 9d bd 99 3d 0a 8c 55 3d
       -0.025654849 -0.027400702 0.07506869 0.052135505
0000d0 e6 a7 56 3d a2 b0 c9 3c bd 0a f7 bd 8a 1f 83 3c
       0.052406214 0.024620358 -0.12062595 0.01600625
0000e0 30 35 dc 3d 02 90 60 3d 0a dd cb 3d 06 ff e3 3d
       0.10752332 0.054824837 0.09954269 0.11132626
0000f0 ef b5 24 3e 5e 97 d1 3d 44 63 d8 3d 81 1a 57 3c
       0.16085027 0.10233949 0.105658084 0.013128878
000100 57 40 3e 3e f5 8f c8 bb 1b 83 4e 3d 75 7f bd 3d
       0.18579231 -0.0061206766 0.050418 0.09252826
000110 26 59 0a 3d 5c f6 17 3c 33 e4 64 3d a0 d7 e4 bc
       0.033776425 0.009275045 0.05588169 -0.02793485
000120 ac a3 0f 3e 17 c5 21 3e 5f 8b ed 3c f0 12 27 bd
       0.1402728 0.1579784 0.028997121 -0.040789545
000130 28 30 14 3e fb 17 7c bd 1f a7 e7 3d 02 89 bc 3d
       0.14471495 -0.061546307 0.11311173 0.0920582
000140 62 6b 4c bd d7 97 4f 3d 24 ae 10 3e 83 5a 0a bf
       -0.049907096 0.050681915 0.1412893 -0.5404436
000150 7a 8b 12 3d 6b 98 89 3c cf 6f 04 3e 58 b9 b5 3e
       0.035777546 0.016796311 0.12933277 0.3549297
000160 02 ac b3 3e 97 c1 d8 3e 4b c7 90 bd 3f 40 4c bd
       0.3509217 0.42335197 -0.07069262 -0.049865957
000170 9d 75 42 3d cc 32 fa bd 6c cf 0a bb 59 45 ea 3d
       0.047475446 -0.1221672 -0.0021180762 0.11439008
000180 c0 28 ab 3d 6a 6a d1 3e 56 de 90 3d 9b b2 ed bd
       0.08357382 0.409015 0.07073657 -0.11606332
000190 41 47 9f bc bc bd 53 3d 9c 5f d9 3d 4a dd ff 3d
       -0.019443156 0.051694617 0.10613939 0.124933794
0001a0 7b 87 31 3e b5 21 6b 3d c8 c9 62 3d e5 fa b4 bb
       0.17336838 0.057405192 0.055368215 -0.005523073
0001b0 0b d7 80 3d 7e e1 9c 3e cc 97 2a 3e bc ba 34 3c
       0.06291016 0.30640787 0.16659468 0.011030849
0001c0 97 e4 0b 3e d2 58 d7 3d 7e 16 47 3e 09 75 9f bc
       0.13661419 0.10514988 0.19442174 -0.019464986
0001d0 75 72 11 3d a5 07 ba 3d 07 ed c2 3e ca dd 59 3e
       0.035509545 0.09083489 0.38071463 0.21276012
0001e0 2f 3f cd 3d 48 b2 e6 3c 42 82 9e bc c4 44 55 3c
       0.10021817 0.028161183 -0.019349221 0.013016883
0001f0 e5 07 b6 b9 c4 d1 a2 3d 27 cd db be 09 6c a6 3e
       -0.00034719627 0.07950166 -0.42929956 0.325043
000200 89 e8 b4 3e 83 c0 e9 3d 69 2e b1 3b 06 9f 46 be
       0.3533366 0.11413672 0.005407144 -0.193966
000210 af 47 04 3d a6 dc c8 3d 85 68 bf 3d 61 60 0b 3e
       0.032294925 0.0980771 0.093461074 0.13610984
000220 e1 4c 39 bb 59 50 29 3e 18 ff 2e 3d 28 72 db 3d
       -0.0028274583 0.16534556 0.042723745 0.10715133
000230 cf ca b1 3d 76 8d 81 3e 0e 24 c7 3e 80 ce ec bd
       0.08681261 0.2530324 0.38894695 -0.11562824
000240 33 67 cc 3c 7e 2b 66 bd 78 14 8a 3d 27 30 8e 3d
       0.024951553 -0.05619382 0.06742185 0.06942778
000250 5e fa 21 3d 63 c0 85 3e 32 69 bb 3d 3a a9 34 3e
       0.03954541 0.26123342 0.09150924 0.1764268
000260 65 b6 4c 3e d1 3b 3d bd 8e 52 1e 3e 5e b7 6e 3c
       0.19991453 -0.046199623 0.1546118 0.014570085
000270 7f 5d 69 3e c1 e8 49 3e bb 42 c9 3d 02 99 c7 3d
       0.22789572 0.19717695 0.09827181 0.09745981
000280 53 b5 9b bd 32 a9 08 3d 05 f5 96 3d c2 44 9d 3e
       -0.07602944 0.033364482 0.073709525 0.3071652
000290 05 3e 63 3e a6 d2 9d 3d 44 18 05 3e 0f 6e 16 3e
       0.22191627 0.077061936 0.12997538 0.14690422
0002a0 f3 0a c9 3d 5a 34 a7 bd 4f 97 a1 3d 3e 7d a0 3e
       0.098165415 -0.08164282 0.07890188 0.31345552
0002b0 81 72 87 3e 58 c5 82 3d aa 24 07 3c 7f a5 47 3e
       0.26454547 0.063852966 0.0082484875 0.19496725
0002c0 eb 07 05 3c b7 15 87 3d d8 06 43 3d 9a 35 97 3d
       0.008119564 0.06595939 0.04761395 0.073832706
0002d0 80 ce 78 bb 63 f6 7f 3c 2f 3e 7c 3e 9c e9 c3 bd
       -0.003796488 0.015622708 0.24633096 -0.09566042
0002e0 9f e5 25 bd d9 71 19 3d 89 b3 b4 bb 2e 1c a4 3c
       -0.040502187 0.03746209 -0.0055145663 0.020032968
0002f0 dd fd e4 3b 36 95 6d 3d b7 7e b4 3d 2d cb 8d 3e
       0.0069882707 0.058003627 0.088132314 0.27694073
000300 f5 b0 50 3e 9f bd 97 bd 01 d1 99 3d b1 d1 fc bc
       0.20380004 -0.07409214 0.075105675 -0.030861707
000310 0e 79 3a 3e f3 b3 09 3e 54 fe 5f bd d1 77 f3 3e
       0.18210241 0.13447551 -0.054685906 0.4755235

Q.4.weight f4 [4, 200]
000000 a3 b4 17 bf 97 9b 6f bf f2 9c 99 3e 9d 31 c1 be
       -0.59260005 -0.93596786 0.30002552 -0.37733164
000010 ca 5b 19 bf 0f 02 69 3e 25 39 83 bf 21 5f 1d 3f
       -0.59905684 0.22754692 -1.0251814 0.6147328
000020 62 85 34 bf 06 54 1d 3f d3 16 d2 3e ef 21 04 3f
       -0.70516026 0.61456335 0.41033038 0.5161428
000030 31 b1 18 bf 2b 2f a8 bd 8d 20 13 3d 05 d8 0c 3f
       -0.5964537 -0.082121216 0.035919715 0.5501712
000040 7c 14 35 3c eb a1 28 3f e0 04 cf be cf 7c 10 3f
       0.011052247 0.6587207 -0.40433407 0.5644044
000050 51 27 2b 3f 93 45 13 bf 9d 20 11 bf cc 6e 28 bf
       0.6685687 -0.57528037 -0.5669039 -0.6579406
000060 d0 93 c3 be d9 ae 17 bf dd 0a ed 3e a8 73 09 bf
       -0.3819871 -0.5925117 0.4629735 -0.536921
000070 ee 1c b3 bd 8a 19 0c bf 10 d3 0b bf 61 5a 26 bf
       -0.08745752 -0.5472647 -0.5461893 -0.6498166
000080 b9 e2 d9 be 93 02 b0 3e d3 fb ca be 17 32 01 3f
       -0.42555788 0.34376964 -0.39645252 0.50467056
000090 d0 8b 07 3f cc 8b e5 be d2 a5 09 3f d3 4e a3 be
       0.5294771 -0.4483322 0.53768647 -0.31896076
0000a0 32 04 71 3d 27 8f b5 3d c3 bb 25 3f 50 ba 0b bf
       0.05884189 0.08865195 0.64739627 -0.54581165
0000b0 c3 81 d0 bd 39 d4 1d be de 00 87 3f 15 55 22 bf
       -0.10181 -0.15412988 1.054714 -0.63411075
0000c0 64 bf c8 3c 53 92 20 3d fe af bc be e9 b7 e4 be
       0.024505325 0.039202046 -0.3685302 -0.44671562
0000d0 86 6c 37 3f 84 1f 20 bf c1 ba d5 3f 15 69 05 be
       0.7164997 -0.6254809 1.6697618 -0.13028367
0000e0 80 df 1d bf d3 5c 0d bf 85 08 8a bf 9a e0 1b bf
       -0.6166916 -0.55219764 -1.078385 -0.6088959
0000f0 3d 97 c9 be 54 8c 1e bf c4 5f 42 bf be e2 7e bf
       -0.39373198 -0.61932874 -0.75927377 -0.9956473
000100 b4 cf 60 3f 1d cd eb be a6 8b 1a be 5c 43 52 bf
       0.8781693 -0.46054927 -0.15092334 -0.8213403
000110 f7 34 47 3f 1a c8 3c bf f6 e1 0b bf 8a 75 83 bf
       0.7781519 -0.7374283 -0.54641664 -1.0270245
000120 e2 3b 13 bf ea 34 73 bf ce ea 32 3f cf 12 74 3d
       -0.5751325 -0.95002615 0.69889534 0.05958825
000130 b5 84 45 bf c8 52 a9 bf 83 be 41 bf a5 b7 f4 be
       -0.7715562 -1.3228388 -0.7568132 -0.4779636
000140 54 c5 95 3c d8 6a 59 3f 1a 27 91 be 7e 98 08 3d
       0.01828257 0.84928656 -0.28350145 0.033348553
000150 f9 38 71 be 39 76 b6 bf 72 36 6b 3f d2 03 0f 3f
       -0.2355689 -1.4254829 0.9187995 0.55865204
000160 b8 a7 2b 3f a7 25 11 3f c6 6a 24 3f 2c ab 86 bd
       0.67052794 0.5669808 0.64225423 -0.06575617
000170 94 02 b7 be a1 eb a3 3f 02 aa e5 be 69 4e 11 bf
       -0.35744154 1.2806283 -0.44856268 -0.5676027
000180 bf 79 1c bf 1c 02 e8 3e bd b0 d7 be 91 d0 d5 3d
       -0.6112327 0.4531411 -0.42127028 0.104401715
000190 2b 45 48 3f 20 dd 55 bf 8b ae 94 be 58 8e 2f bf
       0.7823054 -0.83540535 -0.29039416 -0.68576574
0001a0 03 35 27 3f aa 16 da bd d7 af d1 be d9 c4 04 bf
       0.65315264 -0.10648854 -0.40954468 -0.51862866
0001b0 f9 9f 97 bf 4c d1 33 3e cd 8e 89 bf 19 bd c6 3c
       -1.1845695 0.17560309 -1.0746704 0.02426009
0001c0 0a f5 39 3f de 71 76 bf d2 ab ea be 67 8e 41 bf
       0.72639525 -0.962675 -0.45834213 -0.75607914
0001d0 4c 76 ad be 17 d0 08 bf 4f 86 f8 3e 39 f9 10 bf
       -0.33879316 -0.5344252 0.4853997 -0.56630284
0001e0 cf 15 3f 3e 93 7a 01 be 7f ea 62 3e 80 aa ca be
       0.18660663 -0.12644415 0.22159766 -0.39583206
0001f0 ab 6a cc be 2a 18 ef be 43 0c 25 be 6d 9c c8 3e
       -0.3992513 -0.46698123 -0.16117959 0.39181843
000200 fa 62 03 3f 6d 12 ef be 77 5a b5 be b7 6c 21 3e
       0.513229 -0.46693745 -0.35420582 0.15764128
000210 c7 4f ae bd 0d ea 39 bf f9 44 c6 be f7 d1 cb 3d
       -0.0851131 -0.7262276 -0.38724497 0.09952157
000220 58 46 66 3f c5 07 4b bf 9c 58 6e be 25 28 ea be
       0.89951086 -0.7930873 -0.2327599 -0.45733753
000230 f3 bd 4e bf e7 f2 1d 3f 26 3e b1 3f 64 15 90 bf
       -0.8075859 0.61698765 1.3847091 -1.1256528
000240 87 f5 f2 3f 30 e9 56 3d de 9b bb be 74 41 ec be
       1.8981179 0.05246848 -0.36642355 -0.46143687
000250 58 32 0f bf 69 97 8d be 3a 1e 3e be a0 2f e1 be
       -0.55936193 -0.2765458 -0.18566218 -0.43981647
000260 96 a3 35 be 9a ef 86 3f 6d f7 0d 3f 1e 00 d7 bf
       -0.17738184 1.054187 0.55455667 -1.6796911
000270 c9 b5 de be 7a 2d 44 be 2e 68 82 bf 9b 16 84 bd
       -0.43498066 -0.19157973 -1.0188043 -0.06449624
000280 35 f9 c7 3e 00 7a dc be 15 ca 43 bf ab ef fe 3e
       0.39057317 -0.4306183 -0.7648023 0.49792227
000290 20 49 48 3f bb d3 58 3f 1d 8b 57 3f c1 ef 53 bf
       0.7823658 0.84698075 0.84196645 -0.8278771
0002a0 56 80 04 bf fd a0 46 bf 27 eb 14 3f 05 ff 1e be
       -0.51758325 -0.775894 0.58171314 -0.1552697
0002b0 05 e0 0c 3f d6 5f 50 3d 53 95 ba be 65 a2 2f 3f
       0.55029327 0.050872646 -0.3644205 0.6860717
0002c0 12 6a 67 bd f2 8f d2 be 87 ea 58 bf a7 37 8d bf
       -0.05649764 -0.41125447 -0.8473286 -1.1032609
0002d0 c5 07 d1 be 88 0e 1b bf 32 1c eb 3e 68 e9 36 bf
       -0.4082624 -0.6056905 0.4591995 -0.714499
0002e0 cb 82 bb be 6c 87 0c 3f ae 04 0d bf f8 48 e8 be
       -0.36623225 0.5489414 -0.55085266 -0.4536817
0002f0 ba 27 27 bf 48 5a 16 bf 31 c0 30 be 5c 18 d9 bd
       -0.6529499 -0.5873151 -0.17260815 -0.10600349
000300 8c 42 d5 3e 38 91 cf 3e 70 60 fa be 32 a0 aa bd
       0.41652334 0.4054048 -0.489017 -0.08331336
000310 52 d7 02 bf 64 3b 3b 3f a2 15 94 bf c6 d1 2d 3f
       -0.511098 0.731375 -1.1569102 0.67898214
000320 17 99 83 bf ab 68 ea be f2 56 51 3f af a6 87 bf
       -1.0281094 -0.4578298 0.81773293 -1.0597743
000330 85 07 d0 be 1d 2d 18 3f 93 18 aa bf 39 49 3a 3f
       -0.40630737 0.5944384 -1.328875 0.7276798
000340 d7 7f fe be 93 93 d3 3e ad 96 13 3f b2 40 ce 3e
       -0.4970691 0.41323528 0.5765179 0.40283734
000350 d5 cd 92 bf 10 bf 5d be 2b 07 1b 3f fd 35 6c 3f
       -1.1469065 -0.21654916 0.6055781 0.9226988
000360 52 b2 29 3d 0c a9 01 3f 55 7b bd be cf 85 c9 3e
       0.041429825 0.5064857 -0.37008157 0.393599
000370 52 82 18 3f 01 9f d7 be bc 86 b6 be 2a b8 d7 be
       0.59573853 -0.42113498 -0.3564967 -0.42132694
000380 eb 7d cd be a5 82 10 bf 4b c1 04 3f 96 59 0c bf
       -0.4013513 -0.5644935 0.5185744 -0.548242
000390 2f 87 1d bf 27 db 24 bf ea 45 ab be d1 27 0e bf
       -0.615344 -0.643969 -0.33451778 -0.55529505
0003a0 9d 81 07 bf 75 11 a2 be bd 79 c6 be c4 33 fa 3e
       -0.5293215 -0.31653944 -0.38764754 0.4886762
0003b0 5b 3e e0 3e 2b 08 02 be 3c 92 e1 3e 43 d8 4b be
       0.43797573 -0.12698428 0.4405688 -0.19906716
0003c0 c3 a3 03 3a 84 e1 18 3e 55 7f 32 3f 31 f5 0d bf
       0.0005021656 0.14929777 0.69725543 -0.5545226
0003d0 35 0e dd be 2c c3 ee 3e b5 97 45 3c 92 95 25 bf
       -0.43174902 0.4663328 0.012060096 -0.6468135
0003e0 80 e4 1b bc d8 e2 0b bd 29 a3 bf be e4 d5 07 bf
       -0.009514928 -0.034151882 -0.3742917 -0.53060746
0003f0 f6 89 d2 3e 94 15 61 bf 6e 10 db 3f 44 1b 86 3f
       0.4112088 -0.8792355 1.7114389 1.0477071

Q.4.bias f4 [4]
000000 0c 19 01 3e 4d 87 53 3e 77 97 92 3d 67 04 0a be
       0.12607211 0.20657082 0.07157796 -0.13478242
