5.2 SAC-Continuous/model/Humanv4_actor1800.pth (torch, 687608 bytes, 8 tensors)

a_net.0.weight f4 [256, 376]
-0.19488604 0.013562532 0.79246557 0.0005209104 -3.0488768 0.27060467 -2.4678514 -0.85428727
0.5574999 -2.3682768 -1.3148232 -4.010559 2.4597552 -0.32318786 4.440167 -0.55283606
1.3128102 -1.1586102 -0.24267268 0.33642867 0.8301113 0.043795034 -1.664393 2.3414586
-1.8226182 -0.7634706 -1.4563154 -0.22015415 0.42930505 -0.17272542 0.37819454 0.37762854
0.24738577 -0.60747474 0.1628469 -0.40467283 -0.0912625 -0.35866183 -0.019491764 -0.04360417
-0.47260794 -0.41702002 0.9191014 -0.03699451 -0.14155093 -0.02658643 0.032538142 0.030237209
-0.022871511 -0.0018608071 0.032982826 0.051268503 0.020467635 0.0069668824 0.034577694 -0.05003147
0.23934697 1.3786548 1.3023772 2.0836062 -0.24198313 -2.5321748 -0.041732557 0.003471819
0.012979187 0.23641464 0.2294922 -0.47814375 -1.1531806 3.3629684 1.3092216 -3.574186
-1.1172686 0.16776955 0.029542977 0.404039 0.13315529 -0.30197817 0.25056615 -1.273666
0.8373215 0.45135248 -0.7613136 0.63912493 -0.0056781517 0.054185636 -0.21793978 0.1271356
2.5721326 2.695694 -0.10940927 2.0281613 -0.2552533 0.18643263 -0.06637038 -0.44632077
0.00432724 -3.07762 1.7912079 3.725592 1.253061 3.730431 1.2155468 -0.035468195
-0.064455315 -0.5076022 -0.08907762 -4.2713394 0.35685176 1.8504169 2.1118965 1.729208
2.1664546 0.040031288 0.020007832 -0.60815674 0.40116912 1.0463563 -0.3617412 1.883971
-0.6952116 2.5275955 -0.3876923 0.40966997 -0.06479873 -0.3555449 -0.16470985 1.145449
-1.6150109 2.1970043 -0.7252833 2.7228203 -0.6955031 0.18548259 0.021584012 -0.3023829
-0.24701342 0.8963134 -1.744217 1.4990563 -0.68585604 1.902757 -0.60287344 0.17006306
-0.06165524 -0.67232007 0.14337793 1.407273 -0.8097889 3.7207887 -0.032968406 -4.011348
0.07671746 -0.41749611 0.0125477025 -2.0500264 -0.12993556 -1.1874686 -1.9831183 1.5912749
-1.3618021 -3.3630865 0.51549494 -1.9694065 -0.023399504 0.11653605 -0.17730859 -0.2497672
-0.32278815 -0.010137238 -0.5280409 0.18874535 0.4534776 0.11056231 -0.061870012 -1.5929332
-0.74769664 -0.8299273 2.7981489 -0.88559395 1.3768842 0.6251775 -0.33126414 -0.08923011
0.009444736 0.018212782 -0.012401536 -0.010845676 -0.042498756 0.027943479 0.040946294 0.068547964
-0.6037828 -1.4601847 -0.09324065 0.52133983 -0.07527797 -0.64935565 -0.5237657 -0.41530508
0.4285971 0.060173992 0.5339536 0.43432564 -0.44161496 -0.23375876 0.23244512 1.0671885
0.53694934 0.71553624 -0.8133161 -0.027833719 -0.10728762 0.5689677 1.4864666 0.25410202
-0.19560017 -0.34586054 0.3280088 0.2684939 0.032497372 0.29853904 -0.13663201 -0.31736887
0.24167445 0.33588645 -0.00053773343 -0.06831015 0.20945546 -0.23665771 0.41194153 1.1758207
-0.23568717 0.2272705 0.09570979 0.031026432 0.16626371 0.18917441 0.84682333 0.19624306
0.081201464 0.10232342 0.12653275 0.22571237 0.8952329 0.08517608 0.1215958 -0.81704754
-0.5174524 0.31903768 -1.0913191 -0.070669666 0.036719125 -0.43032694 -0.21498269 0.15775919
00000000: 3590 47be 6235 5e3c 06df 4a3f b58d 083a
00000010: cc20 43c0 b28c 8a3e 47f1 1dc0 92b2 5abf
00000020: 50b8 0e3f d991 17c0 204c a8bf 8056 80c0
00000030: a16c 1d40 e178 a5be d915 8e40 aa86 0dbf
00000040: 2a0a a83f 574d 94bf 307f 78be 6140 ac3e
00000050: 2d82 543f 6c62 333d d40a d5bf 75da 1540
00000060: 8e4b e9bf cf72 43bf 8b68 babf 1770 61be
00000070: dfcd db3e efde 30be b7a2 c13e 8758 c13e
00000080: b252 7d3e 7783 1bbf 56c1 263e 4731 cfbe
00000090: d5e7 babd 86a2 b7be 31ad 9fbc 499a 32bd
000000a0: abf9 f1be a683 d5be 3b4a 6b3f 8e87 17bd
000000b0: baf2 10be c9cb d9bc b746 053d 06b4 f73c
000000c0: 095d bbbc 53e6 f3ba 0019 073d ecfe 513d
000000d0: beab a73c 724a e43b 57a1 0d3d cced 4cbd
000000e0: 5f17 753e c377 b03f 4cb4 a63f ce59 0540
000000f0: 6dca 77be 270f 22c0 c2ef 2abd 7587 633b
00000100: a8a6 543c ae16 723e 0100 6b3e 42cf f4be
00000110: 6c9b 93bf e03a 5740 9394 a73f 77bf 64c0
00000120: a802 8fbf c8cb 2b3e 1d04 f23c 33de ce3e
00000130: dc59 083e e29c 9abe 354a 803e 7d07 a3bf
00000140: b45a 563f ac17 e73e 73e5 42bf b19d 233f
00000150: ca0f babb c2f1 5d3d 9b2b 5fbe d62f 023e
00000160: d29d 2440 4086 2c40 f811 e0bd 65cd 0140
00000170: 8fb0 82be 32e8 3e3e 32ed 87bd 2884 e4be
00000180: 85cb 8d3b baf7 44c0 4d46 e53f 1970 6e40
00000190: 4e64 a03f 62bf 6e40 0a97 9b3f 1947 11bd
000001a0: 2601 84bd 38f2 01bf 546e b6bd d0ae 88c0
000001b0: 46b5 b63e 76da ec3f 5029 0740 b056 dd3f
000001c0: 31a7 0a40 d9f7 233d 77e7 a33c 29b0 1bbf
000001d0: 0a66 cd3e 01ef 853f 2436 b9be f625 f13f
000001e0: 63f9 31bf 20c4 2140 9b7f c6be 43c0 d13e
000001f0: 32b5 84bd fb09 b6be b3a9 28be 139e 923f
00000200: adb8 cebf b89b 0c40 2bac 39bf b042 2e40
00000210: 7e0c 32bf 26ef 3d3e f4d0 b03c eed1 9abe
00000220: 16f1 7cbe cc74 653f 8142 dfbf 14e1 bf3f
00000230: 4394 2fbf 8b8d f33f ea55 1abf 0325 2e3e
00000240: 348a 7cbd 2b1d 2cbf aad1 123e 8621 b43f
00000250: 534e 4fbf 6721 6e40 e109 07bd f65c 80c0
00000260: 0b1e 9d3d 0dc2 d5be e194 4d3c a233 03c0
00000270: d40d 05be f9fe 97bf d2d6 fdbf e5ae cb3f
00000280: 884f aebf cf3c 57c0 7af7 033f 8315 fcbf
00000290: 51b0 bfbc 74aa ee3d 6290 35be f9c2 7fbe
000002a0: 7d44 a5be a816 26bc b02d 07bf 7646 413e
000002b0: 372e e83e 7e6e e23d 696b 7dbd 3ce5 cbbf
000002c0: 0c69 3fbf 1e76 54bf df14 3340 49b6 62bf
000002d0: be3d b03f a20b 203f 749b a9be 47be b6bd
000002e0: 18be 1a3c f932 953c d02f 4bbc 10b2 31bc
000002f0: 2d13 2ebd b9e9 e43c 4db7 273d e062 8c3d
00000300: 8291 1abf 55e7 babf f4f4 bebd 8776 053f
00000310: 562b 9abd 2c3c 26bf 8215 06bf dea2 d4be
00000320: 1471 db3e 0179 763d 2fb1 083f ee5f de3e
00000330: 5b1b e2be 755e 6fbe 1806 6e3e a299 883f
00000340: 8375 093f 622d 373f 7c35 50bf 8a03 e4bc
00000350: 9db9 dbbd dea7 113f 8a44 be3f a919 823e
00000360: 694b 48be a214 b1be c5f0 a73e 0878 893e
00000370: f71b 053d 1cda 983e 43e9 0bbe 2c7e a2be
00000380: 8279 773e 4ff9 ab3e aef6 0cba 31e6 8bbd
00000390: 7e7b 563e 6656 72be 00ea d23e 4b81 963f
000003a0: fa57 71be 99b9 683e 7f03 c43d 252b fe3c
000003b0: 0941 2a3e f0b6 413e 6ac9 583f f1f3 483e
000003c0: f44c a63d f18e d13d cd91 013e 2521 673e
000003d0: fc2d 653f cc70 ae3d 3807 f93d 072a 51bf
000003e0: c377 04bf e858 a33e 58b0 8bbf 42bb 90bd
000003f0: cb66 163d d053 dcbe 6c24 5cbe a08b 213e

a_net.0.bias f4 [256]
0.017112276 -0.23968872 -0.33802623 0.07992119 -0.2321501 -0.32229856 -0.46342263 -0.37862518
0.006224434 -0.11634233 -0.2588879 -0.11430261 -0.24172105 -0.21307942 -0.2520962 -0.3327664
-0.012046116 -0.4407336 -0.051320583 -0.21596071 -0.24810287 -0.2996898 -0.048282716 -0.5096854
-0.38059294 -0.2881661 -0.27305517 -0.2636249 -0.5643665 -0.19831878 -0.2513424 -0.10624601
-0.02687578 -0.32701236 -0.2636689 -0.05243197 -0.3541236 -0.12774731 -0.38400015 -0.3064778
0.056139745 -0.21314271 -0.06138489 -0.16924481 0.17432474 -0.37850043 -0.27982512 -0.023070766
-0.28713277 0.0035855921 -0.2876332 -0.15497006 -0.408772 -0.14043131 -0.13200767 -0.3379065
-0.37575018 -0.17561862 -0.32493213 -0.3313799 -0.17406368 -0.24703373 0.09433877 -0.39510465
0.11994821 -0.42078272 -0.30808935 -0.09062733 -0.1955726 -0.2241734 -0.5099515 0.02412012
-0.4508394 -0.20982777 -0.07610595 0.032470793 -0.31081724 -0.15647553 -0.24471244 -0.07971831
-0.24741557 -0.08036468 -0.17316821 -0.35453275 0.055449203 -0.441825 -0.38417262 -0.24883988
-0.33573854 -0.34376127 0.015170636 -0.33695218 -0.1335486 -0.12081551 0.05320831 -0.29169977
-0.5093936 -0.31425053 -0.29374418 -0.45433635 0.017209025 -0.15806267 -0.30214968 -0.2619464
-0.23270018 0.11957034 -0.28100145 -0.29919243 -0.18837099 -0.28458014 0.27291808 0.09724816
-0.2669472 -0.4687197 -0.32405886 -0.0449701 -0.19726747 -0.25986356 -0.53400123 -0.2591434
-0.2636162 -0.30382875 -0.2538051 -0.18279576 -0.4292874 -0.18137814 -0.13981284 -0.21090959
-0.23231947 -0.22670332 -0.3368498 -0.22607906 -0.42493767 -0.2808072 -0.30103967 -0.23823185
-0.24440706 -0.16320735 -0.13174185 -0.23366803 -0.36618435 -0.2553714 -0.51705116 -0.21164063
-0.19074097 -0.28992867 -0.31173834 -0.28459257 0.14903133 -0.14650153 -0.16614515 0.14217754
-0.19068155 -0.29042268 -0.08762228 -0.041862648 -0.34766936 -0.4701042 -0.07752775 -0.22650668
-0.25427634 0.023049423 -0.3711819 -0.07579336 -0.063407555 -0.093550734 -0.16293572 -0.36181635
-0.08107203 -0.31440285 -0.0033701274 -0.32555583 -0.39395148 -0.3610823 -0.29860404 -0.38652363
-0.4387321 -0.18146797 -0.16873385 -0.39066288 -0.21341899 -0.3627476 -0.3090138 -0.15176098
-0.27515426 -0.46064207 -0.3125703 -0.2742155 -0.27177984 -0.5579122 -0.20863944 -0.3773346
-0.12055698 -0.31880063 -0.10542382 -0.22550015 -0.23348728 -0.24459039 -0.04532126 -0.094172694
-0.20412621 -0.19746204 -0.2827563 -0.21329644 -0.19182654 -0.21066959 0.12806381 -0.0003849295
-0.42395064 -0.58524513 -0.22526501 -0.26105514 0.10041464 -0.18809187 -0.1849737 -0.08011859
-0.17089936 -0.28344867 -0.0088504255 -0.028465237 -0.05320207 -0.25100946 -0.35860953 -0.30082577
-0.48671094 -0.40839258 -0.38249364 -0.2591551 -0.18920127 -0.08409365 0.056428555 -0.1577213
-0.049785048 -0.35785225 -0.06275488 -0.045699917 -0.26006672 -0.18757199 -0.35271075 -0.44466808
-0.24943537 -0.10335597 -0.11623396 -0.24712545 -0.09498997 -0.22298351 -0.20680378 -0.50029206
-0.08539881 -0.20296532 -0.11560929 0.15649109 -0.4508642 -0.43775317 0.11374639 -0.26368594
00000000: 0b2f 8c3c f670 75be c611 adbe b9ad a33d
00000010: c1b8 6dbe 5104 a5be bb45 edbe 29db c1be
00000020: 56f6 cb3b e344 eebd f48c 84be 7d17 eabd
00000030: b985 77be 7e31 5abe c112 81be 5c60 aabe
00000040: 135d 45bc d6a7 e1be 8835 52bd ce24 5dbe
00000050: ae0e 7ebe f170 99be 19c4 45bd be7a 02bf
00000060: 14dd c2be 828a 93be e3cd 8bbe d8f9 86be
00000070: 537a 10bf 1414 4bbe f3af 80be 8297 d9bd
00000080: 992a dcbc 2a6e a7be 9cff 86be e8c2 56bd
00000090: b04f b5be 31d0 02be ab9b c4be a8ea 9cbe
000000a0: caf2 653d 1542 5abe b96e 7bbd 834e 2dbe
000000b0: 2f82 323e cfca c1be 3d45 8fbe e7fe bcbc
000000c0: 1103 93be 41fc 6a3b a944 93be 79b0 1ebe
000000d0: 904a d1be 3acd 0fbe 052d 07be 1502 adbe
000000e0: 5462 c0be 5ed5 33be 815d a6be a0aa a9be
000000f0: c03d 32be 69f6 7cbe af34 c13d 284b cabe
00000100: 68a7 f53d d570 d7be e3bd 9dbe d29a b9bd
00000110: 2f44 48be b68d 65be 2e8c 02bf 8f97 c53c
00000120: 6cd4 e6be 17dd 56be 70dd 9bbd 1800 053d
00000130: 7023 9fbe 1f3b 20be e695 7abe 5a43 a3bd
00000140: 825a 7dbe 3d96 a4bd 0253 31be 5185 b5be
00000150: b41e 633d e336 e2be 46b2 c4be e2cf 7ebe
00000160: ece5 abbe 7a01 b0be 428e 783c ff84 acbe
00000170: f7c0 08be 1f6e f7bd f5f0 593d ac59 95be
00000180: 9e67 02bf 72e5 a0be a365 96be c69e e8be
00000190: f1f9 8c3c 2edb 21be 5db3 9abe d71d 86be
000001a0: f548 6ebe 4be1 f43d 6cdf 8fbe c02f 99be
000001b0: 53e4 40be 7db4 91be ebbb 8b3e 0b2a c73d
000001c0: 4ead 88be 07fc efbe 0beb a5be 9132 38bd
000001d0: 7c00 4abe d60c 85be 4eb4 08bf 72ae 84be
000001e0: b4f8 86be 718f 9bbe bef2 81be d02e 3bbe
000001f0: 8fcb dbbe 31bb 39be 192b 0fbe aff8 57be
00000200: 28e5 6dbe ea24 68be 9477 acbe 4581 67be
00000210: 6e91 d9be f6c5 8fbe df21 9abe 0df3 73be
00000220: d845 7abe d41f 27be 56e7 06be ac46 6fbe
00000230: 847c bbbe 0ac0 82be 775d 04bf 52b8 58be
00000240: 9a51 43be 8871 94be 2b9c 9fbe 1eb6 91be
00000250: ab9b 183e 7f04 16be f421 2abe fd96 113e
00000260: 0642 43be 48b2 94be 4f73 b3bd 2b78 2bbd
00000270: b801 b2be 7fb1 f0be dec6 9ebd 5ef1 67be
00000280: 8230 82be 25d2 bc3c 8e0b bebe 8d39 9bbd
00000290: d2db 81bd 8797 bfbd 9fd8 26be fe3f b9be
000002a0: 1809 a6bd 69f9 a0be 5bdd 5cbb 41af a6be
000002b0: 02b4 c9be c7df b8be a1e2 98be 6de6 c5be
000002c0: 7ea1 e0be bdd2 39be 91c8 2cbe f704 c8be
000002d0: 828a 5abe 0eba b9be 0f37 9ebe 3b67 1bbe
000002e0: 05e1 8cbe 47d9 ebbe 3709 a0be f965 8cbe
000002f0: ba26 8bbe 55d3 0ebf 94a5 55be 0032 c1be
00000300: 94e6 f6bd d639 a3be 72e8 d7bd 83e9 66be
00000310: 4a17 6fbe e775 7abe c9a2 39bd 9ddd c0bd
00000320: 7606 51be 7d33 4abe 6fc5 90be 626a 5abe
00000330: 2d6e 44be c5b9 57be 2923 033e 5dd0 c9b9
00000340: 0f10 d9be a0d2 15bf dfab 66be 05a9 85be
00000350: 31a6 cd3d 289b 40be bf69 3dbe 3715 a4bd
00000360: 3e00 2fbe 2f20 91be 6001 11bc ee2f e9bc
00000370: 6aea 59bd 5084 80be ab9b b7be d605 9abe
00000380: 2d32 f9be d518 d1be 35d6 c3be faaf 84be
00000390: fabd 41be 4b39 acbd a121 673d b181 21be
000003a0: 68eb 4bbd 6938 b7be a185 80bd d62f 3bbd
000003b0: 7727 85be df12 40be 8196 b4be 89ab e3be
000003c0: fc6b 7fbe 4bac d3bd 120c eebd 740e 7dbe
000003d0: 1a8a c2bd ca55 64be 5fc4 53be 2413 00bf
000003e0: 92e5 aebd 24d6 4fbe 90c4 ecbd 333f 203e
000003f0: acd7 e6be 2f21 e0be def3 e83d d801 87be

a_net.2.weight f4 [256, 256]
-0.088585995 0.36847585 -0.10385661 0.0057829795 -0.29698053 0.58972293 -0.08965216 -0.06268003
0.06161463 -0.39539886 -0.2249317 -0.0028396272 -0.04969687 -0.12211631 -0.10963045 -0.04944173
-0.27468014 0.06346471 0.12233897 0.05291404 0.045172922 0.07563013 -0.031354517 -0.15650496
0.1521016 -0.029721694 -0.21392633 0.019840674 -0.16197921 0.030452112 0.14775138 0.10477185
0.05276473 -0.080798686 0.28212377 -0.078152195 -0.27224633 -0.2968562 -0.13392225 0.12150925
-0.33985826 -0.029792009 0.07486087 -0.060563628 -0.24917942 -0.23791866 0.2570504 0.06900459
-0.0053279637 -0.037566137 -0.5231028 0.16994518 -0.12809893 -0.24487944 0.19911042 -0.25300926
-0.77801836 0.022154922 -0.24279766 -0.12318528 -0.07761699 -0.49350896 0.047524456 -0.044441354
0.19815157 -0.15128987 -0.013940737 0.11860867 0.06600373 -0.023855904 0.13749753 -0.56394833
-0.15029271 -0.9295103 -0.10574335 -0.36623916 -0.3280264 0.0707624 -0.09944793 -0.30708805
-0.03527624 -0.037414037 -0.18591227 -1.112878 -0.024819285 0.0980752 0.11142586 -0.11081713
0.35702345 0.27213392 0.0839253 -0.038949046 0.010735119 -0.0897026 -0.07717209 -0.0015237111
-0.133958 -0.07069798 -0.5465266 -0.12509121 -0.17413169 0.12710899 0.20261954 -0.28403604
0.16744529 0.02303265 -0.04515684 -0.54676205 -0.17651753 -0.115335405 0.025547897 -0.009067135
-0.16623886 0.08247986 -0.4892098 -0.08126851 -0.2016928 0.19393383 0.33064026 -0.10681803
-0.100375205 -0.25290266 0.06842891 0.012284153 0.1556368 -0.3132362 0.22510764 -0.19337612
-0.006859593 0.49040556 0.04885932 -0.18557793 -0.53037477 0.3391793 -0.13190392 -0.13373482
0.32656953 0.111560814 -0.29697695 0.06482289 0.070158385 -0.3096397 -0.029149935 -0.16412775
-0.21394458 -0.24277635 0.025168406 -0.28000045 -0.5863227 -0.11919655 0.04337324 0.12991825
-0.07135244 -0.38683414 -0.11194259 -0.008592158 0.369853 -0.0027235276 -0.36800054 -0.34652835
0.18284649 0.55508757 -0.0030563744 -0.1155622 0.44503605 0.09968987 0.012191326 -0.38609946
-0.012286154 -0.065743886 0.28217295 0.15560308 0.20367663 -0.3074845 -0.08308636 0.17053978
0.18160959 -0.3543433 -0.025011884 -0.68774164 -0.37069345 0.1138898 -0.10032274 0.037201624
0.0050705746 -0.46060392 -0.12889566 -0.1895114 -0.095232 -0.39555213 -0.27483037 -0.23184747
-0.03658257 0.19402035 0.24825597 0.102649026 -0.17799014 -0.023300428 -0.005327852 0.013214139
0.13565838 -0.017403511 0.08943601 0.15647663 -0.4355808 0.48950502 -0.12988548 0.08085126
-0.5544248 -0.20052762 0.11610617 -0.5097499 0.09778128 0.16869435 -0.17276931 -0.08916324
-0.014190658 -0.090964444 -0.062306512 0.29219913 -0.268975 0.001285533 0.15297271 0.09906193
-0.20320249 0.3558949 -0.11601154 0.016862623 0.073011994 -0.051045936 0.32097903 -0.06569454
0.34536046 -0.5129756 -0.39137203 0.07896424 0.013807988 -0.14794524 0.107168615 0.13424094
0.20595273 0.014753797 -0.53918755 -0.090025984 0.004208068 0.07087818 -0.24985081 -0.39064905
0.0072789784 0.15519597 0.04901407 -0.13136803 0.013122928 0.287806 -0.18217276 0.18527827
00000000: 936c b5bd dea8 bc3e c6b2 d4bd 267f bd3b
00000010: d50d 98be 15f8 163f 8d9b b7bd 635e 80bd
00000020: 9f5f 7c3d b871 cabe 7f54 66be 0a19 3abb
00000030: f28e 4bbd 1e18 fabd ee85 e0bd 6983 4abd
00000040: e0a2 8cbe c9f9 813d db8c fa3d 64bc 583d
00000050: 3e07 393d f8e3 9a3d 986d 00bd d642 20be
00000060: 86c0 1b3e e97a f3bc 810f 5bbe e988 a23c
00000070: e1dd 25be b576 f93c 234c 173e a092 d63d
00000080: d41f 583d c879 a5bd 8772 903e 420e a0bd
00000090: df63 8bbe 89fd 97be ea22 09be d7d9 f83d
000000a0: e701 aebe 5f0e f4bc a850 993d 9111 78bd
000000b0: e428 7fbe f3a0 73be 1c9c 833e 4752 8d3d
000000c0: 3396 aebb f3de 19bd 11ea 05bf 1c06 2e3e
000000d0: 5e2c 03be adc1 7abe 9ae3 4b3e 6e8a 81be
000000e0: 362c 47bf 3d7e b53c f39f 78be 9048 fcbd
000000f0: a8f5 9ebd 35ad fcbe 01a9 423d 2308 36bd
00000100: 3fe8 4a3e bbeb 1abe b067 64bc 1ae9 f23d
00000110: f72c 873d 756d c3bc 27cc 0c3e eb5e 10bf
00000120: 55e6 19be 63f4 6dbf f88f d8bd b383 bbbe
00000130: 14f3 a7be e1eb 903d 5bab cbbd a53a 9dbe
00000140: d27d 10bd 763f 19bd c95f 3ebe c972 8ebf
00000150: d051 cbbc a7db c83d 3e33 e43d 17f4 e2bd
00000160: c7cb b63e 2355 8b3e 07e1 ab3d 0989 1fbd
00000170: 5ae2 2f3c ffb5 b7bd 670c 9ebd 43b7 c7ba
00000180: 492c 09be 1aca 90bd 2be9 0bbf e917 00be
00000190: 944f 32be dc28 023e 7f7b 4f3e 2c6d 91be
000001a0: c776 2b3e f8ae bc3c 61f6 38bd 99f8 0bbf
000001b0: 03c1 34be f834 ecbd d349 d13c 528e 14bc
000001c0: 853a 2abe 33eb a83d b579 fabe 1b70 a6bd
000001d0: 8f88 4ebe 9796 463e ae49 a93e 69c3 dabd
000001e0: 8491 cdbd 757c 81be 7524 8c3d 7943 493c
000001f0: 415f 1f3e 7f60 a0be 9e82 663e 6404 46be
00000200: 70c6 e0bb 7016 fb3e b620 483d 2408 3ebe
00000210: a4c6 07bf e9a8 ad3e d211 07be c8f1 08be
00000220: 1f34 a73e ff79 e43d 5d0d 98be ddc1 843d
00000230: 33af 8f3d 1889 9ebe d8cb eebc 1b11 28be
00000240: 4a14 5bbe 5d9a 78be f92d ce3c 385c 8fbe
00000250: 3f19 16bf 521d f4bd 23a8 313d 4a09 053e
00000260: 3a21 92bd 200f c6be 2842 e5bd 1fc6 0cbc
00000270: 5f5d bd3e 367d 32bb 916a bcbe 2a6c b1be
00000280: 1c3c 3b3e 381a 0e3f 744d 48bb e0ab ecbd
00000290: c4db e33e 342a cc3d 21be 473c d4ae c5be
000002a0: dd4b 49bc bba4 86bd f978 903e 6a56 1f3e
000002b0: 9b90 503e 9c6e 9dbe 2e29 aabd fba1 2e3e
000002c0: ddf7 393e 7c6c b5be b9e5 ccbc d60f 30bf
000002d0: 88cb bdbe 0e3f e93d 0276 cdbd bb60 183d
000002e0: 1027 a63b 47d4 ebbe 39fd 03be 470f 42be
000002f0: ff08 c3bd cf85 cabe 91b6 8cbe 6c69 6dbe
00000300: 9bd7 15bd 45ad 463e d036 7e3e a739 d23d
00000310: 0c43 36be 8ae0 bebc 4395 aebb 1e80 583c
00000320: 08ea 0a3e cf91 8ebc 3a2a b73d 693b 203e
00000330: 7204 dfbe 67a0 fa3e b300 05be 5895 a53d
00000340: c9ee 0dbf 1d57 4dbe 12c9 ed3d f87e 02bf
00000350: 8d41 c83d 36be 2c3e 70ea 30be 379b b6bd
00000360: ef7f 68bc 914b babd 1d35 7fbd 209b 953e
00000370: 17b7 89be 547f a83a e1a4 1c3e fbe0 ca3d
00000380: 5014 50be db37 b63e 7597 edbd 7c23 8a3c
00000390: 5087 953d 8b15 51bd 5d57 a43e dc8a 86bd
000003a0: 16d3 b03e 5e52 03bf ea61 c8be 01b8 a13d
000003b0: e63a 623c f57e 17be 387b db3d 7576 093e
000003c0: 46e5 523e e9b9 713c 3208 0abf 8b5f b8bd
000003d0: d5e3 893b 9428 913d e4d8 7fbe 2703 c8be
000003e0: 7f84 ee3b b1eb 1e3e fac2 483d 5785 06be
000003f0: 8d01 573c 4f5b 933e 7f8b 3abe 96b9 3d3e

a_net.2.bias f4 [256]
-0.42736128 0.7350289 0.41279185 -0.3430766 -0.27329487 -0.040689 1.5421603 0.25408402
-0.023669701 0.24942878 0.5970245 0.44701043 -0.34061915 -0.18189023 -0.23832414 0.08594046
0.24279356 -0.51010674 0.078914545 -0.08466758 -0.17450288 -0.11614087 -0.14974876 0.9399962
-0.20146307 -0.11702001 -0.4675487 -0.36201257 -0.14354335 -0.06337859 0.38879097 -0.07219564
0.031530652 0.015466433 -0.06097633 0.25706762 -0.083132036 0.012700081 -0.022749428 0.019939825
-0.16452721 -0.29622528 -0.42083892 -0.09445911 -0.24363965 -0.113598935 0.56879103 -0.5299956
-1.3464186 -0.048684444 0.30004877 0.24200909 -0.82680726 -0.22317274 -0.31441772 0.631276
-0.7183864 0.22836651 0.10537307 -0.25686687 2.254404 -0.10531613 0.3190827 -0.13020968
0.7617671 0.15166503 -0.116454065 0.038829293 0.54063517 -0.019853113 0.37229115 0.5265444
-0.44457442 -0.100402266 0.1699447 -0.0036907024 -0.024213295 -0.32319823 -0.084483825 0.1939207
-0.31755716 0.9341209 0.7664126 -0.09896917 -0.67828286 -0.19295502 -0.20749605 0.46347472
-0.026622487 0.085591115 1.1019691 0.084331445 -1.2306021 1.554399 0.019678412 0.15833898
0.48861519 -0.6829273 0.13715513 -0.083783336 -0.38229802 -0.09317193 -0.018362684 -0.79051775
0.503237 0.1641029 0.70870763 -0.60626715 0.024441577 0.50965667 -0.041538198 -0.079990976
1.5787354 -0.06689064 0.31439194 -0.8580306 -1.3519181 0.54694223 -0.3320884 -0.0052036336
0.5821397 0.55249447 0.19334957 -0.14017276 0.39183667 -0.005722887 0.19693828 -0.11390386
0.5206033 -0.49547726 0.40781212 0.21695119 -0.7794482 0.42100018 0.14761746 -0.22617908
1.1421442 -0.41627058 0.8547061 -0.0061247353 -0.25356385 -0.65590477 0.2438077 -1.046032
0.0367216 -0.08884589 0.4765567 2.6217253 -0.28755927 -0.41385123 -0.17973883 0.037464283
-0.08012691 -0.6674607 -0.32223743 -0.02431316 0.0807575 0.37763622 -0.08472953 -0.20062612
-0.09440023 -0.1966676 -0.114019334 -0.20304222 -0.5842254 0.024113929 -0.21410723 1.015533
-0.12935491 -0.037109237 0.7216112 0.4187114 0.017751038 -0.111896 0.0036261934 0.36307883
0.29951373 -0.77873135 -0.29339114 -0.29887757 0.025663776 0.45718458 -0.15734525 -0.24746473
-0.25419638 -0.2305101 0.14719956 0.5078362 0.07743802 -0.015378566 -0.0023312573 2.0249088
-0.13299489 2.1273494 0.1043537 0.049434144 -0.32165313 1.0361989 -0.13077652 -0.33681878
-0.4384097 -0.1545139 -0.8762615 0.5495191 -0.39038268 -0.7147115 -0.64326787 -0.13173509
-0.21818013 -0.7006949 0.085208826 -0.06140165 0.051413596 -0.36647317 0.04494891 -0.3152097
1.3662909 -0.24958995 -0.6700989 0.0049332604 -0.28237396 -0.19386885 -0.095572 -0.9180075
0.8160908 -0.198127 -0.5962839 0.21545362 -0.17545834 -0.11130068 -0.76668644 0.09457861
-0.25231105 -0.33352873 0.6145401 0.9590096 -1.2319049 1.2041597 0.66033053 0.4558475
0.11570316 0.29850003 -0.031012794 -1.1331623 -0.05856182 -0.25443712 -0.12695174 0.28195766
-0.043198004 0.494268 -0.35267398 1.5586921 -0.11774769 0.9872783 -0.14097401 0.6469404
00000000: 19cf dabe db2a 3c3f 7459 d33e bca7 afbe
00000010: 4eed 8bbe 82a9 26bd 8265 c53f 4d17 823e
00000020: f6e6 c1bc 426a 7f3e 99d6 183f 8dde e43e
00000030: a265 aebe 6f41 3abe 3e0b 74be 8d01 b03d
00000040: e09e 783e 5b96 02bf f39d a13d 3266 adbd
00000050: e2b0 32be 44db edbd bd57 19be 97a3 703f
00000060: 564c 4ebe 30a8 efbd 8b62 efbe b659 b9be
00000070: 07fd 12be a2cc 81bd 9c0f c73e 4fdb 93bd
00000080: 4926 013d ec66 7d3c 51c2 79bd 5e9e 833e
00000090: 2141 aabd 0014 503c 025d babc d858 a33c
000000a0: d279 28be d7aa 97be 3378 d7be c773 c1bd
000000b0: ac7c 79be 8fa6 e8bd 4a9c 113f cbad 07bf
000000c0: 7257 acbf 5769 47bd fe9f 993e 3bd1 773e
000000d0: a4a9 53bf 6587 64be 5cfb a0be 4e9b 213f
000000e0: 2ce8 37bf e9d8 693e d6cd d73d 0e84 83be
000000f0: 2848 1040 fcaf d7bd cf5e a33e b055 05be
00000100: 2b03 433f 144e 1b3e 787f eebd 770b 1f3d
00000110: 1167 0a3f ffa2 a2bc f29c be3e 9dcb 063f
00000120: 429f e3be b49f cdbd fc05 2e3e b6df 71bb
00000130: f65a c6bc 3d7a a5be db05 adbd 2693 463e
00000140: da96 a2be 8c22 6f3f 9e33 443f 59b0 cabd
00000150: f2a3 2dbf 0096 45be d879 54be 8f4c ed3e
00000160: 6717 dabc 654a af3d 530d 8d3f f7b5 ac3d
00000170: 5f84 9dbf 8cf6 c63f 9f34 a13c 9d23 223e
00000180: c52b fa3e 53d4 2ebf 6572 0c3e 9996 abbd
00000190: 91bc c3be edd0 bebd 576d 96bc 5f5f 4abf
000001a0: 24d4 003f 970a 283e dd6d 353f 5334 1bbf
000001b0: b439 c83c dc78 023f f523 2abd 4fd2 a3bd
000001c0: 0014 ca3f f6fd 88bd fbf7 a03e e5a7 5bbf
000001d0: a70b adbf 6804 0c3f 7e07 aabe 3e83 aabb
000001e0: 1b07 153f 4770 0d3f 6efd 453e 7389 0fbe
000001f0: d19e c83e 0e87 bbbb 30aa 493e 6d46 e9bd
00000200: 4246 053f 32af fdbe c0cc d03e 7428 5e3e
00000210: eb89 47bf 568d d73e 0829 173e 7d9b 67be
00000220: c831 923f 6b21 d5be 05ce 5a3f 01b2 c8bb
00000230: 1fd3 81be 60e9 27bf baa8 793e 60e4 85bf
00000240: 6369 163d d5f4 b5bd 3dff f33e 59ca 2740
00000250: f83a 93be 4fe4 d3be 750d 38be 2674 193d
00000260: 9419 a4bd b4de 2abf 4efc a4be 642c c7bc
00000270: 3064 a53d 8959 c13e ad86 adbd ef70 4dbe
00000280: e854 c1bd 3b63 49be f882 e9bd 4dea 4fbe
00000290: cc8f 15bf 938a c53c ed3e 5bbe fcfc 813f
000002a0: 9d75 04be dbff 17bd 83bb 383f 5761 d63e
000002b0: a06a 913c bb29 e5bd 6ea5 6d3b 78e5 b93e
000002c0: dd59 993e f05a 47bf 5d37 96be 7b06 99be
000002d0: d73c d23c 1914 ea3e 1d1f 21be 6567 7dbe
000002e0: 0726 82be d70a 6cbe 7bbb 163e 8e01 023f
000002f0: d397 9e3d 62f6 7bbc 02c8 18bb 1b98 0140
00000300: d02f 08be 7e26 0840 65b7 d53d 757b 4a3d
00000310: b8af a4be 2aa2 843f 48ea 05be 8373 acbe
00000320: 3c77 e0be e438 1ebe ac52 60bf 49ad 0c3f
00000330: 3de0 c7be 55f7 36bf 34ad 24bf 90e5 06be
00000340: 9d6a 5fbe be60 33bf f781 ae3d 4c80 7bbd
00000350: 1097 523d 5fa2 bbbe 591c 383d 2a63 a1be
00000360: 9fe2 ae3f 8294 7fbe 9a8b 2bbf 30a7 a13b
00000370: 5293 90be 8e85 46be 41bb c3bd 8a02 6bbf
00000380: 54eb 503f cee1 4abe 10a6 18bf e09f 5c3e
00000390: 5aab 33be 9cf1 e3bd 9045 44bf 6eb2 c13d
000003a0: ea2e 81be 47c4 aabe 8052 1d3f a781 753f
000003b0: 0faf 9dbf e821 9a3f 6c0b 293f d864 e93e
000003c0: c7f5 ec3d ffd4 983e 8b0e febc 760b 91bf
000003d0: 85de 6fbd 9545 82be a3ff 01be c15c 903e
000003e0: 64f0 30bd b210 fd3e af91 b4be 3983 c73f
000003f0: b325 f1bd 45be 7c3f 7e5b 10be e39d 253f

mu_layer.weight f4 [17, 256]
0.039222777 0.04960082 -0.014801319 0.07415346 -0.1920479 -0.18402067 0.026754545 -0.087272994
-0.039496277 0.0339984 -0.04071698 0.061441198 -0.19308822 -0.034389585 0.015984038 0.13755886
0.07094426 0.0023938518 -0.06453643 -0.021874808 0.06966279 -0.07948324 -0.15493079 -0.1567054
-0.17230043 -0.212614 -0.16736056 0.031607673 0.014227145 0.096904166 0.013927207 -0.02286362
0.032381825 -0.0045295334 -0.051149454 -0.016628386 0.036632404 -0.11100467 0.04909623 0.03315819
-0.066374086 -0.037897613 0.032873802 0.009349237 -0.16300157 -0.06585107 0.05581533 0.0036266907
0.055908233 0.06625341 0.011012229 -0.21635461 -0.06287874 -0.04319858 -0.25933272 0.01813243
-0.028627247 -0.03713516 -0.042151038 -0.07857718 0.025825275 -0.009935521 -0.08211926 -0.0023575714
-0.0138637815 -0.007881984 -0.08572316 0.07990034 0.025408976 -0.12539132 0.06111715 0.016949017
0.45232043 0.06437121 0.029428437 0.023714505 0.11498828 0.09581434 -0.0021951387 -0.043661125
0.008067055 0.00067094597 0.0027156642 -0.11485402 0.072965 -0.10779554 -0.009163607 -0.06310161
0.038199373 -0.01962992 -0.020861728 0.02361303 0.033103276 0.020444239 -0.1517945 -0.17797531
0.1134484 0.016298996 -0.012042199 -0.16807319 -0.14614807 -0.045624606 -0.07267071 0.038580082
0.06961994 -0.01639379 -0.03283866 0.019538205 0.05079828 0.010157528 0.05713938 -0.11921523
0.006312053 -0.011319271 -0.07414331 -0.028584542 -0.008439749 -0.0097069815 -0.1520713 0.036315177
-0.021738566 -0.0058697592 0.04781311 0.006684036 -0.022804061 0.017292002 -0.24241726 -0.18204401
0.037941415 -0.054541964 -0.00955239 0.13294503 -0.03556904 0.05927682 0.085314274 0.025954686
-0.008879663 -0.2654995 0.09926157 -0.005749094 0.106639184 0.037540097 -0.04773376 0.021702403
-0.069525145 -0.10705867 0.036928177 0.02601361 0.12364365 -0.17118385 -0.0738325 -0.026452614
-0.13885789 -0.1119838 -0.042401362 0.28685027 0.05419468 0.0004249753 -0.02827957 0.02191034
-0.17612544 -0.113785796 -0.092309214 -0.12926693 0.0012625358 0.18109563 0.0116326725 -0.03283031
0.0093156155 -0.036066465 0.021714563 0.052886385 -0.06785628 -0.20356372 -0.01230427 0.016754935
0.044608437 -0.12743478 0.049940392 -0.09715011 0.0032909166 0.027189301 0.04092354 0.04446046
-0.032442123 0.08990916 -0.28279147 -0.008139181 -0.021101264 0.006060718 -0.033459112 0.036174424
0.1594492 -0.008195612 -0.06655348 -0.05683155 -0.0056402977 -0.043335058 -0.19598888 -0.22108692
-0.077390105 -0.27444467 0.08255618 -0.0043025017 0.012293771 -0.09856345 0.018574994 -0.008391929
-0.13945451 0.012885353 0.0029975807 -0.07403739 0.13394773 0.054902773 -0.16769524 -0.014836399
0.0069429637 -0.21948591 0.029055918 0.14111997 -0.07250147 0.004098311 -0.059014402 0.00015190514
0.0033102762 -0.014693864 0.011298168 -0.00934462 0.14311266 0.089298405 0.012542022 0.018776102
-0.03792173 0.00035307073 -0.014991533 -0.22503401 -0.0269263 -0.020805184 0.01934266 -0.11089365
-0.10305738 -0.008056781 0.039835688 0.019036967 -0.06908183 -0.022839077 0.05820417 -0.051035546
-0.10526486 0.0059781875 0.04645834 -0.0008831126 -0.08578899 0.015915062 0.016121773 -0.01775477
00000000: 10a8 203d 3b2a 4b3d 3b81 72bc c5dd 973d
00000010: 34a8 44be ea6f 3cbe 592c db3c 2fbc b2bd
00000020: d9c6 21bd e841 0b3d d9c6 26bd c4a9 7b3d
00000030: ebb8 45be 18dc 0cbd f5f0 823c 3bdc 0c3e
00000040: 394b 913d 2be2 1c3b ad2b 84bd cc32 b3bc
00000050: 5dab 8e3d 1cc8 a2bd 2da6 1ebe 6177 20be
00000060: 866f 30be 7cb7 59be 9160 2bbe 0c77 013d
00000070: f918 693c b175 c63d f12e 643c 7d4c bbbc
00000080: cea2 043d 7b6c 94bb 1782 51bd 4138 88bc
00000090: dc0b 163d 6b56 e3bd 2119 493d e2d0 073d
000000a0: 23ef 87bd 873a 1bbd aea6 063d 8b2d 193c
000000b0: e2e9 26be eddc 86bd 9e9e 643d c6ad 6d3b
000000c0: 0800 653d deaf 873d a36c 343c 108c 5dbe
000000d0: 92c6 80bd fff0 30bd 42c7 84be 768a 943c
000000e0: b083 eabc 0a1b 18bd 91a6 2cbd 13ed a0bd
000000f0: 878f d33c 98c8 22bc 252e a8bd 7c81 1abb
00000100: ea24 63bc 7023 01bc a08f afbd caa2 a33d
00000110: 7c26 d03c 9566 00be fa55 7a3d aad8 8a3c
00000120: 8b96 e73e 0ed5 833d e813 f13c ec44 c23c
00000130: fa7e eb3d 4f3a c43d 51dc 0fbb 02d6 32bd
00000140: ae2b 043c 6ce2 2f3a 49f9 313b 9638 ebbd
00000150: ad6e 953d e8c3 dcbd f422 16bc 6b3b 81bd
00000160: f276 1c3d edce a0bc 37e6 aabc 1d70 c13c
00000170: 4d97 073d ad7a a73c 0470 1bbe 293f 36be
00000180: a257 e83d 7985 853c a54c 45bc 611b 2cbe
00000190: d7a7 15be dee0 3abd 62d4 94bd 2606 1e3d
000001a0: e694 8e3d 454c 86bc d581 06bd 960e a03c
000001b0: db11 503d c36b 263c fc0a 6a3d 1d27 f4bd
000001c0: 57d5 ce3b 7774 39bc 73d8 97bd 212a eabc
000001d0: df46 0abc 080a 1fbc 94b8 1bbe 39bf 143d
000001e0: 1415 b2bc 1c57 c0bb aed7 433d c205 db3b
000001f0: 95cf babc f5a7 8d3c 3b3c 78be bf69 3abe
00000200: 7568 1b3d 6567 5fbd a181 1cbc be22 083e
00000210: d7b0 11bd 40cc 723d 40b9 ae3d ec9e d43c
00000220: 027c 11bc 8def 87be a649 cb3d e562 bcbb
00000230: a565 da3d a5c3 193d 7a84 43bd 3dc9 b13c
00000240: 3363 8ebd 9341 dbbd 0042 173d 7f1a d53c
00000250: e238 fd3d d24a 2fbe 7e35 97bd 27b3 d8bc
00000260: c330 0ebe c357 e5bd 0dad 2dbd 0ade 923e
00000270: 3efb 5d3d 38cf de39 8faa e7bc 507d b33c
00000280: 3a5a 34be 8708 e9bd 9d0c bdbd 8d5e 04be
00000290: ac7b a53a 2271 393e f796 3e3c 1379 06bd
000002a0: 86a0 183c 6eba 13bd bde2 b13c 659f 583d
000002b0: 3cf8 8abd 0273 50be d997 49bc a541 893c
000002c0: 56b7 363d 437e 02be 4c8e 4c3d a3f6 c6bd
000002d0: 6bac 573b 19bc de3c 719f 273d 2c1c 363d
000002e0: 08e2 04bd 4b22 b83d 0bca 90be 335a 05bc
000002f0: 8fdc acbc fd98 c63b 6c0c 09bd a22b 143d
00000300: a746 233e e346 06bc 314d 88bd 33c8 68bd
00000310: 3fd2 b8bb 1a80 31bd 4fb1 48be 9c64 62be
00000320: b47e 9ebd 0384 8cbe 3713 a93d 00fc 8cbb
00000330: d06b 493c a2db c9bd 962a 983c 4d7e 09bc
00000340: 2acd 0ebe 161d 533c 0f73 443b eaa0 97bd
00000350: 9829 093e bbe1 603d 4db8 2bbe 5e14 73bc
00000360: cd81 e33b eac0 60be ad06 ee3c c181 103e
00000370: a77b 94bd 204b 863b 16b9 71bd ba48 1f39
00000380: 38f1 583b 88be 70bc f41b 393c 2d1a 19bc
00000390: 208c 123e 15e2 b63d 0e7d 4d3c 57d0 993c
000003a0: d153 1bbd 5a1c b939 0c9f 75bc 516f 66be
000003b0: 8b94 dcbc a26f aabc 8074 9e3c 361c e3bd
000003c0: bf0f d3bd 9700 04bc bf2a 233d 6af3 9b3c
000003d0: c67a 8dbd 0419 bbbc 7f67 6e3d a60a 51bd
000003e0: 1a95 d7bd ace4 c33b 1a4b 3e3d af80 67ba
000003f0: 23b2 afbd 4e60 823c cf11 843c 7472 91bc

mu_layer.bias f4 [17]
1.2772455 1.3832191 0.93027955 -0.45584273 0.5106433 1.5745966 1.57619 0.2472511
1.3645797 1.2796649 1.4200665 1.5083745 -0.23658016 -0.89923656 -0.43491963 2.005127
-0.7955916
00000000: c87c a33f 530d b13f cd26 6e3f 3864 e9be
00000010: 85b9 023f 628c c93f 98c0 c93f 642f 7d3e
00000020: 8caa ae3f 0fcc a33f bdc4 b53f 6a12 c13f
00000030: 1242 72be 5e34 66bf c9ad debe 0054 0040
00000040: e4ab 4bbf

log_std_layer.weight f4 [17, 256]
0.0010098497 -0.019136015 -0.006303427 0.044542268 0.08296354 0.005959401 0.0071042227 -0.01955416
0.0020439427 0.014499431 0.004458801 0.008932065 0.04247299 -0.008131123 -0.011054951 0.022086037
0.0074558277 -0.017910339 0.016979022 -0.0120199 0.042177808 0.07232055 -0.029214691 -0.013970024
-0.02482918 0.1426433 -0.008323722 0.00022091146 -0.0021644207 0.061827857 0.016087132 0.11347913
0.025251811 -0.008874354 0.0106784 0.005365 0.026438307 0.047820877 0.031331826 0.00022030238
-0.017092688 -0.017690595 -0.0009787063 0.10824732 0.17740144 0.078201026 0.010378485 -0.0016733491
0.017085686 0.0027235036 -0.003252798 0.0014967113 0.027569255 0.03204115 0.21326113 0.00048121312
0.0012276991 0.033133782 -0.018689958 0.108499326 0.0021255862 -0.006565805 0.015827399 -0.009154443
-0.0015336468 -0.0066361977 -0.0069741164 0.14490683 -0.0018759234 0.021264406 -0.009614825 -0.0060047717
0.081011 0.104199715 0.010384525 -0.016696848 0.056691658 -0.021243328 0.013468073 -0.013034602
-0.02803798 0.006131034 0.0011325272 0.04830028 0.061779298 0.07863192 -0.02179913 0.031941295
0.03615849 0.0017651707 0.00066322583 -0.018635584 0.0038707752 0.0033214258 0.11202241 -0.007557586
-0.003074302 0.0028953154 0.15546446 0.16212788 0.1669271 0.048994865 0.117178075 -0.017832305
-0.013761695 -0.003304669 -0.012354486 -0.021382906 0.02449923 -0.011784532 0.09894472 0.001419892
0.005728057 0.12729093 0.056057043 -0.008458423 -0.022061972 0.0018016389 0.012846176 0.01411738
-0.011167377 -0.034251522 -0.014389805 -0.00073907577 -0.0027770372 -0.0030886158 0.013933847 0.06445641
0.021411985 -0.01854981 0.002969779 0.021773446 0.0051278346 0.009341073 0.016338553 0.015053679
0.0015049529 0.17026152 0.02512727 0.20467216 0.002480367 0.015002536 0.033302795 0.006815226
-0.0120441755 0.11823127 -0.0046721976 0.0060894657 0.13324364 -0.032240886 0.019624323 -0.011949766
0.11696979 0.012106078 0.07474095 0.13290204 0.00072726485 -0.0010412432 0.0642722 0.14242542
0.07902379 0.20978157 0.08280658 -0.007401196 -0.010089173 0.065691456 -0.00591847 0.018638564
0.0074528255 0.07201591 0.020544179 0.017290417 0.080989994 0.09860591 -0.037738394 0.006773113
-2.6090696e-05 0.037014302 0.0078495145 -0.022132672 -0.0014684247 0.0037023032 0.07168224 0.025492728
0.01575963 0.118181154 0.043046925 -0.010050332 -0.02682054 0.13712963 0.07094813 -0.008718396
0.25218722 0.0069692065 -0.011913733 0.0020706677 0.17498307 -0.005473603 0.10734801 0.091076136
-0.0024906253 0.10735802 0.007019581 -0.0024567707 -0.008587849 -0.028885707 0.0006729332 -0.0067606717
0.00987969 -0.015741825 -0.003478437 0.29507688 0.026962044 0.020235337 -0.031293217 -0.024375273
-0.02393391 0.043483347 0.04784546 0.0362168 0.078975074 0.018556913 0.04441077 0.002251471
-0.0013409351 0.18691128 0.005695855 -0.0014486493 0.0600349 0.011991783 0.018929152 0.04491734
0.1181947 0.026485184 0.0012421394 0.0149945365 -0.0024135541 0.00089111284 0.006802386 0.04341158
0.16346231 0.013831708 0.005526207 -0.007383989 0.03371468 0.07507108 0.21902062 -0.023283437
0.15822816 -0.0010957414 0.016608803 0.004292498 0.022739204 0.0067094015 5.2694213e-05 -0.0040155067
00000000: ef5c 843a 22c3 9cbc fa8c cebb f471 363d
00000010: cae8 a93d 1447 c33b 8aca e83b 0c30 a0bc
00000020: abf3 053b 058f 6d3c 221b 923b cc57 123c
00000030: 28f8 2d3d 6738 05bc d31f 35bc c7ed b43c
00000040: 0450 f43b b4b8 92bc 9717 8b3c 1def 44bc
00000050: a3c2 2c3d cc1c 943d a653 efbc 87e2 64bc
00000060: 9166 cbbc 1611 123e 3860 08bc 78a4 6739
00000070: f4d8 0dbb 353f 7d3d 29c9 833c bf67 e83d
00000080: e3dc ce3c bd65 11bc 75f4 2e3c e2cc af3b
00000090: 2695 d83c d3df 433d cd55 003d f800 6739
000000a0: f705 8cbc deeb 90bc ef47 80ba c5b0 dd3d
000000b0: b9a8 353e dc27 a03d 850a 2a3c 4754 dbba
000000c0: 48f7 8b3c cf7c 323b e52c 55bb 4c2d c43a
000000d0: ebd8 e13c 953d 033d 2061 5a3e 554b fc39
000000e0: bfea a03a 4ab7 073d af1b 99bc e534 de3d
000000f0: 6b4d 0b3b f725 d7bb 76a8 813c 84fc 15bc
00000100: a604 c9ba 7674 d9bb 2187 e4bb 7562 143e
00000110: 8be1 f5ba b132 ae3c 8087 1dbc adc3 c4bb
00000120: 18e9 a53d a966 d53d db23 2a3c d4c7 88bc
00000130: 8335 683d 7d06 aebc 31a9 5c3c 158f 55bc
00000140: e8af e5bc d7e6 c83b 4f71 943a 84d6 453d
00000150: 4a0c 7d3d c609 a13d 1794 b2bc e0d4 023d
00000160: ed1a 143d 4d5d e73a 55dc 2d3a a7a9 98bc
00000170: d5ac 7d3b 47ac 593b 016c e53d a0a5 f7bb
00000180: 3b7a 49bb 55bf 3d3b 1332 1f3e da04 263e
00000190: f0ee 2a3e d7ae 483d 0ffb ef3d 0e15 92bc
000001a0: bb78 61bc 2593 58bb 786a 4abc 342b afbc
000001b0: 9cb2 c83c e913 41bc 88a3 ca3d ab1b ba3a
000001c0: 6db2 bb3b 8e58 023e 129c 653d 3395 0abc
000001d0: 4fbb b4bc f824 ec3a c478 523c 954c 673c
000001e0: 60f7 36bc 534b 0cbd 37c3 6bbc 89be 41ba
000001f0: f4fe 35bb 606a 4abb ca4a 643c b901 843d
00000200: 3068 af3c c5f5 97bc a0a0 423b 3a5e b23c
00000210: 6507 a83b 4d0b 193c 6ed8 853c b5a3 763c
00000220: d741 c53a 0959 2e3e b4d7 cd3c 9495 513e
00000230: a78d 223b 32cd 753c 8368 083d 4252 df3b
00000240: ef54 45bc 3c23 f23d 3c19 99bb 248a c73b
00000250: 0571 083e 050f 04bd 30c3 a03c f4c8 43bc
00000260: db8d ef3d 9258 463c c811 993d 7917 083e
00000270: eba5 3e3a 537a 88ba 25a1 833d f8d7 113e
00000280: 3ad7 a13d fbd0 563e 7f96 a93d bb85 f2bb
00000290: 0f4d 25bc 3e89 863d baef c1bb e7af 983c
000002a0: d536 f43b 147d 933d 444c a83c a2a4 8d3c
000002b0: 15de a53d e5f1 c93d 9393 1abd fdf0 dd3b
000002c0: 58dd dab7 4f9c 173d 409b 003c 944f b5bc
000002d0: 2878 c0ba 57a2 723b 23ce 923d 20d6 d03c
000002e0: 571a 813c f608 f23d f951 303d 26aa 24bc
000002f0: c0b6 dbbc b66b 0c3e 414d 913d 9ad7 0ebc
00000300: af1e 813e f15d e43b d131 43bc 0ab4 073b
00000310: c32e 333e e95b b3bb 46d9 db3d 2086 ba3d
00000320: c239 23bb 86de db3d 8304 e63b c601 21bb
00000330: 0db4 0cbc b8a1 ecbc c867 303a a088 ddbb
00000340: 6cde 213c 00f5 80bc 7df6 63bb 5114 973e
00000350: 81df dc3c 94c4 a53c 512d 00bd a7ae c7bc
00000360: 0c11 c4bc 981b 323d 9af9 433d 1158 143d
00000370: afbd a13d ab04 983c 11e8 353d 6a8d 133b
00000380: 51c2 afba ac65 3f3e 4ba4 ba3b 9be0 bdba
00000390: 28e7 753d 2f79 443c 4f11 9b3c 3ffb 373d
000003a0: 1010 f23d 75f7 d83c 48cf a23a a5ab 753c
000003b0: b82c 1ebb 9299 693a 8de6 de3b 57d0 313d
000003c0: aa62 273e 639e 623c 2f15 b53b 64f5 f1bb
000003d0: 6718 0a3d debe 993d f146 603e e8bc bebc
000003e0: 9006 223e fb9e 8fba 2f0f 883c 15a8 8c3b
000003f0: 9147 ba3c 8ada db3b fb03 5d38 8394 83bb

log_std_layer.bias f4 [17]
-0.8121736 -0.69985914 -0.75104326 -0.86985135 -0.88661504 -0.83099186 -0.94220227 -1.0290954
-0.74787873 -1.0424901 -0.98223114 -0.6492178 -0.68209356 -0.62921906 -0.7357572 -0.6590707
-0.7194625
00000000: 9cea 4fbf f829 33bf 5f44 40bf 94ae 5ebf
00000010: 34f9 62bf e2bb 54bf 2b34 71bf 66b9 83bf
00000020: fb74 3fbf 5170 85bf 8073 7bbf 2333 26bf
00000030: af9d 2ebf 8014 21bf 955a 3cbf dbb8 28bf
00000040: b22e 38bf
