5.2 SAC-Continuous/model/PV1_actor10.pth (torch, 272688 bytes, 6 tensors)

a_net.0.weight f4 [256, 3]
000000 33 45 62 bd 74 3f 7e 3e 8d b4 f7 be 04 20 eb be
       -0.055241775 0.24828893 -0.48379937 -0.45922863
000010 e5 40 70 be f1 f8 34 3e 28 58 94 3c 3a b7 21 3f
       -0.23462255 0.17673089 0.018108442 0.63170207
000020 23 0c f3 bd d5 a3 e1 3e 96 13 8d be 48 72 38 be
       -0.11867549 0.44070306 -0.27554005 -0.18012345
000030 fa 17 2b bf 9a bb 23 bf 47 04 5a be 6c 72 74 3d
       -0.6683346 -0.6395813 -0.21290694 0.059679434
000040 a0 6b 00 3f c8 bf 77 3e ee 65 b6 be 0e 17 c1 be
       0.5016422 0.24194252 -0.3562464 -0.37712902
000050 1b 46 69 3e f0 09 08 3f c0 b6 b0 bd 2c e4 d4 3e
       0.2278065 0.53140163 -0.08628607 0.4158033
000060 98 5f 22 be e9 7d 37 3e 06 8b d7 3e 70 3b 13 bf
       -0.15856779 0.17919125 0.42098254 -0.5751257
000070 c0 33 41 bf 9a 1b 64 bd 59 ef 65 be 6d 6d 1c 3f
       -0.7546959 -0.055690385 -0.22454585 0.6110447
000080 c9 c2 c0 be 6b 87 8f be 6d 5a 18 bf 46 de 02 bf
       -0.3764861 -0.28033003 -0.5951298 -0.5112041
000090 a9 89 bf be 7f a7 33 3f 0c a3 a5 3e 18 66 2d 3e
       -0.37409714 0.70177454 0.32350957 0.16933477
0000a0 c3 67 8e bd ec 7f 75 be b3 87 0c 3e 66 25 68 bf
       -0.06953385 -0.2397458 0.1372364 -0.90682065
0000b0 df 11 a9 be 7a f3 f8 bd 7c 6a 44 3f 8b 92 5a 3e
       -0.33021447 -0.121558145 0.7672498 0.21344964
0000c0 a4 f6 d7 be 68 6e 8f 3e 03 8a bc 3e ad e5 13 3f
       -0.4218036 0.2801392 0.36824045 0.5777233
0000d0 5c a1 05 3f 8e 8d 48 3e 27 d6 ce 3e 7f 77 da be
       0.5219934 0.19585249 0.4039776 -0.42669293
0000e0 84 2c cb 3d 1b 78 0a bf 0f 1f 1e bf bc 38 b4 be
       0.099206 -0.54089516 -0.6176614 -0.35199535
0000f0 a0 a0 6b 3e 3c 75 0f 3e ec 69 a0 be 8e 20 89 3d
       0.23010492 0.14009565 -0.31330812 0.066956624
000100 fd b5 c5 3e 6d 27 16 be df 7b 2c 3d c3 47 b2 3e
       0.3861541 -0.14663477 0.04211032 0.34820375
000110 5e 8d ae 3e e9 53 1a 3f a9 e7 2c bf 34 95 5a be
       0.3409223 0.60284287 -0.67540985 -0.21345979
000120 53 07 93 3e 9d 09 3b 3f 13 ac d5 3e 5c bd ed 3e
       0.28716525 0.73061544 0.41732845 0.46433532
000130 af 87 32 3c 63 cb e4 be 7e 6a 2e bd 06 ce 18 bf
       0.010896607 -0.44686422 -0.042582028 -0.59689367
000140 b9 c0 00 bf 32 59 e9 3e 71 f5 0f 3f fb db 16 bf
       -0.5029407 0.45575863 0.5623389 -0.58929414
000150 8d b6 c0 3e e5 fd 46 be e9 c6 18 be dc 5e 47 be
       0.37639275 -0.1943279 -0.14919628 -0.1946978
000160 c1 a0 37 3e 57 b7 ad be 3a bd 53 3e d8 3b 06 3f
       0.17932416 -0.3392894 0.20677653 0.52435064
000170 ac 4a b8 3e 9c 95 91 3e e4 a9 7f bf 1f af 91 be
       0.3599447 0.28434455 -0.9986861 -0.2845392
000180 d3 65 3f 3e 6e ed 89 bd c5 d5 e2 be 8e f4 6b be
       0.18691187 -0.06734739 -0.44303718 -0.23042509
000190 b9 ee 7c 3f 16 ce 98 3e de bc 9e be c4 bc 33 be
       0.9880176 0.2984473 -0.3100347 -0.17552477
0001a0 22 39 03 bf 4b 64 5c 3c cb 5e 1f bf d4 7e d5 be
       -0.5125905 0.013451646 -0.6225402 -0.41698325
0001b0 c3 ce 81 bc 05 72 87 be c2 85 85 be ee d4 68 3e
       -0.015845662 -0.26454177 -0.26078612 0.22737476
0001c0 74 47 57 be 9c 67 f7 3e 2b 0d c3 3e 53 c9 28 bf
       -0.21023351 0.48321235 0.38095984 -0.65932196
0001d0 40 bc 05 be d6 7e b1 3e 08 5f 2a 3e 46 56 0c 3e
       -0.13060093 0.3466708 0.16637814 0.13704786
0001e0 ca 4a e5 3d eb 06 43 3d 13 a0 87 be 46 e8 a3 3e
       0.111959055 0.04761402 -0.26489314 0.32013148
0001f0 72 69 6f bf e7 85 86 be 34 9f 02 be 07 b1 2c bf
       -0.9352027 -0.26274034 -0.12756044 -0.6745762
000200 d3 24 fb bd 4e 19 06 bf 01 f9 1f be 44 2c 3a 3e
       -0.12262883 -0.5238236 -0.15622331 0.18180948
000210 2b cf e4 be a5 62 62 3d 0d f3 b6 3e c1 f9 2c 3e
       -0.44689307 0.055269856 0.35732308 0.16892149
000220 6b 3c 81 bd 59 2d d3 bd 34 a1 d7 3d 1f a1 28 3f
       -0.06310352 -0.10311384 0.10528794 0.6587085
000230 0b a2 f6 3e ac 08 b9 3e 93 9b 1c 3f b9 3f 8a 3d
       0.48170504 0.3613943 0.6117489 0.067504354
000240 82 8e 1d bf 47 54 1a ba 50 6c c3 3e 8a 94 3b bd
       -0.61545575 -0.0005887192 0.38168573 -0.045795955
000250 ad 7d 07 bf 07 4f b7 be 9d c5 ed be a5 23 5a bf
       -0.5292614 -0.3580248 -0.4643983 -0.8521064
000260 ca 97 22 be 42 dd 64 3e 74 9d 94 3e d6 52 0c bf
       -0.15878215 0.22350028 0.29026377 -0.548139
000270 57 a2 a6 3e 67 a8 0f bf 4a e8 cd bd 69 8c f8 bd
       0.3254573 -0.56116337 -0.10054071 -0.12136156
000280 b4 c8 ee be 4c 8e d7 bd 4f 13 1d bf 82 41 45 bf
       -0.466375 -0.10525188 -0.6135759 -0.7705308
000290 41 d6 d3 bd 36 a0 39 be a3 ca a4 be ad b0 3c 3e
       -0.103436 -0.18127522 -0.3218585 0.18426771
0002a0 15 6a dc be 2b 9c 9f 3e fa 6d ef 3e 79 a1 94 be
       -0.43049684 0.31173834 0.46763593 -0.29029444
0002b0 fa 67 57 3f 15 4b 29 3e a7 a9 05 bf 38 89 e7 3e
       0.8414303 0.16532548 -0.52211994 0.45221877
0002c0 82 7f c0 bd 88 23 bb be 53 16 b7 3e 2f d6 e7 be
       -0.0939932 -0.36550546 0.3575922 -0.45280597
0002d0 a3 16 4a bc 8e b3 18 3e 49 b0 c6 3e 77 d7 67 3e
       -0.012334499 0.14912245 0.3880637 0.22640787
0002e0 ff d9 15 3f 5d 8d fd 3d 09 17 ef bd da f0 74 be
       0.5853576 0.123804785 -0.116743155 -0.23920003
0002f0 e6 a8 eb be 21 c1 c7 3e df 24 36 3f 54 57 af 3e
       -0.46027297 0.39014533 0.7115001 0.34246314
000300 e1 c6 e4 be f4 8e 8e bd c5 3c c6 be c0 c6 cb be
       -0.44682983 -0.0696086 -0.38718238 -0.39800072
000310 a4 a6 58 be 69 d5 40 3e a5 08 ab be 2c 47 41 bb
       -0.21157318 0.1883141 -0.33405033 -0.0029491885
000320 1e d2 58 3c 0a 2d c4 3e b7 9a 2a bf fb dd af be
       0.01323369 0.38315612 -0.66642326 -0.34349045
000330 01 ca c9 be bc f4 d5 3e 87 ad 61 be d1 b5 02 3f
       -0.3941193 0.4178828 -0.22038852 0.5105868
000340 86 9c f5 3e 4c d6 34 3e 8e 26 a1 bc 90 fc cd bd
       0.4797098 0.17659873 -0.019671705 -0.10057938
000350 78 b0 dc 3d e9 9f 86 be 2e ed e7 3d f7 06 8b 3d
       0.10775846 -0.26293877 0.11324535 0.06788438
000360 65 b9 0d bf 18 cb 36 be ec 1e d2 3e c8 35 11 bf
       -0.55361015 -0.17850912 0.41039217 -0.5672269
000370 45 74 6c bc ec c1 01 3f da 85 08 3e a5 3e 5a be
       -0.014432018 0.50686526 0.1333231 -0.2131296
000380 f6 0b c7 be 6c 1e 9f 3e 70 76 1c bf 83 d7 14 be
       -0.38876313 0.31077898 -0.6111822 -0.14535336
000390 e1 fe 63 be 91 38 d8 bd 31 b0 c1 3c 11 aa 04 3f
       -0.22265197 -0.10557664 0.023643585 0.51822
0003a0 9e 39 3a 3e 09 ce f5 3e 91 d5 53 3e e9 dd c8 be
       0.18186042 0.48008755 0.20686938 -0.39231804
0003b0 ea 19 83 3e 81 62 c7 be f3 e8 a4 be 56 52 41 3e
       0.25605708 -0.3894234 -0.32208976 0.18879065
0003c0 27 b3 17 3e 2b cf 15 3f 66 8d 5a be 58 24 c2 bc
       0.14814435 0.5851924 -0.21343002 -0.02369897
0003d0 99 fb 8e 3e 4a 43 11 bf 20 2a bd 3e 0d 41 1f bf
       0.2792633 -0.567433 0.369462 -0.62208635
0003e0 15 fe 61 3d 16 b6 44 bd 99 78 d9 be f0 21 02 3e
       0.055173952 -0.048025213 -0.4247482 0.12708259
0003f0 d9 ac 11 3f 1d dd b2 be 89 2b 8b be 46 9c a7 be
       0.5690437 -0.3493432 -0.27181652 -0.32736415

a_net.0.bias f4 [256]
000000 d5 28 00 bf c6 e1 54 be cb 4c 02 3e d6 86 e5 be
       -0.50062305 -0.2078925 0.12724607 -0.44829434
000010 0f c9 ba 3e e6 0b 1b 3e 9f b3 cd 3e 99 5f e4 be
       0.3648152 0.15141258 0.40176103 -0.44604185
000020 0d e2 f9 3e dd 7c 4c be 95 7d 0e 3f c2 07 ff be
       0.48805276 -0.19969507 0.5566037 -0.49810606
000030 35 a5 c1 be 3b 79 53 3e 33 06 4d 3c d8 c1 2a 3d
       -0.37821355 0.20651715 0.012513685 0.04168877
000040 76 2f 82 be 67 4b 80 be 6d 40 52 be 6c cf f1 be
       -0.25426835 -0.25057527 -0.20532389 -0.47228563
000050 80 f3 07 be 85 dd ed 3d 78 15 50 bd 7d 45 86 3d
       -0.13276482 0.11614517 -0.050801724 0.065562226
000060 54 c8 f8 3e cc b2 ad 3c 58 8f 08 be 84 06 93 be
       0.48590338 0.021203421 -0.13335931 -0.2871591
000070 b6 91 ca be eb e8 e7 be a5 2a 3d be a7 df 17 be
       -0.39564294 -0.4529489 -0.18473299 -0.1483141
000080 b3 7f 5d 3e 2d b9 b1 bd cd f9 d9 3e 22 b9 d3 be
       0.21630745 -0.086778976 0.42573395 -0.41352183
000090 01 1c 01 3d 48 12 d8 3e 6f 24 05 3f eb df b5 be
       0.031520847 0.42201447 0.5200872 -0.35522398
0000a0 3f d1 4f bb 41 68 00 3c 0c d2 78 bd 5a 6b 39 be
       -0.0031710414 0.007837356 -0.06074719 -0.18107358
0000b0 01 50 46 3e 38 9b c9 be a0 e1 1a 3d 0b b7 89 3e
       0.19366457 -0.39376235 0.03781283 0.26897463
0000c0 91 a5 53 be 94 14 c0 3e 87 18 c0 3d 76 6e 25 3e
       -0.20668627 0.375157 0.09379678 0.16155419
0000d0 7d 74 08 3f aa 2a 7d bd a7 ac bd 3e f5 1c 84 bd
       0.53302747 -0.061808266 0.37045786 -0.064508356
0000e0 37 15 66 be fa 6a 56 bd 6b 73 77 3b a7 6b 93 be
       -0.2246903 -0.052348115 0.0037758003 -0.2879307
0000f0 48 7b e5 3d 26 95 55 bd 06 5f 6e 3e af 26 2a be
       0.11205155 -0.052144192 0.23278436 -0.16616319
000100 59 8e e8 3c 9a b9 8e be f6 af fc be a1 58 30 3e
       0.02838819 -0.27875978 -0.49352998 0.17221309
000110 37 51 af bc 73 5b 6a be b2 e6 3d be 59 ee 50 3e
       -0.021401031 -0.22886448 -0.18545035 0.20403422
000120 65 b0 ba bd 29 cf 92 3e fa bf 75 bd c5 09 23 3e
       -0.09115676 0.28673676 -0.059997536 0.15921696
000130 f2 da 87 3e 0a 3d 40 be ac 87 79 3e f8 f6 dc 3e
       0.2653423 -0.18773285 0.24368161 0.43157172
000140 83 cf 1e bd 1e 0b f4 3d 04 0a f1 3c cd a4 b9 3e
       -0.038772117 0.11916183 0.029423721 0.36258546
000150 60 97 a4 be 1f de 80 be 87 54 87 3e 50 ea 0f bf
       -0.3214674 -0.25169465 0.26431677 -0.5621691
000160 51 3d 1b be 26 48 81 be 17 25 b2 3e 78 cb 0c bf
       -0.15160109 -0.25250357 0.34793922 -0.5499797
000170 42 60 7d 3e ff 3b e6 3e db 86 80 3e 36 74 12 be
       0.2474375 0.44967648 0.25102887 -0.14302143
000180 7a 31 06 3f fa d7 71 be fa 43 ab 3c e4 ad 8c be
       0.52419245 -0.23617545 0.020906437 -0.27476418
000190 81 d8 07 be ed 82 80 3d a7 a4 23 3d ee c6 be 3c
       -0.13266183 0.06274972 0.039951947 0.023288216
0001a0 70 61 24 bf 55 58 24 3d 42 40 e5 bc 6e ad a1 3d
       -0.6421118 0.040123302 -0.027984742 0.07894407
0001b0 df 7f c4 3e de 18 e7 3e aa 52 58 be 78 86 23 be
       0.38378808 0.4513616 -0.21125284 -0.15969265
0001c0 bf b7 a8 be 4e e4 1b bf 72 db 09 bf ca 93 cf 3e
       -0.32952687 -0.6089524 -0.5385047 0.40542442
0001d0 55 5c d4 3e f2 cd d0 3d ea a4 80 3e 34 60 00 bf
       0.41476694 0.10195531 0.2512582 -0.50146794
0001e0 b6 37 0a bd d4 ce fd 3e ee cb f3 be c6 2f f1 3e
       -0.033744536 0.4957186 -0.47616524 0.4710676
0001f0 04 40 a3 3d a8 7f d0 3e 0b 96 97 be 60 ee 80 3e
       0.079711944 0.40722394 -0.2960666 0.25181866
000200 4c b3 ff be 71 f8 47 be 87 9b b8 3d 72 1e 5c 3e
       -0.4994148 -0.19528367 0.090140395 0.21495989
000210 0b 4f d8 3e 3c 24 02 3f c9 cf 0f 3f 50 cc dd 3e
       0.42247805 0.5083654 0.5617643 0.4331994
000220 3b a6 ca 3e f7 5e 6a 3c eb fb e0 be 79 5b 69 bd
       0.3957995 0.014304868 -0.43942198 -0.056972
000230 62 47 89 3c 0f f2 c3 be 94 20 8d 3e 1b 24 2c 3e
       0.01675767 -0.38270614 0.27563918 0.16810648
000240 e2 13 ae bd 5c e0 ef 3d c1 df ba 3e 1b 78 49 3e
       -0.08499886 0.11712715 0.36498836 0.19674723
000250 61 f7 20 bf cc 04 02 bf 8f e3 4c 3e b6 e1 81 bd
       -0.6287747 -0.5078857 0.20008682 -0.06341879
000260 c9 89 2c 3e 90 95 cd be ba 20 0d bf 4c 66 01 3e
       0.16849436 -0.4015317 -0.5512806 0.1263668
000270 e6 61 db 3e 6d 40 f7 be fe 9e 49 3e b6 6a f0 be
       0.42848128 -0.4829134 0.19689557 -0.46956414
000280 20 09 ea 3e 17 ef db 3d 72 7e f8 3e 15 02 18 bf
       0.45710087 0.10738962 0.4853397 -0.59378177
000290 50 dc 0d bf f2 99 b0 3e 3c 96 f5 3e b3 75 89 3e
       -0.55414295 0.3449245 0.47966182 0.2684761
0002a0 c0 57 be 3e fa a1 06 bf fe 6e c5 3e d3 a5 20 bf
       0.37176323 -0.52590907 0.38561243 -0.6275303
0002b0 8e 15 24 3e ab fa d3 be ef ee 95 be e1 9d cf 3d
       0.16023847 -0.41402182 -0.29283854 0.10137535
0002c0 00 f7 59 be 31 4a 45 be cf dc 0a bf ec 45 f3 be
       -0.2128563 -0.19266583 -0.5424318 -0.47514284
0002d0 3e 4a b9 3e 5f 97 48 be f8 8e c7 be eb 5a 9f be
       0.36189455 -0.19588993 -0.38976264 -0.31124052
0002e0 35 c3 0b bf 3c 7e f4 be 0a 78 5b 3e 44 c0 a9 3e
       -0.5459474 -0.4775256 0.2143251 0.331545
0002f0 cc 24 a1 3d b9 a0 3a be 8e d7 23 3e 88 99 3f bd
       0.078683466 -0.18225373 0.16000196 -0.04677728
000300 16 a9 6f be 99 03 89 3b 31 ff 12 3f 84 de 22 bf
       -0.23404345 0.004181337 0.5742064 -0.6362078
000310 f5 1b 22 bf 05 60 5a 3d aa 03 cb 3e 42 6a ea be
       -0.6332391 0.053314228 0.39651233 -0.45784193
000320 50 24 6d 3e c0 36 a8 3e 8b 42 01 3e e0 70 61 3d
       0.23158383 0.3285427 0.1262304 0.055039287
000330 6f fe d5 3e 91 a7 92 3e e5 66 e2 be f4 4d 21 bd
       0.4179568 0.28643468 -0.44219127 -0.039380983
000340 2f 49 85 3e 37 ab f7 3e 7c 38 0e bf 58 27 5e 3e
       0.26032397 0.48372814 -0.5555494 0.21694696
000350 15 c3 b6 bd 13 96 0e bf 61 ab ae bb 7e 68 d2 be
       -0.08923928 -0.55697745 -0.0053304886 -0.41095346
000360 88 02 0f 3d b8 14 ff be 0e b2 f6 be e8 8e 4c be
       0.034914523 -0.49820495 -0.4818272 -0.1997639
000370 f9 6d 0d be 59 95 96 3e de e4 b5 3d 61 7c c4 3e
       -0.13811482 0.29410818 0.088815436 0.38376144
000380 b1 76 42 3d ef 72 07 be 44 ce 4d 3e 03 53 87 3d
       0.047476474 -0.13227437 0.20098215 0.0660763
000390 c8 aa 29 3e 1a 2e d2 bc 9d 5d e1 bd 3b 51 b4 be
       0.16569054 -0.025656749 -0.110041834 -0.35218224
0003a0 c1 60 97 bd 52 7c f4 be a3 9f a2 39 e4 e1 d5 be
       -0.07391501 -0.477511 0.00031017986 -0.41773903
0003b0 da 78 3f be 7c 42 87 3e 51 ae ce be 7c 0f d1 be
       -0.18698445 0.2641791 -0.40367368 -0.40832126
0003c0 a3 f1 f6 bd 71 55 8c be c6 13 d6 bc a4 4c b6 3b
       -0.12057807 -0.27408937 -0.026132476 0.0055633355
0003d0 4a db 65 3e cd b4 05 bf bd ab 81 bd 13 ae 8a 3e
       0.22446933 -0.52229005 -0.063315846 0.27085933
0003e0 f1 df d8 3e 7c 8b 23 3d d8 05 b3 be 87 46 9a 3c
       0.42358354 0.039927945 -0.34965396 0.018832458
0003f0 30 5d 9b 3e c5 8a a9 be ea 83 8a bd 01 48 9d 3e
       0.30344534 -0.33113685 -0.06763442 0.30718997

a_net.2.weight f4 [256, 256]
000000 6b 01 d5 bb 03 11 7a bd d2 54 17 bd ff ff bc 3c
       -0.006500413 -0.06105138 -0.036946125 0.023071287
000010 4e f4 bd bc aa b5 38 3d fc 90 47 3d 10 f6 14 3c
       -0.023187783 0.045095123 0.048722252 0.009091869
000020 e9 71 75 bb 1e ca b2 bc 9d 97 9c bb 64 91 15 3c
       -0.003745193 -0.021824893 -0.004778816 0.009128902
000030 be 8b 43 bd a2 52 85 bc b2 bd 5b bd 0a 1f 1d 3d
       -0.04774069 -0.016274754 -0.053647704 0.03835968
000040 b4 07 23 bd 6b 20 72 3d c7 57 62 bc 2c a4 1a bd
       -0.03980227 0.059112947 -0.013814873 -0.037754223
000050 fc 41 e9 3c 8b 50 09 3c cc 44 31 3d ea db cc 3c
       0.028473847 0.008381019 0.0432785 0.025007207
000060 2d 9e 68 bd 94 fb 1b 3d 4d 9d 5f bc cc aa ef bc
       -0.056791473 0.03808172 -0.013648343 -0.029256247
000070 dd e0 19 3d e4 29 32 3d 9a 01 61 bd 8d 8d ef bb
       0.037567962 0.04349698 -0.054933168 -0.0073105753
000080 34 17 4c 3d 74 4a c6 3c c6 a4 50 3d 88 8f c0 bc
       0.049826816 0.024205424 0.05093839 -0.023505941
000090 c3 d2 14 bd f1 52 68 3d 87 8e cd 3c 6a c1 75 3d
       -0.03633381 0.056719724 0.025092376 0.059998907
0000a0 76 1c e2 bc e9 83 2a bd 1a 79 1c bc 62 0b 71 bd
       -0.027601462 -0.041629706 -0.009550357 -0.058848746
0000b0 ff 37 b9 3c c5 1c 36 3d 78 d1 75 3c 6e 14 d4 bb
       0.022609709 0.04446103 0.0150035545 -0.006472162
0000c0 54 da fd 3c 81 d6 28 bd 26 47 72 3d e5 6a 82 bd
       0.030987896 -0.041220192 0.059149884 -0.06368045
0000d0 33 02 79 bd 0c d4 87 bc bb 00 49 3d c0 0e cd 3b
       -0.060793113 -0.016580604 0.049072962 0.006257862
0000e0 a4 a1 c4 3c 56 a6 3b bd f4 7e af 3c 3d 05 15 bc
       0.024002858 -0.045812927 0.02142284 -0.009095487
0000f0 b0 5c dd 3c 97 bc 3c 3d 31 bc d0 3c 20 36 ae bb
       0.027021736 0.04607829 0.025480362 -0.005316511
000100 ad 91 c2 bb 88 f7 28 bd 04 31 b9 bc e6 8f 20 3d
       -0.005937776 -0.04125169 -0.02260638 0.039199732
000110 52 c2 dd bc 45 35 28 3d 3c 06 cb bc 3a af 7a bc
       -0.027070198 0.041066427 -0.024783246 -0.015300566
000120 06 24 a1 b9 3b 86 73 bd c7 bc 15 bb ea 1e f5 bb
       -0.00030735153 -0.059454184 -0.0022848116 -0.007480492
000130 f3 fb e2 bb 05 ab 2c bc e5 d8 53 3d 4a 63 3b 3d
       -0.0069270073 -0.010538821 0.05172052 0.045748986
000140 78 3c 33 bd 8a 6f df 3c c3 96 49 bd d6 80 5a bd
       -0.04375884 0.027274866 -0.049216043 -0.053345524
000150 f0 d8 8f 3c d0 20 06 bb 97 9d fd bc b8 e9 76 bd
       0.017559499 -0.0020466335 -0.030958934 -0.060281485
000160 30 dc d1 bc fc 01 ab 3c cb 23 74 bd f0 93 80 bd
       -0.025617689 0.02087497 -0.059604447 -0.06278217
000170 80 a4 ee 3b af 2e 3e bd 60 b0 68 bd 1f 1a ae bc
       0.0072827935 -0.04643124 -0.05680883 -0.02125269
000180 5f 3a 3e bc 9b 5f 6c bd 1f fa 29 bd d4 bd 17 3b
       -0.011610596 -0.057708364 -0.0414983 0.0023153918
000190 e1 57 7a bd 3d da 2a bc ae 60 1d bd 8e 2b 3a bd
       -0.061118964 -0.010428009 -0.03842228 -0.045451693
0001a0 5c 3b c9 3c 57 3a 45 bd 10 fa 38 bd 00 81 0f 3d
       0.024564438 -0.04815134 -0.045160353 0.035035133
0001b0 29 6e 69 3c b6 91 63 3d f4 da 88 bc ee d7 df bc
       0.014247456 0.055558883 -0.016705967 -0.027324643
0001c0 00 89 bd bb 58 c6 cb ba d0 6b 3c 3d 45 bd 74 bd
       -0.005784154 -0.0015546782 0.046001256 -0.059750814
0001d0 a0 a6 cf bb 9a f7 f4 3c ad 8a 12 bd 84 15 02 bd
       -0.006337002 0.029903222 -0.035776783 -0.0317588
0001e0 14 3d e7 3c 7c a1 67 bd 61 f8 57 3c 72 28 3f bd
       0.028227367 -0.056550488 0.013181777 -0.04666943
0001f0 51 76 ee 3c ee e3 5a bd d8 63 1d 3d 84 56 72 bd
       0.029109152 -0.053440027 0.038425297 -0.05916454
000200 62 2f 57 bd 23 30 80 3b 27 2e 43 3d 3b ec 5d bd
       -0.052535422 0.0039119883 0.047651436 -0.054180365
000210 6b b2 ee bc a0 7c 61 3d dc 4e 38 bc 1c 1d d4 3c
       -0.02913781 0.055050492 -0.01124927 0.025892787
000220 df 33 7d bd b3 61 aa bc 77 fe 09 bd dc d2 57 3d
       -0.061817046 -0.02079854 -0.033689942 0.052691326
000230 70 ee c8 3c 40 3b 42 bd 09 fd 0a 3c f0 2f cd 3a
       0.024527758 -0.047419786 0.00848318 0.0015654545
000240 22 d5 dd bc 8b dc 19 bd dc dd b5 bc 86 28 3d 3d
       -0.027079169 -0.03756384 -0.022200517 0.046181224
000250 4c 48 3d bd 58 6d 3e bd 09 a2 83 bc 7d 82 08 3b
       -0.046211526 -0.046490997 -0.016068475 0.002082973
000260 3e ec 7b 3c 3c bc a9 b9 c8 80 76 bc f4 f5 20 bd
       0.015376149 -0.00032374437 -0.015045352 -0.03929706
000270 92 6a 44 bc 88 dd d3 bc dd 71 48 3d 5e 31 79 bd
       -0.011988299 -0.02586247 0.048936713 -0.060838096
000280 c6 9d 2a bd 05 b2 45 bd 4e 2a 3c bc 76 7e 47 3d
       -0.04165437 -0.048265476 -0.011484696 0.048704587
000290 e0 64 60 3d 3a 2e 65 bd f1 19 85 bb 13 b5 22 3d
       0.054783702 -0.05595229 -0.0040619303 0.039723467
0002a0 03 31 ed 3c ca b0 51 3d ab c4 55 bb 2a 01 2c bd
       0.028954035 0.05119399 -0.0032618444 -0.041993298
0002b0 10 5a 29 3d 5e df bc bc 70 90 fa 3c 94 7e 8c bc
       0.041345656 -0.023055729 0.030586451 -0.0171502
0002c0 f0 a5 d9 3c 27 26 60 3d 54 60 66 3d 06 fa 68 bd
       0.026568383 0.054723885 0.05624421 -0.056879066
0002d0 a4 8f 31 bd ec b1 d3 bc f3 65 2a bd 5c 29 6f 3d
       -0.043349877 -0.025841676 -0.041601133 0.058389053
0002e0 84 ae 2c bb 5f f3 31 bd e3 03 f0 bc 86 d9 10 bd
       -0.0026349137 -0.043444987 -0.029298728 -0.035363697
0002f0 57 b2 c3 3c da 4b 5f bd 63 a9 72 bd d8 5a 7c bd
       0.02388875 -0.054515697 -0.05924357 -0.061610073
000300 fa 59 cd 3c 3d 89 f1 3c a1 bf 26 bd 18 ee 7d 3c
       0.025067318 0.029484386 -0.040710095 0.0154986605
000310 0d bb 38 3d 0d a4 e9 3b 7f cd 70 bc a0 4f 97 3b
       0.04510026 0.007130152 -0.014697432 0.0046176463
000320 74 9b 0f bc 76 9f f8 3c b8 7e 33 bd 2e 36 f5 3c
       -0.00876509 0.030349474 -0.04382202 0.029933061
000330 88 98 15 3d 4d 3e 18 bd ad c3 4a 3d 6a 4b 75 3d
       0.03652242 -0.03716879 0.049503017 0.059886374
000340 21 5a cc bc 3d 25 98 bc 74 28 ff 3c 30 ea 4d bd
       -0.02494532 -0.018572444 0.03114722 -0.050272167
000350 e4 bc b9 3c 70 e7 6e 3c 4e e7 1a 3d 89 37 58 bd
       0.022673078 0.014581546 0.037818246 -0.052787337
000360 a8 ea 5d bd 3b 39 d5 3c 8c 6d b8 3c c2 25 62 bd
       -0.054178864 0.026028266 0.022513174 -0.05521179
000370 c6 c2 0e bd e8 90 72 bd 22 c0 3e bd f1 4c ed bc
       -0.03485372 -0.059220225 -0.04656995 -0.028967353
000380 90 d9 53 3d 4c 8d 47 bc 16 83 20 3d 16 c6 6b 3d
       0.051721156 -0.012179684 0.039187513 0.057561956
000390 4f 65 e2 3c 82 2c 65 bd 6b 20 03 3d 11 94 b6 3c
       0.027636198 -0.05595065 0.032013338 0.0222874
0003a0 bd 5e 4d 3d f4 86 7c bd b9 7f 14 3d ee 8b 51 3d
       0.050139178 -0.06165214 0.03625462 0.051158838
0003b0 9d 21 74 bd e8 b6 9c 3b 20 a7 63 3d de 30 3a bd
       -0.05960237 0.0047825463 0.055579305 -0.04545676
0003c0 c8 c5 a0 3c 0b 86 d0 3c 77 12 9f 3c dc 88 7e 3d
       0.01962556 0.025454542 0.019417984 0.062142238
0003d0 9a 97 4a 3d c9 b4 54 3d 3b 62 1b bc 78 3e 51 3d
       0.049460985 0.051930223 -0.009483869 0.051084965
0003e0 62 74 63 bd 16 f2 12 bd a8 03 5b bc 35 9b 89 bc
       -0.055530913 -0.035875402 -0.013367571 -0.016797641
0003f0 81 42 65 3d 1c 7e f1 3c ee d0 24 3d cf 89 25 3d
       0.055971626 0.029479079 0.040238313 0.040414628

a_net.2.bias f4 [256]
000000 84 2e e6 3c 27 51 da 3c 07 04 be 3b c2 4b 86 3d
       0.028098352 0.026650025 0.00579882 0.065574184
000010 2b b9 86 3c a9 ad 54 3b 1c eb e6 bb cf c3 24 3d
       0.016445717 0.0032452142 -0.00704707 0.0402258
000020 f1 0b a3 bd 54 db bd 3c 08 08 bc bc 1d 5e 8c bc
       -0.07961262 0.023175873 -0.022953048 -0.01713472
000030 e2 47 36 3d 6b f5 ee 3c 1f 19 68 bc 33 4c 7a 3c
       0.044502147 0.029169759 -0.014166146 0.015276956
000040 02 bc 30 3d e0 5f a8 3d 99 b3 7b 3d 2c 22 93 bd
       0.04314805 0.08221412 0.061450575 -0.07184252
000050 99 c9 42 bd be 2e 13 3d c4 8f a7 3c 23 e0 26 3d
       -0.04755554 0.03593325 0.020454295 0.040741097
000060 28 04 35 bd 52 d9 1b 3d af 7f 97 bc 79 4c 64 3c
       -0.044193417 0.03804905 -0.018493501 0.013934248
000070 c6 54 c3 3d 75 cd 82 bd 4f 4c 9e 3c bc 4c aa 3a
       0.095376536 -0.06386844 0.019323496 0.0012992839
000080 b8 1d 83 3c b3 b2 33 3d b9 37 60 3c f8 99 40 bc
       0.016005382 0.043871593 0.01368516 -0.011755459
000090 59 65 e1 bb 7a 98 01 bc 2f cf 61 3d 4d 3f 20 bc
       -0.0068785367 -0.007909888 0.055129226 -0.009780717
0000a0 90 d6 ad 3c 44 86 49 3c e4 08 09 bc 7e bf 67 3c
       0.021220475 0.012300078 -0.008363936 0.014144776
0000b0 a8 44 1c bd 9b bf 44 3d 84 f7 47 3d 16 50 a2 3c
       -0.038151413 0.04803429 0.048820034 0.019813579
0000c0 ea 12 bc 3b 92 11 16 bc c4 42 03 3d e3 f2 88 bd
       0.0057395594 -0.0091594625 0.032046095 -0.06686952
0000d0 59 41 76 3d ea 25 3d 3d 75 1b 27 3d 16 6f cd 3b
       0.060120914 0.046178736 0.04079767 0.006269346
0000e0 51 33 3e bd e4 b4 bd 3d da d6 83 bd db d7 60 3d
       -0.046435658 0.09263018 -0.06437464 0.054893356
0000f0 b8 20 a5 3d 59 1a fd bc 95 03 d8 3b 67 1a 56 3d
       0.08062881 -0.030896353 0.006592224 0.052271273
000100 16 6e 9e bc 40 79 53 3c 2c b3 57 bd 8d 1f d1 bc
       -0.019339602 0.012907326 -0.052661106 -0.02552774
000110 85 6e 53 3d 74 58 f0 3c cc 28 2d 3d cf 6a 0e 3d
       0.05161907 0.029339053 0.042275235 0.03476983
000120 7c 24 9e 3c f7 73 f5 3c ee 41 0e 3b cc 63 71 3c
       0.019304506 0.029962523 0.0021706778 0.014733266
000130 ae 7b f8 3c ac e0 c2 3b 4c 1f 11 3d d4 90 bd 3c
       0.030332413 0.005947193 0.035430238 0.023140348
000140 de 99 43 3d 9a 7d 7d 3d 7b fe 5c 3d 18 90 34 3d
       0.04775416 0.06188736 0.05395363 0.04408273
000150 2e 9f 0f 3d 31 76 80 3d 3c 96 23 bc 9d 9f 4d 3d
       0.035063915 0.06272543 -0.009984549 0.050201047
000160 5c be d0 bc 0b 24 e8 38 ad 67 26 bb 01 05 b5 bc
       -0.025481395 0.000110693356 -0.0025391385 -0.022097113
000170 aa 38 0d bd e8 9a 9c 3d c7 06 52 3d 71 f6 38 3d
       -0.034477867 0.076467335 0.051275995 0.0451569
000180 58 c3 23 3c b0 9f 3c bd db 13 4f 3c 59 3a 3c bd
       0.009995304 -0.046050727 0.012639011 -0.045954082
000190 6f 4d 4e 3d 5c 88 d0 bc 54 4f 90 3d 9a 0f d8 bc
       0.050366815 -0.025455646 0.07046381 -0.026374627
0001a0 f4 4c b9 bb ee 03 4b bd 72 22 1e bd d4 b7 31 3d
       -0.0056549255 -0.049564295 -0.03860707 0.043388203
0001b0 6e 1d fb bc bf 7a c7 bc b9 8f f7 bc 1c 53 ce 3b
       -0.030653682 -0.024350522 -0.0302199 0.0062965285
0001c0 f8 97 20 bd 5c 53 9c 3c c8 55 70 bc 4d 3f 34 3d
       -0.03920743 0.019082718 -0.014668889 0.04400568
0001d0 61 ed 77 bd 4b 5a a0 bc 36 da 30 bd f2 a6 57 bc
       -0.060529117 -0.019574305 -0.043176852 -0.013162361
0001e0 58 47 58 3c 7e a4 0e bd f0 ec 30 ba f9 61 02 3d
       0.013200603 -0.03482484 -0.00067491736 0.031831715
0001f0 8a 16 1a bd b5 dc bb bc 4a a4 78 bd 2e 13 57 bd
       -0.03761915 -0.02293239 -0.060703553 -0.052508526
000200 87 99 d6 bc 99 2c f4 3c b4 11 5e bd d6 a3 b7 3c
       -0.026196254 0.029806422 -0.0542161 0.02241699
000210 79 5f db 3c e6 64 9c bd d3 8f a2 bd 99 f2 50 bc
       0.026778923 -0.07636432 -0.079375885 -0.012753152
000220 43 c3 ad bc 0f 47 bb bc 96 ee 99 3a 3b 9a 9c 3c
       -0.021211272 -0.022861032 0.0011744078 0.019116512
000230 d1 1e 1c bd 41 44 ce 3c df ba f3 bc 39 27 88 bd
       -0.038115326 0.02517903 -0.029752193 -0.06648106
000240 9a 8e dc bc 18 98 c2 3c 76 ce 8d bd d4 30 4f bd
       -0.026923466 0.023754165 -0.06924145 -0.050583676
000250 1b f4 86 3c ab 9b a1 3c 79 aa 4a 3c da b3 89 bb
       0.01647382 0.019727549 0.012369745 -0.004202348
000260 aa cb 0e bd f4 fa 8d 3d 16 76 04 3c 09 47 f5 3d
       -0.034862198 0.06932631 0.0080847945 0.119764395
000270 9a 50 b1 38 4c 3f ea bc f5 37 bb bc 52 fd 26 3d
       8.455031e-05 -0.028594635 -0.02285383 0.04076893
000280 f1 43 10 3a e5 d8 d5 bc 3c ad 08 bd 42 3c 26 bd
       0.0005503288 -0.0261044 -0.033368334 -0.04058481
000290 c6 ec 44 3d f3 6f bc 3d 1c f3 1b 3c 63 ee 9e bd
       0.048077367 0.0920104 0.009518411 -0.077603124
0002a0 e6 80 8a bd de 0d e4 bc 1f c3 80 bd c4 48 f2 bc
       -0.06762867 -0.027838644 -0.062872164 -0.029575713
0002b0 dd 23 22 3c 71 2a 68 3d 48 53 8b b9 8e 24 b2 3c
       0.009896246 0.0566811 -0.00026574195 0.021745946
0002c0 48 69 bb bc d2 b4 31 3d 5b 01 04 3d 8f ab 38 bd
       -0.02287735 0.043385334 0.032227855 -0.045085486
0002d0 f6 91 33 3b b8 dc 48 3d 81 a3 6e 3d 7d 54 bf 3b
       0.0027400232 0.04903862 0.0582614 0.005838929
0002e0 6b 04 27 bd 0c 56 18 bd 62 7b 3b 3c ce 88 bf 3d
       -0.040775698 -0.037191436 0.011442991 0.09352265
0002f0 e0 30 e8 bc 23 f6 54 3d 78 a2 dd bc c5 89 0b 3d
       -0.028343618 0.051992547 -0.02705501 0.034066934
000300 f0 b3 a5 bb 42 65 37 3d 6c 01 4e bd db c3 02 bd
       -0.0050568506 0.0447743 -0.050294325 -0.031925064
000310 fe d0 34 bd 6e 8c 8f 3d c6 d8 a4 bd a2 89 88 3c
       -0.044144623 0.07009207 -0.08049159 0.016667191
000320 17 5d a6 3c f3 ec f4 3c 85 56 5e 3c 32 fe 00 3d
       0.02030806 0.029898142 0.013570433 0.03149242
000330 49 6c a5 bd 51 58 06 3d 2c 72 ba bd 65 c7 ff bb
       -0.080772944 0.03279907 -0.09103808 -0.007805752
000340 37 c2 cc bd 52 87 89 3c 36 50 7c bd ba a9 94 3d
       -0.09997981 0.016788159 -0.061599933 0.07258935
000350 9b 3e 5f bd 62 88 ba bc 54 d0 92 bd 09 f8 bb 3c
       -0.054503065 -0.02277011 -0.07168642 0.02294542
000360 f8 a0 35 bc 63 14 8e bc 1e 43 2a 3c f4 0d 31 bd
       -0.011085741 -0.017343706 0.010391979 -0.043226197
000370 0f 36 8f 3d 60 35 56 3c e0 8e fd 3b a3 42 d2 3c
       0.06992733 0.013074249 0.0077379793 0.02566654
000380 2a 3a ba 3c d2 1d fd 3b 6e 1b 5c 3c 91 ae 17 bd
       0.022732813 0.007724502 0.013434274 -0.037031714
000390 d4 4a 9a bb 79 fd 7c 3d 7d 33 b0 3c dd d6 0f bd
       -0.0047086272 0.061765168 0.021508927 -0.03511702
0003a0 25 9c 17 bc b2 93 6a 3d d1 18 2c 3c 74 a0 53 bd
       -0.009253536 0.05726976 0.010503964 -0.051666692
0003b0 e7 21 76 bd 31 37 03 3c 6d 2b 92 3d e3 59 b5 3d
       -0.060090926 0.008008764 0.07137189 0.08855035
0003c0 4f 8f cc bc 0f a3 c7 ba 8e e6 05 bd 0f 20 0e bd
       -0.024970679 -0.001523109 -0.032690577 -0.034698542
0003d0 8f 78 82 bd df 79 75 bc ae 9d 54 3d 68 09 73 3c
       -0.06370651 -0.01498267 0.051908188 0.014833786
0003e0 e5 fa ad 3b aa d3 4c 3b b5 3e bc bd 94 e8 9f 3c
       0.00530945 0.0031254091 -0.09191648 0.019520082
0003f0 18 5c d8 3c 46 20 4e 3d 0d 3a b2 3c ec 4d f2 3d
       0.026411101 0.050323747 0.021756196 0.11831269

mu_layer.weight f4 [1, 256]
000000 b0 ff 38 bd fb ed 48 be ab 16 75 be ff 75 34 3c
       -0.045165718 -0.19622032 -0.23934428 0.011014461
000010 d8 f9 75 3d 80 08 4a bd bb 68 4b 3d 34 af 75 be
       0.060052723 -0.049324512 0.049660426 -0.23992616
000020 4d 51 c9 bd 6c 45 be bc b1 4d fb bd 17 ba 55 3e
       -0.0982996 -0.023226462 -0.12270678 0.20871769
000030 25 57 9e 3e b8 2f 80 3c e1 14 20 be b1 23 58 3d
       0.3092586 0.015647754 -0.15632965 0.052768413
000040 10 e5 f9 bc ce c8 c8 bc df 8d ac bd f1 0b bc bd
       -0.030504733 -0.024509814 -0.08425497 -0.09181965
000050 75 b6 21 be f1 ed 34 be 23 ab 73 3e d7 66 a5 3d
       -0.15792258 -0.17668892 0.23795752 0.08076256
000060 8d dc e6 bd 2b b1 06 3c 13 d0 05 3f b1 21 80 3e
       -0.112725355 0.008220951 0.5227062 0.25025705
000070 53 c6 0e 3e e6 73 dd 3c 38 b4 c6 bc 0f 2c f6 3e
       0.13942842 0.027032804 -0.024255857 0.4808049
000080 02 7b 37 bd 9f d8 a3 3d 1e e5 79 bc 44 bf c0 bc
       -0.044795044 0.080003016 -0.01525238 -0.023528703
000090 5a 57 6d 3d f5 76 9d bd 9f 4e 79 bd 8d 1f a2 bd
       0.057944633 -0.07688705 -0.060865995 -0.07916174
0000a0 4f 54 bb bd e0 80 d0 3d c4 b0 9f 3d af 58 2c 3c
       -0.0914694 0.10180831 0.07797387 0.010519191
0000b0 77 55 4c bd e7 28 a1 bd 64 f7 c1 be f1 24 b2 bd
       -0.049886193 -0.0786913 -0.37884057 -0.08698452
0000c0 89 b1 7e 3e ac 30 d3 3c f6 2f 12 bd 67 03 aa 3b
       0.24872412 0.025780044 -0.03569027 0.005188394
0000d0 25 fb 48 3e c4 48 49 3e bd 7b df 3c 62 7d f9 3c
       0.19627054 0.19656664 0.027280683 0.030455295
0000e0 44 52 08 3e 10 dd 4b 3e 09 e8 33 be df 6f 36 3e
       0.13312632 0.19908547 -0.17568983 0.17816113
0000f0 72 5a 54 bb c0 b0 fc bd f1 27 51 bb e9 47 2c bd
       -0.0032402542 -0.123384 -0.0031914676 -0.042060766
000100 26 13 85 bd 96 22 9e 3c c5 3c 13 be 0f 38 22 bd
       -0.06497793 0.019303601 -0.1437865 -0.039604243
000110 e4 97 df bd c7 83 45 be dd fc 00 3d a4 8f b1 3c
       -0.10917643 -0.1928855 0.03149115 0.021674938
000120 5b 7f c7 3b 82 be 12 3d 0e 04 1d be cb 19 12 bd
       0.00608818 0.035826214 -0.15333578 -0.03566913
000130 e1 89 66 3d 2b e0 24 bd 20 7f 5e 3d 38 42 39 3d
       0.056283835 -0.040252846 0.054320455 0.045229167
000140 0d 7d 9f 3c d1 04 54 3d 82 1c db 3c 2c ed 17 be
       0.019468809 0.051762406 0.026746992 -0.14836568
000150 dd c1 58 bd e6 25 8c 3e 24 04 c6 bd 05 77 14 3e
       -0.052919257 0.27372664 -0.096687585 0.14498527
000160 9d 6e 45 3b 9a 1a 87 be 1b 14 d5 3d 6d cb f2 3a
       0.0030125745 -0.26387483 0.104042254 0.001852376
000170 08 bd d4 bc 5d 63 bb 3d 97 4c df 3c 12 38 b3 3b
       -0.025969043 0.091498114 0.0272582 0.0054693306
000180 18 4a 9c be 6e cd 5a 3b 6d 98 88 be 40 cf 87 3c
       -0.3052528 0.0033386606 -0.26678792 0.016578317
000190 7b a7 96 be 3c 2e e3 bd 8b 9e 21 3c 0f 9d 30 3d
       -0.29424652 -0.11092803 0.00986446 0.043118533
0001a0 af 7b fb 3d bd 74 b8 3a 81 6a a2 bc 8a f8 f2 3c
       0.1227945 0.0014072877 -0.019826176 0.029659528
0001b0 c0 72 02 be 21 7f ce 3d 18 24 e3 3b 4e 33 99 3b
       -0.12739086 0.10082842 0.006931793 0.0046753054
0001c0 4e 27 9c 3d 74 bd 67 3d 6f bb 2f 3d d2 a0 58 be
       0.07624684 0.05657716 0.04290336 -0.21155098
0001d0 1c 4f 0d be 15 1c 5d be b2 4d 11 bc 00 ca a0 3d
       -0.13799709 -0.21592744 -0.008868622 0.078510284
0001e0 c0 4d 40 3d 04 a4 b0 be ff c2 4f be 53 c0 ff bd
       0.04694915 -0.34500134 -0.20289229 -0.12487855
0001f0 9a b9 b0 bc 58 9e 6a bd 52 f1 fc 3c 0e 3f 6d 3d
       -0.021572877 -0.057279915 0.03087679 0.05792146
000200 2d db ad 3d 1f 37 03 3d 54 9a b0 3c 4b 7e 7c be
       0.0848907 0.03203499 0.021557964 -0.24657552
000210 15 a5 8c bd 5f 0c 2c 3e 15 a2 a5 bd 5b 89 51 be
       -0.068674244 0.16801594 -0.08087555 -0.20462553
000220 d7 ed 9a 3d 4b 9f 26 3c db 64 ef bc fa 98 ba be
       0.075648956 0.010169814 -0.029222896 -0.36444837
000230 2a ba e4 bc d2 8b 6d 3d 83 40 00 be c8 4c 3c 3d
       -0.027920801 0.05799467 -0.1252461 0.04597166
000240 07 9c 0f 3c aa 9e 69 bd 35 e3 41 be 9f c9 23 bd
       0.008765227 -0.05703608 -0.18934329 -0.039987203
000250 48 67 8e 3d fb 08 77 3c a9 05 08 bd 72 7f b0 bd
       0.06953293 0.015077825 -0.033208523 -0.08618058
000260 6a 9d 0a bd ca 0d ae 3d ef 90 53 3d 74 9c 6c 3e
       -0.033841528 0.08498724 0.05165189 0.23106557
000270 de d0 cc 3c 6f af 17 3e df 58 5b be 0e 41 d4 bc
       0.02500194 0.14813016 -0.2142062 -0.025909927
000280 cf 9a 85 bc 61 db ce bd 2a 56 0e be 9d c3 63 bd
       -0.01630917 -0.10100437 -0.13900056 -0.055606473
000290 b3 e0 0f 3d a0 fd 8f be 25 15 24 3d f7 8f 0f be
       0.0351264 -0.28123188 0.040059227 -0.14019762
0002a0 0d b7 08 be 32 46 ae bc 6a c4 4a 3d 42 3a 23 3d
       -0.13351078 -0.021273706 0.04950372 0.03985048
0002b0 fc 87 a1 3d a2 4d 1d 3d 58 36 0f bd ed 28 3f bd
       0.07887265 0.038404115 -0.034963936 -0.04666989
0002c0 74 47 2c bd a7 c0 25 3e e3 f8 68 3d 2d 09 93 3b
       -0.04206033 0.16186772 0.056877982 0.004487178
0002d0 5c 44 4f 3c 5d bf ba bd 7f 61 66 3d 8c e5 53 3e
       0.0126505755 -0.09118531 0.056245323 0.20693034
0002e0 28 bd 8c bd 52 31 1a bd 2b 28 b5 3d f0 a4 52 be
       -0.06872016 -0.03764469 0.08845552 -0.20570731
0002f0 7e d8 bd 3c 49 21 88 bd 62 42 e0 ba 92 43 07 3e
       0.02317452 -0.06646974 -0.0017109627 0.1320937
000300 2b 52 ca bc b4 a3 a8 3c 3d 1c 30 3d bf e8 2d bc
       -0.024697384 0.020585872 0.04299568 -0.010614573
000310 80 73 be 3d f3 6f 87 3a d0 08 0b be 58 a8 13 3e
       0.092993736 0.0010333046 -0.1357758 0.14419687
000320 91 1e b2 3d b6 9f 26 3e 5f 7c 0f be 38 30 1b 3d
       0.08697236 0.16271862 -0.14012288 0.03788778
000330 04 a2 55 3e 38 08 56 bd 14 0f 90 3d 8f 37 88 3e
       0.20862585 -0.05225393 0.07034126 0.26604888
000340 8d 86 06 be 73 51 0a bd 23 1b e0 3c 40 d7 5d 3d
       -0.13137265 -0.033769082 0.02735669 0.054160357
000350 38 dc 2c 3e a3 2a 69 bc f6 93 86 be 4b 5d 6b bd
       0.16880882 -0.014231357 -0.2628476 -0.057462018
000360 8a ee 6f 3d 84 44 0a bc 1d 85 67 bd fe 6f 00 be
       0.058577098 -0.008439187 -0.05652343 -0.12542722
000370 e5 c5 2d 3e dc 00 1f be 28 dc 7c bd 4a a2 fc bb
       0.16970022 -0.15527672 -0.061733395 -0.007709776
000380 15 ed 61 be d6 36 d8 3d 83 e8 88 bd 2a 98 1e be
       -0.22063096 0.10557334 -0.06684973 -0.15487733
000390 69 8f 1d 3d 1b 00 0e be 3b c8 d8 3d bb ef 1a be
       0.038466845 -0.13867228 0.10585066 -0.15130512
0003a0 b8 d5 07 3d ef fe 3c be 09 ba 9d 3d f3 68 26 3e
       0.033162802 -0.18456624 0.07701499 0.16250972
0003b0 f5 4b a2 bd a0 11 2a 3d a8 10 7a 3d 5a ea 0d 3f
       -0.07924644 0.041520715 0.06105104 0.5543572
0003c0 3d 14 20 3e 16 a3 2e bd da 58 ab 3d 41 2e c6 3c
       0.1563272 -0.042636 0.083665565 0.024191977
0003d0 59 66 f3 3b 6b 5b da bc 0b 7c 43 bd 45 0b 4f 3d
       0.0074279723 -0.02665492 -0.04772572 0.050547857
0003e0 4e 59 39 bc ea 34 32 bd 0b 73 02 3e e3 19 93 3d
       -0.011312796 -0.043507494 0.12739198 0.07182672
0003f0 67 d8 50 3e a6 f4 93 be ac db f1 3e 1d dd 82 3e
       0.20395051 -0.2889759 0.4723791 0.2555932

log_std_layer.weight f4 [1, 256]
000000 a6 19 c6 bc a8 cd fb 3c 14 31 d8 bd 08 44 48 bd
       -0.024182152 0.030737713 -0.10556236 -0.048893005
000010 8e b6 2b 3c a5 54 c0 3c 4a 63 6f 3d 51 48 ca bb
       0.010480536 0.023477862 0.0584443 -0.0061731716
000020 63 42 b7 3d ea d5 7f bd 48 ae b3 bd 84 ba 87 3d
       0.08948209 -0.062459864 -0.08773476 0.06627372
000030 a1 9e 38 3d 8c 65 ea ba 7b 81 10 3d 24 64 cc bb
       0.045073155 -0.0017883047 0.035279732 -0.0062375236
000040 50 32 cd bc 1b ff ab bd e9 4b 8a bc ce 40 61 3c
       -0.025048405 -0.08398267 -0.0168819 0.013748361
000050 9e 65 2d 3d d1 72 37 3d 6c 18 be bd 48 24 77 3d
       0.042333238 0.04478723 -0.09282002 0.060337335
000060 e9 30 fc 3c a9 e9 84 bd 12 97 df bc 4f c3 e9 3b
       0.03078504 -0.0648988 -0.027293716 0.0071338783
000070 fa 43 03 3b c2 42 01 3d c7 21 b2 bd 06 b3 d3 3d
       0.002002953 0.031557806 -0.08697849 0.103368804
000080 24 90 e5 bc 96 b6 51 3d 9e 12 ad bd b0 a6 ea 3c
       -0.028022833 0.05119952 -0.084508166 0.028643936
000090 ad 5b 57 3d 9b ec e6 3d a5 77 da bd a5 93 e5 3c
       0.052577663 0.11275598 -0.10667352 0.028024504
0000a0 36 33 da 3d b1 33 6f bc 8f 23 42 bd 0c 5e 24 bd
       0.10654299 -0.014599727 -0.047397193 -0.040128753
0000b0 5e 87 bd 3c 41 e8 7f bb df a9 dd 3d 1e 81 06 3d
       0.023135837 -0.0039048346 0.10823416 0.03283798
0000c0 27 9e 8b bd 84 89 96 bd 74 de 47 3d 15 6a 0f 3d
       -0.068172745 -0.07350448 0.048796132 0.035013277
0000d0 b4 5e 81 bd f3 20 05 bd c9 96 c7 3c 8a 09 be bd
       -0.06316891 -0.032502126 0.024363892 -0.09279163
0000e0 b8 b1 3a 3b e7 ee 2f bc 2d c9 89 3d e6 72 00 bd
       0.0028487276 -0.010738111 0.06727824 -0.031359576
0000f0 a1 e5 2f bd 9e 94 85 3d 50 58 4e bb f9 10 2d 3d
       -0.0429436 0.06522487 -0.0031485744 0.042252515
000100 f1 4f e9 3c 76 75 c3 ba de c0 77 3a 7f b8 c7 3c
       0.028480502 -0.0014912325 0.00094510417 0.024379967
000110 16 78 9d bc 3a 71 89 bb 6f 2d 1e bd 2c c5 44 3c
       -0.0192223 -0.004194406 -0.038617548 0.0120099
000120 0a 00 91 3c 0b 8c 8f 39 6f b1 f0 bc 83 5e 8b bd
       0.017700214 0.00027379426 -0.029381482 -0.06805136
000130 d4 82 25 3d 1d e0 56 bd 41 8a 18 3d f0 ad 2f 3d
       0.04040797 -0.052459825 0.037241224 0.04289049
000140 24 67 0a 3d 1a 96 1c bd c6 1f 54 bb 62 5f 22 3d
       0.03378977 -0.038229086 -0.0032367571 0.039641745
000150 cf e3 98 bc c5 c5 70 3b 9e c3 e6 bc 20 d4 9a bb
       -0.018663315 0.0036738974 -0.02816945 -0.0047249943
000160 1e 74 48 bd d0 c7 18 bd 34 7c e9 bd 81 65 7d bc
       -0.048938863 -0.03729993 -0.11400643 -0.015466095
000170 88 3a 4f 3d 41 19 8f bd 84 24 a8 bd a8 31 a2 bd
       0.05059293 -0.06987239 -0.0821009 -0.079196274
000180 27 d6 cb 3b 9e 8a ce ba cf 19 2e 3d a2 ca 92 3c
       0.0062205973 -0.0015757864 0.04250508 0.017918888
000190 f8 06 20 3d 60 08 a1 3c 4d c6 96 bd 74 72 d4 bb
       0.039069146 0.019657314 -0.073620416 -0.0064833704
0001a0 9d e7 26 3d 88 6c 03 3b 07 6b d4 3b 76 b5 dc 3c
       0.040748227 0.0020053703 0.006482485 0.026941996
0001b0 98 53 bc 3d 54 30 2b 3d 62 40 ee 3c ce 49 00 bb
       0.09195632 0.041794136 0.029083434 -0.001957524
0001c0 cd 8a e9 bc 4a a9 a8 bb d6 a2 6c 3d 5e c3 8b 3c
       -0.028508568 -0.005147134 0.05777248 0.017060932
0001d0 8b 9b a8 3d 81 a2 d5 3c f4 be 19 3d c2 c1 55 bc
       0.082327925 0.026078464 0.037535623 -0.013046684
0001e0 c0 de eb bb 76 38 19 3d c2 4d 95 bb 89 52 bf b9
       -0.0071981847 0.03740736 -0.0045563886 -0.00036491852
0001f0 a0 e3 d6 3c 4c 59 30 bd a8 5d 9a 3d bc 6b 02 3d
       0.026231587 -0.04305391 0.07537395 0.031841025
000200 c3 7b 52 be 6a 0b 14 3d 52 24 10 bd 25 66 c3 bd
       -0.20555024 0.036143698 -0.035190888 -0.09540967
000210 a2 dc ee bc 6f 2f 6a bd cf d4 ba bc 1b 09 aa 3b
       -0.02915794 -0.057174142 -0.022806553 0.0051890737
000220 52 8f 1f bb 3e a5 67 3b b5 48 40 bd db c3 1a be
       -0.00243469 0.0035346295 -0.04694434 -0.15113775
000230 cb 29 80 3d 18 87 6a 3d 05 2f fe 3c 20 0e ce bd
       0.062579714 0.05725774 0.03102828 -0.10061288
000240 8a 21 f5 bc c4 41 02 bd 43 a3 84 3d 2c e7 4a 3d
       -0.02992322 -0.031801 0.06476452 0.04953687
000250 38 29 86 3d 5b 6b bf bc f4 6f 31 3d 43 01 04 3d
       0.065508306 -0.02336662 0.043319657 0.032227766
000260 47 4e 07 bd 19 b6 b8 3c ce 6f 8f 3b 3f 05 ec bc
       -0.033033635 0.022547768 0.004377342 -0.028811095
000270 ad 4b 2d 3d c9 67 8f 3d 13 4b b1 3b d6 f8 46 3c
       0.0423085 0.07002217 0.005410561 0.012144288
000280 46 11 6c bd 41 ab 9c 3c 18 5d ad 3c ba 6f d0 3a
       -0.05763366 0.019124629 0.021162555 0.0015902438
000290 4a 42 26 be a5 3d aa bc bc fd 0f 3d 4b 18 cb 3d
       -0.16236225 -0.020781348 0.03515409 0.09916743
0002a0 bf 66 01 3e c9 7c 4a 3c 73 0e 22 3d 42 79 48 3d
       0.12636851 0.012358853 0.03956456 0.048943765
0002b0 f0 d0 d0 bc 76 1e a1 3c 7a 9a 5a 3d 0f 76 0f 3d
       -0.025490254 0.019667845 0.053369977 0.0350247
0002c0 cd 5b 5f 3d 41 0c 0b 3d 56 75 98 bc 1e 70 37 3c
       0.054530907 0.033947233 -0.018610638 0.011196164
0002d0 a4 42 4d 3c 70 e6 86 bd 43 40 a5 bc 0a ff a5 3c
       0.012528095 -0.06586921 -0.020172244 0.020263214
0002e0 69 05 13 3d 84 e5 1b bd b0 ba 7a 3d ce d9 53 bc
       0.03589383 -0.03806068 0.061213195 -0.012930347
0002f0 fb 2e 60 bd 98 a3 c9 bd 88 8d ac 3c 8f 0a fc bc
       -0.054732304 -0.09845656 0.021063581 -0.030766753
000300 0f e3 86 3d ee 0d 31 bd c4 8c 16 bc d0 95 09 bd
       0.06586277 -0.043226175 -0.009188835 -0.033590138
000310 60 22 ea 3c e1 f8 ef bc aa cc 1e 3d ca fe 10 3d
       0.028580844 -0.02929348 0.0387694 0.035399236
000320 c0 74 51 bd 0e 0a e1 bd 74 65 0e 3d fb fd c2 bd
       -0.051136732 -0.10988246 0.034764722 -0.09521099
000330 9a 18 1c 3d 47 0c 1c bd 14 e6 ab 3d 4f 14 ce bd
       0.0381094 -0.038097646 0.08393493 -0.10062467
000340 ff 6d db 3c db 10 be 3c c4 7a 1f 3c 34 6b a4 3c
       0.026785849 0.023201397 0.009733859 0.02007065
000350 54 b6 e6 3d 1a dd b8 3c 08 6e 89 3c 72 5f 26 3d
       0.11265245 0.022566367 0.0167761 0.040618367
000360 fc d5 e9 bc 00 c8 4f bd 40 60 c4 bc 73 4b c0 3c
       -0.028544419 -0.050727844 -0.023971677 0.023473477
000370 f2 cb df ba 4d 88 3e bd 32 d2 23 bd 42 d9 25 bd
       -0.001707433 -0.046516705 -0.03999538 -0.040490396
000380 f4 f2 3f bd 24 7b 67 bd 39 fb 44 bd 20 db 9c 3c
       -0.046862558 -0.05651392 -0.048091147 0.019147456
000390 cd fd 5d bd 35 01 70 bd c0 b0 78 3c e5 2b bd bb
       -0.05419712 -0.0585949 0.015178859 -0.005773055
0003a0 5b 17 66 3d 99 33 d8 3c a2 f0 d8 3d 85 07 2b 3d
       0.056174617 0.026391791 0.10592772 0.041755218
0003b0 de 57 cb 3d e4 ee 3d bd 5a f9 03 3d 96 14 40 bd
       0.09928869 -0.046370402 0.032220222 -0.046894632
0003c0 d7 10 8a 3c b4 14 45 3c 75 72 43 3d 7c fb 17 bd
       0.016853733 0.012028862 0.047716577 -0.03710507
0003d0 0f b9 2c 3c a1 5e 1a 3d ab ef 33 bd d1 68 15 bd
       0.010542168 0.0376879 -0.043929737 -0.036476914
0003e0 5a dc ef bc f2 09 8f bc 8b b4 60 3d 7a 9c 21 3b
       -0.029279877 -0.017460797 0.05485968 0.0024659918
0003f0 25 75 95 bd 60 4d 05 bd d7 4c e4 bd 9f f4 6d bd
       -0.07297734 -0.032544494 -0.111474685 -0.058094617
