5.2 SAC-Continuous/model/PV1_q_critic10.pth (torch, 543266 bytes, 10 tensors)

Q_1.0.weight f4 [256, 4]
0	0x3e1d4ac9	0.1536056
1	0xbf032b66	-0.51238096
2	0xbdfe3f8a	-0.12414463
3	0xbd014478	-0.031559438
4	0xbf19c4f0	-0.6006613
5	0x3f12f8ca	0.5741087
6	0x3e3d4577	0.1848353
7	0xbdd3dab1	-0.103444465
8	0xbe8eeb4a	-0.27913886
9	0x3eb95e06	0.36204547
10	0xbc7fa717	-0.015603802
11	0x3ea31554	0.3185221
12	0x3ebba3bc	0.36648357
13	0x3f283a46	0.6571392
14	0xbe8c53a9	-0.27407578
15	0xbe466df0	-0.19377875
16	0x3dfc7034	0.123260885
17	0xbf3c6b3b	-0.7360112
18	0xbecadad3	-0.39620075
19	0xbe185436	-0.14875874
20	0x3f31079c	0.69152236
21	0x3ef828e1	0.48468688
22	0x3e763b12	0.24045971
23	0x3d7464bb	0.059666377
24	0x3e03ac7d	0.12858768
25	0xbf26b19d	-0.65114766
26	0xbec6aae4	-0.38802254
27	0xbe35a120	-0.17737246
28	0x3edc1bc1	0.42989925
29	0xbe4aec36	-0.1981667
30	0xbe9bade8	-0.30406117
31	0x3e3e75de	0.1859965
32	0x3ea30a22	0.31843668
33	0x3e9133d7	0.28359863
34	0x3e00407b	0.12524597
35	0x3e9ad254	0.30238593
36	0x3ead3f92	0.33837563
37	0xbf204c27	-0.626162
38	0xbeb312f4	-0.34975398
39	0xbd888365	-0.066656865
40	0x3f0c0b2c	0.54704547
41	0x3e6d959b	0.23201601
42	0xbe4f8f78	-0.20269573
43	0xbb3b377b	-0.0028567004
44	0xbe71bac2	-0.23606399
45	0x3e9f4b3b	0.31112084
46	0xbec959bc	-0.39326274
47	0xbda89bf1	-0.082328685
48	0x3e8f7fab	0.2802709
49	0xbea2109e	-0.31653303
50	0x3eaefb08	0.34175897
51	0x3e9327f2	0.28741413
52	0x3ef4f735	0.47844854
53	0xbf033510	-0.5125284
54	0x3d981360	0.074255705
55	0x3e0ce058	0.13757455
56	0x3e0495e6	0.12947807
57	0x3f886dd1	1.0658513
58	0x3e60df41	0.21960165
59	0x3dbff853	0.09373536
60	0x3e94841e	0.29007047
61	0xbe1494fb	-0.14509957
62	0xbec7cfe0	-0.39025784
63	0x3e9c7d5d	0.30564395
64	0x3ea00c3e	0.3125934
65	0xbee6599e	-0.44990247
66	0x3ea83594	0.32853377
67	0x3e7be5c7	0.24599372
68	0x3f04a2a2	0.5181066
69	0xbc74cae5	-0.014940952
70	0x3e85c300	0.26125336
71	0x3e027a26	0.12741908
72	0xbedcea19	-0.43147352
73	0x3f69d159	0.91335064
74	0x3d683b66	0.05669727
75	0xbe6c6e73	-0.23089008
76	0xbe2fa5f1	-0.17153145
77	0x3f4adc43	0.7924234
78	0x3e628ab3	0.22123222
79	0xbe3b734e	-0.18305704
80	0xbdc92535	-0.0982155
81	0xbf2b31aa	-0.66872656
82	0xbe7f8ec6	-0.24956807
83	0x3ee9832b	0.45607886
84	0xbe64d0fe	-0.22345349
85	0x3f793eea	0.97361624
86	0x3dcb3be4	0.099235326
87	0xbc7eeec3	-0.015559855
88	0xbf20fcd8	-0.6288581
89	0x3db29b2b	0.08721002
90	0x3ce8cc07	0.0284176
91	0xbc84ab7f	-0.016195057
92	0x3e9a1e53	0.3010126
93	0x3ee06338	0.43825698
94	0x3dec7ba2	0.115470186
95	0xbe88c21c	-0.26710594
96	0xbe6fbf00	-0.23412704
97	0xbf1a76c5	-0.6033748
98	0xbe102f33	-0.14080505
99	0xbd1d89a1	-0.03846133
100	0x3f1ba803	0.6080324
101	0x3eedacb0	0.46420813
102	0x3ed263a9	0.4109166
103	0x3e84d08b	0.25940356
104	0x3f176ce8	0.5915055
105	0xbe3de408	-0.18544018
106	0x3ec0b0a4	0.37634766
107	0xbe5e3062	-0.21698144
108	0xbe81b84a	-0.25335914
109	0xbf0d4aa4	-0.5519202
110	0xbe04539a	-0.12922516
111	0x3e38425e	0.17994067
112	0x3e515d95	0.20445855
113	0x3f0bd7d9	0.5462623
114	0xbed1156d	-0.4083666
115	0x3cc5024d	0.024048949
116	0xbebef26d	-0.3729433
117	0xbe02fde2	-0.12792161
118	0xbe7ff828	-0.24997008
119	0xbe89de61	-0.26927474
120	0x3e0a7f6a	0.13525167
121	0x3f2070cb	0.6267211
122	0xbe8649f7	-0.26228306
123	0x3ed8e87e	0.42364877
124	0x3ea39fe7	0.31957933
125	0x3dedf0bb	0.11618181
126	0x3df9d2f4	0.12198439
127	0x3eb2c127	0.3491299
128	0xbe956fbc	-0.2918681
129	0x3da8aaad	0.08235679
130	0x3e1f92d8	0.1558336
131	0x3d16424d	0.036684323
132	0xbec87b3a	-0.39156514
133	0xbe444be7	-0.1916958
134	0xbed92d39	-0.42417315
135	0x3ee93952	0.45551544
136	0xbe175b08	-0.1478082
137	0x3f006409	0.5015264
138	0xbea20686	-0.31645602
139	0x3e169795	0.14706261
140	0x3dbdc676	0.09266369
141	0xbee57905	-0.44818893
142	0x3d988dd2	0.07448925
143	0x3e0ccc02	0.13749698
144	0x3eea749d	0.45792094
145	0xbd63fc02	-0.055660255
146	0x3e0ee889	0.13955893
147	0x3eaa4dda	0.3326252
148	0xbeb8ed6e	-0.36118644
149	0xbed18c0f	-0.4092717
150	0x3d2e5eb3	0.04257078
151	0xbea95f9c	-0.33080757
152	0xbebbbbf0	-0.36666822
153	0xbe8a82d3	-0.27052936
154	0x3efabcc5	0.48972145
155	0xbebfe912	-0.37482506
156	0x3ea5722e	0.32313675
157	0xbf163b9f	-0.58684725
158	0x3df20ca5	0.11818818
159	0xbd8670d0	-0.06564486
160	0xbeaf108f	-0.3419232
161	0x3ee60ea2	0.4493304
162	0xbef5ff4b	-0.48046336
163	0xbea289ef	-0.3174586
164	0xbf4428c9	-0.76624733
165	0x3e81b2cb	0.2533172
166	0xbe00523a	-0.12531367
167	0x3ea809f1	0.32820085
168	0xbeea60e2	-0.4577704
169	0xbe752ed9	-0.23943652
170	0x3eb22e1f	0.34800813
171	0xbf0e94ae	-0.5569562
172	0x3f3642d7	0.7119574
173	0xbf39b479	-0.72541004
174	0xbe89da8b	-0.26924548
175	0xbdaa6841	-0.08320666
176	0x3f02bded	0.51071054
177	0x3f0c305e	0.547613
178	0x3e621d25	0.2208143
179	0x3e0050bc	0.12530798
180	0xbeeb82c8	-0.45998216
181	0xbe9a185f	-0.3009672
182	0x3ee19d41	0.44065288
183	0xbddb7321	-0.107153185
184	0xbe98665b	-0.2976559
185	0x3eefe7d8	0.4685657
186	0xbe82557d	-0.25455847
187	0x3e55bb39	0.20872201
188	0x3eb7fce0	0.35935116
189	0xbf66e726	-0.90196455
190	0xbe5fa3f9	-0.21839894
191	0xbd7022ff	-0.058627125
192	0xbeb8395b	-0.3598126
193	0xbf0a5bf7	-0.5404658
194	0x3d3d5fb9	0.046233866
195	0x3ea566e1	0.32305053
196	0xbe40c4aa	-0.18825021
197	0x3f8b37e9	1.0876437
198	0x3e76a6c9	0.24087061
199	0x3ddf6ccb	0.109094225
200	0xbe485621	-0.19564106
201	0xbf668e59	-0.90060955
202	0xbe4bed22	-0.19914678
203	0xbd869262	-0.06570889
204	0xbe98d0e7	-0.2984688
205	0x3e3829b2	0.17984655
206	0xbd619cb6	-0.05508109
207	0x3ef05d14	0.46946013
208	0x3f2cacc7	0.6745114
209	0x3f267830	0.6502714
210	0x3e82b4f6	0.25528687
211	0x3d94a5b0	0.07258165
212	0xbd4c1c90	-0.049831927
213	0xbe99d3a5	-0.30044284
214	0xbeb5e84b	-0.35528788
215	0xbe129b9f	-0.14317177
216	0xbe8acd70	-0.2710986
217	0xbe60ea96	-0.21964487
218	0xbec774aa	-0.38956195
219	0xbd8de914	-0.06929222
220	0xbea77281	-0.32704547
221	0x3cb6f616	0.02233414
222	0x3ef68176	0.48145646
223	0xbedf7cbc	-0.43649852
224	0xbed80b9f	-0.42196366
225	0xbef1e398	-0.47243953
226	0x3ed304de	0.4121465
227	0x3e960994	0.29304183
228	0x3d86ed02	0.065881744
229	0x3e8f87f8	0.28033423
230	0xbeeb3cc8	-0.4594481
231	0xbe187549	-0.1488849
232	0x3e174899	0.14773788
233	0xbf5257ea	-0.82165396
234	0xbe03717c	-0.1283626
235	0x3e1aa4f9	0.15101995
236	0x3ef82636	0.48466653
237	0x3da1fe5b	0.079098426
238	0x3eea0ee5	0.4571449
239	0xbe748e9c	-0.23882526
240	0x3eb6e54a	0.3572181
241	0x3dc00823	0.09376552
242	0x3e256e50	0.16155362
243	0xbc74a1c3	-0.014931145
244	0x3e699e49	0.22814287
245	0xbed1aa88	-0.40950418
246	0x3e83887e	0.25690073
247	0xbd1f95eb	-0.038961332
248	0x3ed5d9cf	0.41767737
249	0x3f4cd3fc	0.8001096
250	0x3e5f2a4b	0.21793477
251	0x3d688b98	0.056773752
252	0xbec2e734	-0.3806702
253	0xbe504624	-0.20339257
254	0x3e4011af	0.18756746
255	0x3e292e43	0.16521554

Q_1.0.bias f4 [256]
0	0xbc956047	-0.018234385
1	0x3e3eb6d8	0.18624437
2	0x3f1a0f74	0.6017983
3	0x3ed3b6d4	0.41350424
4	0x3dc8d758	0.098066986
5	0xbef1352c	-0.4711088
6	0xbece60c1	-0.40308192
7	0x3eb0ae27	0.34507868
8	0x3f0501ca	0.51955855
9	0xbe47e631	-0.19521405
10	0xbe972168	-0.29517674
11	0xbda08dbd	-0.078395344
12	0x3c119cee	0.008887513
13	0x3e9c583a	0.30536062
14	0x3de06fc7	0.1095882
15	0xbf01ff86	-0.5078052
16	0x3ed818f8	0.4220655
17	0x3e821c52	0.25412232
18	0x3dbe8701	0.09303094
19	0x3ec46689	0.38359478
20	0x3ef7ec3f	0.4842243
21	0xbd201068	-0.039078146
22	0xbe477798	-0.19479215
23	0x3f0b0189	0.5429922
24	0x3d8819b9	0.06645531
25	0x3f037671	0.513526
26	0xbd8cb8e8	-0.068712056
27	0xbe95f4f9	-0.29288462
28	0x3de574b1	0.11203898
29	0xbd14f4c1	-0.036366228
30	0xbddf1eef	-0.10894572
31	0xbc84ce1e	-0.016211566
32	0x3f02f67a	0.51157343
33	0xbebc3541	-0.3675938
34	0xbee69e59	-0.45042685
35	0x3e60e463	0.21962123
36	0x3f0aeb5e	0.5426539
37	0x3f0f1e4c	0.55905604
38	0x3e37fd90	0.1796782
39	0x3e8ab6c2	0.27092558
40	0xbd90d323	-0.07071521
41	0x3ef40b43	0.47664842
42	0x3e819adf	0.2531347
43	0xbec5a4eb	-0.38602385
44	0x3e9c344f	0.30508658
45	0xbe214e54	-0.15752536
46	0x3f085aab	0.5326335
47	0xbf08635b	-0.53276604
48	0x3f164853	0.5870411
49	0xbe493280	-0.1964817
50	0xbd1354a3	-0.035969388
51	0xbe052cbe	-0.13005349
52	0xbec89dea	-0.3918298
53	0xbeea9ee7	-0.45824358
54	0xbf012216	-0.50442636
55	0x3d273420	0.040821195
56	0x3e17a3d7	0.14808594
57	0x3df416b1	0.119183905
58	0xbdc475e6	-0.095928
59	0x3e9370e2	0.2879706
60	0x3eb1f413	0.34756526
61	0x3efd9e0e	0.4953465
62	0xbf14bda1	-0.5810185
63	0x3f171558	0.5901694
64	0xbe62b3bf	-0.2213888
65	0xbee0f0d9	-0.43933752
66	0xbdd71fc4	-0.10504106
67	0x3efa7496	0.48917073
68	0xbe00ab43	-0.12565331
69	0xbe908991	-0.28229955
70	0xbedd3663	-0.43205556
71	0xbedc360b	-0.43009982
72	0x3ee3c2a8	0.44484448
73	0xbf1432e7	-0.5789017
74	0xbf2c4952	-0.6729938
75	0xbe001d41	-0.1251116
76	0x3ecc9b94	0.39962447
77	0xbef2938a	-0.47378188
78	0xbdd33618	-0.10313052
79	0x3e4ac809	0.1980287
80	0xbe6656b6	-0.22494015
81	0xbf44dfab	-0.7690379
82	0x3f016e93	0.5055935
83	0x3aeb6af0	0.0017960947
84	0x3e9a3426	0.3011791
85	0xbeaea262	-0.34108263
86	0x3e9b046c	0.3027681
87	0xbef6c904	-0.48200238
88	0x3e02eeed	0.12786455
89	0x3ea2e0bf	0.31812093
90	0xbe011a81	-0.12607767
91	0x3ed40b3a	0.41414815
92	0x3e332dcf	0.17497943
93	0xbe05d83f	-0.13070773
94	0xbdf055a3	-0.11735084
95	0xbf215084	-0.6301348
96	0x3f03eab9	0.51530033
97	0x3f10c14f	0.56544966
98	0x3f03745c	0.51349425
99	0xbf13d930	-0.57753277
100	0x3ef317d6	0.47479123
101	0x3ed3043b	0.41214165
102	0xbbb97eca	-0.0056608664
103	0xbe847d9a	-0.25877076
104	0x3ef0ec26	0.47055167
105	0x3e36f400	0.17866516
106	0x3e18b8f1	0.149143
107	0x3eec4fb8	0.4615457
108	0xbe54956a	-0.20760122
109	0xbe427e50	-0.18993497
110	0x3eec68fe	0.46173853
111	0xbf038b67	-0.51384586
112	0xbe924b0d	-0.28572884
113	0xbedd6d57	-0.43247482
114	0x3dd0dbbc	0.10198161
115	0x3ee1403f	0.43994328
116	0x3e2db73a	0.16964427
117	0xbdceff0b	-0.10107239
118	0xbeb01454	-0.3439051
119	0xbd9ea880	-0.077469826
120	0xbdc4dc29	-0.09612305
121	0x3e29e4a0	0.1659112
122	0x3f03e586	0.515221
123	0xbe57bcad	-0.21068068
124	0x3dbd2862	0.09236218
125	0x3eabe25a	0.3357113
126	0xbf1113ab	-0.56670636
127	0xbe338052	-0.17529419
128	0xbf08e008	-0.53466845
129	0x3ebeeee9	0.3729165
130	0xbe5b2d7f	-0.21404074
131	0x3e38cf20	0.18047762
132	0x3ef0e38e	0.4704861
133	0x3ec6955b	0.38785824
134	0xbe33c50b	-0.17555635
135	0xbed898a1	-0.42303947
136	0x3e8373ed	0.25674382
137	0x3f14f163	0.58180827
138	0x3dd8009b	0.105469905
139	0xbd15b50c	-0.036549613
140	0xbdee42ca	-0.11633833
141	0xbe7adcbc	-0.24498266
142	0xbe6cf162	-0.23138955
143	0x3e85954d	0.2609047
144	0x3dd235f3	0.10264196
145	0xbd763175	-0.06010576
146	0xbee311f8	-0.44349647
147	0xbdc931df	-0.09823965
148	0x3c9e1c35	0.01930056
149	0x3eb8ab77	0.36068317
150	0xbece0ad2	-0.4024263
151	0xbd1826f9	-0.037146542
152	0x3ecf9148	0.40540528
153	0x3f0278ff	0.50965875
154	0xbe0cecb3	-0.13762169
155	0x3c00caf2	0.007860886
156	0xbf07d133	-0.5305359
157	0x3ed855c3	0.4225293
158	0x3f0ea154	0.5571492
159	0x3f0603c9	0.52349526
160	0x3ec5bdb4	0.38621294
161	0x3e8a052f	0.2695708
162	0xbecbdb7f	-0.398159
163	0x3eebb1b4	0.46034014
164	0x3edbcef1	0.4293132
165	0x3cb5d5ac	0.022196613
166	0xbf01fee7	-0.50779575
167	0x3e26be78	0.16283596
168	0x3ebb1238	0.36537337
169	0x3de28c42	0.11061908
170	0xbf3bff31	-0.73436266
171	0xbe8e3daf	-0.27781436
172	0xbe85c3ca	-0.26125938
173	0xbd1dea7b	-0.038553696
174	0x3e002b81	0.12516595
175	0x3e3228ae	0.1739833
176	0xbeea88d9	-0.4580753
177	0xbed23051	-0.41052487
178	0xbe8990cd	-0.26868287
179	0x3f198a16	0.5997633
180	0xbec39ea4	-0.3820697
181	0xbf25f762	-0.648306
182	0xbe9a4d23	-0.30136976
183	0xbeb8fddc	-0.3613118
184	0xbefc8378	-0.49319053
185	0x3ed30278	0.4121282
186	0x3decdf84	0.1156607
187	0xbeb4bd93	-0.35300884
188	0xbc163813	-0.009168643
189	0xbd3c4b50	-0.04597026
190	0xbe5b4e51	-0.21416594
191	0x3d6cc10f	0.057801303
192	0x3ef432d3	0.47695026
193	0x3e1ea25d	0.15491624
194	0x3f0c2dd4	0.5475743
195	0x3ec4ea17	0.38459846
196	0x3efd1780	0.49431992
197	0xbeeec1fd	-0.46632376
198	0xbe55b495	-0.20869668
199	0xbe98a9a6	-0.2981693
200	0x3f0864ee	0.53279006
201	0xbe6be500	-0.23036575
202	0x3e65d367	0.22443925
203	0x3ee764d6	0.4519412
204	0xbde715d9	-0.11283464
205	0x3eb60337	0.35549328
206	0x3eb6c6d0	0.35698557
207	0xbe943320	-0.28945255
208	0x3e30ace2	0.1725345
209	0x3e092c5e	0.13395831
210	0x3ef6b7b3	0.48187026
211	0x3eb88386	0.36037844
212	0x3f13b2a2	0.5769445
213	0xbdf2c941	-0.118547924
214	0x3ef429f0	0.47688246
215	0xbed5dce6	-0.41770095
216	0x3d22fdfa	0.039792992
217	0xbe4abd74	-0.19798833
218	0x3f25d30b	0.6477515
219	0x3c4a6695	0.012353559
220	0x3f0014d9	0.5003181
221	0x3e2711e2	0.16315416
222	0x3e1fabd7	0.15592895
223	0xbc78f853	-0.015195924
224	0x3ed0b52e	0.4076323
225	0x3eb5855e	0.35453314
226	0xbecdeb91	-0.40218785
227	0x3f0cdb69	0.55022293
228	0xbeb7be78	-0.35887504
229	0x3e3b0b2e	0.18265983
230	0xbe1490ce	-0.14508364
231	0x3e480d72	0.19536379
232	0xbe9bb1dc	-0.30409133
233	0x3e5dd4b1	0.21663167
234	0x3b35f691	0.0027765373
235	0x3e3f6af6	0.18693146
236	0xbdca619a	-0.09881897
237	0xbd70c397	-0.05878028
238	0x3f007a87	0.5018696
239	0xbed36f06	-0.41295642
240	0xbee5346a	-0.4476655
241	0xbf08f1e4	-0.53494096
242	0x3ded024d	0.115727045
243	0x3ef45180	0.4771843
244	0xbf06f6f1	-0.5272055
245	0x3efba131	0.49146417
246	0x3edca17d	0.43091956
247	0x3f183840	0.5946083
248	0xbe310bf6	-0.17289719
249	0xbea78367	-0.3271744
250	0x3ebc5061	0.36780074
251	0xbeb963eb	-0.36209044
252	0xbed9d87a	-0.4254797
253	0x3eb53a26	0.35395926
254	0x3ebbeb01	0.3670273
255	0xbeede992	-0.46467263

Q_1.2.weight f4 [256, 256]
0	0xbc947c0b	-0.018125555
1	0xbce78738	-0.02826272
2	0x3d0001b4	0.031251624
3	0x3d27bdac	0.04095237
4	0x3b9b6d86	0.004743281
5	0x3dd2f58d	0.10300741
6	0xbca3dbe4	-0.020002313
7	0x3c15154d	0.009099317
8	0x3c070937	0.008241943
9	0x3d571c5c	0.05251728
10	0x3d716a3d	0.058939207
11	0x3d795d74	0.06088014
12	0x3b3ee654	0.0029128985
13	0x3da8f07f	0.08248996
14	0xbc15c2e4	-0.009140704
15	0x3d59bbfe	0.0531578
16	0x3d5a39f7	0.053277936
17	0x3c15271a	0.009103561
18	0x3dc125ea	0.0943106
19	0xbb896e14	-0.0041940305
20	0x3d16598f	0.036706503
21	0x3cfb59af	0.030682413
22	0x3c734438	0.014847808
23	0x3dafb5f1	0.085796244
24	0xbc1ac1f4	-0.009445656
25	0x3de37d11	0.11107839
26	0x3d26d568	0.040730864
27	0x3c41c37e	0.011826394
28	0x3db34951	0.08754218
29	0x3d595be1	0.05306614
30	0x3c6b4bf3	0.014361369
31	0x3cd75842	0.026287202
32	0x3d7567ab	0.05991332
33	0x3d67c05e	0.05657994
34	0x3cd91f41	0.02650416
35	0x3da64e55	0.081204094
36	0x3d123232	0.0356924
37	0x3d0ec6bd	0.0348575
38	0xbc5db2f5	-0.013531436
39	0x3c7d22d3	0.015450197
40	0xbd00fcb8	-0.03149101
41	0xbc707797	-0.01467695
42	0x3cdbe9e2	0.026844922
43	0x3c95e10b	0.018295785
44	0x3d28a1a4	0.041169778
45	0x3d776b0e	0.06040483
46	0x3dd351e2	0.10318352
47	0xbdbf4987	-0.09340196
48	0x3dc4eaac	0.096150726
49	0xbc33644a	-0.010949204
50	0x3cc70927	0.024296356
51	0xbd1a2f88	-0.037642986
52	0x3dc21f13	0.09478583
53	0xbca59401	-0.020212175
54	0xbc5899fc	-0.0132203065
55	0x3d6a56ca	0.057211675
56	0x3d82af6d	0.06381116
57	0x3be89d77	0.0070988494
58	0x3db30f9e	0.08743213
59	0x3d9642ed	0.07336984
60	0x3d07ee9d	0.033186544
61	0x3db64d75	0.089014925
62	0x3c82d6b7	0.015971525
63	0x3db501ad	0.0883821
64	0x3d8c8b24	0.068624765
65	0xbd413230	-0.047167003
66	0xbc6b9112	-0.014377849
67	0x3cb008cc	0.02148857
68	0x3c0873af	0.008328362
69	0xbc121e2d	-0.008918327
70	0xbd70f8b2	-0.058830924
71	0x3d072841	0.032997373
72	0x3d4c0fda	0.049819805
73	0xbb23add5	-0.0024975438
74	0x3c7c4960	0.015398353
75	0x3d1286fe	0.03577327
76	0x39e0f31e	0.00042905746
77	0x3bed8277	0.0072482186
78	0xbc69e49c	-0.014275696
79	0x3c9fae65	0.019492337
80	0x3bb60be2	0.0055556158
81	0xbc840d61	-0.01611966
82	0x3c4eee88	0.0126301125
83	0x3d4b5f74	0.049651578
84	0x3c9ba4b8	0.018999442
85	0xbcdf66df	-0.027270732
86	0x3cacc8dd	0.021091873
87	0xbd4494cf	-0.047993477
88	0x3d8a89e1	0.067645796
89	0x3ce7024f	0.028199343
90	0xbb77d4b5	-0.0037815992
91	0x3d4381c9	0.047731195
92	0x3ce0fd94	0.027464665
93	0x3cf87604	0.030329712
94	0xbd35ebf0	-0.04441446
95	0x3cac3546	0.021021497
96	0x3d9c5ec7	0.07635265
97	0x3d97c951	0.07411445
98	0xbb92d5cb	-0.0044810525
99	0xbb1267ba	-0.0022339658
100	0x3c74e7e5	0.014947866
101	0x3bfd6d78	0.007733997
102	0x3da09882	0.078415886
103	0x3d8b6ebe	0.06808232
104	0x3d02d036	0.031936847
105	0x3dbf80d1	0.09350742
106	0x3dc73a17	0.09727877
107	0x3def1989	0.11674792
108	0x3d421a1a	0.047388174
109	0x3d2879a8	0.041131645
110	0x3d4b4664	0.049627677
111	0xbe95acc3	-0.2923337
112	0x3d61b8cd	0.05510788
113	0x3cb04c91	0.021520885
114	0x3cc81783	0.024425274
115	0x3e0ae0ad	0.1356227
116	0x3dd7cd4f	0.105372064
117	0x3ba18192	0.004928776
118	0xbd168959	-0.03675208
119	0x3cfcf8fa	0.03088044
120	0x3d485b57	0.048915233
121	0x3d62bd51	0.055356327
122	0x3dc61020	0.09671044
123	0x3cfd1098	0.030891702
124	0x3d9bae1a	0.076015666
125	0x3d9e52aa	0.07730611
126	0xbd2494d4	-0.040180996
127	0x3c393871	0.011304961
128	0x3d2f6c04	0.04282762
129	0x3c8078ae	0.015682545
130	0xbd1ca044	-0.03823878
131	0x3bf354ef	0.0074258964
132	0x3da50520	0.08057618
133	0x3d6001ad	0.0546891
134	0x3d25a9b4	0.040445045
135	0xbd0fef7b	-0.035140496
136	0x3d807fda	0.06274386
137	0x3dba2c33	0.090904616
138	0xbd14b163	-0.03630198
139	0x3db4b4a6	0.088235185
140	0x3d2d90db	0.042374473
141	0x3c33fe94	0.010985989
142	0xbd52d3b2	-0.05147142
143	0x3d9ca994	0.07649532
144	0xbcc3ebaa	-0.023916084
145	0x3bf7ceac	0.007562479
146	0x3d7a60b5	0.061127383
147	0x3d991ce7	0.07476216
148	0xbc3de5c9	-0.01159043
149	0x3d028bfc	0.03187178
150	0x3d7bff5d	0.06152283
151	0x3d3bebac	0.04587905
152	0x3bac0551	0.005249657
153	0xbc62310f	-0.013805642
154	0x3dd8629f	0.105656855
155	0x3da1bae6	0.07896976
156	0x3c8846d3	0.016635334
157	0x3dd71d9d	0.10503695
158	0x3d8083ae	0.06275116
159	0x3dd21507	0.10257917
160	0x3d2a3724	0.041556492
161	0x3d9b56e3	0.07584932
162	0x3cdc7ecc	0.02691593
163	0x3d4df7e3	0.05028523
164	0x3c73570f	0.014852299
165	0xbd0a5597	-0.03377303
166	0x3d748b3b	0.059703093
167	0xb9de529f	-0.00042404697
168	0x3da52853	0.08064332
169	0x3c0c67b6	0.0085696485
170	0x3d94d746	0.07267623
171	0x3cd9526d	0.026528561
172	0x3ba90050	0.005157508
173	0x3ce0cad7	0.027440472
174	0xbd02fd33	-0.03197975
175	0x3c0fbe93	0.008773464
176	0xbd001bee	-0.031276636
177	0x3c00c211	0.007858769
178	0x3cc6efce	0.02428427
179	0x3d9cacc3	0.07650139
180	0xbcdb36b2	-0.02675948
181	0xbb15e8f5	-0.002287445
182	0xbd2ab426	-0.04167571
183	0xbd285c53	-0.041103672
184	0xbd24fce2	-0.04028023
185	0x3d92b8f6	0.07164185
186	0x3d9c8b68	0.07643777
187	0xbb2544f5	-0.0025218104
188	0x3ce3a254	0.027787365
189	0x3d7a2450	0.061069787
190	0x3d3dbe58	0.046324104
191	0x3d99e0e3	0.07513597
192	0xbbf4d3de	-0.0074715456
193	0x3d8f7992	0.070056096
194	0x3d5b3c4d	0.053524304
195	0x3d1cedbe	0.038312666
196	0x3dbb8329	0.09155876
197	0xbc1553c8	-0.009114213
198	0x3c63f778	0.013913982
199	0x3d067c24	0.032833233
200	0x3d05568c	0.03255324
201	0xbcf9c805	-0.030490885
202	0x3d8d7ba1	0.06908346
203	0x3cd950bf	0.02652776
204	0xbd22ad43	-0.039716017
205	0x3d341244	0.043962732
206	0x3d5b7bb4	0.05358477
207	0x3d3cbb4d	0.04607706
208	0x3d920517	0.07129877
209	0xbba761e6	-0.005108106
210	0x3dba50d1	0.09097446
211	0xbc3b4f02	-0.011432411
212	0x3d6f621a	0.058443166
213	0xbcdb8097	-0.026794715
214	0x3d112b0e	0.03544145
215	0xbd7e1aef	-0.062037405
216	0x3e016e90	0.12639832
217	0xbd6715c2	-0.056417234
218	0x3c34563c	0.011006888
219	0xbd1b6bee	-0.037944727
220	0x3c15fc21	0.0091543505
221	0xbcfad9e6	-0.03062148
222	0x3ceb58c8	0.028728858
223	0xbcfd6e47	-0.030936373
224	0x3dc3537a	0.09537406
225	0x3dc3a0f2	0.09552182
226	0x3df1bfc7	0.11804157
227	0x3db3ccf3	0.08779325
228	0x3d90fa6d	0.07079015
229	0x3d6df975	0.05809923
230	0xbcde125f	-0.02710837
231	0x3ccf0892	0.025272641
232	0x3ce5c382	0.028047327
233	0x3dbd57aa	0.09245236
234	0x3c8db5c0	0.01729858
235	0x3dda532d	0.10660396
236	0x3c98ac98	0.018636987
237	0xbc845c12	-0.016157184
238	0x3ca16a44	0.019703992
239	0xbcc56d75	-0.024100045
240	0xbd3d07ff	-0.046150204
241	0xbc38a8c1	-0.011270703
242	0x3d2f5893	0.04280908
243	0x3c7e7466	0.015530681
244	0xb9d38951	-0.00040347365
245	0x3dc2dee9	0.09515173
246	0x3da89a6e	0.0823258
247	0xbb43896b	-0.0029836546
248	0xbd0da315	-0.034579355
249	0xbd33a87a	-0.043861844
250	0x3ce6934b	0.028146407
251	0x3bbeddf6	0.0058247996
252	0x3d968627	0.07349806
253	0x3dec69f3	0.11543646
254	0x3c74451d	0.014909056
255	0x3d34154e	0.04396563

Q_1.2.bias f4 [256]
0	0x3ce06786	0.027393114
1	0xbbdabf28	-0.0066756196
2	0xbd14e8cc	-0.036354825
3	0xbd030b4b	-0.03199319
4	0x3c2d7210	0.010586277
5	0x3dfa727d	0.12228868
6	0x3dd2cb83	0.10292723
7	0x3dfa3650	0.122173905
8	0x3d110059	0.035400722
9	0xbcfb37e8	-0.030666307
10	0x3c8ef378	0.01745008
11	0x3df28faf	0.11843812
12	0x3d71c79c	0.059028253
13	0x3e08da5c	0.13364547
14	0x3beb69e2	0.007184253
15	0xbe120c15	-0.14262421
16	0xbd90160d	-0.07035456
17	0x3df71bb6	0.12065832
18	0x3d8ad3d5	0.06778685
19	0xbc7ada22	-0.015310796
20	0xbd855250	-0.065098405
21	0xbd8b4172	-0.06799592
22	0x3d7372c2	0.059435613
23	0x3defefb0	0.11715639
24	0x3d06bfce	0.032897763
25	0xbcb5e126	-0.022202086
26	0xbcaf95ce	-0.021433737
27	0x3d2ebbdd	0.04265963
28	0x3cedf8ba	0.029049266
29	0xbc9dddb5	-0.019270757
30	0x3d0a911b	0.03382979
31	0xbc360238	-0.011108927
32	0x3ddd5048	0.10806328
33	0xbd372771	-0.04471535
34	0xbd9eabf4	-0.07747641
35	0x3dbec236	0.093143865
36	0xbe0db9cb	-0.13840406
37	0x3d913512	0.070902005
38	0xbcc476c8	-0.02398242
39	0xbd41f6b6	-0.047354423
40	0xbdc34722	-0.09535052
41	0x3cc80760	0.02441758
42	0xbdc88243	-0.097904705
43	0x3d9d92b1	0.07693995
44	0x3c87dca2	0.016584698
45	0xbc043cd3	-0.008071142
46	0x3de804f3	0.11329069
47	0x3caabd96	0.020842355
48	0x3ca7faf7	0.020505412
49	0xbd3bcc35	-0.045849044
50	0xbc27bbdf	-0.010237663
51	0xbd3966fc	-0.04526423
52	0x3d96e70d	0.07368288
53	0x3da2bab5	0.07945768
54	0x3cac1d7b	0.021010151
55	0x3d31538e	0.043292575
56	0xbc04daa3	-0.008108768
57	0xbb4cd7e5	-0.0031256613
58	0xbd2db13e	-0.04240536
59	0xbd45c606	-0.048284553
60	0xbbb3ebbd	-0.0054907487
61	0x3d89b67f	0.067242615
62	0x3d0cfcaf	0.034420665
63	0xbdc3c7a9	-0.095595665
64	0xbca86740	-0.020557046
65	0x3d484b23	0.04889978
66	0xbbbc2f00	-0.0057429075
67	0x3d5bfef1	0.053709928
68	0xbd03f4e3	-0.032215964
69	0x3df1cbd5	0.11806456
70	0xbda4d9ba	-0.080493405
71	0x3d9013d8	0.07035035
72	0xbbc42153	-0.005985418
73	0x3cd4f15e	0.025994
74	0x3c872ba0	0.016500294
75	0xbb88d91d	-0.0041762725
76	0xbe033458	-0.12812936
77	0x3d07dffa	0.033172585
78	0x3d48c0d2	0.049012013
79	0xbd8429bb	-0.06453272
80	0x3dc92aee	0.09822641
81	0x3d0a25f1	0.03372759
82	0xbc5b9e62	-0.013404461
83	0xbd98e2e7	-0.07465153
84	0xbc89b2ba	-0.016808856
85	0xbd54a5e7	-0.05191603
86	0x3d8535f0	0.065044284
87	0xbd20d8bf	-0.039269205
88	0xbd859b10	-0.065237164
89	0x3d773a7e	0.060358517
90	0xbb444924	-0.0029950822
91	0x3cc21ded	0.02369591
92	0xbcb2ed32	-0.02184162
93	0x3be83e18	0.0070874803
94	0x3c541175	0.012943615
95	0x3dab10b3	0.083527945
96	0x3bedfc58	0.0072627477
97	0x3dccce20	0.10000253
98	0xbc91919d	-0.01776963
99	0x3d3b9fb2	0.045806594
100	0x3cd685e3	0.026186889
101	0xbdcff319	-0.10153789
102	0xbd1c41e2	-0.03814877
103	0x3d544772	0.051825948
104	0x3c1ab185	0.009441738
105	0x3d344ac8	0.04401663
106	0x3e03dcc3	0.12877183
107	0xbd02cf3a	-0.031935908
108	0x3d3b4f16	0.04572972
109	0x3bde7f0e	0.0067900484
110	0xbd3c117a	-0.045915104
111	0x3cca34e1	0.024683418
112	0xbd8bdb59	-0.068289466
113	0x3e05fc15	0.13084443
114	0xbde4cb7d	-0.11171625
115	0xbc0f7290	-0.008755341
116	0xbd14206a	-0.036163725
117	0xbcad5cd4	-0.021162428
118	0xb99d375f	-0.00029986628
119	0x3bb205e8	0.005432833
120	0x3d4fd1a9	0.050737057
121	0x3d2101af	0.039308246
122	0x3d1fa478	0.03897521
123	0xbc27cdb9	-0.010241919
124	0xbcf287d2	-0.02960578
125	0x3d3e02a8	0.046389252
126	0x3d39e92e	0.045388393
127	0x3dfb56ce	0.12272416
128	0xbdd1b115	-0.10238854
129	0xbc8d338d	-0.017236495
130	0x3d4e6100	0.050385475
131	0x3d29644d	0.04135542
132	0x3c49ae0e	0.012309564
133	0xbc62253e	-0.013802825
134	0x3bf5e198	0.0075036995
135	0x3cf82936	0.030293088
136	0x3c0d40e6	0.00862143
137	0x3d0268f9	0.03183839
138	0xbc128944	-0.0089438595
139	0x3df3f1db	0.11911365
140	0xbc9921f6	-0.018692952
141	0x3dc0ce93	0.09414401
142	0xbc833259	-0.016015219
143	0x3b3997b1	0.0028319175
144	0x3d5cc0dd	0.053894866
145	0x3de96137	0.113954954
146	0x3db27208	0.08713156
147	0xbdb15786	-0.08659272
148	0x3d4237ac	0.047416374
149	0x3d349e96	0.04409655
150	0x3ddd1e5f	0.107968085
151	0xbd855c6e	-0.0651177
152	0xbde6ee13	-0.11275878
153	0xbad656e0	-0.0016352795
154	0x3d41c82f	0.04731005
155	0x3dd86b59	0.1056735
156	0xbd75598b	-0.059899848
157	0x3c21affb	0.009868617
158	0x3d3832f3	0.044970464
159	0x3be01dc6	0.006839487
160	0x3ce509a7	0.027958704
161	0x3d132234	0.03592129
162	0x3bd62421	0.0065350686
163	0x3d3455cb	0.04402713
164	0x3decd82a	0.115646675
165	0x3d257071	0.040390436
166	0xbd1d2575	-0.0383658
167	0xbd5822c0	-0.052767515
168	0x3dbc961c	0.092083186
169	0xbd056b1b	-0.032572847
170	0x3da740b7	0.0816664
171	0xbc408c3b	-0.011752184
172	0x3c0bd467	0.008534527
173	0xba7b8ad8	-0.00095955795
174	0xbd08efd5	-0.033431847
175	0x3c819cba	0.015821803
176	0xbd1f465d	-0.038885463
177	0xb9cfdfb9	-0.00039648803
178	0x3d5c6c48	0.053814203
179	0xbd554192	-0.052064486
180	0xbdc28ce2	-0.094995275
181	0xbdc7e2ab	-0.0976003
182	0xbcbf0d3b	-0.023321738
183	0xbe0d9aee	-0.13828632
184	0x3d84902e	0.064728126
185	0x3d0358b4	0.032067016
186	0x3d2221b4	0.039582923
187	0xbd224557	-0.03961691
188	0x3bc5c964	0.0060359705
189	0x3bbe7584	0.005812349
190	0x3da9e5c6	0.08295779
191	0xbc5c0f58	-0.013431393
192	0x3db8740a	0.09006508
193	0xbd242d23	-0.04008211
194	0x3c7cb65f	0.01542434
195	0xbd85ac47	-0.06527
196	0xbe0a716e	-0.13519832
197	0x3e0ba5f8	0.13637531
198	0xbced95af	-0.029002039
199	0xbd739d13	-0.05947597
200	0x3d789be9	0.060695563
201	0xbd9efd24	-0.077631265
202	0x3c8ab3d5	0.016931454
203	0xbd3b8d9d	-0.04578935
204	0x392ee109	0.00016677765
205	0xbdc2ea30	-0.09517324
206	0xbdf8f079	-0.121552415
207	0xbd55cb24	-0.052195683
208	0xbbdfd4ae	-0.0068307733
209	0xbb8841ee	-0.00415825
210	0xbdf720ba	-0.12066789
211	0x3d337b5b	0.043818813
212	0x3b8dd5d4	0.004328469
213	0x3d4dfe48	0.05029133
214	0x3dc0cdfb	0.09414288
215	0x3c7044c7	0.014664835
216	0xbc17af62	-0.009258123
217	0x3dc246a3	0.09486129
218	0xbcb08dde	-0.021552023
219	0x3d803fed	0.06262193
220	0xbd1eba4f	-0.038751896
221	0xbd3580b3	-0.04431219
222	0x3d1a9c4d	0.037746716
223	0xbacca7ee	-0.0015614012
224	0x3d847587	0.06467729
225	0x3d254301	0.040347103
226	0xbc670328	-0.014099874
227	0xbd401f8a	-0.046905078
228	0x3d058a36	0.03260251
229	0x3c4a3aab	0.012343089
230	0x3cd85c4d	0.0264112
231	0xbbb31d08	-0.0054661073
232	0x3ab25fee	0.0013608912
233	0xbca4e661	-0.020129384
234	0xbd2ac905	-0.041695613
235	0x3da536e9	0.08067114
236	0x3c26e1f7	0.01018571
237	0x3d8ec9ce	0.06972085
238	0x3d53b7cd	0.051688958
239	0x3dbbf3f2	0.09177388
240	0xbcbf0151	-0.023316057
241	0xbded8ed1	-0.11599506
242	0x3e01d770	0.12679839
243	0xbd8b3058	-0.0679633
244	0x3dfd0cbc	0.123559445
245	0xbd5e02f3	-0.05420203
246	0xbe0d3b78	-0.13792217
247	0xbd9146a3	-0.07093551
248	0xbda6a6c5	-0.081372775
249	0xbd0738d4	-0.03301318
250	0x3c5d21be	0.013496814
251	0x3d85e662	0.06538083
252	0xbcd95d6f	-0.02653381
253	0x3dadf746	0.08494429
254	0x3c7ac6e6	0.01530621
255	0xba4d956a	-0.0007842394

Q_1.4.weight f4 [1, 256]
0	0x3dd62f42	0.104582325
1	0x3e411d66	0.18858871
2	0xbc35a607	-0.011086947
3	0xbeccc369	-0.39992836
4	0x3e86f3ff	0.2635803
5	0x3dc493a8	0.09598476
6	0x3dfc5d82	0.12322523
7	0x3de50dd6	0.111842796
8	0x3e36f77c	0.17867845
9	0xbe9f7908	-0.31147027
10	0xbd388ee8	-0.04505816
11	0x3da6fe4c	0.08153972
12	0x3d724d37	0.05915567
13	0x3da63358	0.08115262
14	0x3dcee163	0.10101583
15	0xbe833d09	-0.25632504
16	0xbe78377d	-0.24239917
17	0x3d9d51dc	0.07681629
18	0x3dd345c5	0.10316042
19	0x3e309fef	0.1724851
20	0xbe11acff	-0.14226149
21	0xbe3844c8	-0.17994988
22	0x3e034a6b	0.12821357
23	0x3e753d9f	0.23949288
24	0x3d69fcac	0.057125732
25	0xbed5f429	-0.41787842
26	0xbe5d9261	-0.2163787
27	0x3e282314	0.16419631
28	0x3e41bcd9	0.18919696
29	0x3d72e6a4	0.059301987
30	0xbe0202c1	-0.12696363
31	0x3e8b5d26	0.27219504
32	0x3da37795	0.07981793
33	0xbd09f5e0	-0.03368175
34	0xbe30b583	-0.17256741
35	0x3da712b5	0.08157865
36	0xbeb1113a	-0.34583455
37	0x3e88507e	0.2662391
38	0xbc134a44	-0.008989874
39	0xbe571fc3	-0.2100821
40	0x3f00cf94	0.5031674
41	0xbc87263c	-0.016497724
42	0xbeb05082	-0.34436423
43	0x3e8e23f8	0.27761817
44	0x3e29d367	0.1658455
45	0xbd91e0be	-0.07122944
46	0x3df0e2c9	0.11762006
47	0x3e26ad95	0.16277154
48	0xbeabfb5f	-0.33590218
49	0xbebaa730	-0.3645568
50	0xbca8bb2d	-0.020597065
51	0xbc7a3039	-0.015270286
52	0x3e0d5161	0.13800575
53	0x3da25159	0.07925672
54	0x3e22c05c	0.15893692
55	0xbe9edf28	-0.3102963
56	0x3e554b32	0.20829466
57	0xbd9bd184	-0.07608321
58	0xbdaf127a	-0.08548446
59	0xbe9af509	-0.30265072
60	0x3ea8e0fe	0.32984155
61	0x3dbf4a49	0.09340341
62	0xbe2bf924	-0.16794258
63	0xbdef77a8	-0.116927445
64	0xbedb8507	-0.4287493
65	0x3e75ba80	0.23996925
66	0x3e11042b	0.14161746
67	0x3e00d9da	0.12583104
68	0xbe4ee2dc	-0.20203727
69	0x3db64e20	0.0890162
70	0xbd798d4a	-0.06092576
71	0x3e846afe	0.2586288
72	0xbe91f296	-0.2850539
73	0xbd3fc053	-0.046814274
74	0xbf66ecf8	-0.90205336
75	0xbd286ec8	-0.041121274
76	0xbf2a7c24	-0.66595674
77	0xbda245bb	-0.07923456
78	0x3d7f618f	0.0623489
79	0xbea4a985	-0.32160583
80	0x3dedc08d	0.11608992
81	0xbe2ca23d	-0.16858764
82	0xbeadc379	-0.33938196
83	0xbec0af59	-0.3763378
84	0xbec17ea0	-0.3779192
85	0xbdb884ea	-0.09009726
86	0x3da991df	0.08279776
87	0x3e6bc2fd	0.23023601
88	0xbec2b251	-0.3802667
89	0x3dc84fe9	0.09780867
90	0xbe5a0423	-0.2129064
91	0xbe71b5e6	-0.23604545
92	0xbc4e694a	-0.012598345
93	0xbd5338fa	-0.05156801
94	0x3d9ee331	0.07758177
95	0x3dc84a7d	0.097798325
96	0x3e7550ac	0.23956555
97	0x3d97f04a	0.074188784
98	0xbec42e35	-0.38316503
99	0x3e2c0be9	0.16801418
100	0x3f0b2e39	0.54367405
101	0xbea08ecf	-0.31358954
102	0xbe27e8ab	-0.1639735
103	0x3e094a0c	0.13407153
104	0x3da3a67d	0.079907395
105	0x3e2b69e9	0.1673962
106	0x3dcacdd8	0.09902543
107	0x3ba21720	0.0049466044
108	0xbe2ef762	-0.17086557
109	0xbf3a5a8b	-0.7279441
110	0xbd70af97	-0.058761206
111	0xbdd9f597	-0.10642546
112	0xbed78e89	-0.42100933
113	0x3d8d8f44	0.069120914
114	0xbe949de0	-0.290267
115	0xbce18bb8	-0.027532443
116	0xbdb65be7	-0.08904248
117	0x3e0f2b11	0.13981272
118	0xbe83b205	-0.25721756
119	0x3e74f7af	0.23922609
120	0xbf785091	-0.96997935
121	0xbe8a1304	-0.26967633
122	0x3db54c8f	0.08852493
123	0x3e2a2b9f	0.16618203
124	0xbe9ffd8a	-0.31248122
125	0x3e8228ce	0.25421757
126	0x3dcc5224	0.099766046
127	0x3df190ad	0.11795173
128	0xbea87aa7	-0.32906076
129	0xbd717bf6	-0.05895611
130	0xbf0af0df	-0.5427379
131	0xbe662b1e	-0.22477385
132	0x3eb2554c	0.348307
133	0xbe334004	-0.17504889
134	0xbe583da8	-0.2111727
135	0x3e563222	0.20917562
136	0xbe3222bc	-0.17396063
137	0xbdacad15	-0.0843145
138	0xbe927901	-0.28607944
139	0x3d8c5f85	0.068541564
140	0xbd460f36	-0.04835435
141	0x3e109b2b	0.14121692
142	0xbc7473e2	-0.014920207
143	0xbd259300	-0.040423393
144	0x3e78c73e	0.24294755
145	0x3de5c7c0	0.1121974
146	0x3e3c0047	0.18359481
147	0xbeea3e2b	-0.45750555
148	0xbd2285df	-0.03967845
149	0xbd078136	-0.03308221
150	0xbe826794	-0.2546965
151	0x3ee6142d	0.44937268
152	0xbf102493	-0.5630581
153	0x3e119bac	0.1421954
154	0x3ddb952c	0.10721812
155	0x3df9c1c9	0.12195165
156	0xbe04b874	-0.12960988
157	0x3e0c2b03	0.13688283
158	0x3e6c5c7c	0.23082155
159	0x3e45be68	0.19310915
160	0x3ddbfb47	0.10741287
161	0x3e8734d5	0.26407495
162	0xbd3be024	-0.045868054
163	0xbc4ff966	-0.012693739
164	0x3dc2eb7c	0.09517571
165	0x3dd07148	0.10177857
166	0x3e8b4035	0.27197424
167	0xbc98f015	-0.018669168
168	0x3e58ce87	0.21172534
169	0x3e1acca6	0.1511713
170	0x3e8467b3	0.25860366
171	0xbe3900cc	-0.1806671
172	0x3dffa4e2	0.12482621
173	0xbcb97e66	-0.02264328
174	0xbdf61843	-0.12016346
175	0x3e829ff3	0.25512657
176	0x3e23f42d	0.16011114
177	0x3e6d4427	0.2317053
178	0x3dbce0a5	0.09222535
179	0xbd39f501	-0.04539967
180	0xbd27d97b	-0.04097889
181	0xbea15483	-0.3150979
182	0x39f62432	0.00046947744
183	0xbe6a5efe	-0.22887799
184	0x3e61c0a5	0.22046144
185	0x3dc06a77	0.093953066
186	0x3d9eb190	0.07748711
187	0xbd6014b8	-0.05470726
188	0xbe68b36b	-0.22724693
189	0x3e2cf8e7	0.16891824
190	0x3ddb5cf6	0.1071109
191	0xbdabc938	-0.08387989
192	0x3d618465	0.055057902
193	0xbeb7503f	-0.3580341
194	0xbceed79b	-0.029155543
195	0xbe7d5ec5	-0.24743183
196	0xbe716a86	-0.23575792
197	0x3dda5c97	0.10662191
198	0xbd48af45	-0.048995275
199	0xbc9aeedd	-0.018912727
200	0x3e3c985b	0.18417494
201	0xbe81e464	-0.2536956
202	0x3df03c6d	0.11730275
203	0xbe197b8a	-0.14988533
204	0x3e1d675d	0.15371461
205	0xbe4ed7e2	-0.2019954
206	0xbea45692	-0.32097298
207	0xbe7d864a	-0.24758258
208	0x3e500511	0.20314433
209	0x3d3675b7	0.044545855
210	0xbf045514	-0.5169232
211	0xbd530c9a	-0.05152569
212	0x3e832dfa	0.25621015
213	0xbe3a766b	-0.18209235
214	0x3d86f051	0.065888055
215	0x3db12059	0.08648748
216	0xbefbfe60	-0.4921751
217	0x3e763dcb	0.2404701
218	0xbcf1fb11	-0.029538663
219	0x3da73a09	0.08165366
220	0xbc00fb4b	-0.007872413
221	0x39e02eaa	0.00042759377
222	0x3dc9e68c	0.098584265
223	0xbebfa279	-0.37428644
224	0x3d97fe8a	0.07421596
225	0x3e0b7a13	0.13620786
226	0x3e80611b	0.25074086
227	0xbf4888b2	-0.7833358
228	0x3e7e8037	0.24853598
229	0x3daa0516	0.08301751
230	0x3e5cbaba	0.21555606
231	0xbb8794ab	-0.0041375956
232	0xbdc307fe	-0.09523009
233	0x3e48d7d2	0.19613579
234	0xbc76dc67	-0.015067196
235	0x3da2b1bd	0.07944057
236	0x3e23ef74	0.16009313
237	0x3dad770d	0.08469973
238	0x3ea98547	0.33109495
239	0x3d83ed30	0.06441724
240	0xbf07264b	-0.52792805
241	0xbed01c09	-0.4064639
242	0x3d86b2d1	0.06577075
243	0xbda92bb3	-0.08260288
244	0x3da9edf7	0.08297341
245	0xbea43047	-0.32068083
246	0xbeb23554	-0.3480631
247	0xbefac08a	-0.4897502
248	0xbe882c89	-0.26596478
249	0xbdb842e1	-0.08997131
250	0x3e08bf46	0.13354215
251	0x3e1fd08e	0.15606901
252	0x3e8da9ac	0.27668512
253	0x3e134e10	0.14385247
254	0x3e00ba54	0.12571079
255	0x3e316b62	0.1732612

Q_2.0.weight f4 [256, 4]
0	0x3e9dd332	0.30825192
1	0x3e652061	0.22375633
2	0x3ddf5053	0.109039925
3	0x3d6ca7c8	0.057777196
4	0xbeb3ade6	-0.3509361
5	0x3f84ca8e	1.0374315
6	0x3e7a8fad	0.2446887
7	0x3dd73420	0.10507989
8	0xbef791b3	-0.48353347
9	0x3e15012d	0.1455123
10	0xbeed84da	-0.4639042
11	0x3e82d62b	0.25554022
12	0xbe530c41	-0.20610143
13	0x3f3c34f2	0.7351829
14	0xbdf72161	-0.120669134
15	0xbe0f40f5	-0.13989623
16	0xbe70a32b	-0.23499744
17	0xbe2822fc	-0.16419595
18	0xbee24029	-0.44189575
19	0xbdd20a7c	-0.10255906
20	0x3e60dfee	0.21960422
21	0xbf1be7dc	-0.60900664
22	0xbedea7d7	-0.43487427
23	0x3e525692	0.20540836
24	0xbf110e9d	-0.56662923
25	0x3f067788	0.5252614
26	0xbf01417b	-0.5049054
27	0xbe1a32f0	-0.15058494
28	0xbe2758a4	-0.16342407
29	0xbdbaa743	-0.09113934
30	0xbe8b973b	-0.27263817
31	0xbe323fb2	-0.1740711
32	0xbddf957a	-0.10917182
33	0x3e276400	0.1634674
34	0xbec4129d	-0.3829545
35	0xbeea279f	-0.45733353
36	0xbecf6dd2	-0.40513474
37	0xbbd2a397	-0.006428193
38	0x3e113005	0.14178474
39	0x3c93594f	0.017986922
40	0x3ec57626	0.38566703
41	0xbeb56ee7	-0.35436174
42	0x3ed883c0	0.42288017
43	0xbc85d7ea	-0.016338307
44	0x3e40e077	0.18835627
45	0x3d5321c9	0.051545892
46	0x3e86ef84	0.2635461
47	0xbeb23568	-0.3480637
48	0x3deae9c7	0.11470371
49	0x3f0b3d6b	0.5439059
50	0xbe7aa6ac	-0.24477643
51	0xbec47de6	-0.38377303
52	0x3e80d8d4	0.25165427
53	0x3f157b1a	0.58390963
54	0x3efb15d9	0.49040106
55	0x3eec6e73	0.46178016
56	0x3d86ff24	0.06591633
57	0xbe66bc17	-0.22532688
58	0xbed3e240	-0.41383553
59	0xbe91210e	-0.2834553
60	0xbe77bfdc	-0.24194282
61	0xbeb1be6c	-0.34715593
62	0x3e73c0f0	0.23804069
63	0x3d5a9963	0.053368937
64	0x3e5d8cad	0.21635695
65	0x3f246be6	0.6422714
66	0xbe0b7d95	-0.13622124
67	0xbc924dfd	-0.017859453
68	0x3f1d4151	0.6142779
69	0xbf1da6ec	-0.6158283
70	0xbe708026	-0.23486385
71	0xbd95b0cf	-0.07309114
72	0x3f20831b	0.6270005
73	0x3edd6afb	0.43245682
74	0x3e23f78b	0.16012399
75	0x3d8b6733	0.06806793
76	0xbd81a72d	-0.063307144
77	0x3f58ff75	0.84764796
78	0x3e1d0272	0.15332964
79	0x3e23eb74	0.16007787
80	0x3efadc80	0.48996353
81	0x3dd5310c	0.104097456
82	0x3ef611d3	0.48060474
83	0xbd6b40d4	-0.05743487
84	0xbed6b43e	-0.4193439
85	0x3e8ed586	0.2789728
86	0xbec9bbf9	-0.39401224
87	0xbd10ff6f	-0.03539985
88	0x3f0fe81d	0.5621355
89	0xbec979ff	-0.39350888
90	0xbeb8b963	-0.3607894
91	0x3e56c02e	0.20971748
92	0x3e5f04a2	0.21779111
93	0x3e81b685	0.25334564
94	0x3e528cc1	0.20561506
95	0x3e371bff	0.17881773
96	0x3f278bd3	0.6544773
97	0xbe440c98	-0.19145429
98	0xbe68ef58	-0.22747552
99	0xbcfd8184	-0.030945547
100	0x3f0a3345	0.5398448
101	0x3f07173c	0.5276983
102	0x3e2bdad5	0.16782697
103	0xbe8cc28e	-0.27492183
104	0xbf80c29c	-1.005939
105	0xbf07919d	-0.52956563
106	0x3e1cfa23	0.15329795
107	0x3b98545e	0.004648729
108	0x3effa074	0.49927104
109	0x3f57367d	0.8406752
110	0x3e68b693	0.22725897
111	0x3d6175a6	0.05504384
112	0xbf01f0a9	-0.50757843
113	0x3f52624f	0.82181257
114	0x3da54b72	0.08071031
115	0xbe896e9c	-0.268422
116	0x3ee694ab	0.450353
117	0x3efc9493	0.49332103
118	0xbec60e06	-0.38682574
119	0xbebebd59	-0.37253836
120	0x3e9ec12a	0.31006747
121	0x3f0e1d13	0.55513114
122	0x3ea9c995	0.33161607
123	0xbe331159	-0.17487086
124	0xbe30bd1c	-0.1725964
125	0xbf194c66	-0.598822
126	0x3e081605	0.1328965
127	0xbe0c0522	-0.13673833
128	0xbdd1bbf8	-0.1024093
129	0xbf09facc	-0.5389831
130	0x3c8572bf	0.016290067
131	0x3ddc229a	0.10748787
132	0xbea60f5d	-0.32433596
133	0xbef301fb	-0.47462448
134	0x3cd6708c	0.026176713
135	0x3eff3364	0.49843895
136	0x3ec7c7f1	0.3901973
137	0x3e7c93a6	0.24665698
138	0xbe81390e	-0.25238842
139	0x3e010f5c	0.12603515
140	0x3e3c2fa1	0.18377544
141	0x3d9f2cca	0.07772215
142	0x3ec9b404	0.39395154
143	0xbefd8e91	-0.49522832
144	0xbe322e41	-0.17400457
145	0x3ef3c6cf	0.47612616
146	0x3e1db87d	0.15402408
147	0x3e5e087e	0.21682927
148	0xbe971c02	-0.29513556
149	0x3eff0762	0.4981032
150	0xbeb25caa	-0.34836322
151	0x3ec711d3	0.38880786
152	0x3f0efd87	0.558556
153	0xbe4cd092	-0.20001438
154	0x3e753747	0.23946868
155	0xbea06521	-0.31327155
156	0xbdaaad7d	-0.083338715
157	0x3dce3c96	0.100701496
158	0xbeeee6e1	-0.46660522
159	0xbe7285f5	-0.23683913
160	0xbb386ec8	-0.0028142203
161	0x3f223b17	0.63371414
162	0xbe934753	-0.28765354
163	0xbcafaef5	-0.02144573
164	0xbf173156	-0.59059656
165	0xbf2857a2	-0.6575872
166	0xbe5bdd64	-0.21471173
167	0xbd412733	-0.047156524
168	0x3d09ec32	0.03367252
169	0x3f574dbd	0.84102994
170	0x3e34f6f1	0.17672326
171	0x3d8dbb44	0.06920484
172	0xbe924883	-0.28570947
173	0xbf34aac2	-0.70573056
174	0xbe3cae34	-0.18425828
175	0xbd3874cb	-0.045033257
176	0xbee5f40a	-0.4491275
177	0x3eac051c	0.33597648
178	0xbe7eb781	-0.24874689
179	0xbe2b4971	-0.16727234
180	0xbe265bdb	-0.16245978
181	0xbf9b6839	-1.2141181
182	0xbe8ab9bf	-0.27094838
183	0xbda1292e	-0.078691825
184	0x3e06c91c	0.13162655
185	0xbf8bd5e6	-1.0924652
186	0xbe5780fc	-0.21045297
187	0xbddbf2aa	-0.10739644
188	0x3e8f2dee	0.2796473
189	0x3f0c42b2	0.5478927
190	0xbebc00f1	-0.36719468
191	0x3e095709	0.13412108
192	0xbe880b51	-0.26571134
193	0x3f3b4fd2	0.7316867
194	0x3e454d48	0.19267762
195	0x3cf002fd	0.0292983
196	0x3f069b38	0.52580595
197	0x3ea5c652	0.3237787
198	0xbeab7b72	-0.3349262
199	0xbed6189b	-0.41815647
200	0x3f5930ac	0.8483989
201	0x3f48d510	0.7845011
202	0x3e9171cd	0.28407136
203	0x3d66460a	0.05621914
204	0x3ec481bf	0.38380238
205	0x3e0b60c1	0.13611127
206	0x3ef047e7	0.46929857
207	0x3e683f85	0.22680481
208	0xbf12b432	-0.57306206
209	0xbe97bbd7	-0.29635498
210	0x3d46d925	0.04854693
211	0xbdaad21e	-0.08340858
212	0xbf1ff4ad	-0.6248272
213	0xbdad43be	-0.084601864
214	0x3eee8d59	0.46592215
215	0xbea6daae	-0.32588714
216	0xbe726d87	-0.23674594
217	0xbe7b97a7	-0.2456957
218	0xbec565d2	-0.38554245
219	0x3daf2168	0.085512936
220	0x3e9183f4	0.28420985
221	0x3f96a1bb	1.1768106
222	0x3e97eee2	0.2967444
223	0x3dbe8999	0.093035884
224	0x3f1cc403	0.6123659
225	0xbeede319	-0.46462324
226	0xbef6b18f	-0.4818234
227	0xbec63aad	-0.3871664
228	0x3f2cfe75	0.6757577
229	0x3eb4a2d0	0.35280466
230	0xbeaef57a	-0.3417166
231	0xbdeb47e6	-0.11488323
232	0xbdb0b9b5	-0.08629171
233	0xbde0091a	-0.10939236
234	0xbe5d6ce5	-0.21623571
235	0x3e1168d2	0.14200142
236	0xbe9c1df9	-0.30491617
237	0x3f3213a4	0.6956122
238	0xbe0e1adc	-0.13877434
239	0xbe139286	-0.14411363
240	0x3bcd90d7	0.00627337
241	0x3d864c05	0.06557468
242	0xbdc32727	-0.09528952
243	0xbca3a5d3	-0.019976532
244	0x3e3689c9	0.17825998
245	0x3f0bb75a	0.5457665
246	0x3bd4592e	0.0064803576
247	0x3eb7e6a9	0.35918167
248	0xbe6d3b9b	-0.23167269
249	0x3ec5d246	0.38636988
250	0x3db31906	0.08745007
251	0x3ebbd909	0.36689022
252	0x3f287ea4	0.6581824
253	0xbf2b152a	-0.6682917
254	0xbe2bd63f	-0.16780947
255	0x3d973278	0.07382673

Q_2.0.bias f4 [256]
0	0xbe941c6c	-0.28927934
1	0x3dd1aacb	0.10237654
2	0xbe7788af	-0.24173234
3	0x3e9bbb42	0.30416304
4	0xbeec08f2	-0.46100575
5	0xbef98b97	-0.4873931
6	0x3f280fc0	0.6564903
7	0xbec4ace4	-0.38413155
8	0xbecbcf80	-0.39806747
9	0x3eafd084	0.34338772
10	0x3dcf22d1	0.101140626
11	0xbf27cb10	-0.65544224
12	0xbe4ad4e8	-0.1980778
13	0xbd8e5116	-0.0694906
14	0xbf1a42ff	-0.6025848
15	0x3eca2d1a	0.39487535
16	0x3e1aef82	0.15130427
17	0xbeb0e5ac	-0.34550226
18	0xbdbbee31	-0.09176291
19	0x3e408a8f	0.18802856
20	0x3dab0b39	0.0835175
21	0xbe9de2fb	-0.30837235
22	0x3e23817e	0.15967366
23	0xbf237058	-0.638433
24	0xbf06c765	-0.52648
25	0x3e5805f9	0.21096028
26	0xbdc67271	-0.09689797
27	0xbe754819	-0.23953284
28	0x3de6b071	0.11264122
29	0xbf4409b8	-0.7657733
30	0x3e80e778	0.25176597
31	0xbe31842f	-0.1733558
32	0x3eaa34fc	0.3324355
33	0x3e7c33ec	0.24629182
34	0x3ef4bb79	0.4779928
35	0x3ae24f97	0.0017266151
36	0x3ebfa19a	0.3742798
37	0x3efc8bd3	0.49325427
38	0x3f003b25	0.5009025
39	0x3ec53553	0.38517246
40	0x3ed30ab5	0.41219106
41	0x3ec2c9ae	0.38044494
42	0xbe61d744	-0.22054774
43	0x3edac379	0.4272726
44	0x3f13aa0e	0.5768136
45	0xbe1a5e4d	-0.15075035
46	0x3e897a91	0.26851323
47	0x3ed44565	0.41459194
48	0x3edf044a	0.4355796
49	0x3c49084e	0.012270046
50	0xbea8562b	-0.3287824
51	0x3ef318e4	0.47479928
52	0x3f0ff26e	0.56229293
53	0xbdef7936	-0.11693041
54	0xbe19de00	-0.15026093
55	0xbf025486	-0.5091022
56	0x3f0b8972	0.545066
57	0xbf16d01c	-0.589113
58	0xbd381065	-0.04493751
59	0x3ec65b1f	0.38741395
60	0x3e8643b0	0.26223516
61	0x3ea569db	0.32307324
62	0x3ea4d6ab	0.3219503
63	0xbe369765	-0.1783119
64	0xbdbf80a7	-0.0935071
65	0xbd9ab320	-0.07553697
66	0xbeff1b1e	-0.49825376
67	0x3e1036e1	0.14083435
68	0x3e9a151e	0.30094236
69	0x3eefe21b	0.46852192
70	0x3eb550b3	0.3541313
71	0xbede8041	-0.43457225
72	0x3e5840f1	0.21118523
73	0x3c5eaf5c	0.013591614
74	0xbe0a5abb	-0.13511173
75	0x3e6ad538	0.22932899
76	0x3edecda5	0.4351627
77	0xbcfc840c	-0.030824684
78	0xbe2b315b	-0.16718046
79	0x3f0b66df	0.54453844
80	0xbe34248a	-0.17592064
81	0xbdf27478	-0.11838621
82	0xbe9c0743	-0.3047429
83	0x3dc8701c	0.09787008
84	0x3eeb2a70	0.45930815
85	0xbeea3368	-0.45742345
86	0xbe8d9ee1	-0.27660277
87	0xbea3322c	-0.31874216
88	0x3b88553c	0.0041605514
89	0xbe9e6619	-0.3093727
90	0xbf389670	-0.7210455
91	0x3ebff51b	0.37491688
92	0xbeec5dd1	-0.46165326
93	0x3de94972	0.11390962
94	0x3e6bc633	0.23024826
95	0x3e3e88d3	0.18606882
96	0xbe532607	-0.20619975
97	0xbe40fe77	-0.1884707
98	0xbc9a1f07	-0.018813623
99	0xbe46a167	-0.19397508
100	0xbf0afdf5	-0.5429376
101	0xbe03f630	-0.12886882
102	0xbc70780d	-0.01467706
103	0x3f041ec2	0.5160943
104	0x3ecb279a	0.3967865
105	0xbed1a930	-0.40949392
106	0xbdb3901a	-0.087677196
107	0xbd74f4fe	-0.059803955
108	0xbea4b955	-0.32172647
109	0xbf01381d	-0.5047625
110	0xbd46620f	-0.04843336
111	0x3ed38217	0.41310188
112	0x3d210a8a	0.03931669
113	0x3eca6345	0.39528862
114	0x3e705bb2	0.23472479
115	0xbe8da50f	-0.27664992
116	0xbd806641	-0.062695034
117	0x3c96568d	0.018351818
118	0xbf16a81a	-0.5885025
119	0x3e95300c	0.2913822
120	0xbe37de70	-0.17955947
121	0x3cfdd4af	0.030985205
122	0xbefaac15	-0.48959413
123	0xbd748416	-0.05969628
124	0xbef5c347	-0.48000547
125	0xbd912544	-0.07087186
126	0xbf23a569	-0.6392427
127	0xbef53a96	-0.4789626
128	0xbe498ec3	-0.19683366
129	0x3e976fd3	0.29577503
130	0xbe87b10c	-0.26502264
131	0x3f39601e	0.7241229
132	0x3eaff709	0.3436816
133	0x3efb77a7	0.49114725
134	0xbf1d3401	-0.61407477
135	0x3f246352	0.6421405
136	0x3e8c028d	0.27345696
137	0x3e3d9535	0.18513949
138	0x3eade6c3	0.3396512
139	0x3e854220	0.26027012
140	0xbf25ec74	-0.64813924
141	0xbd99fda8	-0.07519084
142	0x3d44077e	0.047858708
143	0xbecd097c	-0.40046299
144	0x3e9c3638	0.30510116
145	0x3e8452a3	0.25844297
146	0xbed2d0ad	-0.41174832
147	0x3e85b239	0.26112536
148	0xbe922fe7	-0.28552172
149	0xbec97b62	-0.39351946
150	0x3de9cfe1	0.11416603
151	0xbdf237a7	-0.11827021
152	0x3e8ae823	0.2713023
153	0xbf0937b0	-0.536006
154	0x3d34e8e8	0.04416743
155	0x3e839769	0.25701454
156	0x3ba99f17	0.0051764357
157	0x3e89dbd9	0.26925543
158	0xbf029cc2	-0.51020443
159	0xbefaa47d	-0.4895362
160	0xbdb40525	-0.08790044
161	0x3e9ac427	0.30227777
162	0x3e35d059	0.1775526
163	0xbb73d42a	-0.0037205317
164	0x3ed35ff3	0.4128414
165	0xbea2ee38	-0.3182237
166	0xbe4ab515	-0.1979564
167	0x3e393092	0.18084934
168	0x3ed40dd5	0.41416803
169	0xbe20a776	-0.15688881
170	0x3f1a8024	0.6035178
171	0xbda178ca	-0.07884367
172	0x3dcab0a4	0.09896973
173	0xbebd78d4	-0.37006247
174	0x3e90cd07	0.28281423
175	0x3e24ca7e	0.1609287
176	0xbec8d2e8	-0.3922341
177	0xbf1dbee0	-0.6161938
178	0x3f002235	0.50052196
179	0x3e56681c	0.20938152
180	0x3edd74c7	0.43253157
181	0x3f177e2f	0.59176916
182	0x3e396c50	0.18107724
183	0xbe7dc3f7	-0.24781786
184	0x3f143240	0.57889175
185	0xbefc832b	-0.49318823
186	0xbead42e9	-0.3384011
187	0x3ec175cc	0.37785184
188	0x3d18992f	0.037255462
189	0x3e72b407	0.23701487
190	0xbe46dad9	-0.19419421
191	0xbebeb7a8	-0.37249494
192	0x3e7b2087	0.24524127
193	0xbd09ce9b	-0.0336443
194	0xbedf9372	-0.4366718
195	0xbe9a47b5	-0.30132833
196	0xbf06a8c9	-0.52601296
197	0x3d36323a	0.044481494
198	0xbe299532	-0.1656082
199	0x3ee132fc	0.4398421
200	0x3eecefd8	0.46276736
201	0xbdb71e9d	-0.08941386
202	0x3ec1885e	0.37799352
203	0x3ee9da4f	0.4567437
204	0xbebab104	-0.36463177
205	0xbe33128a	-0.17487541
206	0xbefa235c	-0.48855102
207	0xbeadfc48	-0.33981538
208	0x3ee0ff96	0.43944997
209	0xbe90f3f4	-0.2831112
210	0xbe192639	-0.14955987
211	0xbd264506	-0.04059317
212	0x3ec6040d	0.38674966
213	0xbe324530	-0.17409205
214	0x3f08dd57	0.5346274
215	0xbf16d7b8	-0.5892291
216	0x3ebaecc7	0.36508772
217	0xbebcbba9	-0.36861923
218	0xbdbc224b	-0.09186228
219	0xbeef1350	-0.46694422
220	0x3ea3eaaa	0.32014972
221	0x3eba4958	0.36384082
222	0x3ed5429a	0.41652375
223	0xbea830da	-0.3284977
224	0x3dee3e66	0.11632995
225	0x3f15c5b4	0.58504796
226	0x3ea4b122	0.32166392
227	0x3ea4e383	0.32204828
228	0x3db9ab59	0.09065885
229	0x3ea1e535	0.31620184
230	0x3d0f5719	0.034995172
231	0x3d1be690	0.03806168
232	0xbe8917d6	-0.26775998
233	0xbdf1e08a	-0.118104056
234	0xbd72ea91	-0.05930573
235	0x3f0a269e	0.53965175
236	0x3e81d1a0	0.25355244
237	0xbd611d38	-0.054959506
238	0x3e73239c	0.23744053
239	0xbeaf2a5f	-0.34212014
240	0x3dec7c71	0.11547173
241	0x3eeb1d30	0.45920706
242	0x3d36efe6	0.04466238
243	0x3eb8e1e8	0.36109853
244	0x3f035838	0.51306486
245	0x3eab1e3d	0.33421507
246	0xbe382cc2	-0.17985824
247	0xbdea677e	-0.11445521
248	0x3f09f54e	0.5388993
249	0x3f03a180	0.51418304
250	0x3cad7b9c	0.021177106
251	0xbc8585c4	-0.016299136
252	0xbe92b3ab	-0.286527
253	0x3ea3446e	0.31888145
254	0xbe6b506b	-0.22979896
255	0xbe89b881	-0.26898578
