5.1 SAC-Discrete/model/sacd_critic_400_LLdV2.pth (torch, 346575 bytes, 12 tensors)

Q1.0.weight f4 [200, 8]
-0.009975843 0.19804743 -0.056983493 0.020556094 -0.7983726 -0.46561477 -0.73337996 0.67181385
0.3028157 -0.4038198 1.1411784 0.79285777 0.29834488 0.23169605 -0.74638885 0.5583005
-0.5853231 0.15346563 0.14039364 -0.0355403 0.5838218 0.14393246 0.718012 -0.1418721
-1.0945169 -0.061588835 -0.4890335 0.0576347 0.8234702 0.22570902 0.0074497582 -0.12880062
-0.27636352 0.123185925 0.31313506 -0.40668344 0.03874933 0.61484194 0.49911883 -0.29423362
-0.41976804 0.2543175 0.043854654 -0.19258301 0.504482 1.1111857 -1.1580616 -0.17322612
-0.6289941 -0.07538554 -0.24307059 -0.35888365 0.009049322 -0.65063787 0.26990217 -0.19375275
0.1657907 0.9012881 -0.32465354 0.20404279 0.49109137 0.69934213 -0.54074556 -0.16224205
-0.014147389 0.36662894 -0.08679754 0.27188113 0.2548361 0.73266715 -1.3273995 0.11866807
0.7337436 -0.2126165 0.3124753 -0.43815002 0.096726246 0.014872056 0.368517 0.47767454
0.088393636 -0.6452382 -0.6262042 -0.075039804 0.8670108 0.3940368 0.48032328 0.3521598
0.7493954 0.030523222 0.52127904 -0.45669508 0.52045316 0.48957977 -0.043694675 -0.050463665
0.072816715 0.026763817 -0.5438162 -0.63393325 0.23777825 -0.28104854 0.27700177 0.071058586
0.4912518 0.16855589 0.46444142 -0.5944432 0.8381716 -0.19358237 -0.26172462 -0.32306123
-0.061641064 0.28048903 0.41521466 0.13987517 -0.29289824 -0.385323 0.50769246 0.28906187
0.28297234 -0.18022867 -0.69081324 -0.13448332 0.32524005 -0.48069122 0.054014254 0.23552014
-0.06498187 0.81147313 0.107915014 -0.44466588 -0.037873413 -0.54699916 -0.44129363 -0.26616699
0.3743391 0.42934722 0.9460945 0.27552053 -0.24362317 0.095154196 -0.23574138 -0.21401283
0.7877388 0.47298303 0.70991963 -0.28251025 -0.11207622 -0.18734977 0.19900954 0.40250283
0.10235207 0.36963955 -0.33032823 0.15415978 -0.5961099 0.90165085 -0.13930033 0.1615617
-0.492723 0.42214346 0.014642652 -0.23779288 0.022909801 0.6079583 -0.7589917 0.011879491
-0.38722625 0.32378268 -0.19913754 0.2865922 -0.11081984 0.3134934 0.5819129 -0.05284963
0.85906726 -0.077961095 0.81334674 0.17800122 -0.039519772 -0.38625497 0.07752809 0.8739213
-0.27114218 0.0354249 -0.09270502 -0.4286503 0.38080898 -0.7703805 -0.41841632 -0.60956824
-0.7593835 0.47662643 0.85482824 0.13699764 0.27938265 -0.7090603 -0.045354865 -0.34032694
-0.21274836 0.7003726 -0.42068276 -0.48321775 -0.8271012 0.07816929 0.43864703 -0.51672
-0.41980007 -0.042648777 -0.8374724 0.5753564 0.8677718 -0.14894229 -0.13955422 0.046643235
-0.11685574 -0.016406331 0.58777934 -0.20223193 -0.8591761 -0.03917754 -1.2091323 -0.54741174
-0.08340902 0.06972355 0.52468807 -0.34155428 0.060649082 1.2624571 -0.17259008 -0.0012742457
0.76924616 0.51625746 0.07662186 -0.14468966 -0.06437314 0.27975062 -0.19110723 -0.4727647
-0.0027530815 0.27917117 1.055632 0.96329266 -0.43805704 0.32313454 0.09193005 0.30789816
0.7173192 0.30223414 0.699196 0.45517883 0.48054996 -0.38822323 -0.09480111 -0.017236074
00000000: b871 23bc f2cc 4a3e 8667 69bd 4165 a83c
00000010: 2662 4cbf 0f65 eebe cabe 3bbf fefb 2b3f
00000020: a90a 9b3e 78c1 cebe 2212 923f baf8 4a3f
00000030: a9c0 983e bb41 6d3e 5713 3fbf c8ec 0e3f
00000040: bcd7 15bf 1826 1d3e 5ac3 0f3e b592 11bd
00000050: 5875 153f 0863 133e a2cf 373f eb46 11be
00000060: 2119 8cbf 9344 7cbd 9962 fabe 5d12 6c3d
00000070: f1ce 523f 4420 673e 1a1d f43b 4fe4 03be
00000080: 857f 8dbe e748 fc3d 3d53 a03e d038 d0be
00000090: 9eb7 1e3d 4866 1d3f 818c ff3e caa5 96be
000000a0: d6eb d6be e735 823e f0a0 333d 7b34 45be
000000b0: bb25 013f 553b 8e3f 5d3b 94bf 3062 31be
000000c0: c205 21bf bc63 9abd 7fe7 78be 99bf b7be
000000d0: 9c43 143c 3490 26bf 9e30 8a3e 1f67 46be
000000e0: 0ac5 293e d1ba 663f fd38 a6be 98f0 503e
000000f0: 5470 fb3e 1608 333f 4d6e 0abf c822 26be
00000100: 73ca 67bc cab6 bb3e e9c2 b1bd 0134 8b3e
00000110: e179 823e 1390 3b3f 3ae8 a9bf 3f08 f33d
00000120: 9fd6 3b3f 24b8 59be c3fc 9f3e 3355 e0be
00000130: 6918 c63d eda9 733c 43ae bc3e c291 f43e
00000140: b907 b53d 552e 25bf eb4e 20bf 78ae 99bd
00000150: 6bf4 5d3f 31bf c93e efec f53e 4a4e b43e
00000160: 60d8 3f3f d60b fa3c 8b72 053f f0d3 e9be
00000170: 6b3c 053f 33aa fa3e 30f9 32bd fdb2 4ebd
00000180: ee20 953d cb3f db3c 8a37 0bbf 7349 22bf
00000190: 247c 733e 98e5 8fbe 2dd3 8d3e 2a87 913d
000001a0: 5b85 fb3e ea99 2c3e 44cb ed3e 6e2d 18bf
000001b0: 6a92 563f 753a 46be c500 86be 4868 a5be
000001c0: 577b 7cbd 429c 8f3e 0497 d43e 703b 0f3e
000001d0: c2f6 95be 0e49 c5be 22f8 013f ebff 933e
000001e0: c0e1 903e dd8d 38be 23d9 30bf ffb5 09be
000001f0: dd85 a63e 291d f6be 0d3e 5d3d 312c 713e
00000200: 3715 85bd b4bc 4f3f 8c02 dd3d 3fab e3be
00000210: 2721 1bbd 2308 0cbf 3df1 e1be 0a47 88be
00000220: 60a9 bf3e 66d3 db3e 4033 723f 0711 8d3e
00000230: 5a78 79be 34e0 c23d 3066 71be 2e26 5bbe
00000240: 40a9 493f d52a f23e 4bbd 353f 2fa5 90be
00000250: 3888 e5bd 9ed8 3fbe 28c9 4b3e da14 ce3e
00000260: f69d d13d 6541 bd3e c820 a9be 10dc 1d3e
00000270: a99a 18bf 97d2 663f bfa4 0ebe 6e70 253e
00000280: 3046 fcbe 3023 d83e bce7 6f3c fa7f 73be
00000290: 56ad bb3c 28a3 1b3f 484d 42bf 32a2 423c
000002a0: 8542 c6be d8c6 a53e b6ea 4bbe 36bc 923e
000002b0: 83f5 e2bd 3582 a03e 3ef8 143f db78 58bd
000002c0: d5eb 5b3f 11aa 9fbd 7e37 503f f445 363e
000002d0: 7cdf 21bd 36c3 c5be 0cc7 9e3d 4eb9 5f3f
000002e0: 26d3 8abe b319 113d 21dc bdbd 0d78 dbbe
000002f0: 65f9 c23e a837 45bf aa3a d6be aa0c 1cbf
00000300: f566 42bf 6108 f43e 06d6 5a3f 1c49 0c3e
00000310: 3e0b 8f3e fa84 35bf 06c6 39bd 553f aebe
00000320: b5da 59be 9e4b 333f bb63 d7be 5168 f7be
00000330: e7bc 53bf 3917 a03d 5896 e03e c347 04bf
00000340: 09f0 d6be 7cb0 2ebd 9764 56bf 8f4a 133f
00000350: 4b26 5e3f 5484 18be 4de7 0ebe fa0c 3f3d
00000360: 1052 efbd 9266 86bc b578 163f e315 4fbe
00000370: f7f2 5bbf a178 20bd d9c4 9abf 2d23 0cbf
00000380: 59d2 aabd 38cb 8e3d f551 063f 34e0 aebe
00000390: 2c6b 783d 3298 a13f 74bb 30be 9704 a7ba
000003a0: 51ed 443f 7329 043f eceb 9c3d 8729 14be
000003b0: 11d6 83bd 793b 8f3e 9db1 43be 370e f2be
000003c0: 0b6d 34bb 86ef 8e3e f31e 873f 599a 763f
000003d0: 0349 e0be e471 a53e d245 bc3d d4a4 9d3e
000003e0: 3ba2 373f 6fbe 9a3e 82fe 323f 330d e93e
000003f0: a50a f63e 32c5 c6be 1627 c2bd ab32 8dbc

Q1.0.bias f4 [200]
-0.013934669 0.26228893 -0.5505903 -0.020924712 -0.2000308 -0.0804886 0.23793486 0.14833355
-0.061795544 0.0004970873 -0.20865671 -0.08177439 0.21780078 0.001221554 0.10554597 0.3919779
-0.072871365 0.1357869 0.27119288 -0.17455849 -0.3184993 0.39124393 0.38620868 0.21387178
0.4203836 0.12577736 0.3709595 -0.17554586 0.1761524 0.80042183 -0.39915434 -0.13675968
-0.7534014 0.54920197 0.15630497 0.21001269 -0.13794446 0.8135077 0.42881516 -0.14328112
-0.099463835 0.33888906 -0.46764892 0.6230085 0.44814867 -0.12365751 0.57004684 0.056495775
0.13928567 0.34097418 0.49642226 0.000507823 0.11227266 -0.08124602 0.28383216 -0.44232696
0.67878336 0.33794302 -0.7379051 0.44424585 -0.6919364 0.1695111 0.17162159 0.36768743
0.32023847 -0.57665026 -0.58647186 0.23767424 0.1688831 0.014838497 0.34645027 0.10516093
0.95281506 -0.20794614 -0.6624563 -0.04374651 -0.015858235 -0.016004128 -0.19852051 -0.34589276
0.054005306 0.09799101 -0.4188117 -0.7180076 0.21555565 -0.39954227 -0.17459837 0.019992901
0.4642047 0.51165974 0.45654523 0.15641604 0.21998006 0.420052 0.3488871 0.35931468
-0.01845113 0.22767094 0.3180754 -0.4320836 0.09418776 0.2852728 0.016525548 0.24755335
-0.36976853 -0.62996966 0.05093755 -0.24894655 -0.10692327 0.13844256 0.30429214 0.37170053
-0.15115237 0.3904275 -0.91914624 -0.7836098 0.18783365 -0.2579801 0.6467867 -0.40974268
0.81207013 0.4537227 0.081903204 0.44817826 0.5858745 0.58029264 -0.4165593 0.35904136
0.53779274 0.17683236 0.37593427 0.14634103 -0.4884248 0.3003395 -0.67648333 0.056513835
-0.6394231 -0.020521732 0.31584883 0.4046361 -0.28428787 -0.16631262 -0.0022795303 -0.052476138
-0.24229327 0.23907469 -0.12672637 0.21799728 0.10193943 -0.18092413 0.07360488 -0.62108845
-0.058187004 0.056138657 0.3672225 -0.104105115 0.21906036 0.12300993 0.1107554 0.646807
-0.5334019 0.67823094 0.20872818 -0.45115176 0.53760093 -0.22728029 -0.019915173 -0.79153544
0.262158 0.40162972 0.2486798 0.48921216 0.4460417 0.28557146 0.18453975 -0.5077497
0.35971177 0.049466006 0.38445297 0.14753394 0.20565666 -0.54031754 -0.263285 0.002637604
-0.19965374 -0.13087136 -0.69206905 0.4571633 0.077756196 0.32336736 -0.028731091 0.10757224
0.40416414 0.094599865 -0.056242123 -0.12924115 0.49243754 0.37579152 -0.34901157 0.01819883
00000000: 3d4e 64bc bc4a 863e 7cf3 0cbf 4d6a abbc
00000010: e0d4 4cbe 35d7 a4bd 32a5 733e c0e4 173e
00000020: 531d 7dbd f74e 023a 1baa 55be 5579 a7bd
00000030: 2b07 5f3e 8d1c a03a 7c28 d83d 54b1 c83e
00000040: 953d 95bd b90b 0b3e cbd9 8a3e 76bf 32be
00000050: 5712 a3be 2051 c83e 25bd c53e 3401 5b3e
00000060: 853c d73e c8cb 003e 67ee bd3e 4bc2 33be
00000070: 4b61 343e 72e8 4c3f f55d ccbe bb0a 0cbe
00000080: eade 40bf 8098 0c3f 690e 203e 910d 573e
00000090: 5041 0dbe 0a42 503f a98d db3e 49b8 12be
000000a0: b2b3 cbbd de82 ad3e ae6f efbe 7c7d 1f3f
000000b0: be73 e53e 2640 fdbd 97ee 113f 1d68 673d
000000c0: e7a0 0e3e 2b94 ae3e 0f2b fe3e 6d1f 053a
000000d0: 35ef e53d 5064 a6bd 7352 913e ae78 e2be
000000e0: bfc4 2d3f de06 ad3e 59e7 3cbf 3174 e33e
000000f0: be22 31bf 5194 2d3e 92bd 2f3e 8741 bc3e
00000100: 4cf6 a33e 5a9f 13bf 0523 16bf e060 733e
00000110: b1ef 2c3e 2b1d 733c ee61 b13e 9d5e d73d
00000120: b0eb 733f d5ef 54be bc96 29bf 8a2f 33bd
00000130: 21e9 81bc 171b 83bc f648 4bbe db18 b1be
00000140: ab34 5d3d 83af c83d 7d6e d6be 59cf 37bf
00000150: 9fba 5c3e ce90 ccbe eac9 32be 27c8 a33c
00000160: 3dac ed3e 22fc 023f 4cc0 e93e 872b 203e
00000170: 7442 613e 0e11 d73e 54a1 b23e 18f8 b73e
00000180: d326 97bc 9222 693e c7da a23e 103a ddbe
00000190: 83e5 c03d 470f 923e 9660 873c a07e 7d3e
000001a0: 4d52 bdbe b145 21bf e4a3 503d d8eb 7ebe
000001b0: 96fa dabd e3c3 0d3e 2ecc 9b3e 884f be3e
000001c0: b0c7 1abe 1de6 c73e 2b4d 6bbf a79a 48bf
000001d0: 7757 403e f815 84be d093 253f cbc9 d1be
000001e0: d4e3 4f3f 574e e83e debc a73d 9f77 e53e
000001f0: dffb 153f 0f8e 143f 4347 d5be 45d4 b73e
00000200: c9ac 093f 8b13 353e 757a c03e 6cda 153e
00000210: d112 fabe 19c6 993e 032e 2dbf 0d7b 673d
00000220: 3bb1 23bf 311d a8bc f0b6 a13e 772c cf3e
00000230: 2e8e 91be db4d 2abe 2c64 15bb 38f1 56bd
00000240: ba1b 78be ffcf 743e 8fc4 01be ae3a 5f3e
00000250: 9fc5 d03d 2d44 39be 28be 963d a7ff 1ebf
00000260: 7f55 6ebd a6f1 653d 9604 bc3e 1035 d5bd
00000270: 5c51 603e a1ec fb3d bad3 e23d 2595 253f
00000280: 078d 08bf 8ba0 2d3f d7bc 553e 5dfd e6be
00000290: 37a0 093f 2abc 68be 2525 a3bc 11a2 4abf
000002a0: 9339 863e 69a2 cd3e eba5 7e3e 047a fa3e
000002b0: 945f e43e 6c36 923e fdf7 3c3e e2fb 01bf
000002c0: 242c b83e de9c 4a3d 05d7 c43e 2313 173e
000002d0: a997 523e 4052 0abf 4bcd 86be a7db 2c3b
000002e0: 0872 4cbe 2403 06be 702b 31bf 4f11 ea3e
000002f0: a43e 9f3d 6890 a53e 775d ebbc d64e dc3d
00000300: 9aee ce3e 93bd c13d 245e 66bd cb57 04be
00000310: c620 fc3e bf67 c03e a5b1 b2be b615 953c

Q1.2.weight f4 [200, 200]
-0.110931024 0.26262107 0.5408244 0.38155496 -0.09145713 -0.020042485 0.06531753 -0.15636078
0.24062659 0.16989021 -0.33965653 -0.038111493 0.14791559 0.31824973 -0.1150406 0.1104569
-0.5343109 0.15200531 -0.038267627 -0.03553572 0.16482425 -0.039833404 0.014517799 -0.20455872
-0.2086791 0.08511901 0.40715334 -0.26504403 -0.3777453 0.24389467 -0.49619654 0.5747228
-0.094238624 -0.042230945 0.3225314 -0.16248532 0.02969706 0.22717583 0.047844835 -0.536371
0.36888546 -0.21241878 -0.6431568 0.23242433 0.069405265 0.046361487 -0.04522586 0.28495342
0.4287922 -0.47049755 -0.030605406 -0.9026569 0.2980878 0.15992118 -0.04757239 -0.20484722
0.07971078 0.20557788 0.10882646 0.40018606 -0.3077666 0.14593437 -0.13830955 -0.0077822274
-0.014382751 0.086609125 0.3678505 0.18266204 -0.122830436 -0.053758103 0.08547995 0.33945104
0.1679444 0.078993805 0.23446646 -0.22174598 -0.2581575 0.4244191 0.49192387 -0.26673514
-0.26443803 0.13695545 0.011288876 -0.67084014 -0.075765654 0.47313768 -0.38821945 0.4181775
0.2969846 -0.044400852 0.09434315 0.37976968 -0.33743253 0.01988507 0.08830176 -0.13675788
0.17415257 0.40335277 0.15043287 -0.7538405 0.20662013 0.10000544 -0.033747636 0.21153821
-0.17163089 -0.5171044 0.1984176 -0.043916963 0.1776678 0.17231053 0.4409643 -0.040299337
0.22652416 -0.0061932392 0.62211794 0.037703328 0.14612833 -0.13422754 0.19488539 -0.2894574
0.12774841 0.2808819 0.25084138 0.0622498 0.13481833 -0.06304428 -0.043368895 -0.029755428
0.122948624 0.026217422 -0.014997055 0.08278781 -0.36411354 0.19807827 -0.4916906 0.30431145
0.37763527 0.077759005 0.31049514 0.06337666 -0.052895937 0.13752118 -0.2715001 -0.18294762
0.09709959 0.21920364 0.14622387 0.15614714 -0.054425795 -0.055374213 -0.4557129 -0.8217538
-0.1567348 0.30949965 -0.19580211 -0.31675968 -0.115814395 -0.33555326 0.12428938 0.13451745
0.73701346 0.0023902082 -0.10577457 -2.2697096 -0.17688654 0.090414524 0.25562203 0.22068565
0.004906371 0.40677133 -0.026721042 0.118394226 0.046753753 0.0072966255 0.16946694 -0.20915231
-0.14571896 0.035471242 -0.20216277 -0.17958093 -0.2157218 -0.51112527 0.16176681 -0.5426708
-0.013969237 0.23369281 0.34421954 0.06902937 -0.24374032 -0.059876516 -0.0021220634 -0.58636224
0.16155918 0.267409 0.34887215 0.3855351 -0.0005312099 0.044522256 -0.37858126 -0.008153984
-0.14025488 -0.6707447 0.4770152 0.13779561 0.5237323 -0.34964058 0.18164067 -0.40472266
-0.2199794 -0.028301349 -0.34975514 0.2327314 0.26140845 0.04434809 0.12561765 0.13887051
-0.095245466 0.096707165 0.15945028 0.05107967 -0.2820265 -0.105137765 0.14252433 0.16741005
0.25642636 0.35387078 -0.07971028 0.029131461 -0.14274345 0.24583676 -0.85753644 0.27236202
-0.28907338 0.0160302 0.2556092 -0.05904099 0.06742132 0.0883273 -0.18255766 -0.021951228
-0.015987806 -0.06731796 1.056454 0.40808523 0.30983248 0.011571575 0.15043226 0.11029698
-0.18518913 -0.013817597 -1.122043 -0.957504 -0.1365078 0.06331124 -0.22195314 -0.35584053
00000000: ce2f e3bd 4576 863e 7873 0a3f 2c5b c33e
00000010: e04d bbbd 2330 a4bc 32c5 853d 0a1d 20be
00000020: d166 763e b3f7 2d3e 76e7 adbe cc1a 1cbd
00000030: 2f77 173e a1f1 a23e 689a ebbd 3a37 e23d
00000040: 99c8 08bf 48a7 1b3e 84be 1cbd e78d 11bd
00000050: b0c7 283e 5a28 23bd 10dc 6d3c d777 51be
00000060: f9af 55be e052 ae3d 6776 d03e dab3 87be
00000070: d567 c1be 86bf 793e 790d febe 0921 133f
00000080: 2e00 c1bd 5bfa 2cbd d622 a53e 8d62 26be
00000090: 4047 f33c c8a0 683e f2f8 433d 9c4f 09bf
000000a0: 8ede bc3e 4f84 59be eda5 24bf a500 6e3e
000000b0: 5924 8e3d 8be5 3d3d c03e 39bd 6ae5 913e
000000c0: a78a db3e 0ee5 f0be 30b8 fabc 8614 67bf
000000d0: f79e 983e 61c2 233e 44db 42bd 78c3 51be
000000e0: 683f a33d 0283 523e 68e0 de3d 30e5 cc3e
000000f0: 9593 9dbe d26f 153e 05a1 0dbe 0e02 ffbb
00000100: a1a5 6bbc 2060 b13d e756 bc3e c20b 3b3e
00000110: 868e fbbd 7531 5cbd 1d10 af3d 87cc ad3e
00000120: 9ef9 2b3e 81c7 a13d fa17 703e 6111 63be
00000130: 382d 84be 764d d93e 72dd fb3e 8291 88be
00000140: 6c64 87be 0d3e 0c3e faf4 383c 2ebc 2bbf
00000150: 062b 9bbd 1a3f f23e b3c4 c6be 5c1b d63e
00000160: 5e0e 983e abdd 35bd fb36 c13d 2c71 c23e
00000170: f5c3 acbe 04e6 a23c 8ed7 b43d 420a 0cbe
00000180: 0d55 323e 4184 ce3e 130b 1a3e b1fb 40bf
00000190: 3a94 533e a7cf cc3d f63a 0abd 799d 583e
000001a0: 02c0 2fbe f460 04bf fc2d 4b3e 46e2 33bd
000001b0: 8cee 353e 2c72 303e 13c6 e13e eb10 25bd
000001c0: f3f5 673e a8f0 cabb 1f43 1f3f ce6e 1a3d
000001d0: aaa2 153e f272 09be 0990 473e c333 94be
000001e0: 7bd0 023e c1cf 8f3e 486e 803e a5f9 7e3d
000001f0: d10d 0a3e 5c1d 81bd 95a3 31bd a8c1 f3bc
00000200: 7dcc fb3d ebc5 d63c 35b6 75bc a88c a93d
00000210: 176d babe 08d5 4a3e dfbe fbbe b6ce 9b3e
00000220: 6959 c13e 1d40 9f3d 38f9 9e3e 9fcb 813d
00000230: 69a9 58bd 5ad2 0c3e 1002 8bbe 9f56 3bbe
00000240: 26dc c63d eb76 603e b6bb 153e 09e5 1f3e
00000250: 95ed 5ebd 12d0 62bd 3453 e9be 755e 52bf
00000260: 167f 20be bd76 9e3e 5980 48be 532e a2be
00000270: 1930 edbd a3cd abbe 6e8b fe3d f1be 093e
00000280: eaac 3c3f 0aa5 1c3b 56a0 d8bd ec42 11c0
00000290: bf21 35be 402b b93d e4e0 823e 6bfb 613e
000002a0: 9fc5 a03b 5544 d03e 16e6 dabc ac78 f23d
000002b0: dd80 3f3d 8818 ef3b be88 2d3e 062c 56be
000002c0: 5a37 15be 4b4a 113d c203 4fbe 10e4 37be
000002d0: 2de6 5cbe 1bd9 02bf 33a6 253e 79ec 0abf
000002e0: 3adf 64bc 2b4d 6f3e 8b3d b03e 455f 8d3d
000002f0: 1097 79be 1441 75bd 5112 0bbb d61b 16bf
00000300: c56f 253e d5e9 883e 5f9f b23e db64 c53e
00000310: e540 0bba f85c 363d 67d5 c1be 4a98 05bc
00000320: fa9e 0fbe edb5 2bbf 563b f43e 4b1a 0d3e
00000330: 5213 063f 1704 b3be 0300 3a3e cf37 cfbe
00000340: 4842 61be 3bd8 e7bc 1b13 b3be 2451 6e3e
00000350: 54d7 853e 58a6 353d eaa1 003e 1234 0e3e
00000360: 0e10 c3bd 680e c63d ef46 233e eb38 513d
00000370: c765 90be 7852 d7bd e6f1 113e 8a6d 2b3e
00000380: 514a 833e 8d2e b53e 253f a3bd 1aa5 ee3c
00000390: 572b 12be a2bc 7b3e 8287 5bbf 0973 8b3e
000003a0: 6d01 94be c451 833c 36df 823e f7d4 71bd
000003b0: 3014 8a3d f2e4 b43d 65f0 3abe 10d3 b3bc
000003c0: dcf8 82bc 00de 89bd e239 873f 8cf0 d03e
000003d0: 5da2 9e3e b496 3d3c ea0a 1a3e 62e3 e13d
000003e0: 38a2 3dbe 3463 62bc 1b9f 8fbf fb1e 75bf
000003f0: b3c8 0bbe 53a9 813d af47 63be bb30 b6be

Q1.2.bias f4 [200]
0.24642769 0.11637509 -0.0074821766 0.12506415 0.027787197 0.045527767 0.22864173 0.2957505
0.053406596 0.30035785 0.28693053 -0.06406424 0.32179 -0.051708333 -0.01468205 0.28038496
0.021178653 0.08571591 0.2659323 0.08213716 0.24697822 -0.57709527 0.10608811 0.0936206
0.058626454 0.03515822 0.16652997 0.055487745 0.12616237 0.07329331 0.2499509 0.1006743
0.127018 -0.025005665 0.09252623 0.034370743 0.15780358 0.10165649 0.11739231 0.52636284
-0.18444528 0.064278714 0.04801502 -0.013064947 0.27419987 0.12799875 0.17124608 -0.07220107
0.08495042 0.055464983 0.30597997 0.19471182 -0.07008759 0.11701042 0.17144988 0.23895085
0.28756627 0.010005385 0.22246718 0.2904446 0.028474571 0.035675637 0.028394923 0.14046197
-0.0123397 0.096657 0.009340951 0.17528239 -0.15556812 -0.06611104 0.19250338 0.012532762
0.082661614 0.23219325 -0.2681425 -0.13830988 -0.043397713 0.25507638 -0.42394298 0.14117661
0.082753874 -0.04924236 -0.030901695 -0.02007124 0.1083327 0.14590974 0.19082887 0.1571248
-0.13256899 0.14287794 0.19925247 0.19911397 0.36293828 -0.060630526 -0.10705559 0.314811
0.22247294 0.16222502 0.11235217 -0.076107584 -0.18089712 0.28169885 0.23361306 0.0571631
0.22843838 -0.37411046 -0.07649022 0.12375639 0.33302972 0.25081077 -0.043626174 -0.02432673
0.023040723 0.10245317 0.22330345 0.123821706 0.22624868 -0.1323222 -0.08194624 -0.08312149
0.11967808 0.08983688 0.043944586 -0.10065409 0.028690957 0.13538691 0.10556314 -0.029216945
-0.018822558 0.04499987 0.022364158 -0.034965336 -0.17317285 0.27437857 0.121310025 0.2972705
-0.08938217 0.17661595 0.22871478 -0.09858365 -0.046085782 0.11171659 0.098655604 0.17416409
0.28855047 0.108120225 -0.063259825 0.12699434 0.054507658 0.346886 -0.023658402 0.23698331
0.0973186 0.2847992 0.083900265 0.06937088 -0.061914153 0.22182125 -0.022355197 -0.1369643
0.3290002 0.030638024 0.14236045 -0.02045111 0.2543054 0.20988584 -0.0131136095 0.17658739
0.24053854 0.23083787 -0.08432755 0.07009406 0.028013818 0.043950085 0.21573937 -0.043972183
0.052325867 0.11903776 0.25164223 0.00713671 0.28384084 -0.071621746 0.016114816 -0.08016278
0.2631896 0.02834938 0.07251117 0.18525499 0.038435515 0.21906102 0.10092996 0.060270794
0.28552213 0.019947294 0.13730924 0.037107002 0.29557362 -0.03569973 -0.012704933 0.1860353
00000000: 8a57 7c3e 1056 ee3d 0c2d f5bb d110 003e
00000010: faa1 e33c 537b 3a3d 0f21 6a3e 9c6c 973e
00000020: e0c0 5a3d 81c8 993e 8fe8 923e 1d34 83bd
00000030: a9c1 a43e 1ecc 53bd fb8c 70bc 9e8e 8f3e
00000040: db7e ad3c d38b af3d 4728 883e 8737 a83d
00000050: dce7 7c3e 84bc 13bf b944 d93d 28bc bf3d
00000060: 4b22 703d 1102 103d d586 2a3e 1e47 633d
00000070: b530 013e ce1a 963d 21f3 7f3e 542e ce3d
00000080: 0211 023e aed8 ccbc 647e bd3d 56c8 0c3d
00000090: 4397 213e 4731 d03d 616b f03d b7bf 063f
000000a0: 39df 3cbe 8fa4 833d 66ab 443d 5c0e 56bc
000000b0: ed63 8c3e 1b12 033e 225b 2f3e 28de 93bd
000000c0: 7cfa ad3d 402f 633d 68a9 9c3e 8962 473e
000000d0: 158a 8fbd 29a3 ef3d 8f90 2f3e 88af 743e
000000e0: e33b 933e a0ed 233c 70ce 633e 28b5 943e
000000f0: 8143 e93c 9e20 123d 789c e83c 43d5 0f3e
00000100: 742c 4abc 1bf4 c53d ca0a 193c 3a7d 333e
00000110: 404d 1fbe 3a65 87bd 9b1f 453e 3756 4d3c
00000120: 7e4a a93d 11c4 6d3e f949 89be 1ba1 0dbe
00000130: cdc1 31bd 5f99 823e 0e0f d9be 9a90 103e
00000140: dd7a a93d 5bb2 49bd 8d25 fdbc 716c a4bc
00000150: 89dd dd3d 5d69 153e a568 433e 53e5 203e
00000160: 2ac0 07be 984e 123e d708 4c3e 88e4 4b3e
00000170: 0cd3 b93e b757 78bd f63f dbbd e82e a13e
00000180: f2cf 633e 511e 263e e518 e63d 4bde 9bbd
00000190: 183d 39be d53a 903e 4338 6f3e db23 6a3d
000001a0: c0eb 693e 688b bfbe e8a6 9cbd fd73 fd3d
000001b0: df82 aa3e 456a 803e 5cb1 32bd da48 c7bc
000001c0: e6bf bc3c f8d2 d13d a9a9 643e 3c96 fd3d
000001d0: bcad 673e 797f 07be 6ed3 a7bd 9a3b aabd
000001e0: c819 f53d 66fc b73d 3dff 333d bb23 cebd
000001f0: 4c09 eb3c dea2 0a3e 7d31 d83d 6058 efbc
00000200: c431 9abc c951 383d 0a35 b73c d037 0fbd
00000210: 3954 31be 597b 8c3e 6471 f83d d733 983e
00000220: 000e b7bd d0da 343e 3534 6a3e 3ae6 c9bd
00000230: 72c4 3cbd abcb e43d f30b ca3d 1258 323e
00000240: e3bc 933e 236e dd3d 5e8e 81bd ce0a 023e
00000250: 6c43 5f3d 0b9b b13e 44cf c1bc c1ab 723e
00000260: f94e c73d 33d1 913e e7d3 ab3d 5212 8e3d
00000270: b299 7dbd 1c25 633e 3f22 b7bc 5f40 0cbe
00000280: b772 a83e 98fc fa3c f0c6 113e 1689 a7bc
00000290: 5134 823e 50ec 563e 77da 56bc 53d3 343e
000002a0: bc4f 763e c360 6c3e ecb3 acbd 798d 8f3d
000002b0: 3c7d e53c 0105 343d c8ea 5c3e 2d1c 34bd
000002c0: a653 563d 12ca f33d 40d7 803e 10db e93b
000002d0: 9653 913e 6cae 92bd 3803 843c 622c a4bd
000002e0: cac0 863e f53c e83c bc80 943d 7cb3 3d3e
000002f0: 8f6e 1d3d 8851 603e 5eb4 ce3d 82de 763d
00000300: f52f 923e 8268 a33c cb9a 0c3e 83fd 173d
00000310: 6d55 973e e139 12bd 5a28 50bc 0a80 3e3e

Q1.4.weight f4 [4, 200]
-0.5925607 -0.076289415 0.94175035 0.37202758 1.2017248 -0.8905003 -0.8901889 0.8048215
-0.41373137 -1.6443336 -0.18041019 -0.026562836 0.1573426 0.040612318 -0.7769784 -0.88337284
0.2500024 -0.84467393 -1.2299273 1.0940154 0.5351989 2.3747368 0.08590083 -0.350088
-0.2593602 0.6787536 -0.25756443 -0.019500686 1.5296352 -0.08935829 -0.47102186 0.393718
-0.36928496 1.3491037 -0.872392 -0.36321375 -0.56402886 1.4358258 -0.6784475 -0.3772104
-0.9791584 0.6485745 -0.010946249 -2.0085287 0.5305091 0.83408064 -0.5287579 0.052841272
-0.11342031 -0.7185604 -0.18575731 -0.71293503 -0.012273449 -0.59016836 -0.22864026 -0.36696732
-1.7208229 -0.03638399 -0.49900767 -0.6940548 1.4009739 0.669499 0.06358229 -0.82046545
-1.9145575 -1.3696171 0.0034333123 -0.26787534 0.9552517 0.05765725 -0.37836856 -0.08849756
-0.593928 -0.4159224 -1.2167054 1.1422237 -1.1482059 -1.4325994 -1.5376779 0.51821196
0.71283025 0.79649293 0.35296693 -0.037672743 -0.62713635 -0.661411 -0.9259706 0.08597235
1.299487 1.1344593 -0.23225212 0.41655803 -1.5067644 0.37943202 0.77261364 -0.385733
-0.5725459 0.60467505 -0.43370873 0.029744783 1.3334721 -0.36604476 -0.20337665 -0.64807135
0.49832225 -0.77321917 0.064928986 -0.5220014 -0.48304424 -0.52319086 0.7635791 1.2456671
0.21442507 0.38910884 0.45183957 -0.48318413 -1.5427421 0.8022501 1.4707767 -0.4098608
-0.48738214 -0.53137565 0.62088996 0.9988409 0.8708837 -0.2558235 -0.8746205 -0.38197604
-0.018127995 -0.007980323 -0.524946 0.01146439 0.6780782 -0.2843348 -0.5293169 -0.61207795
-0.86189 -0.5859271 -0.6244113 -1.3961875 0.83689827 0.34406534 -0.2687919 -0.50238997
-0.81910974 -0.37546647 0.012430383 0.39860854 1.1012499 0.56211406 -0.91943866 -0.3634748
0.949575 -0.526088 0.3782702 0.096837096 -0.017010277 -0.30501992 0.4867025 0.04847314
0.55703944 0.004592516 -0.4774971 0.62833273 0.8155675 0.43126896 -0.0345342 -0.81256247
1.4264933 0.9965812 0.05843464 -0.42482176 0.03967821 0.6792088 -0.4684134 0.7589255
0.012593836 -0.35020375 1.0640674 0.042026855 0.15636794 -0.03338043 0.7404713 1.360457
-0.607172 -0.0465991 0.386673 -0.16714096 -1.4754275 -0.44838157 -1.0135741 -0.42303208
1.0210577 0.9542375 -0.44015387 0.04068296 1.7136928 -0.0084575005 0.47585157 -0.32194597
-0.2722452 -0.11026578 -1.2511991 0.5576155 1.0334396 -0.54459214 -0.8138713 0.8883493
-0.30756578 -0.88106346 -0.6213685 0.056897204 -0.8155659 0.055465452 -0.3148959 -0.46020064
0.24157347 0.40523595 -0.32936263 0.54711723 0.767958 2.2054338 -1.0439421 0.21289772
-1.0062115 1.1965961 -0.7149533 0.058404945 1.1954591 -0.9553633 -0.6440063 0.2628755
-0.25905994 1.0915501 -0.89024484 -0.6940662 -0.3517506 1.3644686 -0.81597936 -0.6594505
-0.27465895 0.49587923 0.057708524 -0.9859111 0.75450355 0.4459724 -0.24718833 0.028797263
-2.0228562 -0.6009756 -1.1475801 0.29465696 0.061958544 -0.070697926 -0.41254374 -0.89743805
00000000: 0fb2 17bf a03d 9cbd 8d16 713f 667a be3e
00000010: 1ed2 993f d4f7 63bf 6be3 63bf c808 4e3f
00000020: 99d4 d3be 8679 d2bf 73bd 38be 4e9a d9bc
00000030: 6b1e 213e 1a59 263d 0ee8 46bf b924 62bf
00000040: 5100 803e 8d3c 58bf 426e 9dbf b208 8c3f
00000050: cc02 093f b0fb 1740 c6ec af3d bc3e b3be
00000060: dcca 84be ccc2 2d3f 7cdf 83be e7bf 9fbc
00000070: 16cb c33f 7b01 b7bd c729 f1be 6895 c93e
00000080: eb12 bdbe 6eaf ac3f 1555 5fbf 27f7 b9be
00000090: 3264 10bf 24c9 b73f bcae 2dbf b921 c1be
000000a0: 20aa 7abf fa08 263f e557 33bc bc8b 00c0
000000b0: 72cf 073f 4f86 553f ae5c 07bf 1770 583d
000000c0: e848 e8bd 93f3 37bf 2a37 3ebe e982 36bf
000000d0: 9416 49bc 4615 17bf ac20 6abe 24e3 bbbe
000000e0: ed43 dcbf 6107 15bd ef7d ffbe 93ad 31bf
000000f0: 1d53 b33f 4964 2b3f 6f37 823d 060a 52bf
00000100: 3810 f5bf 9d4f afbf 6c01 613b f526 89be
00000110: 608b 743f 022a 6c3d 86b9 c1be 353e b5bd
00000120: aa0b 18bf c8f3 d4be 01bd 9bbf 6334 923f
00000130: 69f8 92bf 6b5f b7bf a1d2 c4bf 8aa9 043f
00000140: 0b7c 363f f6e6 4b3f 15b8 b43e bc4e 1abd
00000150: 028c 20bf 3b52 29bf 690c 6dbf 4512 b03d
00000160: 9755 a63f f635 913f 80d3 6dbe 1847 d53e
00000170: a8dd c0bf ea44 c23e 02ca 453f cc7e c5be
00000180: 5e92 12bf fccb 1a3f 120f debe 55ab f33c
00000190: 37af aa3f 386a bbbe f841 50be 01e8 25bf
000001a0: 1824 ff3e b1f1 45bf 7df9 843d e2a1 05bf
000001b0: 9351 f7be d6ef 05bf eb79 433f 0572 9f3f
000001c0: 3f92 5b3e 4639 c73e 8457 e73e e963 f7be
000001d0: 9378 c5bf 4360 4d3f 6942 bc3f 46d9 d1be
000001e0: 278a f9be 3c08 08bf a5f2 1e3f 0ab4 7f3f
000001f0: 3cf2 5e3f 4cfb 82be 21e7 5fbf 5d92 c3be
00000200: 2981 94bc e7bf 02bc dc62 06bf 23d5 3b3c
00000210: 8896 2d3f 5594 91be 5081 07bf 24b1 1cbf
00000220: d3a4 5cbf 52ff 15bf 6bd9 1fbf 46b6 b2bf
00000230: f73e 563f 5529 b03e 189f 89be a19c 00bf
00000240: 2db1 51bf 243d c0be cea8 4b3c 6b16 cc3e
00000250: c2f5 8c3f b5e6 0f3f 5560 6bbf 5e19 babe
00000260: 5917 733f b4ad 06bf a2ac c13e 8752 c63d
00000270: 2359 8bbc 922b 9cbe 1231 f93e c58b 463d
00000280: 239a 0e3f d17c 963b 807a f4be 6ada 203f
00000290: 08c9 503f 49cf dc3e bc73 0dbd 1804 50bf
000002a0: 5597 b63f f21f 7f3f 2959 6f3d 3d82 d9be
000002b0: 9e85 223d a1e0 2d3f e2d3 efbe f148 423f
000002c0: 6056 4e3c e84d b3be 5c33 883f 5a24 2c3d
000002d0: eb1e 203e ebb9 08bd 878f 3d3f 7423 ae3f
000002e0: a06f 1bbf b3de 3ebd 01fa c53e 0027 2bbe
000002f0: cfda bcbf 4592 e5be ccbc 81bf a997 d8be
00000300: 05b2 823f e948 743f d95b e1be 2da3 263d
00000310: 495a db3f 5491 0abc d1a2 f33e 1ad6 a4be
00000320: b963 8bbe 06d3 e1bd 4b27 a0bf e4bf 0e3f
00000330: c047 843f 646a 0bbf df59 50bf dc6a 633f
00000340: 4379 9dbe 608d 61bf 0212 1fbf 0b0d 693d
00000350: edc8 50bf be2f 633d 093a a1be 6b9f ebbe
00000360: 095f 773e 167b cf3e 38a2 a8be e00f 0c3f
00000370: e598 443f d425 0d40 e59f 85bf dc01 5a3e
00000380: 8acb 80bf 102a 993f 2e07 37bf 063a 6f3d
00000390: ce04 993f b092 74bf 99dd 24bf 9e97 863e
000003a0: 81a3 84be eab7 8b3f 16e7 63bf 53ae 31bf
000003b0: a818 b4be e8a6 ae3f 06e4 50bf bfd1 28bf
000003c0: 19a0 8cbe e2e3 fd3e c65f 6c3d ab64 7cbf
000003d0: 2527 413f 7f56 e43e f01e 7dbe 3de8 eb3c
000003e0: 7a76 01c0 89d9 19bf e8e3 92bf 47dd 963e
000003f0: 3ec8 7d3d 13ca 90bd ef38 d3be 80be 65bf

Q1.4.bias f4 [4]
0.03916193 -0.2342527 0.12753958 -0.08679097
00000000: 4368 203d f1df 6fbe bc99 023e 77bf b1bd

Q2.0.weight f4 [200, 8]
0.6817792 0.14229766 1.0907136 0.75850827 0.11380946 0.09894607 -0.5845021 0.9167978
0.9070891 0.12242897 -0.3800166 -0.10726143 -0.019344054 -0.8832029 -0.6870927 -0.19059831
0.022999607 0.23954403 0.22285418 -0.55365616 1.5290526 -0.34895936 0.5097981 -0.03830145
0.84876275 -0.75334144 -0.3804953 -0.8596243 -0.13970342 -0.23554848 -0.7311669 -0.83676946
0.05910064 -0.12695944 0.08102156 -0.583075 0.7741519 -0.5019038 -0.27434674 0.5836176
0.2917465 0.6560261 -0.09930844 0.04777134 -0.064881556 -0.11388487 -0.37061036 -0.15864897
-0.59411246 -0.100401334 0.28017664 0.063536964 0.5990959 -0.8064338 -0.99121636 0.17192559
-0.37812847 0.07275333 0.39928862 0.5735621 0.061376043 0.22703607 0.58203703 -0.0044803377
-0.00746462 0.34119713 0.52689034 -0.32489857 0.0205161 1.065234 -0.14195432 0.001378293
0.4387906 -0.049509436 -0.4516755 0.092944875 -1.007942 0.45253742 -0.5920514 0.29724568
-0.2125948 0.02735716 -0.35596332 0.011871973 -0.46743715 -0.49420127 -0.40584564 0.572393
0.44353127 -0.066525534 -0.73197514 0.04691665 0.6906448 -0.3226143 0.052046914 -0.010083746
-0.6174848 0.5271595 -0.2760526 0.23440559 -0.26827955 0.6353644 -0.046844997 -0.5999151
0.018806273 0.35282427 -0.09821565 0.54374444 0.7079431 0.23769572 -0.8028209 0.17955382
-0.000694318 0.36857972 0.9821731 -0.11297594 -0.047310293 0.5194022 -0.021178143 -0.27182585
-0.27808833 0.112630524 0.7059249 2.7153792 0.440287 0.053639308 -0.7452455 0.44242263
0.6330408 0.34340036 0.16733626 0.23080121 -0.4441887 -0.12646924 -0.54955524 0.41130432
-0.9841903 -0.19511203 0.2648509 -0.31136566 0.29191783 0.67666453 -0.04048174 -0.21094003
0.5338492 0.032029666 0.075593464 -0.07967159 0.37651265 -0.6904143 -0.07330739 -0.08775515
-0.46236837 0.46524793 0.42206872 -0.4365685 -0.27640584 -0.07405362 0.34804827 0.45859188
0.29432464 0.27577007 0.28544995 -0.64225495 0.8668818 -0.8562123 -0.003156799 -1.3333521
-0.26075777 0.12957375 -0.36205333 -0.16636221 0.9295523 0.10367402 -0.8561188 -1.2271273
0.2957616 0.5195327 -0.3074602 0.3259591 0.3273042 0.49558485 0.91536134 -0.048144113
1.3887082 0.057363562 -0.07556084 -0.75887537 -0.19483475 0.35499296 0.00048159508 0.23516737
-0.039059907 -1.7679379 0.5753357 -0.15343164 -0.33770356 -1.0962173 0.3237288 -0.10106999
-0.89379495 0.62563765 0.33049908 -0.29520774 0.3681525 -0.7044651 -0.3240655 -0.5690608
0.40736762 0.09821444 0.44176242 -0.31637338 0.34659156 -0.297444 -0.9605391 -1.1435051
0.22247025 0.8554077 0.4093821 0.27941763 -0.23559959 0.2338008 0.22177783 0.2781471
-0.59760433 0.49774876 -1.0576844 0.1845712 -0.07007287 -0.6835849 -0.66387683 0.46690464
-0.09362274 0.3407137 0.0834966 0.19384702 0.08490828 -0.54368573 -0.1907082 0.6151387
-0.3915429 -0.41886485 -0.37915814 -0.32819065 0.4516939 1.1160492 -0.94595784 0.34803617
-0.77237487 -0.15727955 0.6503423 0.33407268 0.44041395 -0.4986855 0.9166701 -1.1283723
00000000: 1589 2e3f 7ab6 113e 819c 8b3f 992d 423f
00000010: ef14 e93d 3da4 ca3d eea1 15bf 43b3 6a3f
00000020: fe36 683f 0abc fa3d 8991 c2be e1ab dbbd
00000030: 6c77 9ebc 9619 62bf 4fe5 2fbf 342c 43be
00000040: ac69 bc3c 084b 753e e333 643e 69bc 0dbf
00000050: ffb7 c33f cdaa b2be 2182 023f fbe1 1cbd
00000060: 8448 593f fcda 40bf 48d0 c2be 5710 5cbf
00000070: 6a0e 0fbe 9f33 71be c12d 3bbf 8636 56bf
00000080: 8313 723d a801 02be a2ee a53d 6744 15bf
00000090: d22e 463f c47c 00bf 2d77 8cbe f767 153f
000000a0: cc5f 953e 54f1 273f 3962 cbbd e1ab 433d
000000b0: 9fe0 84bd 793c e9bd a4c0 bdbe e074 22be
000000c0: c117 18bf 379f cdbd 5073 8f3e ab1f 823d
000000d0: 595e 193f 7272 4ebf 5bc0 7dbf 430d 303e
000000e0: 0e9a c1be b3ff 943d 8f6f cc3e f7d4 123f
000000f0: 7265 7b3d 257c 683e 6100 153f cccf 92bb
00000100: c599 f4bb 64b1 ae3e 49e2 063f 1b59 a6be
00000110: 6111 a83c 9659 883f 795c 11be d7a7 b43a
00000120: 29a9 e03e 68ca 4abd 0342 e7be e259 be3d
00000130: 3e04 81bf fcb2 e73e ae90 17bf 9630 983e
00000140: 74b2 59be 1f1c e03c d340 b6be aa82 423c
00000150: ec53 efbe f307 fdbe 00cb cfbe 5988 123f
00000160: 8816 e33e 8a3e 88bd b962 3bbf ac2b 403d
00000170: 19ce 303f b42d a5be 252f 553d 4c36 25bc
00000180: 7c13 1ebf edf3 063f c456 8dbe 0508 703e
00000190: f05b 89be 3ea7 223f 8ae0 3fbd 0994 19bf
000001a0: 9d0f 9a3c 62a5 b43e 4925 c9bd d632 0b3f
000001b0: c23b 353f 8266 733e ac85 4dbf f5dc 373e
000001c0: e402 36ba 7bb6 bc3e b26f 7b3f ee5f e7bd
000001d0: 70c8 41bd 8bf7 043f c97d adbc c22c 8bbe
000001e0: 9861 8ebe d5aa e63d 7fb7 343f c6c8 2d40
000001f0: 4c6d e13e e4b4 5b3d 69c8 3ebf 3885 e23e
00000200: f60e 223f 2cd2 af3e 325a 2b3e 2757 6c3e
00000210: b46c e3be 2781 01be a7af 0cbf 7b96 d23e
00000220: e5f3 7bbf 73cb 47be 8a9a 873e 526b 9fbe
00000230: 4176 953e e339 2d3f 2ed0 25bd aa00 58be
00000240: 57aa 083f 8a31 033d bfd0 9a3d dc2a a3bd
00000250: 44c6 c03e febe 30bf 2f22 96bd f9b8 b3bd
00000260: 8cbb ecbe fa34 ee3e 6419 d83e e885 dfbe
00000270: 1185 8dbe 6da9 97bd 6233 b23e 8ecc ea3e
00000280: b8b1 963e bc31 8d3e 7f26 923e d26a 24bf
00000290: f7eb 5d3f bb30 5bbf 4ce2 4ebb 48ab aabf
000002a0: 0b82 85be fbae 043e 0e5f b9be db5a 2abe
000002b0: 24f7 6d3f 0b53 d43d 9a2a 5bbf 8212 9dbf
000002c0: 106e 973e 1800 053f 6c6b 9dbe 1ce4 a63e
000002d0: 6b94 a73e 4cbd fd3e 1f55 6a3f c332 45bd
000002e0: 31c1 b13f 0ef6 6a3d a4bf 9abd a845 42bf
000002f0: c382 47be a3c1 b53e 997e fc39 b7cf 703e
00000300: 48fd 1fbd ca4b e2bf 3349 133f 2f1d 1dbe
00000310: 7be7 acbe d950 8cbf c8bf a53e c8fd cebd
00000320: bfcf 64bf ca29 203f 2d37 a93e 7825 97be
00000330: 7c7e bc3e d357 34bf eaeb a5be f8ad 11bf
00000340: 7d92 d03e a724 c93d af2e e23e b1fb a1be
00000350: 7374 b13e 944a 98be e4e5 75bf 605e 92bf
00000360: 3ecf 633e 00fc 5a3f 889a d13e d40f 8f3e
00000370: 0541 71be 7a69 6f3e ba19 633e 4c69 8e3e
00000380: 99fc 18bf edd8 fe3e 3462 87bf 3c00 3d3e
00000390: 5d82 8fbd 6cff 2ebf d5f3 29bf 200e ef3e
000003a0: 47bd bfbd 0772 ae3e 4400 ab3d d57f 463e
000003b0: 64e4 ad3d fd2e 0bbf 0349 43be bb79 1d3f
000003c0: 5078 c8be 7475 d6be 0421 c2be 9b08 a8be
000003d0: 6c44 e73e b3da 8e3f 4b2a 72bf cc31 b23e
000003e0: 5cba 45bf e40d 21be d57c 263f 930b ab3e
000003f0: f07d e13e b553 ffbe e4aa 6a3f 816e 90bf

Q2.0.bias f4 [200]
0.3499459 0.3916894 0.26428083 -0.3682819 -0.21490972 0.54524934 0.50301194 -0.23690557
0.14029492 0.16622204 0.011566778 0.8618997 0.47008094 0.14838341 0.29353637 0.18829152
0.082344204 -0.7943222 0.42959362 -0.041006457 0.15999542 -0.2725832 0.33115035 -0.29008856
0.10383001 0.2344177 0.06698702 0.42264962 0.28168127 -0.23841 -0.83888495 -0.008628077
0.114367895 0.27055842 -0.0875936 0.067939505 -0.01751323 0.3278308 -0.2670631 0.18716046
0.23569308 0.017704032 -0.3684394 -0.45641676 0.16244115 0.058519427 -0.07442357 -0.10618746
-0.35882923 -1.8755518e-05 -0.2909763 -0.18959236 -0.43903875 0.16282739 0.42401594 -0.093081355
0.15565553 0.6766235 0.04147625 -0.040705506 0.899398 0.057369992 -0.15593234 0.38922393
-0.13402703 0.5066482 0.13802688 0.1483588 0.119173825 -0.6648962 -0.34452915 -0.21729355
-0.21362916 -0.0017681406 0.46126488 0.24712417 0.04472929 0.29797032 0.45912507 -0.14008747
-0.48485398 0.054545317 0.29986572 -0.41153803 -0.21652587 0.24251097 0.11414267 0.40400007
0.34105852 -0.2944872 0.33888662 0.42297557 0.16331762 -0.0427294 0.00081249274 0.4087705
-0.84840703 -0.08709791 0.030054986 0.50162894 -0.25164568 0.6263657 0.07630656 0.16439863
0.20211793 0.039117705 0.01664495 -0.56242085 0.09353067 0.3789202 0.26514107 0.27946612
0.082639016 0.34210458 0.13476421 0.47897127 -0.13028088 -0.090131566 -0.042709436 0.20414399
0.17701413 -0.5000201 0.32931325 -0.008716795 0.11851485 -0.06936516 -0.09721702 0.031369504
-0.14574403 -0.006625382 0.21404938 -1.0432602 0.28117713 0.7399341 -0.09703024 -0.71716744
0.48444748 0.22822581 -0.04919441 0.48374784 0.3727678 0.07199716 -0.2866967 0.4273866
-0.38157684 -0.17367755 -0.18882045 0.41149032 0.5741768 -0.8700615 0.1970124 -0.42464393
0.21132006 -0.106881365 0.5367051 -0.12837367 0.42299446 0.4916891 0.63120097 0.47072732
-0.76655626 0.39203054 0.11732251 -0.23512161 -0.40026855 0.46951127 0.05990251 -0.5494545
0.07699785 -0.13239367 0.27338216 0.43888468 -0.09283225 0.41456845 -0.30358067 -0.27452838
0.48049027 0.8541475 0.11544355 0.04710038 0.36045575 0.47270682 0.20095226 0.55887747
-0.18548062 0.2814916 0.24392678 0.15197052 0.331275 -0.19087614 -0.30872324 0.23354708
-0.49613202 0.1118032 -0.16893046 -0.14368731 0.1898094 -0.6026709 -0.02127577 -0.21556845
00000000: 1c2c b33e 838b c83e d14f 873e 728f bcbe
00000010: 4b11 5cbe 7695 0b3f 64c5 003f 6097 72be
00000020: 79a9 0f3e 1c36 2a3e 9582 3d3c 75a5 5c3f
00000030: 73ae f03e d2f1 173e 664a 963e 7ecf 403e
00000040: 14a4 a83d b358 4bbf b2f3 db3e 63f6 27bd
00000050: d7d5 233e 0690 8bbe 8a8c a93e 7d86 94be
00000060: d4a4 d43d 320b 703e 7e30 893d 8865 d83e
00000070: 8738 903e c021 74be 2ac1 56bf c75c 0dbc
00000080: b739 ea3d a286 8a3e 4664 b3bd de23 8b3d
00000090: e877 8fbc 70d9 a73e 7fbc 88be fea6 3f3e
000000a0: 8759 713e 0c08 913c 17a4 bcbe 75af e9be
000000b0: f956 263e 11b2 6f3d 626b 98bd d078 d9bd
000000c0: 77b8 b7be 2b55 9db7 d8fa 94be 8024 42be
000000d0: b0c9 e0be 39bc 263e 9e18 d93e 70a1 bebd
000000e0: 2a64 1f3e 3337 2d3f 00e3 293d d1ba 26bd
000000f0: f33e 663f ccfc 6a3d baac 1fbe 5c48 c73e
00000100: 623e 09be b2b3 013f eb56 0d3e 5feb 173e
00000110: 6811 f43d a336 2abf 2066 b0be 3382 5ebe
00000120: 9ac1 5abe f4c0 e7ba e92a ec3e 1e0e 7d3e
00000130: 0f36 373d 918f 983e 7112 eb3e 1773 0fbe
00000140: c83e f8be e96a 5f3d 0088 993e 1db5 d2be
00000150: f5b8 5dbe cc54 783e a2c3 e93d 19d9 ce3e
00000160: 399f ae3e 07c7 96be 8c82 ad3e 4190 d83e
00000170: bc3c 273e 0605 2fbd 77fd 543a 5e4a d13e
00000180: 3431 59bf 6460 b2bd e035 f63c c16a 003f
00000190: b4d7 80be 8159 203f 9d46 9c3d 1d58 283e
000001a0: 01f8 4e3e e339 203d fd5a 883c d0fa 0fbf
000001b0: 028d bf3d d401 c23e 92c0 873e 2f16 8f3e
000001c0: a53e a93d 5528 af3e a1ff 093e b93b f53e
000001d0: 5a68 05be e696 b8bd 17f0 2ebd 1f0b 513e
000001e0: 3143 353e 5101 00bf bf9b a83e e3d0 0ebc
000001f0: eab7 f23d 520f 8ebd b819 c7bd 4f7d 003d
00000200: ec3d 15be bc19 d9bb c32f 5b3e 8d89 85bf
00000210: 73f6 8f3e 526c 3d3f cab7 c6bd 4998 37bf
00000220: 8009 f83e 07b4 693e 1480 49bd ccad f73e
00000230: 6cdb be3e 3f73 933d e9c9 92be 6bd2 da3e
00000240: 0a5e c3be 87d8 31be 265a 41be dcae d23e
00000250: 40fd 123f 5abc 5ebf 9ebd 493e ee6a d9be
00000260: 4964 583e 9ee4 dabd 8165 093f 6374 03be
00000270: bb92 d83e acbe fb3e 6396 213f 2c03 f13e
00000280: 083d 44bf 3ab8 c83e c946 f03d b8c3 70be
00000290: 00f0 ccbe c863 f03e 565c 753d 0da9 0cbf
000002a0: 0cb1 9d3d 3592 07be bff8 8b3e 7eb5 e03e
000002b0: d61e bebd 5142 d43e ed6e 9bbe fc8e 8cbe
000002c0: d202 f63e 69a9 5a3f ab6d ec3d 54ec 403d
000002d0: a88d b83e a106 f23e 6ec6 4d3e 9812 0f3f
000002e0: a2ee 3dbe ab1f 903e f1c7 793e 299e 1b3e
000002f0: e09c a93e 0975 43be f910 9ebe f726 6f3e
00000300: 0405 febe 13f9 e43d 1bfc 2cbe c422 13be
00000310: 655d 423e a448 1abf 864a aebc fabd 5cbe

Q2.2.weight f4 [200, 200]
0.29477564 -0.51896405 0.32565922 -1.3406261 0.22759233 0.1876664 0.35263842 0.18750243
0.15080357 -0.27301612 -0.5580085 0.2000656 -0.0768564 0.20631698 -0.011626755 -0.20685177
-0.6075287 0.14312239 0.017735383 0.10875241 0.007780239 0.38058522 0.2744471 0.52804345
0.3483707 0.42113093 -0.27209753 0.20462826 -0.0004319098 0.30698156 0.41912675 0.07953914
0.17508313 -1.2378381 -0.5505614 0.17071997 -0.24626651 -0.25147298 -0.3411828 0.21275468
0.48397705 -0.431781 -0.2087237 0.48236677 0.29855287 0.0014110869 0.22074872 -0.29306605
-0.72988373 -0.662755 -0.68285227 0.3422855 -1.4662024 0.41839427 0.10151525 0.019704893
0.029674761 0.09423243 -0.12019546 0.09828153 0.25898898 0.33567542 0.60757047 0.69629866
0.115263246 0.5175665 -0.16577654 0.2080552 -0.2126798 -0.0066330507 -0.055388626 -0.5593381
0.20421188 -1.2990695 0.025648573 -0.47817406 -0.07304121 -0.5396025 0.27683195 -0.44162107
-0.37626895 -0.32681635 -0.40980875 -0.10451741 0.843469 -0.8480953 -0.06545002 -0.26168236
0.11026173 0.073889725 0.45156276 -0.0015538745 0.11168384 -0.37892786 0.32341608 0.31283435
-0.80548084 0.41680858 0.15257896 -0.09748503 -0.35630038 0.30543497 -0.650889 0.04511052
-0.89920837 0.07583229 -0.42937306 -0.8821569 0.34460232 -0.06981896 0.064394414 -1.4997182
-0.28427687 -0.43711892 0.23400873 -0.110771775 0.02374807 -0.07713541 0.35016218 -0.6280407
0.27129918 0.1009952 0.19452243 -0.61704683 0.23251946 -0.14378782 0.1708414 -0.0034011153
-0.54605645 0.12906313 -0.24380867 -0.2982039 0.1939597 0.26102307 -2.654809 0.01936996
0.56819946 -0.07454173 0.13619351 -0.07780992 -0.30148765 0.18397425 -0.8853572 -0.24022785
-1.1703283 0.06761 0.12035424 0.20921683 0.26038626 0.62208825 0.24483104 -0.42578673
-0.01936765 0.2135749 0.0025748573 -0.39953604 0.24390237 -0.3121728 0.2933256 -0.11415011
-0.13301495 0.42282566 0.25681692 -0.22972172 -0.007556865 0.24675085 -0.1790241 0.23814103
-0.08994355 -0.8910186 0.43363655 -0.58102274 -0.3261425 0.3882849 -0.676263 0.14675586
0.22920264 0.077504866 0.42732245 0.20638321 -0.68004817 -0.47235256 0.0847049 0.193344
0.11481609 -0.068974406 -0.24967118 0.29198524 0.19912438 0.12401602 -1.0171484 0.21697839
0.23686185 0.04211082 0.39146942 0.19481985 -0.12580082 1.6894547 0.45382467 -0.20949057
0.1927183 0.22458437 -0.18432659 0.10273329 0.18014929 0.16947424 -0.58155525 -0.20093775
0.28550416 -0.33685 -0.25564337 0.06405969 0.3572488 -0.18102233 0.2686367 0.2797627
-0.330492 -0.77532357 0.0013535047 -0.034234464 -0.08019988 -0.7403125 0.26938123 -0.09950999
0.48432335 0.14948152 -1.0315462 0.14716397 0.47894776 -0.45092225 -0.16348326 0.21918158
-0.10118242 -0.22715728 -0.30589032 -0.14799026 0.33026275 0.07673771 0.17332828 -0.017606702
-0.051748812 -0.045586865 -0.7005378 -0.6669479 0.14117354 -0.12881179 -0.023577008 0.16611028
0.11509166 0.5731156 -0.2732497 0.06231184 0.385278 -0.071828835 0.07749741 0.38607043
00000000: d5ec 963e d4da 04bf cebc a63e a399 abbf
00000010: f70d 693e 9f2b 403e 068d b43e a300 403e
00000020: 406c 1a3e c5c8 8bbe a5d9 0ebf ffdd 4c3e
00000030: e366 9dbd c244 533e 257e 3ebc f3d0 53be
00000040: 0087 1bbf ad8e 123e cb49 913c 95b9 de3d
00000050: 60f1 fe3b 11dc c23e 5584 8c3e db2d 073f
00000060: a55d b23e 799e d73e 5e50 8bbe 128a 513e
00000070: f471 e2b9 b02c 9d3e c897 d63e 6be5 a23d
00000080: fe48 333e 7b71 9ebf 98f1 0cbf 37d1 2e3e
00000090: 4a2d 7cbe 11c1 80be 83af aebe 5ddc 593e
000000a0: d7cb f73e 6612 ddbe aabb 55be c7f8 f63e
000000b0: ecdb 983e 38f4 b83a f40b 623e c10c 96be
000000c0: a9d9 3abf 50aa 29bf 68cf 2ebf 0c40 af3e
000000d0: 85ac bbbf c637 d63e 3ae7 cf3d 286c a13c
000000e0: 7c18 f33c effc c03d 0a29 f6bd d447 c93d
000000f0: 349a 843e a6dd ab3e bd89 1b3f a140 323f
00000100: 230f ec3d 3d7f 043f 53c1 29be 6c0c 553e
00000110: bcc8 59be 105a d9bb 2fdf 62bd c830 0fbf
00000120: eb1c 513e e947 a6bf f51c d23c 3bd3 f4be
00000130: a196 95bd 6423 0abf ebbc 8d3e 281c e2be
00000140: 53a6 c0be 7954 a7be 74d2 d1be 390d d6bd
00000150: 96ed 573f c61c 59bf a90a 86bd 3bfb 85be
00000160: e7d0 e13d 7f53 973d 3c33 e73e 60ab cbba
00000170: 7fba e43d d502 c2be cb96 a53e d32b a03e
00000180: fe33 4ebf ef67 d53e a93d 1c3e 3ba6 c7bd
00000190: 016d b6be f961 9c3e a9a0 26bf cfc5 383d
000001a0: 8532 66bf f64d 9b3d c9d6 dbbe 09d5 61bf
000001b0: b76f b03e 3efd 8ebd 38e1 833d c4f6 bfbf
000001c0: bd8c 91be 0dce dfbe fc9f 6f3e 50dc e2bd
000001d0: 508b c23c 2bf9 9dbd 7548 b33e 46c7 20bf
000001e0: bae7 8a3e 92d6 ce3d e330 473e c8f6 1dbf
000001f0: 9519 6e3e 1d3d 13be 0cf1 2e3e 3fe5 5ebb
00000200: 5bca 0bbf 2029 043e fba8 79be 2eae 98be
00000210: 5f9d 463e d1a4 853e 64e8 29c0 c0ad 9e3c
00000220: 8575 113f 56a9 98bd 5076 0b3e cf5a 9fbd
00000230: 975c 9abe bf63 3c3e c5a6 62bf 4afe 75be
00000240: 51cd 95bf 1d77 8a3d 497c f63d f03c 563e
00000250: 5951 853e 2d41 1f3f fdb4 7a3e b800 dabe
00000260: e8a8 9ebc 61b3 5a3e f0be 283b fd8f ccbe
00000270: 8bc1 793e 1dd5 9fbe c62e 963e 88c7 e9bd
00000280: 1235 08be 9b7c d83e 827d 833e 2c3c 6bbe
00000290: 949f f7bb 41ac 7c3e 1852 37be 3edb 733e
000002a0: 5334 b8bd cc19 64bf 9c05 de3e e8bd 14bf
000002b0: 26fc a6be 47cd c63e 921f 2dbf 2b47 163e
000002c0: 19b4 6a3e dfba 9e3d 02ca da3e 1f56 533e
000002d0: a317 2ebf 32d8 f1be c379 ad3d f8fb 453e
000002e0: b324 eb3d 7442 8dbd cda9 7fbe 177f 953e
000002f0: 43e7 4b3e 1cfc fd3d eb31 82bf 952f 5e3e
00000300: ea8b 723e 657c 2c3d ae6e c83e db7e 473e
00000310: eed1 00be 0d40 d83f b55b e83e b284 56be
00000320: f257 453e 72f9 653e 1cc0 3cbe d565 d23d
00000330: 0e79 383e a88a 2d3e cee0 14bf a0c2 4dbe
00000340: 9a2d 923e 9a77 acbe b0e3 82be ba31 833d
00000350: 51e9 b63e eb5d 39be c08a 893e 0e3d 8f3e
00000360: 3f36 a9be 9b7b 46bf 1568 b13a 7039 0cbd
00000370: d63f a4bd 1f85 3dbf 56ec 893e e5cb cbbd
00000380: 3bf9 f73e af11 193e b509 84bf 27b2 163e
00000390: a438 f53e 48df e6be 2868 27be 2371 603e
000003a0: bb38 cfbd eb9b 68be a89d 9cbe c28a 17be
000003b0: 3318 a93e a928 9d3d f87c 313e ee3b 90bc
000003c0: 90f6 53bd 4bb9 3abd 7256 33bf 19bd 2abf
000003d0: cc8f 103e 3de7 03be 9224 c1bc d018 2a3e
000003e0: 2db5 eb3d b4b7 123f 62e7 8bbe b33a 7f3d
000003f0: 2843 c53e ff1a 93bd f6b6 9e3d 06ab c53e

Q2.2.bias f4 [200]
0.10502504 0.1058088 0.10764023 0.25584027 0.16563079 -0.014683579 -0.04935319 -0.0159185
0.12786093 0.062284958 0.027834112 0.20157361 0.0065817186 0.22531828 -0.020099053 0.18541878
0.19434547 0.07712706 -0.10608913 -0.09503975 -0.038652938 0.018165192 -0.12319071 0.065588035
-0.04900915 0.33114436 0.043729957 -0.056936663 -0.20597795 -0.5622365 0.14604181 0.043603428
0.20019433 0.08165555 0.3269355 0.17381856 -0.09014422 -0.07142596 0.09488338 0.14536563
0.044547167 0.013107108 0.34680307 0.14552955 0.08436784 -0.0762249 0.24875495 0.23902433
0.102119446 -0.18631689 0.09727076 0.28287923 0.028921887 0.12709045 0.06095457 0.048885193
0.12219267 0.0038926748 0.3260655 -0.007862725 0.22978021 0.10759451 0.11808243 0.09878044
0.07212186 0.03235402 0.12306975 -0.038311046 0.11301306 0.020411978 0.091612116 -0.23338428
-0.14244922 0.3301024 0.30876902 0.3094866 0.016047027 -0.3277689 0.047461405 0.37676874
-0.16947135 0.18550542 0.30425704 0.08783284 0.06514462 -0.038967483 0.17653063 0.27361205
-0.06940931 0.030481927 0.18121448 0.21765438 0.13857073 0.19088237 -0.022975111 -0.032299668
0.1258273 0.02967683 0.09167403 0.29606086 0.0828331 0.12170383 0.050853565 0.23578483
0.21967411 0.26223215 0.24490936 0.037188042 0.16149542 0.05517875 0.16938199 -0.11825077
0.07884219 0.18913619 -0.002579305 0.30022585 0.063413344 0.027963992 0.23357587 -0.13939996
0.16171445 0.24558888 0.088459164 0.12021339 0.2563003 0.30631804 0.05480589 0.43608493
-0.21048273 0.22472227 0.2115296 0.0035040248 0.2763094 0.04033298 0.1832642 0.22849181
-0.08000143 0.12645343 -0.1101143 -0.037594073 -0.33930716 0.22442703 0.1952454 -0.04420778
0.1880315 0.103494555 0.28075546 0.09783538 0.012591729 -0.039501205 0.17450064 0.17820379
-0.15226421 0.09209584 0.045055185 0.12300964 0.23876084 -0.03574539 0.031826567 -0.1835851
0.0030007348 0.1125637 0.18584865 0.34023032 0.035136364 -0.082573384 -0.03234568 0.10845526
-0.080778494 0.153877 0.25574857 0.26995686 -0.07300478 0.022823548 0.3030639 0.08581335
-0.07215689 0.11995723 -0.016114745 0.020819563 0.10790456 0.13009326 -0.0025735274 -0.059521753
0.06370168 0.11456701 0.14717506 0.14532928 0.07415772 0.017342286 -0.043102633 -0.04488678
0.028609443 0.20316862 -0.10312676 0.18107443 -0.013083038 0.09088925 0.116344616 -0.1457407
00000000: 5e17 d73d 49b2 d83d 7b72 dc3d 7ffd 823e
00000010: 1e9b 293e 6593 70bc 9226 4abd 8467 82bc
00000020: faed 023e 831e 7f3d 5d04 e43c 5069 4e3e
00000030: 75ab d73b d6b9 663e c5a6 a4bc 6cde 3d3e
00000040: 8002 473e cbf4 9d3d 4245 d9bd 33a4 c2bd
00000050: 8b52 1ebd 2bcf 943c 694b fcbd 0553 863d
00000060: d2bd 48bd c18b a93e 2f1e 333d 6b36 69bd
00000070: e2eb 52be bbee 0fbf fc8b 153e 8299 323d
00000080: beff 4c3e 063b a73d 1764 a73e 7efd 313e
00000090: 889d b8bd c647 92bd 3852 c23d bada 143e
000000a0: 1777 363d 32bf 563c 2c90 b13e b305 153e
000000b0: 0cc9 ac3d cd1b 9cbd 9eb9 7e3e cbc2 743e
000000c0: 0024 d13d dbc9 3ebe e435 c73d 8cd5 903e
000000d0: 98ed ec3c 0024 023e 80ab 793d d73b 483d
000000e0: 2740 fa3d 3f1c 7f3b 0ff2 a63e a9d2 00bc
000000f0: 814b 6b3e 835a dc3d 33d5 f13d 664d ca3d
00000100: a0b4 933d a685 043d fe0b fc3d 0bec 1cbd
00000110: 6473 e73d 0537 a73c 229f bb3d 4afc 6ebe
00000120: 35de 11be 2f03 a93e f916 9e3e 0775 9e3e
00000130: 0e75 833c 53d1 a7be e466 423d d5e7 c03e
00000140: e689 2dbe 22f5 3d3e 94c7 9b3e b4e1 b33d
00000150: 8b6a 853d 5e9c 1fbd 72c4 343e e116 8c3e
00000160: 7826 8ebd 3cb5 f93c 4a90 393e cae0 5e3e
00000170: 7ce5 0d3e ab76 433e 4d36 bcbc a84c 04bd
00000180: dfd8 003e d31c f33c 98bf bb3d 4a95 973e
00000190: 66a4 a93d dc3f f93d d44b 503d 9471 713e
000001a0: 40f2 603e 4b43 863e 85c9 7a3e 7d52 183d
000001b0: 0e5f 253e 1d03 623d 7972 2d3e 762d f2bd
000001c0: 0478 a13d ebac 413e 8f09 29bb 34b7 993e
000001d0: dbde 813d be14 e53c 832e 6f3e ddbe 0ebe
000001e0: 7998 253e a77b 7b3e 142a b53d 7032 f63d
000001f0: cb39 833e b8d5 9c3e 247c 603d 8646 df3e
00000200: c988 57be 981d 663e 379b 583e c8a3 653b
00000210: 6d78 8d3e 3234 253d 9ca9 3b3e c2f9 693e
00000220: cad7 a3bd 027d 013e 9b83 e1bd 3efc 19bd
00000230: abb9 adbe 33d0 653e 69ee 473e 3813 35bd
00000240: 548b 403e f4f4 d33d 2ebf 8f3e ea5d c83d
00000250: 8a4d 4e3c 04cc 21bd 4cb0 323e 0e7b 363e
00000260: 26eb 1bbe be9c bc3d c98b 383d 7aec fb3d
00000270: b97d 743e c269 12bd 935c 023d bcfd 3bbe
00000280: faa7 443b cc87 e63d 1c4f 3e3e ab32 ae3e
00000290: 26eb 0f3d 3c1c a9bd e77c 04bd cb1d de3d
000002a0: 326f a5bd ef91 1d3e 7af1 823e c937 8a3e
000002b0: 8883 95bd 73f8 ba3c 312b 9b3e e9be af3d
000002c0: fec6 93bd 23ac f53d 1203 84bc ca8d aa3c
000002d0: 11fd dc3d 2b37 053e a0a8 28bb 15cd 73bd
000002e0: 0776 823d 1ca2 ea3d 0fb5 163e 33d1 143e
000002f0: 01e0 973d 6911 8e3c 638c 30bd 33db 37bd
00000300: 5a5e ea3c 6f0b 503e 1f34 d3bd 936b 393e
00000310: 3d5a 56bc 2524 ba3d 1646 ee3d 0d3d 15be
