5.1 SAC-Discrete/model/sacd_actor_400_LLdV2.pth (torch, 173599 bytes, 6 tensors)

P.0.weight f4 [200, 8]
000000 ca 36 1c bd 94 60 03 be 22 2e 90 3f c1 e5 74 be
       -0.03813819 -0.1282981 1.1264079 -0.23915769
000010 b0 74 82 3f 82 62 d7 be d6 b8 41 be b3 b2 d8 3e
       1.019186 -0.42067343 -0.18918166 0.42323837
000020 2f 3d 2c 3e b8 f2 29 3f 3a 1c c5 3e ba 36 e5 3e
       0.16820215 0.66385984 0.38498098 0.44768316
000030 78 fe 50 bf 06 1d d8 bd 5e ff c6 bc 76 be 3d 3e
       -0.8163829 -0.10552411 -0.02429169 0.18529686
000040 a1 f8 80 3f 0b 81 61 be 61 52 17 bf 4e 0e 02 3f
       1.0075876 -0.22021882 -0.59110075 0.5080308
000050 d6 51 28 3f da 54 84 bd 54 69 ce be 42 42 8a 3e
       0.6574987 -0.06461497 -0.40314734 0.27003676
000060 88 37 96 3f b3 5a e4 be de 36 56 3f 3d 83 01 3e
       1.1735697 -0.44600448 0.8367747 0.1264772
000070 49 30 6a bf 28 3d 2b be d3 18 16 bf 95 67 bd 3d
       -0.9147993 -0.16722548 -0.5863163 0.09248272
000080 a9 70 81 bf c7 42 2c be 83 fb ef 3e c4 79 22 3f
       -1.0112506 -0.16822349 0.46871576 0.6346705
000090 67 4d a9 3f 68 0d a1 3b 28 92 13 bf 14 d1 e3 3e
       1.3226746 0.004914928 -0.5764489 0.4449545
0000a0 1a a0 98 bb 7c 47 2b be 68 f9 9c bf 37 43 a8 3e
       -0.0046577575 -0.16726488 -1.2263613 0.3286378
0000b0 00 c1 8a 3f f3 34 74 3f 7f 63 1f bd c5 9f 3d bd
       1.0840149 0.95393294 -0.038913246 -0.046294946
0000c0 a4 10 82 3d fb 85 76 3e 9a b1 e1 3f 3b 3f 88 3d
       0.0635083 0.24074547 1.7632325 0.06652685
0000d0 c9 ff b5 bf fd a6 b2 bf bf f3 8f 3e 46 20 f5 bd
       -1.4218684 -1.3957211 0.2811565 -0.11969046
0000e0 ac 69 ab 3f b1 d5 6b c0 96 70 a9 bd a7 78 ce 3d
       1.3391623 -3.6849177 -0.08273427 0.10081606
0000f0 c4 85 16 be db a0 a1 be 0d 46 23 bd 93 96 c4 be
       -0.14699465 -0.31568035 -0.039861728 -0.3839613
000100 06 25 8b be 39 43 43 3e 43 2b 70 3f df f9 97 3f
       -0.27176684 0.19068612 0.9381601 1.187313
000110 8f b1 8a 3f 2b fc 3f bf a6 ad be bc 32 97 55 be
       1.0835437 -0.7499415 -0.023276161 -0.20858458
000120 cf 2f f6 be 61 91 b2 3e 80 2f 3a 3f af d4 b9 3f
       -0.4808335 0.3487654 0.7272873 1.4518031
000130 c5 ac 37 bf cb b3 74 3f 03 c7 f1 bc 2c dc 40 3e
       -0.71748 0.9558684 -0.029513841 0.18833989
000140 99 65 d9 3d d2 36 1c be 9f d7 3a bf d1 21 37 3f
       0.10615081 -0.15255287 -0.7298526 0.71535975
000150 85 a2 4e 3f b1 ed 29 bf 75 94 bc be 71 3b 60 bf
       0.80716735 -0.66378313 -0.36832014 -0.875907
000160 d4 77 ab 3e d1 40 51 bf a3 7d 2f bf 5a 48 93 bd
       0.3348986 -0.81739527 -0.6855108 -0.07191534
000170 e6 00 6c bf f1 d7 d8 bd 53 fb 34 bf 11 67 e8 be
       -0.9218887 -0.105880626 -0.7069599 -0.45391133
000180 79 a9 84 be 4a 3b 18 bd 23 40 40 3f 55 51 38 3f
       -0.25910547 -0.037165917 0.75097865 0.719991
000190 b5 d3 65 bf 48 76 70 bf d7 39 2e be bd f9 1b bf
       -0.89776164 -0.9393048 -0.17014252 -0.60927945
0001a0 64 3b 22 3f 17 6a 72 bf a3 78 40 bf 26 ce a2 3e
       0.6337187 -0.9469313 -0.7518408 0.31797904
0001b0 d3 e6 79 3f 20 31 d4 bd 1c 3c a5 be b7 be b3 3e
       0.97617835 -0.10360932 -0.32272422 0.3510644
0001c0 48 4f 9e be ec e5 8d 3e f6 8e 0e 3f b9 ea 24 be
       -0.30919862 0.2771448 0.5568689 -0.16105165
0001d0 d8 f7 72 bf 77 da 30 3d 82 00 22 3f 22 d4 01 be
       -0.9490943 0.043177094 0.63282025 -0.12678578
0001e0 8b 3d 2e be ba 73 b7 be 91 c8 86 3e e5 a7 d4 be
       -0.17015664 -0.3583048 0.26324895 -0.41534343
0001f0 0f 5d 29 bf 52 0d c3 3e ab 09 aa be bd b5 ab bc
       -0.6615762 0.380961 -0.332105 -0.020960683
000200 13 81 0f be 90 0d cf be 00 6c 26 3e 2f 44 56 bf
       -0.14014082 -0.40440035 0.16252136 -0.8369779
000210 46 53 86 3f f4 ff 79 3e 79 a4 ec be 75 09 08 3f
       1.0494163 0.24414045 -0.46219233 0.5313943
000220 f1 46 1a 3f 3c 87 5e be d2 65 1b 3f 04 40 2b bf
       0.602645 -0.21731275 0.6070224 -0.66894555
000230 70 89 32 be 40 1a e4 3e 11 96 12 3e bd af 02 bf
       -0.17435241 0.44551277 0.14315058 -0.51049405
000240 4e 8e 8d be 86 3a 83 bd b9 4f 2c 3e e2 e0 e3 bd
       -0.27647632 -0.06407647 0.16827287 -0.11126877
000250 16 8f 67 3f 6a a7 19 bf 15 14 a9 be fa 60 36 3e
       0.90452707 -0.6002108 -0.33023134 0.17810431
000260 73 09 0d 3f 75 92 5f 3e f1 70 f9 ba 51 20 74 be
       0.55092543 0.21833213 -0.0019030852 -0.23840453
000270 fb 42 51 3e 10 a5 a4 bf 6e c4 55 be 3b 2e a4 3e
       0.20435707 -1.2862873 -0.20875713 0.3206652
000280 10 e5 09 be e7 99 b8 3b 73 84 76 3e 95 67 67 3f
       -0.13466287 0.005633581 0.24073963 0.9039243
000290 fe 9e c0 3f 28 3a 80 3f 79 1c 62 bf 3b 99 b7 bf
       1.504852 1.0017748 -0.88324696 -1.4343637
0002a0 4e 43 3e 3f 41 2f ff 3d 64 4f 14 bf b3 ea 75 3e
       0.7432145 0.12460185 -0.5793364 0.24015312
0002b0 d9 cf ab 3f e0 d6 4a be c0 0f 91 bf f2 e3 82 bf
       1.3422805 -0.19808531 -1.1332932 -1.0225813
0002c0 e7 15 75 bf 04 77 2b bf d9 39 0d bf 20 2e ee be
       -0.95736545 -0.6697848 -0.55166394 -0.46519566
0002d0 c9 63 0b bf 8f 82 f2 be 0a 98 37 3e e8 04 82 bf
       -0.54449135 -0.47365233 0.17929092 -1.0157747
0002e0 08 1b 63 3d 67 5a d2 3c a5 7d 96 bd f4 97 50 40
       0.0554457 0.025677873 -0.073481835 3.2592745
0002f0 13 2a 06 3d 3b d9 35 be b7 00 ee 3b e4 7b 20 3e
       0.03275497 -0.17758648 0.007263269 0.1567226
000300 2b b7 29 3f 9e 36 9a 3d e7 ac ae be 48 1e e6 bd
       0.6629512 0.07529949 -0.3411629 -0.112362444
000310 86 d4 b9 3f f1 e8 12 3f f2 2b 48 3e 85 02 c2 bf
       1.4517982 0.5738669 0.19548014 -1.5157019
000320 62 ed 09 bf ce e0 89 bf 56 32 a9 c0 62 ae 89 3e
       -0.5387784 -1.077173 -5.2873945 0.26890856
000330 83 6e c4 3f 87 f0 df be bf 6f 45 3e 9b 49 a9 3d
       1.5346226 -0.43738195 0.19280909 0.08265992
000340 1a 55 c3 3e fc 8a 33 bf 84 54 06 40 9d 25 17 bf
       0.38150865 -0.7013395 2.0989084 -0.5904177
000350 ac e6 bd be e1 42 1c 3e e0 fb cd be 65 2f 8e 3e
       -0.3709005 0.15259887 -0.40231228 0.27770534
000360 5c 4f 7b bd e7 ee 47 bf c0 3d 1b bf 44 d8 3e bf
       -0.06135498 -0.7809891 -0.606411 -0.74548745
000370 15 dc 0f 3f 29 04 a4 3e 5a 37 34 bf e2 19 4a 3f
       0.56195194 0.32034424 -0.7039696 0.78945744
000380 e2 60 9f bd c5 b6 a5 bd 43 6d 3e be 39 61 f3 3e
       -0.07782151 -0.08091501 -0.18596368 0.47535113
000390 a9 d6 18 3f 14 46 ad 3f 12 ca 6a be 26 2b 98 bf
       0.59702545 1.3537011 -0.22928646 -1.1888168
0003a0 77 85 3b be 8a 49 b4 bb e4 50 f8 be 23 e4 25 be
       -0.18312632 -0.0055019306 -0.48499215 -0.16200309
0003b0 9e 08 cc be 82 0f 04 40 56 8b 70 3c e4 92 35 3d
       -0.39850324 2.0634465 0.014681658 0.04432954
0003c0 27 6e ba bd 79 02 01 be 26 11 7a 3f 52 dc 90 3f
       -0.09103041 -0.125986 0.97682416 1.1317236
0003d0 b7 91 00 bf eb aa 7a 3e 5c fb 9b bf 5e 35 9e 3e
       -0.50222343 0.24479263 -1.2186084 0.3090009
0003e0 83 8e f1 3e 16 9a 94 bf 3a 63 b0 be 60 c4 83 bf
       0.4717904 -1.1609523 -0.34450704 -1.0294304
0003f0 a4 3a 2f bb d4 2f e1 3e 53 1c 92 bb 0d 35 a5 bf
       -0.0026737833 0.43981802 -0.004458943 -1.2906815

P.0.bias f4 [200]
000000 f8 9f 7e be b5 d6 b5 be 2d 9b fb 3d 89 37 f3 be
       -0.2486571 -0.3551537 0.12285457 -0.47503307
000010 a7 6a 1d 3d 6e e4 14 3e 5e ba ba bd 7a d4 c2 bd
       0.03843179 0.14540264 -0.09117578 -0.09513183
000020 87 03 c7 bd 5c 3e e7 be 80 85 51 3e 1c 75 66 3e
       -0.0971747 -0.45164764 0.20461082 0.22505611
000030 c5 1e 0d 3e 61 38 79 be b3 ad 1b bf c0 fb c8 3d
       0.13781269 -0.24337913 -0.6081192 0.098136425
000040 f5 b6 fa be 55 d1 a7 bd 2a df 15 be 0e d4 90 be
       -0.4896771 -0.08194224 -0.14635912 -0.28286785
000050 3b c1 17 3e 26 2b de be 8d ce 66 bd 60 6c 91 3d
       0.14819805 -0.43392295 -0.056349326 0.07100749
000060 d9 0f 51 bd 51 27 46 be 0b a9 d8 3d c7 b2 e8 be
       -0.051040504 -0.19350936 0.105791174 -0.45448896
000070 88 ef 3b 3e 28 f4 9b bd 6f 87 b1 3d e1 c1 98 3c
       0.18353093 -0.076149285 0.0866841 0.018647136
000080 12 97 07 bf 1c 3b f2 be 30 1b c9 be 65 ee 07 be
       -0.5296489 -0.47310722 -0.39278555 -0.13274534
000090 f0 93 08 3d 27 b1 9d be 62 1c 91 be fe 59 7a be
       0.03334421 -0.3079922 -0.28341967 -0.24448392
0000a0 9d 05 93 3c 7d 5c be 3d 28 98 b9 bb c2 2f 0f be
       0.017947013 0.092949845 -0.0056638904 -0.13983062
0000b0 1a a6 cd be 58 94 05 bc ca a2 a7 be 7c 75 6e bc
       -0.40165788 -0.008153044 -0.32741386 -0.014554378
0000c0 7d 72 1d bc 3f 4d 15 bf b8 29 f1 3d 37 40 8a be
       -0.009609816 -0.58320993 0.11775535 -0.27002117
0000d0 0b ce ca be 1f b7 b8 be cc 7a b6 bb e9 31 a1 bd
       -0.39610323 -0.3607721 -0.0055688377 -0.07870848
0000e0 b5 ae cd bd 1c df 56 be 6b d3 b7 bc da 88 cb be
       -0.10043088 -0.20983547 -0.02243968 -0.39752847
0000f0 c7 22 1e 3d 98 a8 21 be a7 72 8d 3e d5 a3 20 be
       0.038607385 -0.1578697 0.27626535 -0.15687497
000100 08 66 be be fb 7f 14 3e ca 1a a7 bc 52 ce 0a be
       -0.3718722 0.14501946 -0.020398516 -0.13555267
000110 6f 87 c6 be a9 50 79 3d 3c 70 57 bc c7 87 38 bd
       -0.38775203 0.06086794 -0.013149317 -0.045051362
000120 3c 0a f4 bd 42 e5 50 be 74 8d fe be 74 38 8b be
       -0.119160146 -0.20399955 -0.49717295 -0.27191508
000130 b6 d5 49 3e 78 70 83 3d 2c 29 c2 3d ce a7 62 bd
       0.1971043 0.06417936 0.09480509 -0.055335812
000140 bc b3 ca be 2b cb 62 3e d6 86 ad 3d 90 f9 bc be
       -0.3959025 0.22147815 0.084729835 -0.3690915
000150 ac 87 2b 3e 2a e2 69 3e 47 b0 74 be c2 60 4c 3d
       0.16750973 0.22840181 -0.2389537 0.049896963
000160 3b a3 32 3d 6b d9 e1 bd 40 7c 0e 3e 93 c9 12 bf
       0.0436127 -0.11027797 0.13914585 -0.5733883
000170 e3 4d 60 be 8b df 3a be 92 37 a8 be e0 39 11 be
       -0.21904711 -0.18249337 -0.32854897 -0.14182234
000180 5b 25 df 3d 1e cd 06 be fe be dc be d6 4b db be
       0.10895797 -0.13164183 -0.43114465 -0.42831296
000190 4e 4e 74 3e ce 4b 8f 3d 93 ed ec bc cd b2 03 bd
       0.23857996 0.069968805 -0.028921878 -0.03215294
0001a0 83 7b 12 bd a5 59 06 bf dc b1 e5 be 0c cb 3b bd
       -0.03576232 -0.52480537 -0.44862258 -0.045847937
0001b0 aa 57 44 be 18 e7 a0 be e4 99 db be 10 cf 2d 3e
       -0.19174066 -0.3142631 -0.42890847 0.1697352
0001c0 69 ca bb 3d f4 14 1d bf b5 df be be 84 f6 d9 bc
       0.09169466 -0.61360097 -0.3728005 -0.026606806
0001d0 30 5d 3a bd 14 13 50 be 0e 5c e7 bc 55 65 a4 be
       -0.045499027 -0.20319778 -0.028242137 -0.3210856
0001e0 09 a5 65 3e 2f d0 7f be ce 07 2e bd e0 1f 0a bf
       0.22426237 -0.2498176 -0.042487912 -0.5395489
0001f0 cf 37 16 bf c5 5a bb bd 4c 72 c6 3d 7d b0 41 3e
       -0.5867891 -0.09148172 0.09689769 0.18914981
000200 fe 3e 57 be e5 25 ee bd 34 c2 28 be c7 e7 96 be
       -0.21020123 -0.116283216 -0.16480333 -0.29473707
000210 54 a0 d8 be f0 20 40 bc 9e 75 b3 3c 80 9e 01 bf
       -0.4230982 -0.011726603 0.02190667 -0.50632477
000220 38 a7 9c 3d b3 f5 a7 3e a8 d2 e9 be db a0 ce 3d
       0.07649082 0.3280464 -0.4566853 0.100892745
000230 ba f4 b3 bd eb cf d2 3c be 78 f1 be aa ae 93 3d
       -0.08786912 0.025733909 -0.4716243 0.07211049
000240 53 be 0a 3d 8c 98 94 be 27 32 cc bd b2 77 1c be
       0.033872914 -0.29022634 -0.09970503 -0.15280035
000250 92 ce 3b be 51 0a e1 3d 17 0d 7a 3d 1c e7 df be
       -0.18340519 0.10988296 0.06104764 -0.4373101
000260 10 8f 90 bc 94 1b a5 bd e6 1c f4 3d 5a 5d b5 be
       -0.017646343 -0.08061901 0.119195744 -0.35422784
000270 0f 36 d5 be 04 8b b3 be 77 3a b0 bd 57 8f 9b 3c
       -0.41642806 -0.35066998 -0.08604901 0.018989248
000280 e2 48 95 be f2 37 ce 3d 67 c6 49 3c df e1 89 3d
       -0.29157168 0.100692645 0.012315369 0.067325346
000290 33 63 84 be c4 96 59 3b 00 1b ab be f8 5e 1b bf
       -0.25856933 0.0033201436 -0.33419037 -0.60691786
0002a0 1d a9 b6 be 7b 7f b3 bb 25 ff 29 bd 92 a9 e6 bd
       -0.35675898 -0.0054778433 -0.04150309 -0.11262812
0002b0 9f 99 34 be be a5 25 be c8 f4 d5 be 7c ee 37 be
       -0.17636727 -0.16176507 -0.41788316 -0.17962068
0002c0 4e 2d 7c 3e 9b 35 08 3d 0f f3 b4 be ac fb eb 3d
       0.24626657 0.033254247 -0.3534169 0.11522612
0002d0 8b 5f da be 5d e4 5f bd 0a 38 6e 3d 18 87 88 be
       -0.42651019 -0.054661144 0.05815891 -0.26665568
0002e0 7d 25 c2 be 26 d0 eb be 59 9a 86 3c eb d1 99 3d
       -0.37919226 -0.46057242 0.01643102 0.07510742
0002f0 8f 16 4e 3c 7c b5 df 3d 74 0f 14 bf 28 2e ff be
       0.012578621 0.10923287 -0.5783608 -0.49839902
000300 ad 9e b4 3b 88 ef 4e 3d a3 96 d8 be 97 e1 49 3d
       0.0055120797 0.050521404 -0.42302427 0.049287405
000310 77 c8 b2 be a4 5c 40 3e bc fe cc be 3a c1 4c 3e
       -0.34918568 0.1878534 -0.40038097 0.19995585

P.2.weight f4 [200, 200]
000000 61 90 07 bf 6c 72 82 bd 07 c0 17 bd c4 fe 08 3f
       -0.5295468 -0.063694805 -0.037048366 0.5351374
000010 15 98 c9 bc 35 b4 db bb 0a 7c ce 3d 80 ee 01 3f
       -0.024608651 -0.006704832 0.10082252 0.5075455
000020 16 ab ba be f1 e6 f0 be 38 68 56 3e 4a 0a 3b bd
       -0.36458653 -0.47051194 0.20938194 -0.04566411
000030 55 a2 bf bd 76 40 33 3e 8c db e5 bc 30 03 87 3e
       -0.09357134 0.17505059 -0.02805879 0.2636962
000040 c4 d9 c8 bc 4d 66 82 3e 58 78 68 3e 37 f9 fa bd
       -0.024517901 0.25468674 0.22702157 -0.12254565
000050 be 48 45 3e a6 8f e6 3e bb fc 84 bc 32 eb 3d 3e
       0.1926603 0.4503147 -0.016233793 0.18546751
000060 f6 ba 7d be 21 65 b5 3d 01 34 41 3d 34 9c 92 3e
       -0.24778351 0.088571794 0.047168735 0.286348
000070 b4 58 f8 3d 36 99 5e 3e 5e a1 aa 3e 2a 56 a4 3e
       0.12126294 0.21738133 0.33326238 0.32096988
000080 e5 a9 0d bf 48 97 91 be ed cb 59 be 64 3c 2f bf
       -0.55337363 -0.2843573 -0.21269198 -0.68451524
000090 b6 8e 57 be 27 db 4a be 8b d1 9b 3e 75 5f 67 3f
       -0.21050534 -0.19810162 0.30433306 0.9038003
0000a0 f2 fe 80 be 42 59 5b bd e5 89 16 3e 98 a9 45 3e
       -0.25194508 -0.05355192 0.1470104 0.19302976
0000b0 f8 9f 9b 3e 2c 2f 30 bf ec d5 b5 3e b2 c4 d8 3d
       0.30395484 -0.6882198 0.35514772 0.10584392
0000c0 c5 e1 a7 bd 16 5d d9 bd 27 4f 9c bf 02 07 a6 3d
       -0.08197359 -0.10613458 -1.2211655 0.081068054
0000d0 11 cd f7 3d 9f 2a 53 3e 5a d2 c4 bb ae 42 60 3e
       0.1209966 0.20621727 -0.006006521 0.21900436
0000e0 1e 6c d8 be ad 55 34 be 70 66 a7 3d ae ee 66 bd
       -0.42269987 -0.17610808 0.08173835 -0.056379966
0000f0 07 cb 54 be 3a bd 73 be 56 3c aa 3e 5d f6 60 be
       -0.20780574 -0.23802653 0.33249158 -0.2196898
000100 2a 3b d8 be da a5 d9 3e ef 33 65 be e3 2e 6b bd
       -0.4223264 0.42509347 -0.22383092 -0.05741776
000110 0c 41 26 3e 98 09 01 3e b8 71 e0 be 56 38 02 3f
       0.16235751 0.12601316 -0.4383676 0.5086721
000120 e0 f0 87 3e 0f b2 c7 3e 50 18 eb be df 9d fc 3d
       0.2655096 0.39003035 -0.45916986 0.12334799
000130 c9 fe 11 3c 37 6c 4d 3d d2 67 5a 3e b3 74 18 bd
       0.008910843 0.05015203 0.21328667 -0.037220668
000140 b8 51 63 3e bd 7c 15 3f 95 e4 27 bc ca 2f 64 bf
       0.22199142 0.5839346 -0.010247369 -0.8913542
000150 60 56 0e be 33 01 a2 3e d7 9a 3c 3f c5 5a c2 3d
       -0.13900137 0.3164154 0.73673767 0.09489969
000160 af 22 37 bd fb e0 9d 3e ef e4 b7 bd 53 28 c4 3e
       -0.04471081 0.3083571 -0.089792125 0.38312015
000170 79 28 0e 3e 2c fd 10 3e e0 a0 c3 bd 3c 1c b4 bd
       0.13882627 0.14159077 -0.09552169 -0.08794448
000180 e5 57 29 3e c8 cc ae be dc 7f ad 3e 4f 20 12 3f
       0.16537435 -0.3414061 0.3388661 0.5708055
000190 f6 b8 d6 3d 19 0a 81 bd cd e5 cd be 0d ea 65 be
       0.10484497 -0.06300754 -0.40214387 -0.22452565
0001a0 0a e3 11 bf 46 40 9c bc ad ad 03 bf 33 2e 75 bf
       -0.5698706 -0.019073617 -0.51436883 -0.9577362
0001b0 ed 02 b9 bd 43 8f ee bc fd 3c d8 3d 5b a9 82 3e
       -0.09033761 -0.029121047 0.105585076 0.25519833
0001c0 e5 0c a6 be a9 45 98 3e bc ca 2f bf 39 5e 69 be
       -0.32431713 0.29740646 -0.68668723 -0.2278985
0001d0 f4 86 06 be 60 9e 39 3e ac 77 c1 be 7a e7 5e bf
       -0.13137418 0.18126822 -0.37786615 -0.87071955
0001e0 45 8e 53 3e a2 45 76 be f2 15 c6 bd ba 49 64 bd
       0.2065974 -0.2405 -0.096721545 -0.055734374
0001f0 9b f0 9a 3d f7 86 d7 3e a1 90 96 bd c9 7d 09 bf
       0.07565423 0.42095158 -0.073518045 -0.5370756
000200 16 93 be bd c3 c4 b2 3e cb 54 13 3f 87 cb 0b bf
       -0.09305398 0.34915742 0.5755126 -0.54607433
000210 b7 6f b1 bc 51 a9 88 bf 12 4f f1 bf 8d b6 e1 3e
       -0.021659715 -1.0676671 -1.8852255 0.44084588
000220 9b 8c 0d 3d c3 8c fc 3e 70 37 b3 be 05 db 2e bf
       0.03455792 0.49326143 -0.35003233 -0.6830295
000230 7d 58 1b bd d4 ce 14 bc 5e 77 f0 be ef 4a 30 be
       -0.037926186 -0.009082515 -0.4696607 -0.17216085
000240 d7 53 97 3c 7b d1 4f 3e 23 de 06 be ec c5 4a be
       0.018472595 0.20294754 -0.13170676 -0.19802064
000250 64 0f 27 bf 2e d8 9e 3e 91 1b 23 3d 51 b2 7c be
       -0.6525786 0.31024307 0.03982121 -0.24677397
000260 e7 5c 62 be 4d e8 93 bd 0e 32 32 be 18 af b4 bd
       -0.22105752 -0.07222042 -0.17401907 -0.08822459
000270 7b c6 84 bd 98 3a 88 3e c1 14 e6 3e 92 a2 02 be
       -0.0648317 0.26607203 0.4493771 -0.12757328
000280 e5 33 b3 bf c7 07 71 3c 2d b5 fc 3d 8a e7 5d bc
       -1.4000212 0.014711327 0.12339244 -0.013543973
000290 64 d3 77 3e 59 c2 ca be 65 c8 19 3e 86 f7 37 be
       0.24201733 -0.396014 0.1501785 -0.17965516
0002a0 21 44 84 be cb fe a3 be 13 b0 1f 3e d5 59 b0 bd
       -0.25833228 -0.3203033 0.1559451 -0.08610884
0002b0 2c 33 a3 bd cd 27 70 bf db 7d e5 3e 95 a2 ed bd
       -0.07968745 -0.9381073 0.44822583 -0.11603276
0002c0 be 42 f1 3e 20 fb 57 3e 71 68 9e 3e 7c 8d d6 bd
       0.47121233 0.2109189 0.30939057 -0.10476205
0002d0 56 3b 1f 3e b0 87 91 be 40 9a 60 3e b3 35 2d bf
       0.15549979 -0.28423834 0.21933842 -0.67660064
0002e0 8e e4 25 3e 7a d7 b1 3d 43 f1 89 bd c6 96 56 be
       0.16200468 0.08683677 -0.0673547 -0.20955953
0002f0 a8 64 95 3e 52 fd 09 3e 4b ae 81 bf 72 7a b5 be
       0.29178357 0.1347554 -1.0131315 -0.3544498
000300 8f df ea be b7 a8 3d 3d 41 dc 34 3e 5f 28 25 be
       -0.45873687 0.046303477 0.17662145 -0.16128682
000310 53 af 05 3f 35 5b ce 3d 32 2b 60 bf da a4 3f be
       0.5222065 0.1007599 -0.8756591 -0.1871523
000320 c7 ed 3b 3e ec ee d3 bf 44 d8 70 bf aa 41 ef bd
       0.18352424 -1.6557288 -0.94079995 -0.11682446
000330 ef 84 53 3e b7 a7 82 3e f2 fc 66 bd 45 43 f2 3b
       0.20656179 0.2551858 -0.05639357 0.007393273
000340 b3 61 9e 3e bb f6 87 bd 8f 66 03 bd 5c 4b 8f be
       0.30933914 -0.06638857 -0.03208023 -0.27987182
000350 da 5b f5 bd 74 a8 cd 3d a4 54 17 3f d0 fa ba 3c
       -0.1198041 0.100418955 0.59113526 0.022824675
000360 7b c7 f9 3c 91 6d 88 bf 7e b1 14 3f d3 c3 48 bf
       0.030490628 -1.0658437 0.5808333 -0.78423804
000370 52 1a cd 3d 9a 7d 44 be 87 b8 9d 3e 1b 3d 34 be
       0.10014786 -0.19188538 0.30804846 -0.17601435
000380 05 4c eb be b8 5e ef 3e 92 75 12 bf b4 ab cf bd
       -0.45956436 0.46751952 -0.5721065 -0.10140172
000390 94 ca 87 3e 9a 13 f2 bd 09 6a b5 be 0d 05 cc be
       0.26521742 -0.11820145 -0.3543246 -0.39847603
0003a0 e4 11 b2 be 99 f8 cd be 8a 48 bd be 45 23 19 3f
       -0.34779274 -0.40228727 -0.36969405 0.5981944
0003b0 2d 3b 9c 3c 2f 79 f5 bd 2f 23 6e be 8e c7 01 c0
       0.019071186 -0.119860046 -0.23255609 -2.0278049
0003c0 f1 f1 d0 bd 2f d5 74 3e 35 6a 1d 3f 04 45 08 c0
       -0.10202397 0.23909448 0.61490184 -2.1292124
0003d0 44 cd 13 3e 57 87 8e 3e 4a d2 22 bf 60 8d 69 bd
       0.14433771 0.2783763 -0.63602126 -0.05701959
0003e0 6a 7d 65 3e 84 8a 79 be 7b ce ac 3e 35 1d e1 be
       0.22411123 -0.24369246 0.33751282 -0.43967596
0003f0 3d 31 ff be fe 33 23 bf 13 48 11 3f 1a e8 0f 3c
       -0.49842253 -0.6375121 0.567506 0.008783365

P.2.bias f4 [200]
000000 ec 70 86 be d8 b1 9d bc 3a 33 5a be ac 59 69 3d
       -0.26258028 -0.019249842 -0.21308604 0.056970283
000010 21 e8 f6 be 5c 13 78 3e a5 c8 98 3c 2f 80 81 bd
       -0.48223975 0.24226135 0.018650362 -0.06323277
000020 26 24 0b bd 3b e1 aa be 0d cf 9f 3c 35 80 d1 be
       -0.03397002 -0.33374962 0.01950791 -0.40918127
000030 ec d7 34 3e bc 6f 38 bd 49 76 8f bd 9a 4d 39 be
       0.17660493 -0.045028433 -0.07004983 -0.18096009
000040 0a 66 1e bf bf ff 61 bd 0e 3b ec 3b b7 33 00 3d
       -0.6187445 -0.05517554 0.0072091883 0.03129932
000050 5a 18 e1 be 21 be d6 bd dd 26 8d 3c f7 95 d7 bd
       -0.4396389 -0.10485483 0.017230446 -0.105266504
000060 28 bd c7 be 5e 1f 9f be 1a e8 04 be 8d 20 29 be
       -0.39011502 -0.3107862 -0.12979165 -0.16516323
000070 2b bf 28 3d 5c 9d c2 bd 3c 72 85 be 1f e1 a1 bd
       0.041197937 -0.0950267 -0.26063716 -0.079042666
000080 24 cc f8 be 39 d1 80 be 3e 7e c4 bd 88 62 67 3d
       -0.48593247 -0.25159624 -0.09594391 0.05649045
000090 f6 33 0a 3b bf 7f 21 3d 1b 43 e7 bd 8f d5 90 3d
       0.00210881 0.03942847 -0.11292096 0.07071983
0000a0 b9 3c ed bd 4b 90 7f 3d a1 ab 91 be 42 bc e9 bd
       -0.115838476 0.062393468 -0.28451255 -0.114128605
0000b0 cb 1b 14 3d d7 5e d0 3c bc c0 63 3d 31 6e fb 3c
       0.036159318 0.025435848 0.055603728 0.030692192
0000c0 43 81 45 be ba e2 95 3e 6e 23 a0 be 99 c9 21 be
       -0.1928759 0.2927454 -0.3127703 -0.1579956
0000d0 e4 dd 53 be 7b 08 bc be a6 b1 8b be c5 2f 47 be
       -0.20690113 -0.3672522 -0.27283973 -0.19451816
0000e0 65 a3 c7 3d c8 8a 1f 3e 9c 3a 57 bd ad 56 5f 3e
       0.09747962 0.15580285 -0.05254613 0.21810408
0000f0 2f c4 37 3e fb be fc 3c 24 5e 89 bd 26 e2 65 3e
       0.17945932 0.030852785 -0.06707409 0.2244955
000100 39 11 00 bd 7b 8a 4f bd c1 15 56 bd e9 8c 49 bf
       -0.031266425 -0.050669175 -0.05226684 -0.78730637
000110 4c 0f b1 bd 95 b6 44 3e c2 f7 a8 be a9 02 e3 be
       -0.08645496 0.19210275 -0.33001524 -0.44337967
000120 89 b8 cd 3d 32 30 0e 3e c0 4c af bd ee 00 b0 be
       0.10044963 0.13885573 -0.08559561 -0.3437571
000130 6b dd ce be 00 78 ad be 9a 28 89 bd 3a 65 a1 3e
       -0.40403304 -0.33880615 -0.06697197 0.31522542
000140 10 a3 24 3e 43 cf 0d bc 13 2d e9 3d fe 94 d6 3e
       0.16077828 -0.008655372 0.1138555 0.41910547
000150 d0 8b 82 bb 27 fc 2a 3e 5d 69 9f 3d 50 31 1c 3e
       -0.003983952 0.16697751 0.07783768 0.15253186
000160 da 43 ba be f4 d2 9f bd 09 51 1f be 11 52 d8 bc
       -0.36379892 -0.07803908 -0.15558256 -0.02640632
000170 d2 60 bc 3d 3e 15 05 bf 7f 7e a5 bd 85 df e1 bd
       0.091981545 -0.5198554 -0.08080768 -0.11028961
000180 2f fa 51 bf 43 c4 72 bd 8c 59 07 3d 0b ed c4 3d
       -0.82022375 -0.0592692 0.033044383 0.09615525
000190 ca 74 18 3c ef 0c 40 3d 50 4d 8f bd c1 f3 20 3e
       0.009305188 0.046887334 -0.06997168 0.15717985
0001a0 72 98 ba bd 14 6d 58 bf 9a 04 d7 3d de 36 6b bd
       -0.09111108 -0.8454144 0.104989246 -0.057425372
0001b0 ea d5 0d 3e 90 ae 68 be cf fa c3 3c 50 77 97 3e
       0.13851133 -0.2272284 0.023923306 0.29583216
0001c0 4e 28 74 bb d7 84 92 bc 77 8d a0 3d 41 ec 87 3e
       -0.0037255469 -0.017885609 0.07839482 0.26547435
0001d0 00 6e 08 3c d7 60 6b bd 6b 71 91 be 91 13 1a bb
       0.008327007 -0.0574654 -0.28406844 -0.0023510198
0001e0 da 38 86 3e b6 af 5a bd 28 f3 92 3d b8 d2 09 bf
       0.2621525 -0.053390227 0.071752846 -0.53837156
0001f0 b4 05 f1 3d 40 10 97 bd 43 83 f7 ba ad b0 f3 bc
       0.11768666 -0.07376146 -0.0018883724 -0.029747332
000200 00 c2 ed be 8e a3 8b be 89 53 b1 bc 58 54 ae 3c
       -0.46437073 -0.2727322 -0.021646278 0.021280453
000210 74 5f 21 be b2 0e d8 be 00 f1 03 3e 3a d1 72 bd
       -0.15759069 -0.42198712 0.12884903 -0.059281565
000220 b1 73 ab bd dd d6 99 bd cd 75 24 3e d5 83 2a be
       -0.08371676 -0.07511685 0.16060562 -0.16651852
000230 64 98 f2 bd 75 9c 95 3e a1 2b f2 be ee 5b c0 3d
       -0.118454725 0.2922093 -0.4729891 0.09392534
000240 06 b7 04 bf 16 bb df bd c9 ec 9f 3c d3 76 c5 be
       -0.5184177 -0.10924356 0.019522088 -0.38567218
000250 93 d6 d2 3d 37 e8 78 bd 54 50 e6 be f1 5c 95 be
       0.10294833 -0.060768332 -0.4498316 -0.2917247
000260 e3 a4 5c 3e 80 00 a6 bd c3 8a 81 be 91 79 bc 3d
       0.21547274 -0.08105564 -0.2530118 0.092028745
000270 83 c8 b4 3b a3 96 84 bd 15 b1 6a 3d 8e 43 c3 bd
       0.005517067 -0.06474044 0.057297785 -0.095343694
000280 e3 d4 d6 be a2 22 94 3d 0d 82 22 bc 9e 44 84 be
       -0.41959295 0.07233168 -0.009918702 -0.258336
000290 1a fa 1d bc 5b a0 3f bf e0 0d 34 3e a4 5d 05 bf
       -0.009642148 -0.7485406 0.17583418 -0.5209601
0002a0 9b 94 4f 3d d5 88 06 bb 99 20 4c be d6 2b e9 3d
       0.05067883 -0.0020528336 -0.1993431 0.11385314
0002b0 c7 45 aa 3c 98 61 85 3c e1 3d 78 bd 81 45 a0 be
       0.020785226 0.016281888 -0.060605887 -0.31303027
0002c0 f9 52 86 3e 90 87 ff bd 9d 99 01 be 09 05 b5 bd
       0.26235178 -0.12477028 -0.12656255 -0.08838851
0002d0 3f aa 5a be 4d 45 9a 3d 3a 49 11 bf 77 0d 76 be
       -0.21354006 0.07532749 -0.5675236 -0.24028574
0002e0 ca f4 09 bf 7d 02 37 3e 47 b1 af 3c 35 38 da bd
       -0.53889143 0.17872043 0.021446837 -0.10655252
0002f0 39 bd 9f be 55 18 e3 bc 4d fa a4 be 85 ee 94 3d
       -0.31199053 -0.027721563 -0.32222214 0.072720565
000300 f3 a4 10 be 7a 88 b7 be 1a 84 98 bd 52 1b a5 3d
       -0.14125423 -0.3584631 -0.074470714 0.080618516
000310 d8 a3 ad bd 62 a9 b6 be ad 74 b5 3c f7 2c b3 3c
       -0.08478516 -0.35676104 0.022150362 0.021872027

P.4.weight f4 [4, 200]
000000 07 d8 f6 3e 1f 4f d4 be cf a0 b6 bf 43 19 14 3e
       0.4821169 -0.41466615 -1.4267825 0.14462762
000010 fc 63 b1 3c 21 7a 07 3d e4 31 0e be dc b6 5c 3d
       0.021654122 0.033075456 -0.1388622 0.053885326
000020 3c 95 d1 be 09 25 80 3f 76 08 f9 bc 61 02 f5 bd
       -0.4093417 1.0011302 -0.030399542 -0.11963344
000030 7f fc be be 82 91 41 bc 63 aa 44 bb 29 90 e1 be
       -0.37302014 -0.011814477 -0.0030008785 -0.44055298
000040 eb 4a ce 3e 4c 0a fa 3e c2 d8 51 3f da 00 35 bf
       0.40291533 0.4883598 0.8197137 -0.70704424
000050 e0 3e 3b 3f 71 d5 00 bf a1 b3 50 3e a0 b4 e0 be
       0.73142815 -0.50325686 0.20381023 -0.43887806
000060 d7 ef 2b 3f 1d 57 1d bf 5d a3 a2 3e 4b d7 a7 be
       0.6716284 -0.6146105 0.3176526 -0.32781443
000070 64 a9 50 bf 90 8d 5c 3f f0 4b 18 3f 21 8e 36 3f
       -0.8150847 0.8615351 0.5949087 0.7131062
000080 1b fa f5 be c5 84 1e bf 9a 9d 7a bf 7b 02 c9 3e
       -0.48042378 -0.6192134 -0.9789673 0.39259705
000090 55 f0 75 bc d0 73 6c 3e 2f d3 c5 3d 49 08 24 3d
       -0.015010913 0.23091054 0.09659421 0.040046964
0000a0 ae dd 69 bf 7a bc 87 3d d3 59 a7 be 22 e3 f2 3e
       -0.9135388 0.06627746 -0.32685718 0.47438914
0000b0 78 7f 6f bf 2f 34 64 3d bd 13 ad bd 30 4d 2c bf
       -0.93553877 0.05571383 -0.084510304 -0.6730528
0000c0 7d 07 93 3e a5 ac 07 3e 1d ad 80 3e f5 9b d6 3e
       0.2871665 0.13249452 0.25132075 0.4191586
0000d0 d7 01 f6 be bd f3 62 be f8 f6 00 3f bf b8 7a 3f
       -0.4804828 -0.22163291 0.50376844 0.9793815
0000e0 f8 b3 2e b9 30 63 b1 bd 39 0e 80 3a 5a a2 98 3e
       -0.00016660977 -0.08661497 0.0009769864 0.29811364
0000f0 9e 48 b4 bf d1 10 91 bd 20 db 29 bf 7d 85 19 3f
       -1.4084661 -0.070832856 -0.66349983 0.5996931
000100 db 1e fe bc 0d c1 ad 3d b9 b8 95 3d 87 f9 e8 3f
       -0.031020572 0.08484087 0.07310624 1.820115
000110 12 6d 8c 3d d1 a5 2a 3f b4 7c 38 3c 76 24 e2 bf
       0.06856741 0.66659266 0.0112602 -1.7667377
000120 18 4e 43 3e 7a b6 81 3e c5 62 64 3d 41 b3 13 bf
       0.19072759 0.2533453 0.055758256 -0.57695395
000130 3c 43 1a 3f 60 0e a3 be e8 11 0e ba 37 29 87 bf
       0.6025884 -0.31846905 -0.00054195384 -1.0559453
000140 89 8a 05 3e 58 1c f5 be 01 b9 92 bf 4b 1f 8d 3e
       0.13041128 -0.47873187 -1.1462709 0.27562937
000150 08 cf 9f 3d 84 16 a9 be 4c 74 9e bf a6 0c 10 bf
       0.0780316 -0.3302499 -1.2379241 -0.562693
000160 63 bc 8a 3f ae 7e c0 bc 14 c5 e1 3d b6 5d 80 be
       1.0838741 -0.023497906 0.11023918 -0.25071496
000170 6b 35 09 bf 09 ed 77 bf 6e 91 5b bd 91 75 c4 3d
       -0.53597134 -0.9684606 -0.05360549 0.095927365
000180 53 13 9b bf 0d cc a3 3e d8 01 2c bf 82 b3 09 bc
       -1.2115272 0.31991616 -0.67190313 -0.008404614
000190 8e f0 46 bc 1d 79 3c bd 78 24 3b bf 34 f8 85 bf
       -0.012142314 -0.04601394 -0.7310252 -1.046637
0001a0 9e 1e 25 bd 81 33 ab 3e 8f 76 96 bf fa f4 3b bd
       -0.040312402 0.33437732 -1.1754931 -0.045887925
0001b0 95 2b df be 04 2d fa bd 13 f5 74 3e 0c ed 55 3e
       -0.43587938 -0.12215617 0.23921613 0.20891207
0001c0 89 03 58 3e 37 a6 56 bc 62 ff 11 bf 28 97 1b bd
       0.21095099 -0.013101152 -0.5703031 -0.03798595
0001d0 ee 1b 97 3b 81 19 cc 3b a2 d3 03 3e 4d b5 0d 3d
       0.004611484 0.0062286262 0.128737 0.03459673
0001e0 61 bd 1e 3e 65 d7 e7 3e 5b 66 cb bd 8a f7 45 bf
       0.1550193 0.4528152 -0.09931632 -0.7733084
0001f0 89 b2 72 3e bc e3 8c 3e e5 ef 92 3c b8 e5 96 3c
       0.23700918 0.27517498 0.017936656 0.018420085
000200 d0 37 86 3e 17 f1 75 bf f3 20 10 40 d8 5b fd bc
       0.26214457 -0.96071 2.252011 -0.030927584
000210 4d 53 a5 bf fb 30 89 bf 8d b3 23 3f 13 c8 05 3d
       -1.2916046 -1.0718073 0.6394585 0.03266151
000220 f1 7d 72 bf fd 15 9f bf 68 f3 16 be c6 a5 25 be
       -0.9472342 -1.2428585 -0.1474129 -0.16176519
000230 c5 44 ee be 80 21 84 be 27 98 d1 3e e0 15 66 3e
       -0.46536842 -0.25806808 0.40936396 0.22469282
000240 cb a9 6e bf 5e 19 02 be 7d e2 4a be 7e 8f ae 3e
       -0.93227834 -0.1270499 -0.19812961 0.3409385
000250 1e e1 96 bf da e4 ab 3b b9 1f 4c 3e cd ae 81 3e
       -1.178745 0.005245787 0.19933976 0.25328675
000260 8c 48 05 3f b3 4c d6 3c 08 88 86 bf c0 68 66 bd
       0.5206382 0.02615962 -1.0510263 -0.05625224
000270 71 cd 6c 3d f5 52 e4 3d 27 1a 05 be 4f 10 21 b8
       0.05781311 0.11148635 -0.12998258 -3.840058e-05
000280 3c 9b 5c bf d2 53 d4 be c7 fa 8f 3e 07 4a 14 3f
       -0.8617437 -0.414702 0.28121015 0.57925457
000290 ac 67 a9 bc 2c df 89 bf 42 46 03 3f 83 94 9e 3e
       -0.020679317 -1.0771232 0.5127908 0.3097268
0002a0 0d 2c c8 3d 82 f5 57 3b 4e 77 03 3f fc 9f af be
       0.09774027 0.003295273 0.5135392 -0.34301746
0002b0 1c 65 70 b9 ed dc 8b bf f7 c5 44 3f f8 e7 a2 3e
       -0.0002292585 -1.0926796 0.7686457 0.31817603
0002c0 d1 0e 74 3e fc fb 1b bf 99 04 30 3c f3 61 02 3d
       0.23833777 -0.6093137 0.010743284 0.031831693
0002d0 ad cf b3 3e 17 8c b3 3e 14 ae 39 3f 75 b3 d4 bf
       0.35119382 0.35067818 0.7253125 -1.6617266
0002e0 78 53 66 3e 31 77 2f be a8 e0 3e bb 2c 7b 5c 3f
       0.22492778 -0.17135312 -0.0029125605 0.86125445
0002f0 42 03 c0 3d 14 43 43 3e 86 fa d8 be d8 22 e5 be
       0.093756214 0.19068557 -0.42378634 -0.44753146
000300 ab 0a 9a be 35 17 ef be b7 53 0e 3d b7 be b1 3e
       -0.30086264 -0.46697393 0.034747805 0.34715816
000310 ae ee 54 bf b6 8b 63 be 0e 9c 83 3c 5b 31 17 3e
       -0.83176696 -0.22221264 0.016065624 0.14764921
000320 f1 5c 3b 3e 16 63 98 be e7 ef 25 bf 32 5c 30 bf
       0.18297173 -0.29763097 -0.64819187 -0.6889068
000330 d0 1b 18 3e 8e 8c 4e 3e d9 9d 9b bf 7d db 96 bc
       0.1485436 0.20170805 -1.2157546 -0.018415207
000340 ea 94 01 bf 95 fe 5c 3e fd f3 02 3b 8b e1 5a 3f
       -0.5061785 0.2158149 0.0019981854 0.855004
000350 c3 d9 c6 3d 01 b6 8a 3b 85 d1 29 3c 3b 30 9f 3d
       0.097095035 0.0042331223 0.010364895 0.07772871
000360 16 8e 4d 3f 0e 74 ab 3e 06 3c 59 bf a9 34 0c 3f
       0.8029493 0.3348698 -0.84857213 0.54767853
000370 28 1b 2e 3f ed 64 ea 3e d0 d8 47 bf 20 33 2c bd
       0.6801019 0.45780125 -0.78065205 -0.042040944
000380 f1 58 06 be ef 96 dc 3d 91 e8 d3 bf da 11 03 bf
       -0.13119866 0.10770976 -1.6555349 -0.51199114
000390 bf e6 b0 bf 6d da 72 3e 38 24 c5 bf f8 d7 a4 bf
       -1.3820418 0.23716135 -1.5401678 -1.2878408
0003a0 8b 8b 2f 3f 97 3c 95 bd 63 0f 85 3e 81 08 07 3f
       0.685723 -0.07286947 0.25988302 0.5274735
0003b0 74 7b 95 3c b0 17 87 3e 43 ab 1d 3f f0 35 9f 3e
       0.018247344 0.2638526 0.6158945 0.3109584
0003c0 1b 02 a0 3f 04 42 d4 3e 2e 17 4b be 8b f6 e2 3e
       1.2500643 0.41456616 -0.19833061 0.44328722
0003d0 9d f1 10 3e 6a 56 86 bc 83 c3 90 bf 79 ba d7 3e
       0.14154668 -0.016398627 -1.1309665 0.42134455
0003e0 6f 28 69 3e 4d ba 5e bf ba 1f 7a bf a8 03 b8 bf
       0.2276933 -0.8700302 -0.9770466 -1.4376116
0003f0 d1 61 2b 3f 91 2a 55 3f 93 31 b1 be 84 46 34 c0
       0.6694613 0.83268076 -0.34608135 -2.816804

P.4.bias f4 [4]
000000 2a 2a 85 3e e5 96 0a bc 85 e7 df be 8b 1d e5 3c
       0.2600873 -0.008458828 -0.43731323 0.027968189
