5.1 SAC-Discrete/model/sacd_actor_50_CPV1.pth (torch, 168799 bytes, 6 tensors)

P.0.weight f4 [200, 4]
0.15070187 -0.4181187 1.3107637 0.27540165 0.59645206 -0.28986418 -1.3129472 0.010028246
-0.91154605 0.33044973 1.0494534 -0.20921125 -0.8070727 -0.08922097 0.99334025 0.07631328
0.42791936 0.19170061 0.08264135 0.108285435 0.38244283 -0.14092873 -1.4134617 0.0632311
0.5693455 -0.5188934 0.37897074 0.27974248 0.1847968 -0.11595776 -1.139094 -0.15803242
-0.8536971 -0.008893489 1.2211376 0.15705685 0.27985513 -0.4097306 0.5952779 0.56740415
0.16791664 -0.07057286 -1.1680319 0.14772514 0.010481352 0.30012047 1.2314608 0.22215569
0.14129901 -0.1490166 1.076763 -0.045421593 -0.2655451 -0.26916823 1.0240749 0.15097287
0.24789123 -0.14340736 -0.27896369 0.65337616 0.10253356 -0.3782973 -0.7384392 -0.15505318
-0.8657094 0.07877857 0.22627965 0.15579525 0.56658864 -0.29630405 -0.38385993 -0.3936124
-0.38441816 0.3403592 1.1748921 0.44169044 0.34598076 0.49140137 -0.81608903 -0.053880237
-0.22375363 -0.012717421 0.99874514 0.35132396 0.3541053 -0.48908794 -1.1557257 -0.064266324
0.32694742 -0.15611413 -1.1318203 -0.14349855 0.115267515 0.14273374 -0.89791954 -0.25212848
-0.73866224 -0.21330814 1.591647 -0.034058515 0.1354899 -0.5088125 -1.0095856 -0.22046933
-0.13657586 -0.24064128 -0.31123427 -0.13094829 -0.08491718 -0.33773097 0.4069877 0.31755283
-0.70149565 0.05385722 1.1492286 0.3399951 -0.5771737 -0.058142792 0.55058694 -0.1276409
0.3211517 -0.3722777 0.38964084 -0.24025565 -0.17335264 0.46730426 0.22514571 0.26424024
-0.26616997 -0.012645411 -1.0124593 -0.45346028 -0.067867875 0.14082542 -0.38707504 0.450748
0.36773854 -0.46531916 0.31253767 -0.30003542 -0.5869728 0.67495024 -0.10331832 -0.12627593
0.25842968 0.30297747 0.078160204 0.14361358 0.08561605 -0.1892896 -1.1275853 0.08593843
0.17757475 0.22568472 -0.93236715 -0.50163597 -0.07776575 -0.4925679 0.09392985 0.1913289
-0.35008484 0.22113062 1.144745 0.2579138 0.0074476907 -0.1977597 0.115462326 -0.37541118
-0.36516237 0.28072527 -0.0370649 0.5094232 0.36563888 -0.076214954 -0.98042125 -0.3846318
-0.49426386 -0.5390912 -1.314289 -0.39798343 0.34874892 -0.76221436 -0.41298297 -0.09645175
-0.3242663 0.15472779 1.2764217 0.21217683 0.3849387 -0.29183656 -1.2173594 -0.10415836
0.5036178 0.21443613 -1.1057154 0.19565533 0.13690664 0.03160068 -0.7718428 -0.5857828
-0.46243685 -0.025121776 -0.3704822 -0.027817065 0.200337 0.01686843 1.0623689 0.46098146
0.5389894 -0.5752354 0.44293225 0.12447785 -0.6236924 0.2542855 0.4410747 0.49384817
0.6686918 -0.20895149 -1.3672067 -0.044735376 -0.4648455 0.29355267 -0.4668244 0.48439893
0.04483354 0.009820461 -0.31892776 0.031071484 0.32796243 0.4110874 -1.0396254 0.0055829496
0.17255454 0.2294363 -1.2032883 0.018167885 -0.8401931 0.34508747 0.6041084 0.3566502
0.23521268 0.035290208 0.33787337 0.19882007 0.019556351 0.37058473 -0.488109 0.0864626
0.6360091 -0.4562474 -0.8654647 -0.15316501 0.15773399 -0.12340398 -0.046778858 -0.5030816
00000000: 9751 1a3e a713 d6be 1bc7 a73f 7201 8d3e
00000010: 15b1 183f 1469 94be a70e a8bf 834d 243c
00000020: 155b 69bf b530 a93e 7d54 863f 793b 56be
00000030: 519c 4ebf 7cb9 b6bd 8c4b 7e3f 234a 9c3d
00000040: 3f18 db3e 2a4d 443e de3f a93d c1c4 dd3d
00000050: 8ccf c33e 9f4f 10be 50ec b4bf 4f7f 813d
00000060: a0c0 113f 33d6 04bf 7408 c23e 683a 8f3e
00000070: 5f3b 3d3e 437b edbd d5cd 91bf 40d3 21be
00000080: e58b 5abf ffb5 11bc 3d4e 9c3f 83d3 203e
00000090: 2c49 8f3e 36c8 d1be 2264 183f 6641 113f
000000a0: 57f2 2b3e 8188 90bd 1282 95bf 4245 173e
000000b0: fab9 2b3c 64a9 993e 82a0 9d3f c87c 633e
000000c0: b0b0 103e cf97 18be 5fd3 893f fe0b 3abd
000000d0: 87f5 87be 6bd0 89be e314 833f a298 1a3e
000000e0: 33d7 7d3e 61d9 12be 54d4 8ebe a943 273f
000000f0: 1dfd d13d 2fb0 c1be 5a0a 3dbf 43c6 1ebe
00000100: 229f 5dbf a956 a13d dab5 673e ca88 1f3e
00000110: f40b 113f 2ab5 97be 4a89 c4be 9187 c9be
00000120: 75d2 c4be 9043 ae3e dd62 963f 4025 e23e
00000130: 6424 b13e f698 fb3e 36eb 50bf 86b1 5cbd
00000140: ac1f 65be bb5c 50bc c3ad 7f3f bce0 b33e
00000150: 4a4d b53e bc69 fabe d2ee 93bf 109e 83bd
00000160: a765 a73e 62dc 1fbe 7ddf 90bf 49f1 12be
00000170: 6011 ec3d cb28 123e 0ede 65bf fc16 81be
00000180: f818 3dbf 736d 5abe 17bb cb3f f180 0bbd
00000190: ddbd 0a3e 8941 02bf 1a3a 81bf b6c2 61be
000001a0: 8bda 0bbe ab6a 76be 195a 9fbe 4f17 06be
000001b0: 0fe9 adbd 13eb acbe b160 d03e 4996 a23e
000001c0: 3895 33bf 6399 5c3d ec19 933f d613 ae3e
000001d0: a8c1 13bf 2327 6ebd 44f3 0c3f 4cb4 02be
000001e0: ff6d a43e 2f9b bebe 017f c73e 9405 76be
000001f0: 5b83 31be 8142 ef3e 998c 663e 7f4a 873e
00000200: 6e47 88be b32e 4fbc 4498 81bf f22b e8be
00000210: 50fe 8abd 8a34 103e b32e c6be 71c8 e63e
00000220: 3a48 bc3e 503e eebe f004 a03e 3e9e 99be
00000230: d943 16bf 8ac9 2c3f 8e98 d3bd 7a4e 01be
00000240: e550 843e dd1f 9b3e 7512 a03d 700f 133e
00000250: 7857 af3d 22d5 41be b754 90bf 7d00 b03d
00000260: 28d6 353e e519 673e 9daf 6ebf 376b 00bf
00000270: a643 9fbd dc31 fcbe 4b5e c03d b9eb 433e
00000280: 523e b3be 1170 623e 0187 923f 470d 843e
00000290: c20b f43b 8581 4abe 8377 ec3d e535 c0be
000002a0: 90f6 babe 39bb 8f3e 5dd1 17bd 8f69 023f
000002b0: 0535 bb3e 9616 9cbd e3fc 7abf 76ee c4be
000002c0: 2710 fdbe e201 0abf 9f3a a8bf 7cc4 cbbe
000002d0: 388f b23e 7b20 43bf 8172 d3be 7f88 c5bd
000002e0: 3c06 a6be f670 1e3e c961 a33f e244 593e
000002f0: af16 c53e 9a6b 95be 6fd2 9bbf fa50 d5bd
00000300: 19ed 003f 2595 5b3e 1588 8dbf df59 483e
00000310: 4131 0c3e b76f 013d 7d97 45bf ddf5 15bf
00000320: 86c4 ecbe 2fcc cdbc d8af bdbe 9de0 e3bc
00000330: 2425 4d3e a92f 8a3c b4fb 873f c305 ec3e
00000340: 36fb 093f a142 13bf 04c8 e23e 3eee fe3d
00000350: 4eaa 1fbf b631 823e 8bd4 e13e abd9 fc3e
00000360: 632f 2b3f 61f7 55be a100 afbf 713c 37bd
00000370: 3b00 eebe 894c 963e 9c03 efbe 2303 f83e
00000380: 60a3 373d 00e6 203c 804a a3be a089 fe3c
00000390: b1ea a73e 0c7a d23e 7212 85bf 2df1 b63b
000003a0: 23b2 303e 59f1 6a3e 5a05 9abf d1d4 943c
000003b0: e516 57bf 4eaf b03e d9a6 1a3f db9a b63e
000003c0: 98db 703e 778c 103d bdfd ac3e 7d97 4b3e
000003d0: a434 a03c 48bd bd3e 6ce9 f9be 4e13 b13d
000003e0: 7ed1 223f 4299 e9be 188f 5dbf 4ad7 1cbe
000003f0: 0585 213e 3abb fcbd 309b 3fbd f5c9 00bf

P.0.bias f4 [200]
-0.5118696 -0.027677508 0.1712935 0.32827446 -0.23136255 0.25137624 -0.2916755 0.19226289
-0.31704155 -0.17042583 0.29731262 0.20021215 0.06136089 -0.20089036 -0.109073535 0.02825668
0.34111857 -0.1865788 0.07327154 -0.17751136 -0.08895225 -0.33203143 0.1455318 -0.08271811
0.3327891 -0.057449117 -0.38612282 0.03510571 -0.2030546 -0.46485075 0.11795724 -0.43171227
-0.36718547 -0.5430902 -0.32628274 0.10118272 -0.50164986 -0.08237728 0.15798464 -0.36174953
0.20498753 0.042537965 0.27516025 -0.36461106 0.094839945 0.04948942 0.25232095 -0.10613586
-0.040107463 -0.21369863 -0.33053955 -0.09732044 0.1734857 -0.45933944 0.17669593 0.37743026
-0.3278153 0.033709932 0.029181082 0.42581242 -0.5966152 -0.27904072 -0.10750122 -0.008716055
-0.14186768 0.25385237 -0.57376647 -0.4782706 -0.38008326 -0.6503106 0.31773898 0.32724017
-0.31543833 0.15106265 -0.14631101 0.03221033 -0.058989163 -0.09701049 0.09578576 -0.27893555
0.031218922 0.1478935 -0.04688244 -0.5224866 -0.3670711 -0.515363 0.26182392 -0.31484792
-0.41929013 -0.45678475 0.05488348 0.01963337 0.17667054 -0.12968609 0.23426089 -0.25478786
-0.26547748 0.011039983 0.037996743 0.19815229 -0.07223377 -0.5399294 -0.32117116 -0.294456
0.32010826 0.18581527 -0.3271904 -0.024435524 0.08905187 0.27263704 -0.0036313918 -0.0106834425
-0.19523765 0.23529328 -0.33972728 -0.187744 -0.22418262 0.00049133674 -0.53006303 -0.35971615
-0.19855942 0.023631139 -0.40448725 -0.30195013 -0.17028302 0.12578584 -0.6259909 -0.26666242
-0.313453 0.1634879 0.17828874 -0.018619664 -0.46129277 -0.09427342 -0.039099067 -0.6148875
-0.12799421 -0.5990174 -0.16190214 0.017913578 -0.021232156 -0.12594946 0.30449978 -0.6256114
-0.19575992 -0.13911988 -0.17300363 -0.23113245 -0.38011447 0.007852545 -0.65206677 -0.08449881
-0.1411329 0.03820875 0.027326832 -0.22862463 0.15668325 -0.19750299 -0.034303777 0.10667956
0.1196652 -0.41309878 -0.5734773 0.32613057 0.12437546 0.23816356 0.11768819 0.07594113
-0.14006767 -0.15432647 -0.43455946 -0.14645882 -0.07480459 0.35566765 -0.14360034 -0.1729145
0.37688184 -0.35105926 -0.34467438 -0.44575027 -0.31247568 -0.48488814 -0.16126509 0.26068687
0.06342439 0.13976891 0.15358719 -0.48111892 -0.19482508 -0.25527376 -0.011396214 0.33862853
0.035173696 0.226164 -0.11625575 -0.65642554 0.41845325 0.10691094 0.05098437 0.15343806
00000000: e309 03bf f1bb e2bc 9067 2f3e 9713 a83e
00000010: 4eea 6cbe 63b4 803e 7e56 95be 90e0 443e
00000020: 4553 a2be 1c84 2ebe 5c39 983e 6a04 4d3e
00000030: 8e55 7b3d 34b6 4dbe f261 dfbd 8e7a e73c
00000040: 18a7 ae3e 830e 3fbe 640f 963d 8ac5 35be
00000050: 992c b6bd 0600 aabe 4a06 153e 1d68 a9bd
00000060: 5563 aa3e c44f 6bbd e4b1 c5be 01cb 0f3d
00000070: 8ced 4fbe eb00 eebe 9193 f13d 6409 ddbe
00000080: bcff bbbe f607 0bbf 880e a7be e338 cf3d
00000090: 206c 00bf 6bb5 a8bd bac6 213e 3c37 b9be
000000a0: 40e8 513e 4a3c 2e3d cee1 8c3e 4dae babe
000000b0: 723b c23d 6bb5 4a3d 3630 813e c25d d9bd
000000c0: b947 24bd d0d3 5abe 7b3c a9be f04f c7bd
000000d0: 3ca6 313e 8a2e ebbe c7ef 343e 8a3e c13e
000000e0: 68d7 a7be 6d13 0a3d 2a0d ef3c 1604 da3e
000000f0: c6bb 18bf 6dde 8ebe 9a29 dcbd c9cd 0ebc
00000100: c345 11be f0f8 813e 5ce2 12bf e2df f4be
00000110: 469a c2be c17a 26bf afae a23e 068c a73e
00000120: 2281 a1be 2bb0 1a3e 8ed2 15be fbee 033d
00000130: 9f9e 71bd 70ad c6bd 532b c43d a4d0 8ebe
00000140: d3be ff3c 6571 173e cd07 40bd afc1 05bf
00000150: bef0 bbbe d4ee 03bf c90d 863e bf33 a1be
00000160: 32ad d6be b1df e9be 80cd 603d 29d6 a03c
00000170: 1fe9 343e 6ecc 04be 16e2 6f3e 8e73 82be
00000180: aaec 87be 0be1 343c 79a2 1b3d 6fe8 4a3e
00000190: 4cef 93bd d038 0abf 8c70 a4be f0c2 96be
000001a0: 3be5 a33e 5c46 3e3e 8085 a7be 022d c8bc
000001b0: d460 b63d 1597 8b3e a5fc 6dbb 9b09 2fbc
000001c0: 61ec 47be b9f0 703e bcf0 adbe f73f 40be
000001d0: 2190 65be 0dcd 003a 36b2 07bf b72c b8be
000001e0: 2953 4bbe 1796 c13c f418 cfbe 3599 9abe
000001f0: ac5e 2ebe 01ce 003e f140 20bf fa87 88be
00000200: e97c a0be 5f69 273e 5391 363e 4488 98bc
00000210: 912e ecbe 6c12 c1bd 5826 20bd 4469 1dbf
00000220: ea10 03be 3459 19bf adc9 25be 7fbf 923c
00000230: 0fef adbc e5f8 00be 65e7 9b3e 1228 20bf
00000240: 4a75 48be 7175 0ebe dd27 31be fcad 6cbe
00000250: 5d9e c2be f6a7 003c d9ed 26bf b60d adbd
00000260: 2585 10be c780 1c3d 85dc df3c 931c 6abe
00000270: 9371 203e 393e 4abe 1e82 0cbd d07a da3d
00000280: 0713 f53d af81 d3be 69cf 12bf 96fa a63e
00000290: 90b8 fe3d 26e1 733e 8106 f13d 0687 9b3d
000002a0: e66d 0fbe c207 1ebe 947e debe 4df9 15be
000002b0: 2633 99bd 121a b63e f80b 13be 8010 31be
000002c0: a8f6 c03e 0abe b3be 2979 b0be 6139 e4be
000002d0: d0fc 9fbe 4243 f8be ad22 25be c078 853e
000002e0: a6e4 813d 951f 0f3e f645 1d3e 3855 f6be
000002f0: 3a80 47be 3eb3 82be 30b7 3abc b860 ad3e
00000300: 4b12 103d 8997 673e 7f17 eebd 810b 28bf
00000310: 813f d63e 1ff4 da3d fdd4 503d de1e 1d3e

P.2.weight f4 [200, 200]
0.01185596 -0.027150005 -0.036163807 -0.0127143 -0.02793118 -0.049756832 0.018857032 -0.06931666
-0.0063174176 -0.03995166 -0.026424501 -0.032856274 0.0074647227 -0.011619737 0.06881421 -0.064898685
-0.048606582 -0.018204466 0.012607394 0.030815842 0.0054234196 0.026364677 0.015074147 -0.033922315
0.055577595 -0.0059317425 0.0040996894 0.0043907664 0.011704551 0.008385658 0.010233292 -0.049074218
-0.046538606 0.030783616 0.009054005 -0.04672401 -0.02835523 -0.06591632 -0.034260273 -0.006010726
0.015568329 -0.037240542 -0.0034710586 -0.021533672 -0.057674926 -0.0022809654 -0.022822605 -0.05544033
-0.052552428 0.03019034 0.059829496 -0.045884326 -0.01795923 -0.014769629 0.028615616 -0.02381786
-0.004272558 -0.030164372 0.027616777 -0.030828997 0.013155982 0.00023828447 -0.0019991994 0.007024411
-0.03098974 -0.031325735 -0.02234572 -0.023542892 0.036158152 -0.04302492 -0.06286076 -0.031358376
-0.045166835 0.0034429415 -0.0013219866 -0.0048662173 -0.012073103 -0.010200287 -0.043459784 -0.051253147
0.011985087 -0.027543997 0.020882592 -0.032601476 -0.009702407 0.006568954 -0.0011861537 0.044532098
0.03181988 0.02653221 -0.013876862 0.013482168 0.055515826 -0.013293374 -0.022510864 0.055503357
0.03728024 -0.026141843 0.03732926 0.050767448 -0.005783774 -0.03638328 -0.02063062 -0.04662714
0.056174744 0.04316164 -0.03079015 -0.019127883 -0.012913463 -0.005451545 -0.06569432 -0.06776764
-0.03934326 -0.037924528 -0.027029203 -0.056071904 0.022912009 -0.02495177 -0.043437358 -0.012694191
0.029045928 0.009500366 -0.051033553 0.0703146 -0.05840386 -0.07103375 -0.016594745 -0.037754808
0.019279225 -0.0031817907 -0.06231434 0.00072889775 0.0053269044 -0.023701202 0.017609537 0.031806238
0.008446455 0.058890633 -0.03828902 -0.0042363885 -0.061736662 -0.05489093 0.048403624 0.06973676
-0.00095778704 0.028205028 -0.019434966 -0.059500337 0.030193588 -0.036023237 -0.018226009 0.05338558
0.037382882 -0.011151873 -0.03304484 -0.013714686 0.03994662 0.06175786 -0.012437932 0.04606993
-0.053160954 0.012112953 -0.012298495 -0.07762385 0.04977693 0.06495853 0.029980108 0.024397835
-0.04119188 -0.0072199735 -0.034267835 -0.051964268 -0.0628507 -0.055333834 0.06716829 0.034599185
0.047341183 0.0009498894 -0.061314717 -0.053517036 -0.048046373 0.012542792 -0.0042199334 0.0527665
-0.025228232 0.033962846 -0.05436735 -0.035953294 -0.07934205 -0.024673453 -0.061740976 0.011317885
-0.02447299 -0.0542998 0.02536396 0.019095868 0.028075837 -0.05205129 0.0043077096 -0.041189063
-0.16532914 0.024490604 -0.093899906 -0.030131033 -0.17474374 0.09421218 -0.7109501 0.11000679
-0.14305794 -0.22118647 0.073220424 -0.009740594 -0.22550976 -0.10864529 0.26443157 -0.10104458
-0.051201046 -0.10867733 0.03050579 -0.040856726 0.056121465 0.10872214 0.06809339 0.33612913
-0.084166475 0.2946029 0.06974091 0.040415492 -0.07613685 0.020196361 -0.12856433 -0.18249518
0.23844229 -0.05070745 -0.066746205 0.04772863 -0.45008448 0.088653706 -0.048393473 -0.07242229
0.02012411 -0.12645665 0.10300981 -0.111297786 0.10196082 -0.104846925 -0.088175304 -0.036548983
0.11338562 0.2000441 0.07931476 0.08017788 0.018272871 0.17342813 -0.007922882 0.07195006
00000000: 803f 423c b069 debc 8020 14bd a44f 50bc
00000010: eecf e4bc d2cd 4bbd 107a 9a3c e5f5 8dbd
00000020: 5702 cfbb 5aa4 23bd 3278 d8bc 4d94 06bd
00000030: a29a f43b b660 3ebc 77ee 8c3d 9ae9 84bd
00000040: b217 47bd 8821 95bc 3e8f 4e3c 8171 fc3c
00000050: f1b6 b13b bcfa d73c 8ef9 763c 20f2 0abd
00000060: 55a5 633d 105f c2bb b056 863b 6be0 8f3b
00000070: 72c4 3f3c 0064 093c 8aa9 273c 0c02 49bd
00000080: 449f 3ebd ec2d fc3c 4057 143c ad61 3fbd
00000090: 3a49 e8bc 23ff 86bd 8054 0cbd a0f5 c4bb
000000a0: 4e12 7f3c 8a89 18bd b37a 63bb 6267 b0bc
000000b0: 8b3c 6cbd 407c 15bb 79f6 babc 6615 63bd
000000c0: 3741 57bd bb51 f73c c60f 753d 34f1 3bbd
000000d0: 3c1f 93bc 50fc 71bc 4c6b ea3c ac1d c3bc
000000e0: d000 8cbb 461b f7bc 943c e23c 188d fcbc
000000f0: 308c 573c 00dc 7939 0005 03bb 082d e63b
00000100: 32de fdbc 6a4f 00bd 5f0e b7bc 06dd c0bc
00000110: 921a 143d e63a 30bd 24bd 80bd a471 00bd
00000120: dc00 39bd f9a2 613b 8246 adba ca74 9fbb
00000130: 44ce 45bc 1b1f 27bc e302 32bd d2ee 51bd
00000140: 195d 443c f3a3 e1bc f811 ab3c 2089 05bd
00000150: d8f6 1ebc 6140 d73b b778 9bba 4a67 363d
00000160: 9055 023d 145a d93c c75b 63bc 50e4 5c3c
00000170: 9064 633d 74cc 59bc b468 b8bc 7d57 633d
00000180: 2ab3 183d 6b27 d6bc 91e6 183d 87f1 4f3d
00000190: d085 bdbb a206 15bd 8c01 a9bc 1afc 3ebd
000001a0: 7d17 663d 43ca 303d a03b fcbc 14b2 9cbc
000001b0: fd92 53bc e0a2 b2bb be8a 86bd c3c9 8abd
000001c0: 6626 21bd c056 1bbd 596c ddbc a7ab 65bd
000001d0: f7b1 bb3c a867 ccbc 5feb 31bd 4cfb 4fbc
000001e0: baf1 ed3c 6ca7 1b3c 8f08 51bd 1a01 903d
000001f0: e338 6fbd 257a 91bd b4f1 87bc c9a4 1abd
00000200: 77ef 9d3c 9785 50bb 523d 7fbd 8013 3f3a
00000210: 508d ae3b 0629 c2bc e041 903c 4247 023d
00000220: 0063 0a3c 4e37 713d f3d4 1cbd 67d1 8abb
00000230: 95df 7cbd 50d5 60bd e142 463d 25d2 8e3d
00000240: 0014 7bba 3b0e e73c 1436 9fbc a0b6 73bd
00000250: 8b58 f73c 1a8d 13bd b64e 95bc d7aa 5a3d
00000260: cb1e 193d 58b6 36bc 075a 07bd 90b3 60bc
00000270: 119f 233d cff5 7c3d 78c8 4bbc d3b3 3c3d
00000280: 4dbf 59bd 6875 463c a07f 49bc 41f9 9ebd
00000290: e5e2 4b3d fa08 853d d898 f53c f8dd c73c
000002a0: d1b8 28bd 8795 ecbb 6e5c 0cbd 7cd8 54bd
000002b0: deb7 80bd bba5 62bd 878f 893d e0b7 0d3d
000002c0: d4e8 413d 0002 793a 2425 7bbd ae34 5bbd
000002d0: 46cc 44bd 4880 4d3c 5e47 8abb af21 583d
000002e0: 70ab cebc a01c 0b3d 4cb0 5ebd c343 13bd
000002f0: 167e a2bd fb1f cabc 1be4 7cbd a66e 393c
00000300: 947b c8bc 7869 5ebd 14c8 cf3c f06e 9c3c
00000310: 4cff e53c bc33 55bd b027 8d3b ddb5 28bd
00000320: 0b4c 29be 85a0 c83c 984e c0bd 5bd5 f6bc
00000330: 06f0 32be 51f2 c03d d300 36bf 3d4b e13d
00000340: c87d 12be b57e 62be 97f4 953d 0397 1fbc
00000350: 08ec 66be 6c81 debd 9363 873e 76f0 cebd
00000360: 30b8 51bd 3892 debd 47e7 f93c 6259 27bd
00000370: 9fdf 653d b7a9 de3d 8c74 8b3d 1e19 ac3e
00000380: 795f acbd 31d6 963e 52d4 8e3d b78a 253d
00000390: a3ed 9bbd d772 a53c 5ea6 03be 04e0 3abe
000003a0: 372a 743e 9db2 4fbd 3cb2 88bd 197f 433d
000003b0: 7971 e6be 1390 b53d 3c38 46bd 2352 94bd
000003c0: 51db a43c da7d 01be cff6 d23d 18f0 e3bd
000003d0: d6d0 d03d fcb9 d6bd 4195 b4bd 63b4 15bd
000003e0: b836 e83d 5cd8 4c3e c76f a23d 4d34 a43d
000003f0: fdb0 953c 2597 313e face 01bc 8e5a 933d

P.2.bias f4 [200]
-0.06787869 0.022017853 0.04257226 -0.04467223 -0.06477925 -0.055629984 -0.02709652 -0.057756186
0.03761008 0.008071167 -0.036379587 -0.009801246 -0.00522757 -0.1534053 0.08023076 -0.01779635
-0.07885598 -0.064510934 0.008859979 0.054373473 -0.039797872 -0.015154616 0.014443167 -0.00065817503
0.040124822 0.036185637 0.05424693 -0.049708743 -0.011861326 -0.14467925 0.05197653 0.005532622
-0.018570125 0.009134814 -0.1421582 0.030307766 0.024121404 0.009620202 0.057417963 0.018997198
-0.036256872 -0.053119246 0.05223777 0.013943841 -0.059289742 -0.02370819 -0.06509148 -0.002278429
0.062809914 0.03755049 0.04005806 -0.07625506 -0.009248381 0.020582275 0.07865541 -0.017951792
-0.048379082 -0.06108698 -0.027814418 -0.1370597 -0.065105446 -0.06431857 -0.13395973 0.008784481
-5.9979793e-06 0.019260895 -0.023923771 -0.025768941 -0.020889634 -0.16099592 0.02243894 0.008527867
0.04936859 0.04196805 -0.13532262 -0.044968102 -0.015813498 -0.00043997008 0.061233938 0.01759756
-0.0968775 -0.25357246 -0.026930524 0.021452244 0.038611315 0.012394526 0.013522861 -0.028647197
0.0048283143 0.0081119435 -0.0616851 -0.010670718 -0.06927091 -0.0053736013 0.08624554 0.012948948
-0.059452537 -0.017120846 0.017928392 -0.2296316 0.0016196405 -0.018757638 0.0012906498 0.05032984
-0.038575277 -0.0018170882 -0.036885984 0.0053076753 0.029496083 -0.007623441 -0.12561111 0.020092033
-0.0004325662 -0.065159716 -0.04007111 -0.043138433 -0.11135596 -0.061431337 0.020190865 -0.070288606
0.018486917 0.00233696 -0.031548765 0.05665199 3.7116788e-05 0.03434283 0.02291493 -0.024942845
0.051166054 -0.049773056 -0.048988186 0.03425068 -0.047595207 -0.030639429 -0.039129585 0.0013015734
0.060266823 0.047628824 0.03307591 0.04401963 -0.06429452 -0.0014048598 -0.09509714 -0.118951745
0.004711947 0.08675758 0.038017415 0.015877014 -0.01739935 -0.009754526 -0.0036413225 0.00088453863
-0.016413134 0.040086918 -0.016375836 0.0039811647 0.037298195 0.081324376 -0.010244962 -0.18901192
-0.025145471 -0.0003427958 0.06962032 -0.0073319525 -0.062222652 0.018612294 0.007984641 -0.06469558
-0.014950209 0.06860702 0.025675362 0.0387402 -0.038248025 -0.06157764 -0.06996967 -0.12567066
-0.049056232 -0.05805184 -0.014694434 -0.13108222 -0.038030684 0.04355929 0.07174876 0.007746767
-0.08755904 -0.039919633 -0.011836235 -0.050058797 -0.040159173 0.05472551 -0.037764538 -0.074409366
-0.036676172 0.027376993 -0.02435211 -0.012507443 -0.031053612 -0.17989993 0.012113407 -0.02767635
00000000: fc03 8bbd c95e b43c 4060 2e3d 3afa 36bd
00000010: fcaa 84bd 44dc 63bd 85f9 ddbc c091 6cbd
00000020: 070d 1a3d ee3c 043c c302 15bd 6895 20bc
00000030: 094c abbb 4716 1dbe 0650 a43d a7c9 91bc
00000040: 3e7f a1bd 4f1e 84bd 7229 113c b8b6 5e3d
00000050: 1803 23bd 114b 78bc 08a3 6c3c 6189 2cba
00000060: ed59 243d 6437 143d 0732 5e3d 659b 4bbd
00000070: 0256 42bc cc26 14be 58e5 543d ff4a b53b
00000080: 6020 98bc 30aa 153c eb91 11be fe47 f83c
00000090: 409a c53c 0d9e 1d3c 192f 6b3d 03a0 9b3c
000000a0: 1682 14bd 9193 59bd 46f7 553d b574 643c
000000b0: cdd9 72bd ae37 c2bc af4e 85bd b251 15bb
000000c0: 7ca2 803d 8bce 193d ec13 243d 9d2b 9cbd
000000d0: 8586 17bc 299c a83c 1616 a13d a30f 93bc
000000e0: 2529 46bd 5736 7abd 10db e3bc 6159 0cbe
000000f0: 0156 85bd 74b9 83bd bd2c 09be c9ec 0f3c
00000100: 4042 c9b6 06c9 9d3c c9fb c3bc 6319 d3bc
00000110: bd20 abbc 1ddc 24be ded1 b73c 77b8 0b3c
00000120: b836 4a3d b1e6 2b3d 0392 0abe 7930 38bd
00000130: 4f8b 81bc c9ab e6b9 70d0 7a3d c228 903c
00000140: b667 c6bd 40d4 81be 679d dcbc 9ebc af3c
00000150: e626 1e3d 6912 4b3c fd8e 5d3c 87ad eabc
00000160: d636 9e3b f5e7 043c 84a9 7cbd 3cd4 2ebc
00000170: e8dd 8dbd 0915 b0bb 80a1 b03d d327 543c
00000180: 8184 73bd 0441 8cbc 90de 923c 8c24 6bbe
00000190: 1e4a d43a 9ea9 99bc 052b a93a aa26 4e3d
000001a0: 1c01 1ebd 5d2b eeba c215 17bd 02ec ad3b
000001b0: c5a1 f13c 0fce f9bb 33a0 00be 0c98 a43c
000001c0: 0dca e2b9 7572 85bd 9b21 24bd edb1 30bd
000001d0: 980e e4bd 6d9f 7bbd 5067 a53c 79f3 8fbd
000001e0: e071 973c af27 193b 4739 01bd eb0b 683d
000001f0: d9ad 1b38 11ab 0c3d 17b8 bb3c f054 ccbc
00000200: 7f93 513d d5de 4bbd d6a7 48bd 714a 0c3d
00000210: 31f3 42bd 8aff fabc 5846 20bd 8e99 aa3a
00000220: 58da 763d 7116 433d 9b7a 073d ed4d 343d
00000230: d8ac 83bd 4623 b8ba 4ac2 c2bd f99c f3bd
00000240: ad66 9a3b f5ad b13d 26b8 1b3d 8310 823c
00000250: 1589 8ebc 73d1 1fbc 41a3 6ebb 62e0 673a
00000260: d674 86bc 2e32 243d 9e26 86bc 6e74 823b
00000270: fec5 183d 658d a63d 7cda 27bc 578c 41be
00000280: e0fd cdbc 46b9 b3b9 1995 8e3d e040 f0bb
00000290: 2edd 7ebd cf78 983c 03d2 023c 1e7f 84bd
000002a0: b9f1 74bc d681 8c3d 2355 d23c 0bae 1e3d
000002b0: f6a9 1cbd d638 7cbd 424c 8fbd cfaf 00be
000002c0: 30ef 48bd c4c7 6dbd ecc0 70bc 6b3a 06be
000002d0: 10c6 1bbd 3a6b 323d 04f1 923d 97d8 fd3b
000002e0: 2752 b3bd c582 23bd c5ec 41bc 740a 4dbd
000002f0: f27d 24bd db27 603d fdae 1abd f063 98bd
00000300: c139 16bd b745 e03c 147e c7bc 05ec 4cbc
00000310: 2564 febc b037 38be 5077 463c 83b9 e2bc

P.4.weight f4 [2, 200]
0.007406476 0.24622807 -0.025998805 -0.056779705 0.009370168 0.28395936 0.009722675 -0.04936374
0.031534143 -0.021031749 -0.055476274 -0.051027864 -0.04560704 -0.10631633 0.452566 0.20469214
0.061918046 -0.03274538 -0.0082610175 -0.3609244 0.031519 -0.49174938 0.06608469 0.058879945
-0.109456606 0.019293698 0.037331045 -0.030397953 -0.27348033 -0.99545264 -0.15759292 0.028444247
0.06445609 0.061936133 0.5060703 0.25099087 -0.0412506 0.0062875706 -0.0233243 -0.46316
-0.0011410944 0.0624871 0.014818793 0.039117865 -1.6991161 0.033712156 -0.4033137 -0.2197075
0.82670105 -0.07924611 0.12723452 0.033784308 -0.014501903 -0.0042752633 0.075315244 -0.015378927
-0.20198986 -0.049465857 -0.054810345 -0.111594774 0.027969837 -0.027347969 -0.62904614 -0.027862739
-0.2512841 -0.18737076 -0.048725963 -0.0877134 -0.0586238 -0.17207448 -0.0509898 0.020989424
0.12526907 -0.016425768 -0.017807297 0.019068899 0.5075899 0.0025981278 0.28841487 -0.5458747
0.1540402 0.3318739 0.016585069 -0.05145113 0.14387429 0.027777093 -0.009712372 0.015788088
-0.11508198 -0.04101995 0.036203086 0.31097358 0.03462692 -0.021010997 -0.28969857 -0.101724006
0.004920449 0.08015119 -0.04395666 0.20332634 0.0491735 -0.06417067 0.037152585 -0.035547275
-0.00959473 0.17191675 0.047351316 0.030841688 -0.032188546 -0.04781477 0.032548696 0.037270345
-0.06309599 -0.021749888 -0.27765265 -0.014830149 0.05852837 0.016262816 -0.056539655 -0.42623916
-0.010115657 0.022741305 0.58668697 0.063053854 0.08822283 -0.16024141 0.4927623 -0.029119672
-0.06738324 0.0078261485 0.026096001 -0.03561609 -0.21059792 0.03442616 -0.047375374 -0.026467277
-0.02517182 -0.05008054 0.0143426815 0.045906957 -0.053408597 0.061317027 -0.00015956619 1.101228
0.08410749 0.10485134 0.18270987 -0.037774324 0.06868211 0.050033797 -0.012889433 -0.29052967
-0.05303779 0.04402556 -0.62834 -0.5389 0.25610662 0.0946487 0.030969594 0.65484226
0.05754272 0.2838371 0.24060258 -0.051376753 -0.37082618 0.08333831 0.04620061 -0.039406322
-0.081381254 -0.4719473 0.30445397 -0.05376467 0.025793135 0.014658794 -0.04492611 -1.3725107
0.060937896 -0.027978772 -0.0013096912 0.25935242 0.008974599 -0.020143954 0.055652082 0.012842624
-0.03138819 0.0255975 -0.02569511 0.05326544 0.032583185 0.19233592 -0.010780346 -0.49078357
-0.038641874 0.026763864 0.12985441 0.14531115 -0.10286641 -0.1610505 -0.009718575 -0.010724443
-0.025356464 -0.3103171 -0.037728895 -0.026166108 -0.008643385 -0.19705857 0.010687577 -0.03648228
0.025674287 -0.010596927 0.06851249 -0.04383058 -0.025265904 -0.015205968 -0.44938758 -0.15331753
0.04940521 0.048497252 -0.006156362 0.45763466 -0.040618032 0.54086274 0.00095048547 -0.12468574
0.11923572 -0.0023890943 -0.024904681 0.02181691 0.2045116 0.96823883 0.16348085 0.035129953
0.027623653 -0.14235583 -0.41372207 -0.1455515 0.054641936 -0.07957632 -0.013359681 0.5410587
0.009640045 0.027382962 0.054926917 0.03303307 1.6849328 0.03317639 0.32159406 0.15533908
-0.8887172 0.17616136 -0.16212513 0.01690545 -0.043340273 0.00204352 0.0077969 0.011022945
00000000: 06b2 f23b 3623 7c3e 72fb d4bc d691 68bd
00000010: 5585 193c 1f63 913e db4b 1f3c a231 4abd
00000020: f229 013d c64a acbc 173b 63bd 9802 51bd
00000030: 73ce 3abd 60bc d9bd bbb6 e73e d19a 513e
00000040: c79d 7d3d 0520 06bd 3859 07bc 15cb b8be
00000050: 111a 013d 93c6 fbbe 6957 873d 192c 713d
00000060: c92a e0bd d10d 9e3c 70e8 183d 2105 f9bc
00000070: 9d05 8cbe fcd5 7ebf 0a60 21be e903 e93c
00000080: 8e01 843d beb0 7d3d d38d 013f e081 803e
00000090: 64f6 28bd f707 ce3b 9a12 bfbc 4f23 edbe
000000a0: c690 95ba 79f2 7f3d 86ca 723c 0e3a 203d
000000b0: a37c d9bf c215 0a3d 227f cebe 01fb 60be
000000c0: aea2 533f c94b a2bd c449 023e 6a61 0a3d
000000d0: 6499 6dbc 8217 8cbb e13e 9a3d e5f7 7bbc
000000e0: 6ed6 4ebe b69c 4abd d080 60bd cd8b e4bd
000000f0: 0021 e53c d908 e0bc 2b09 21bf 6640 e4bc
00000100: 4fa8 80be 1fde 3fbe e094 47bd 15a3 b3bd
00000110: 821f 70bd 4b34 30be aeda 50bd 03f2 ab3c
00000120: 8946 003e 558f 86bc 9ce0 91bc 6136 9c3c
00000130: 69f1 013f 5a45 2a3b 1dab 933e 72be 0bbf
00000140: b7bc 1d3e 60eb a93e 69dd 873c 6cbe 52bd
00000150: c853 133e c98c e33c a420 1fbc 0556 813c
00000160: 1ab0 ebbd 8904 28bd b049 143d ee37 9f3e
00000170: f5d4 0d3d 411f acbc 5f53 94be ad54 d0bd
00000180: b83b a13b 4f26 a43d e60b 34bd c834 503e
00000190: 276a 493d ea6b 83bd 4f2d 183d 059a 11bd
000001a0: 3733 1dbc f20a 303e 74f3 413d b5a7 fc3c
000001b0: 23d8 03bd 6cd9 43bd c851 053d caa8 183d
000001c0: 7838 81bd d22c b2bc 7d28 8ebe 27fa 72bc
000001d0: 72bb 6f3d 9939 853c 2096 67bd 053c dabe
000001e0: 24bc 25bc f94b ba3c 1e31 163f 6122 813d
000001f0: 2cae b43d 5316 24be 574b fc3e 618c eebc
00000200: 3900 8abd 3f39 003c 48c7 d53c 2de2 11bd
00000210: fba6 57be 7202 0d3d ae0c 42bd e7d1 d8bc
00000220: 2235 cebc 4121 4dbd 91fd 6a3c ef08 3c3d
00000230: f9c2 5abd 9027 7b3d 3951 27b9 0af5 8c3f
00000240: 8c40 ac3d 4dbc d63d 4c18 3b3e 40b9 1abd
00000250: 35a9 8c3d 3df0 4c3d 332e 53bc 4ec0 94be
00000260: 273e 59bd 2554 343d e4da 20bf 5af5 09bf
00000270: 6820 833e 2dd7 c13d f2b3 fd3c bea3 273f
00000280: eab1 6b3d 1953 913e 8660 763e 6e70 52bd
00000290: eedc bdbe 47ad aa3d da3c 3d3d 8668 21bd
000002a0: 37ab a6bd 14a3 f1be 64e1 9b3e 5838 5cbd
000002b0: 204c d33c 702b 703c 7104 38bd 6eae afbf
000002c0: 049a 793d bd33 e5bc f2a9 abba d7c9 843e
000002d0: 320a 133c ef04 a5bc 70f3 633d df69 523c
000002e0: e790 00bd d9b1 d13c 8d7e d2bc dd2c 5a3d
000002f0: f275 053d b5f3 443e 0ca0 30bc fc47 fbbe
00000300: f146 1ebd e43f db3c 8ef8 043e 72cc 143e
00000310: a0ab d2bd 6cea 24be a83a 1fbc 93b5 2fbc
00000320: 5cb8 cfbc e2e1 9ebe 9d89 1abd 4e5a d6bc
00000330: fc9c 0dbc b9c9 49be f21a 2f3c 716e 15bd
00000340: e252 d23c bc9e 2dbc 4750 8c3d b287 33bd
00000350: 71fa cebc 7422 79bc 2116 e6be 45ff 1cbe
00000360: 1e5d 4a3d 0ea5 463d 4fbb c9bb 174f ea3e
00000370: 185f 26bd fb75 0a3f 002a 793a 3d5b ffbd
00000380: db31 f43d 5a92 1cbb e704 ccbc 60b9 b23c
00000390: 7d6b 513e 80de 773f 8667 273e 6de4 0f3d
000003a0: 004b e23c bac5 11be 61d3 d3be 740b 15be
000003b0: 39d0 5f3d e9f8 a2bd 90e2 5abc d382 0a3f
000003c0: 48f1 1d3c 3c52 e03c 0cfb 603d af4d 073d
000003d0: e1ab d73f f7e3 073d faa7 a43e 3511 1f3e
000003e0: f882 63bf a563 343e 2104 26be 4c7d 8a3c
000003f0: 9285 31bd 94ec 053b 237d ff3b 9599 343c

P.4.bias f4 [2]
0.009729498 0.03296202
00000000: 7968 1f3c 2f03 073d
