2.4_Categorical-DQN_C51/model/C51_DDQN_CPV1_60k.pth (torch, 249580 bytes, 6 tensors)

net.0.weight f4 [200, 4]
0	0x3dc3637b	0.09540459
1	0x3e98025b	0.29689297
2	0xbf44397d	-0.7665022
3	0xbec3315f	-0.38123605
4	0xbed74e5a	-0.42051965
5	0x3e09e28e	0.1346533
6	0x3f051b17	0.5199446
7	0x3e967621	0.29387
8	0x3d885079	0.06655974
9	0x3de607e5	0.112319745
10	0xbf009d9e	-0.50240505
11	0xbdcfa383	-0.10138609
12	0xbf32fd5e	-0.6991786
13	0xbedf6b20	-0.43636417
14	0xbed4a6f5	-0.41533628
15	0xbe7e3505	-0.24824913
16	0x3e679831	0.2261665
17	0x3eae6cc0	0.34067345
18	0xbf355881	-0.7083817
19	0xbe525fd4	-0.20544368
20	0x3e0f45f9	0.13991536
21	0x3eb1b55b	0.34708676
22	0x3f2bfe46	0.67184865
23	0x3ebbb6d0	0.36662912
24	0xbd849823	-0.0647433
25	0xbb057749	-0.002036529
26	0x3f5b846c	0.85748935
27	0xbf0007fa	-0.5001217
28	0xbefe020d	-0.4961094
29	0xbdeae350	-0.11469138
30	0x3d8e53ce	0.06949578
31	0x3e9cda63	0.30635366
32	0xbe76883b	-0.24075405
33	0xbe87ad9a	-0.26499635
34	0xbf762924	-0.96156526
35	0xbee726bf	-0.45146748
36	0xbeea1324	-0.45717728
37	0x3ed09a64	0.4074279
38	0x3f37b6a4	0.7176306
39	0x3e88f7cb	0.2675155
40	0x3ddef0cf	0.10885774
41	0xbea5fb74	-0.32418406
42	0xbf0bbb1a	-0.5458237
43	0xbee895d0	-0.45426798
44	0xbef6714a	-0.48133308
45	0xbe9fa555	-0.31180826
46	0x3f12dd60	0.5736904
47	0x3e67fc31	0.22654797
48	0xbe93a49e	-0.2883653
49	0xbafb80bf	-0.001918815
50	0x3f1e6680	0.6187515
51	0x3ed19561	0.4093428
52	0x3ef4956e	0.47770256
53	0x3d942cd7	0.07235115
54	0xbc3e666c	-0.011621099
55	0xbeb278ad	-0.34857693
56	0x3e7dbc77	0.24778925
57	0xbec23104	-0.3792802
58	0xbf67bfe3	-0.9052717
59	0xbe8245e8	-0.2544396
60	0x3ea4c2ae	0.3217978
61	0x3e62ebc1	0.22160245
62	0xbf6b167c	-0.91831183
63	0x3e9020cb	0.2815002
64	0x3ec87d60	0.39158154
65	0xbc8ba412	-0.017046008
66	0xbe17b02a	-0.14813295
67	0x3e2402a0	0.16016626
68	0x3ebafcdc	0.3652104
69	0x3eea04f9	0.4570692
70	0xbf431693	-0.7620632
71	0xbdd9c742	-0.106337085
72	0x3e54c7bd	0.20779319
73	0x3eba3919	0.36371687
74	0x3f7e7f24	0.9941275
75	0x3eed7a74	0.46382487
76	0x3e5a3c81	0.21312143
77	0xbed2d811	-0.4118047
78	0xbf5f21d7	-0.8716101
79	0xbeb8879f	-0.3604097
80	0xbeffafb1	-0.4993873
81	0x3eee6bc4	0.46566594
82	0x3f317173	0.69313735
83	0xbf138c85	-0.5763629
84	0x3e8c4b83	0.2740136
85	0xbdbc0ed8	-0.09182519
86	0xbf2dcdff	-0.6789245
87	0xbe4aa24e	-0.19788477
88	0x3e50581d	0.20346113
89	0xbe83296d	-0.25617543
90	0x3f2fd8a1	0.68689924
91	0x3e0e01b7	0.13867842
92	0x3eeef499	0.46670988
93	0x3e080a3c	0.13285154
94	0xbf6a97f4	-0.9163811
95	0xbe7c1322	-0.24616674
96	0x3ebbb2d7	0.3665988
97	0x3e0e7f3e	0.13915727
98	0xbf49691b	-0.78676003
99	0xbe61d6d1	-0.22054602
100	0x3f11e36c	0.56987643
101	0x3ec5bca6	0.3862049
102	0xbef78127	-0.48340723
103	0xbd834e8a	-0.064114645
104	0xbec62df2	-0.38706928
105	0xbc4349a1	-0.01191941
106	0xbf62d7ac	-0.8861034
107	0xbec2dd04	-0.38059247
108	0xbe66f607	-0.2255479
109	0x3e15c1b0	0.14624667
110	0xbdea6de4	-0.11446741
111	0x3ed94901	0.4243851
112	0xbea3cc97	-0.31992027
113	0x3ee46f08	0.4461596
114	0x3f27d199	0.65554196
115	0xbefe08f8	-0.49616218
116	0xbe8dcb50	-0.27694178
117	0x3c5cc2f0	0.013474211
118	0x3f14a0b8	0.5805774
119	0x3d1627df	0.036659118
120	0x3e0a9e98	0.13537061
121	0xbc7813ca	-0.015141437
122	0xbf0bf051	-0.5466357
123	0x3eab0367	0.33401033
124	0xbeb4f137	-0.35340282
125	0xbe8efcf6	-0.2792737
126	0xbf37e35f	-0.71831316
127	0xbe935e40	-0.28782845
128	0xbe39261f	-0.18080948
129	0xbedd81cc	-0.4326309
130	0xbe8d141e	-0.2755441
131	0x3dd6191a	0.104540065
132	0xbeb1fcb3	-0.34763107
133	0xbc630088	-0.013855107
134	0x3f5504a7	0.83210224
135	0x3cbc7504	0.023005016
136	0xbe4401c5	-0.191413
137	0xbd3117e4	-0.043235675
138	0x3efd32e7	0.49452898
139	0x3eaaf1e9	0.33387688
140	0x3ed2fa41	0.41206554
141	0x3eb44938	0.3521211
142	0x3f4860f4	0.7827294
143	0xbdf57fb8	-0.11987251
144	0xbf0a51c7	-0.5403103
145	0xbe557835	-0.20846637
146	0x3f324e95	0.69651157
147	0xbd92c07a	-0.07165618
148	0xbdd32cd6	-0.10311286
149	0xbecbf24e	-0.398333
150	0xbf87e437	-1.0616521
151	0xbed9c709	-0.42534664
152	0x3cc94694	0.024569787
153	0x3e8aa534	0.27079165
154	0x3f0be734	0.5464966
155	0xbf125335	-0.57158214
156	0x3ece4b06	0.40291613
157	0xbee22782	-0.44170767
158	0xbf67127c	-0.9026258
159	0xbe2f90e7	-0.1714512
160	0xbcada9a5	-0.021199057
161	0xbe15a444	-0.14613444
162	0xbf7f5fdb	-0.9975564
163	0xbecc3411	-0.39883474
164	0xbe4a9ebd	-0.19787116
165	0x3cbbf0f7	0.02294205
166	0xbdf9506d	-0.12173543
167	0x3e621f95	0.2208236
168	0xbefd8927	-0.495187
169	0x3c9b08e1	0.018925132
170	0x3f433b76	0.76262605
171	0xbe8ffb91	-0.28121617
172	0x3f071d29	0.5277887
173	0x3e83ac48	0.25717378
174	0xbf811edb	-1.0087541
175	0x3ec47f2d	0.38378277
176	0x3c0edd77	0.0087197935
177	0xbe60b5cb	-0.21944349
178	0x3f36abc6	0.71355855
179	0xbef57685	-0.47941986
180	0x3c818b55	0.015813509
181	0xbd548986	-0.051888965
182	0x3f7780b3	0.96680754
183	0x3e0c65eb	0.13710754
184	0x3ebc5c11	0.3678899
185	0x3e11bc49	0.14231981
186	0xbef53989	-0.47895458
187	0xbd0d1157	-0.034440365
188	0xbefcc7d0	-0.49371195
189	0x3ebb6b51	0.36605313
190	0x3f6d5a22	0.92715657
191	0x3e9f6031	0.31128076
192	0xbe665714	-0.22494155
193	0x3cd8a917	0.026447816
194	0xbf5c13e4	-0.8596785
195	0xbe8de1b7	-0.2771127
196	0xbe359af0	-0.17734885
197	0x3e2d8e68	0.16948855
198	0xbf4d733f	-0.80253977
199	0x3bf8df7d	0.0075950013
200	0x3d9dbbae	0.07701813
201	0x3eab5389	0.3346217
202	0xbf4dbb85	-0.8036426
203	0xbea57dd1	-0.32322553
204	0xbec4bfe9	-0.38427666
205	0x3ed67ed9	0.41893652
206	0x3e90b6c5	0.28264442
207	0x3eebabf1	0.46029618
208	0x3ed8972b	0.42302832
209	0x3d96230f	0.07330906
210	0xbeef444c	-0.46731794
211	0xbdcf7766	-0.10130195
212	0xbd86d615	-0.06583802
213	0xbe1d33c9	-0.15351786
214	0x3ee58a18	0.4483192
215	0x3df7192a	0.120653465
216	0xbebbd581	-0.36686328
217	0xbea47182	-0.3211785
218	0x3f399a3f	0.72500986
219	0xbefee351	-0.49782804
220	0x3cae1d55	0.021254221
221	0x3f162b75	0.5866006
222	0x3edf9ee3	0.43675908
223	0x3bda278c	0.0066575464
224	0xbebe0807	-0.371155
225	0x3e6d4efc	0.23174661
226	0xbf519adf	-0.8187694
227	0xbe0e8d51	-0.13921095
228	0xbeb379e7	-0.35053942
229	0xbdc374f8	-0.095437944
230	0x3f02fa9f	0.5116367
231	0x3eb77130	0.35828543
232	0x3cfe7748	0.031062737
233	0x3ecdd878	0.40204215
234	0x3f11be19	0.5693069
235	0xbecfba22	-0.40571696
236	0x3e5f123f	0.21784304
237	0xbec6f591	-0.38859227
238	0xbecfd4be	-0.40591997
239	0x3e369f77	0.17834269
240	0x3e6c6cab	0.23088329
241	0x3eec5ea5	0.46165958
242	0xbf002093	-0.50049704
243	0x3df29148	0.118441164
244	0x3ec67f41	0.38768962
245	0xbf0b63e2	-0.54449284
246	0x3e87e775	0.26543775
247	0xbed4f910	-0.4159627
248	0x3d90219a	0.07037659
249	0xbd6371ad	-0.05552833
250	0xbf73e089	-0.9526449
251	0x3e04bbe1	0.12962295
252	0x3f161c45	0.58636886
253	0xbdf64d11	-0.12026418
254	0xbf2e5b3f	-0.6810798
255	0xbe03db3c	-0.128766

net.0.bias f4 [200]
0	0x3e6aa8de	0.2291598
1	0xbe407e15	-0.18798096
2	0x3efb61ea	0.4909814
3	0xbe62a8f9	-0.2213477
4	0xbc31fc31	-0.01086335
5	0x3f1bf271	0.6091681
6	0x3f25d6e6	0.64781034
7	0xbec971b4	-0.3934456
8	0x3d9a3029	0.07528717
9	0x3da40a50	0.080097795
10	0xbe54967d	-0.20760532
11	0xbe51c7fb	-0.20486443
12	0x3e515282	0.2044163
13	0xbec8faaf	-0.39253756
14	0x3de2af6b	0.110686146
15	0x3e41efe6	0.1893917
16	0xbe1ff3e7	-0.15620385
17	0x3f043641	0.51645285
18	0xbd7a3046	-0.061081193
19	0x3e872d7c	0.2640189
20	0x3f0fbc95	0.5614713
21	0xbdff8eb7	-0.124783926
22	0x3ebca3aa	0.36843616
23	0xbe7a305d	-0.24432512
24	0xbe25418f	-0.1613829
25	0xbdddae46	-0.10824256
26	0xbd588f36	-0.05287095
27	0xbdd0f03b	-0.1020207
28	0x3e41b9cc	0.18918532
29	0xbd209211	-0.0392018
30	0x3edf989b	0.43671116
31	0xbe1e668d	-0.15468808
32	0x3ddd00d7	0.10791176
33	0xbe046959	-0.12930812
34	0xbedbc4d8	-0.42923617
35	0x3e92fa03	0.2870637
36	0x3de41419	0.11136646
37	0xbe546120	-0.20740175
38	0xbe4568c4	-0.19278246
39	0x3e101537	0.14070593
40	0xbe321dae	-0.17394134
41	0x3ee5f0a6	0.44910163
42	0x3e02528e	0.12726805
43	0x3e79e912	0.24405316
44	0x3ea43c9c	0.3207749
45	0xbda8e6a8	-0.08247119
46	0x3e95953f	0.29215428
47	0x3ece2432	0.4026199
48	0xbc931bb1	-0.01795754
49	0x3d975be5	0.07390574
50	0x3d166b83	0.036723625
51	0x3ec9ba8d	0.3940014
52	0xbe316ba5	-0.1732622
53	0xbe5ba8e5	-0.21451147
54	0x3e9db59a	0.30802613
55	0xbeac6148	-0.3366797
56	0x3c883b93	0.01662997
57	0xbe80b536	-0.25138253
58	0x3ecbbb42	0.39791304
59	0xbeecb6d6	-0.46233243
60	0x3ea324c1	0.31863979
61	0x3f0dffac	0.5546825
62	0x3e3adc70	0.18248153
63	0xbe175d08	-0.14781582
64	0x3f27db83	0.65569323
65	0xbe6e1ed5	-0.23253949
66	0xbd124336	-0.03570863
67	0xbe6e1ff3	-0.23254375
68	0xbe296ba2	-0.16544965
69	0x3e0021a1	0.12512828
70	0x3db6e558	0.089304626
71	0xbb6fc420	-0.0036585405
72	0xbefff58e	-0.4999203
73	0x3da5d693	0.080975674
74	0xbcd80f77	-0.026374562
75	0x3dc935ca	0.098247126
76	0x3f0d0c33	0.5509674
77	0x3f0dbf0a	0.5536963
78	0xbe73707a	-0.23773375
79	0xbdd0e6ea	-0.10200293
80	0xbe55b2f3	-0.20869045
81	0xbec521c8	-0.38502336
82	0xbe9ac83b	-0.3023089
83	0x3ee5375f	0.44768807
84	0x3ebdafd1	0.370482
85	0x3e936505	0.2878801
86	0x3eaa8ac2	0.3330899
87	0xbef16e06	-0.47154254
88	0x3df81ff4	0.121154696
89	0x3f0cbf23	0.5497915
90	0xbe6e1e53	-0.23253755
91	0x3f0d9ebf	0.5532035
92	0x3e6610e7	0.22467385
93	0x3ed10fd4	0.40832388
94	0xbe5262bf	-0.20545481
95	0x3e8aaa3a	0.27082998
96	0xbee41a9a	-0.44551545
97	0x3d8e6a45	0.06953863
98	0x3e484b51	0.19559981
99	0x3e4c7958	0.19968164
100	0x3f079888	0.5296712
101	0x3f1a66e7	0.60313267
102	0x3f0d74d0	0.55256367
103	0x3ed4ee14	0.4158789
104	0x3f0010e9	0.500258
105	0xbd214698	-0.039373964
106	0xbead7573	-0.3387867
107	0xbe3e117c	-0.18561357
108	0xbe11d816	-0.14242586
109	0xbe90758d	-0.28214684
110	0x3eb82028	0.35962033
111	0x3e5e5b31	0.21714474
112	0x3dd3aeb6	0.10336058
113	0x3e3eb33d	0.18623061
114	0x3f1233da	0.5711037
115	0x3e88a567	0.26688692
116	0xbef9f442	-0.48819166
117	0xbee2ae99	-0.44273832
118	0x3e25763e	0.16158387
119	0x3df39e41	0.11895419
120	0x3ec30639	0.38090685
121	0xbeb47278	-0.35243583
122	0xbed57622	-0.4169169
123	0x3ecca94e	0.3997292
124	0x3ee7a548	0.45243287
125	0xbee79b24	-0.4523555
126	0x3ea85477	0.32876942
127	0xbec37944	-0.38178456
128	0x3f06be19	0.52633816
129	0x3e6bd996	0.23032221
130	0x3f14788b	0.57996434
131	0xbe753c02	-0.23948672
132	0xbefbbc00	-0.4916687
133	0x3ef5f253	0.4803644
134	0x3f1a6a6e	0.6031865
135	0x3ef064ad	0.4695181
136	0x3edc3ff9	0.43017557
137	0xbecaff6c	-0.39647996
138	0x3f058069	0.52149063
139	0xbea7159e	-0.3263368
140	0x3e316402	0.17323306
141	0xbe772c1f	-0.24137925
142	0xbe172d6c	-0.14763421
143	0x3e20fa07	0.15720378
144	0xbe547fd6	-0.2075189
145	0xbca10d8c	-0.01965978
146	0xbf02ad5a	-0.51045763
147	0xbedb6c28	-0.42855954
148	0x3e6a86f3	0.22903042
149	0xbe752521	-0.23939945
150	0xbea4d7c5	-0.3219587
151	0xbdba0833	-0.09083595
152	0xbeca0330	-0.39455557
153	0xbee5d70e	-0.44890636
154	0x3ec9a46c	0.39383256
155	0x3e9b4eb1	0.30333474
156	0x3e373ffb	0.178955
157	0xbe84bfa3	-0.25927457
158	0x3e9bfadf	0.30464837
159	0x3dbb775f	0.091536276
160	0xbef8622d	-0.48512402
161	0x3e3bde0a	0.1834642
162	0x3f0b8a1e	0.54507625
163	0xbefbcda0	-0.49180317
164	0xbeead816	-0.45867985
165	0x3d440233	0.04785366
166	0x3edc8919	0.43073347
167	0xbe81c7d0	-0.25347757
168	0x3e506ae0	0.2035327
169	0x3edbc8a9	0.4292653
170	0x3e78526a	0.24250188
171	0x3e0de0e6	0.13855323
172	0x3f1c7c80	0.6112747
173	0x3ea59fa8	0.3234837
174	0xbe89fbec	-0.26950014
175	0x3cbccb82	0.023046259
176	0x3e96924d	0.29408494
177	0x3f11a214	0.56887937
178	0xbee1ccef	-0.44101664
179	0x3eb1d793	0.34734783
180	0xbe2443e9	-0.1604153
181	0xbee1e331	-0.44118646
182	0x3d10d760	0.035361648
183	0xbe56a022	-0.20959523
184	0x3dd6478c	0.10462865
185	0xbe17c477	-0.14821039
186	0xbe8d3663	-0.27580556
187	0x3cd89c07	0.026441587
188	0xbda807a7	-0.082045846
189	0x3eaaadbf	0.33335683
190	0x3d8d67d6	0.06904571
191	0x3f05938f	0.5217828
192	0x3dd79d89	0.10528094
193	0xbda6e0d1	-0.08148349
194	0x3ecd278b	0.4006923
195	0x3d45d615	0.048299868
196	0x3d0b6e71	0.034040872
197	0xbd7e8382	-0.062137134
198	0x3cfb7a1b	0.030697873
199	0xbd840c5a	-0.064476684

net.2.weight f4 [200, 200]
0	0xbcc1c48c	-0.023653291
1	0xbf3f9db3	-0.74850005
2	0x3bfde618	0.0077483766
3	0xbf8768a5	-1.057881
4	0xbcac3488	-0.021021143
5	0x3d84e3b0	0.064887404
6	0xbd4aba18	-0.04949388
7	0xbec36d54	-0.38169348
8	0xbd6d080a	-0.057868995
9	0xbe0f7756	-0.14010367
10	0x3b6f9935	0.0036559824
11	0xbe821b20	-0.2541132
12	0x3db22326	0.0869811
13	0x3db3858a	0.08765705
14	0x3d9f98fd	0.07792852
15	0x3dcd2107	0.10016065
16	0x3e138242	0.14405158
17	0xbc746124	-0.014915738
18	0xbe8afaba	-0.27144414
19	0x3de115d9	0.10990495
20	0x3d146bee	0.036235742
21	0x3e2de0a1	0.1698022
22	0x3d5b354d	0.05351763
23	0x3e07c607	0.13259135
24	0x3d2614ad	0.04054706
25	0xbd7f637a	-0.062350728
26	0x3cd48423	0.025941914
27	0xbea6f03c	-0.3260516
28	0xbd51d5df	-0.051229354
29	0xbefe1de9	-0.49632195
30	0x3e01b323	0.12665991
31	0xbe9065fb	-0.28202805
32	0x3d4945bc	0.04913877
33	0xbf3936ba	-0.7234913
34	0xbedda8d7	-0.43292877
35	0xbd691926	-0.05690875
36	0xbd29b794	-0.04143484
37	0x3d531890	0.051537097
38	0xbdd28ca0	-0.10280728
39	0x3dba32cb	0.09091719
40	0x3d0feb10	0.035136282
41	0x3de334d3	0.1109406
42	0xbd9ee5ba	-0.077586606
43	0x3d6b7908	0.05748847
44	0x3dc636e9	0.09678442
45	0xbe5cdd17	-0.21568714
46	0x3d534e44	0.05158831
47	0xbcc8a983	-0.024494892
48	0x3c8ca56f	0.017168729
49	0x3e96b8e5	0.29437938
50	0xbc5888e4	-0.013216231
51	0xbca0dd9b	-0.01963692
52	0x3e4a762f	0.19771646
53	0xbe2be040	-0.16784763
54	0xbd022134	-0.031769946
55	0x3da399fe	0.07988356
56	0x3e6a761c	0.22896618
57	0xbe56b59c	-0.20967716
58	0x3ced6d1e	0.028982695
59	0x3e85c926	0.26130027
60	0xbd15d15d	-0.036576618
61	0x3d943e27	0.07238417
62	0x3cbfbb77	0.02340482
63	0x3e37cc44	0.17949015
64	0x3d1da4d6	0.038487278
65	0xbfc63cbb	-1.5487283
66	0x3db5b3b5	0.08872167
67	0x3d72dca7	0.05929246
68	0x3db067b4	0.0861353
69	0x3e35a4ba	0.1773862
70	0x3db3673b	0.08759924
71	0xbda0468d	-0.078259565
72	0x3d0f99d2	0.035058804
73	0xbdcc6462	-0.09980084
74	0xbd9bec2d	-0.07613406
75	0xbd8fa780	-0.0701437
76	0x3c4c20fd	0.012459037
77	0x3bb69595	0.005572031
78	0x3d989430	0.074501395
79	0xbf230887	-0.63684887
80	0xbd69c247	-0.057070043
81	0x3ba83671	0.005133443
82	0x3e718bcb	0.23588483
83	0x3d08b60a	0.03337673
84	0xbda3cecd	-0.079984285
85	0x3e2203d6	0.15821776
86	0xbd843988	-0.06456286
87	0xbf2ac1e9	-0.66702133
88	0xbccdcca3	-0.025121992
89	0xbcdcd028	-0.026954725
90	0xbea4645d	-0.3210782
91	0x3c8c616f	0.017136304
92	0x3d12d318	0.035845846
93	0x3e1be2c9	0.1522323
94	0xbdde0f8b	-0.10842808
95	0x3d801d7c	0.06255624
96	0xbcb018f7	-0.02149628
97	0xbd9c9cba	-0.07647081
98	0x3dc3b20b	0.095554434
99	0x3da65bb9	0.081229635
100	0x3da109c2	0.07863189
101	0x3d854004	0.06506351
102	0x3d74d7bc	0.059776053
103	0x3d9b3284	0.075779945
104	0x3d3d1918	0.04616651
105	0x3d978756	0.0739886
106	0xbd32f356	-0.043689094
107	0xbd7691ab	-0.060197514
108	0x3dc086b4	0.094006926
109	0xbe8346ae	-0.25639862
110	0x3d8d6edd	0.06905911
111	0xbdff6e37	-0.12472194
112	0x3d2cb77a	0.042167164
113	0x3dc260bd	0.094911076
114	0xbd749261	-0.05970991
115	0xbd28ec0b	-0.041240733
116	0x3e246c49	0.16056933
117	0xbf029f8c	-0.510247
118	0xbe144471	-0.14479233
119	0xbe832a67	-0.25618288
120	0x3de9e7a9	0.11421139
121	0xbd4626c6	-0.04837682
122	0xbcfcee10	-0.030875236
123	0x3ca61ad5	0.020276466
124	0x3d782dee	0.060590677
125	0xbc22d5ed	-0.009938699
126	0x3d49167f	0.04909372
127	0xbf400d3f	-0.7502021
128	0x3dd33622	0.103130594
129	0xbdb4ee05	-0.08834461
130	0xbd37ec7d	-0.044903267
131	0xbf89b5a2	-1.0758555
132	0xbe5c0461	-0.21486045
133	0x3e1c2a4f	0.15250514
134	0x3db2f3dc	0.08737919
135	0x3ce29726	0.027659964
136	0x3bb29be2	0.0054507116
137	0x3e4a6809	0.19766249
138	0x3ddab681	0.10679341
139	0xbdbc7619	-0.09202213
140	0x3c682bcc	0.014170598
141	0x3dac022b	0.08398851
142	0xbdb834c5	-0.0899444
143	0x3d2af1c8	0.041734487
144	0xbcca0a95	-0.024663249
145	0xbe0a8683	-0.13527875
146	0xbdf436a5	-0.11924485
147	0x3d60b375	0.054858644
148	0xbdf9bd0e	-0.121942624
149	0xbfc3f646	-1.5309532
150	0xbebbaee9	-0.36656883
151	0xbf8dc760	-1.107647
152	0xbdd7efb0	-0.10543764
153	0x3e373ea0	0.17894983
154	0x3d0c7e4c	0.034300134
155	0xbdde248b	-0.10846814
156	0x3b27440f	0.0025522744
157	0xbf83f1c0	-1.0308151
158	0xb9a11f51	-0.00030731646
159	0x3d7502cb	0.059817117
160	0xbd8b4fee	-0.06802355
161	0xbe11411d	-0.14184995
162	0x3d207681	0.039175514
163	0x3d742d37	0.059613433
164	0x3e31671a	0.17324486
165	0xbdf8598a	-0.12126453
166	0x3be1138f	0.0068687866
167	0x3e5000df	0.20312832
168	0x3c961878	0.018322214
169	0xbd327cda	-0.0435761
170	0x3d094fe1	0.033523444
171	0x3bc11ef9	0.005893585
172	0xbd36cfaf	-0.044631656
173	0xbdcb084a	-0.099136904
174	0x3d9a20ed	0.07525811
175	0x3eecdbfa	0.4626158
176	0x3e0b2196	0.13587031
177	0x3b4e49ce	0.0031477096
178	0xbf6194ff	-0.88117975
179	0xbc960f72	-0.018317912
180	0x3d48ca33	0.049020957
181	0x3b82ecc0	0.003995508
182	0x3e245798	0.1604904
183	0xbed337a6	-0.41253394
184	0xbe254a5c	-0.16141647
185	0xbe7276c8	-0.23678124
186	0x3d1de1a5	0.03854527
187	0x3d88a6a3	0.066724084
188	0xbc8cebb6	-0.01720224
189	0xbdb7ea8f	-0.089802854
190	0xbc61a3d2	-0.013771968
191	0x3e1a3782	0.15060237
192	0xbe4d3ce9	-0.20042767
193	0x3d33af58	0.043868393
194	0x3c4d9a21	0.012548954
195	0xbd619ce5	-0.055081267
196	0x3c9b7bb8	0.018979892
197	0xbf4abf48	-0.7919812
198	0x3c8baa2a	0.017048914
199	0xbf12e979	-0.573875
200	0x3da19d0e	0.07891284
201	0x3e1ab9cc	0.15109938
202	0x3da25251	0.07925857
203	0xbda7a8a0	-0.081864595
204	0xbd560834	-0.052253917
205	0x3ba1e266	0.004940319
206	0xbd540e4e	-0.051771455
207	0x3d7d6a07	0.061868694
208	0x3cb317d9	0.021861957
209	0x3daf7e49	0.08569009
210	0x3cb96f34	0.022636034
211	0xbd3c5837	-0.045982566
212	0x3ce175d4	0.027522005
213	0xbd8a5121	-0.06753755
214	0x3c38df5f	0.011283725
215	0xbdafe52c	-0.08588633
216	0x3d445cd6	0.047940098
217	0x3d501f85	0.05081131
218	0x3c3ece05	0.011645799
219	0x3d1a6be9	0.037700567
220	0x3d2880cb	0.04113845
221	0x3daa822d	0.0832561
222	0x3b371c48	0.002794044
223	0x3d2520f8	0.040314645
224	0x3bb89dd9	0.0056340513
225	0x3d6ccae4	0.05781068
226	0xbc6fe2dc	-0.01464149
227	0xbdb95a6d	-0.090504505
228	0xbd23ed8e	-0.04002147
229	0xbd3fa7e5	-0.046790976
230	0x3dc746cf	0.097303025
231	0x3e2218c7	0.15829764
232	0xbd00fea0	-0.03149283
233	0x3d85a2ec	0.065252155
234	0xbe24c55a	-0.16090909
235	0xbdc4656c	-0.09589657
236	0x3d3df7c5	0.04637887
237	0x3df3cde2	0.119045034
238	0xbb2cb610	-0.0026353635
239	0xbc96531b	-0.018350175
240	0x3c837002	0.01604462
241	0x3d1d6d8d	0.038434554
242	0xbd075d01	-0.03304768
243	0xbd9ee682	-0.077588096
244	0xbd5ce1e1	-0.053926352
245	0x3e0c9907	0.1373025
246	0xbc64f3e9	-0.013974168
247	0xbd3ad404	-0.04561235
248	0x3dd01196	0.10159604
249	0x3d72dbe5	0.05929174
250	0x3d3b73cf	0.04576474
251	0x3da42f6b	0.08016857
252	0x3e091864	0.1338821
253	0xbccf2785	-0.025287399
254	0x3cf72fe3	0.030174201
255	0xbcabc524	-0.020968027

net.2.bias f4 [200]
0	0x3b6d1ce8	0.003618056
1	0x3cb4aef4	0.02205608
2	0x3c4167ab	0.0118045015
3	0x3d8254da	0.063638404
4	0x3d451b0a	0.04812149
5	0x3c9ea95a	0.019367862
6	0x3da97a47	0.08275276
7	0x3cf4943c	0.02985584
8	0x3d793371	0.060840074
9	0x3e276b42	0.1634951
10	0x3d3b8db4	0.045789436
11	0xbc910eb1	-0.0177072
12	0x3a00688c	0.0004898391
13	0x3de7e3be	0.11322735
14	0x3cecade6	0.028891515
15	0x3c45cf69	0.012073376
16	0x3d461167	0.04835644
17	0x3dd2fc82	0.10302068
18	0x3d6ce0e6	0.057831667
19	0x3e070e86	0.13189134
20	0xbdaf524b	-0.08560618
21	0xbd918cab	-0.071069084
22	0x3de26207	0.110538535
23	0x39401aec	0.00018320576
24	0xbd7ca90c	-0.061684653
25	0x3d7760e6	0.060395144
26	0xbc1f5308	-0.009724386
27	0x3ca78330	0.020448297
28	0xbc6b1ddd	-0.014350382
29	0xbd934d28	-0.07192451
30	0xbccbd261	-0.02488059
31	0xbc865b4d	-0.016400957
32	0xbcd36a4e	-0.025807526
33	0x3da34008	0.07971197
34	0x3dc8f00a	0.09811409
35	0xbd1b36e2	-0.037894137
36	0xbd9a1c89	-0.07524974
37	0x3d4b5650	0.04964286
38	0xbc441c4c	-0.011969637
39	0xbdc15dd9	-0.09441728
40	0x3d8b7fe9	0.06811506
41	0xbce480ef	-0.027893512
42	0x3cf7efe3	0.030265754
43	0x3d5c3363	0.053759944
44	0xbd529211	-0.05140883
45	0x3dbc1e4c	0.09185466
46	0xbbfec480	-0.0077748895
47	0x3d96fd21	0.07372499
48	0xbcc2e015	-0.023788491
49	0xbda6e7d8	-0.081496894
50	0xbdda4c00	-0.10659027
51	0xbc4099e6	-0.011755442
52	0xbc58c838	-0.01323133
53	0x3d6fe42d	0.058567215
54	0xbcbd7844	-0.023128636
55	0xbce2f0d6	-0.02770273
56	0x3d397f38	0.04528734
57	0xbc8cb1b0	-0.017174572
58	0x3d1d593c	0.03841518
59	0xbd6f32c7	-0.058398034
60	0x3d799416	0.06093224
61	0x3deb005b	0.11474677
62	0x3cf5115d	0.029915506
63	0x3de086f8	0.10963243
64	0x3ce52e59	0.027976202
65	0xbd7a97da	-0.061179973
66	0x3dfd54e0	0.12369704
67	0x3d4513a9	0.048114453
68	0x3d62408b	0.055237334
69	0xbd8ca88e	-0.06868087
70	0x3d4f2506	0.050572418
71	0x3cf34ab2	0.029698703
72	0x3def6e32	0.1169094
73	0xbdb9f7bd	-0.090804555
74	0xbd0aa0ce	-0.03384476
75	0xbd710454	-0.05884202
76	0x3cc9df10	0.024642497
77	0x3d93e501	0.072214134
78	0xbe01521c	-0.12628978
79	0xbba2f936	-0.004973556
80	0xbd84fd1e	-0.06493591
81	0xbcb6bc8f	-0.022306709
82	0x3e1215e6	0.14266166
83	0x3dce7b8d	0.10082159
84	0x3d60f04f	0.054916676
85	0xbd764d07	-0.060132053
86	0x3d1a02c8	0.03760031
87	0x3e03afc2	0.12860015
88	0xbc380b94	-0.011233229
89	0xbcdfa6c8	-0.027301207
90	0xbd78d41e	-0.060749166
91	0x3d09c4b5	0.03363486
92	0xbd6628e7	-0.05619135
93	0x3d31ab20	0.04337609
94	0xbc04c035	-0.008102466
95	0x3cff6d9d	0.031180197
96	0x3d27e6d8	0.040991634
97	0xbd7124fb	-0.058873158
98	0x3d06e3c6	0.032932065
99	0xbd3212eb	-0.043475073
100	0xbceeb48f	-0.029138831
101	0x3d56e323	0.05246271
102	0xbcfac4e8	-0.03061147
103	0x3df957f9	0.121749826
104	0x39f31ede	0.0004637157
105	0xbcd89b90	-0.026441365
106	0xbd8c4b18	-0.068502605
107	0x3c2b5c0e	0.010458959
108	0x3ba41753	0.0050076633
109	0xbd93ba15	-0.07213227
110	0xbd6ab2c2	-0.057299383
111	0x3e1a2e9b	0.15056841
112	0xbd81a4d4	-0.063302666
113	0xbd8d98c5	-0.06913904
114	0xbcb194b0	-0.021677345
115	0x3dd3eea7	0.10348254
116	0xbc1c448b	-0.009537826
117	0x3d53dc36	0.05172368
118	0xbc215ee9	-0.0098492885
119	0xb9e0f5ec	-0.00042907835
120	0x3d12be78	0.035826176
121	0x3d0dfe9d	0.034666646
122	0xbdac67a8	-0.08418208
123	0x3dddaf58	0.1082446
124	0xbd31f7d2	-0.04344923
125	0xbcd3f4ec	-0.025873624
126	0xbc5d7cb5	-0.013518502
127	0x3d41819d	0.04724275
128	0x3c1769bd	0.009241519
129	0xbd756d5b	-0.059918743
130	0xbda6f8fc	-0.08152959
131	0x3d044a81	0.032297615
132	0x3c9b8db0	0.01898846
133	0x3c67fc0a	0.014159212
134	0x3d0ebc9d	0.034847844
135	0x3c70618b	0.014671694
136	0xbcf0b8f9	-0.029385077
137	0xb9e3a5fa	-0.00043420476
138	0x3cd0d6c5	0.025493035
139	0x3de84ea6	0.11343126
140	0xbd9a5ac4	-0.075368434
141	0x3d2a0cec	0.04151623
142	0xbd603ee1	-0.054747466
143	0xbda5446b	-0.0806969
144	0xbd0ac974	-0.033883527
145	0x3d094592	0.033513613
146	0x3d0dd115	0.034623224
147	0x3d1aaae7	0.03776064
148	0xbdb1ec10	-0.086876035
149	0x3d806a15	0.062702335
150	0xbd8ccdbe	-0.0687518
151	0xba144c05	-0.000565708
152	0x3d3c4389	0.045962844
153	0x3e13ef1a	0.14446679
154	0xbd653550	-0.055959046
155	0xbc41b0cc	-0.011821937
156	0x3c36e06c	0.011161905
157	0x3c04e83d	0.008112011
158	0xbd0ffaf7	-0.035151448
159	0x3c36b72c	0.01115207
160	0xbdbd5b81	-0.092459686
161	0x3c10fbe1	0.008849115
162	0xbd35c5d8	-0.04437813
163	0xbd8e21a6	-0.06940012
164	0xbdb46398	-0.088080585
165	0x3c2fee2a	0.010737935
166	0x3e01e833	0.12686233
167	0xbd24ab64	-0.040202513
168	0x3d545b0d	0.051844645
169	0x3d57ab64	0.052653685
170	0x3b9e7cea	0.0048366683
171	0xbb1d5d2b	-0.0024011831
172	0x3dd17b13	0.10228553
173	0x3e257901	0.1615944
174	0x3c84fd71	0.016234132
175	0x3d49fdfd	0.049314488
176	0x3d52f43e	0.05150246
177	0x3b681ea0	0.0035418645
178	0xbd6b0293	-0.0573755
179	0xbd11d207	-0.03560069
180	0x3d1baadc	0.03800474
181	0x3cfce996	0.030873101
182	0xbd234944	-0.039864793
183	0x3d7317b4	0.059348777
184	0xbd0de104	-0.03463842
185	0xbab1511d	-0.0013528202
186	0xbcb01412	-0.021493945
187	0x3dad669c	0.08466837
188	0x3d214e57	0.03938135
189	0xbcc11ce7	-0.023573352
190	0xbd6866ce	-0.056738667
191	0xbcfc329a	-0.030785847
192	0xbd0231a3	-0.03178562
193	0x3bee34af	0.007269464
194	0x3d1515fd	0.036397923
195	0x3aa9d599	0.0012957334
196	0x3ce3c00d	0.027801538
197	0x3b8dd603	0.0043284907
198	0x3caa427b	0.020783653
199	0x3d632284	0.05545284

net.4.weight f4 [102, 200]
0	0xbf09afaa	-0.5378367
1	0xbe0b19de	-0.13584086
2	0xbe3878e2	-0.18014863
3	0xbe27ce5c	-0.16387314
4	0xbeabaa03	-0.33528146
5	0xbe1ba44a	-0.1519939
6	0xbbf48481	-0.0074620848
7	0x3d0e06ee	0.034674577
8	0xbe9c3705	-0.30510727
9	0xbdd24877	-0.10267728
10	0xbc4d0424	-0.012513194
11	0xbe3d515b	-0.18488066
12	0x3c9984db	0.018740108
13	0xbe4bbaf7	-0.1989554
14	0xbe76f5ce	-0.24117205
15	0xbee6b0c5	-0.4505674
16	0xbe056354	-0.13026172
17	0xbe43007d	-0.19043155
18	0x3c22e667	0.0099426275
19	0xbe7c8835	-0.24661334
20	0xbe0d7a46	-0.13816175
21	0xbde78324	-0.1130431
22	0xbd7b22f5	-0.061312634
23	0xbe9bc044	-0.30420125
24	0xbd29bd0f	-0.041440066
25	0xbe1767c7	-0.14785682
26	0xbdccb025	-0.099945344
27	0xbe3fe42c	-0.18739384
28	0xbdeceddf	-0.11568808
29	0xbe043837	-0.1291207
30	0xbddaf927	-0.10692053
31	0xbd5c925f	-0.053850528
32	0xbd1bc169	-0.038026247
33	0xbf101cd9	-0.5629402
34	0xbd7a4088	-0.061096698
35	0xbe12c80f	-0.14334129
36	0xbdb6bba7	-0.089225106
37	0xbd2dc999	-0.042428587
38	0xbde1d31d	-0.11026595
39	0x3c7d226e	0.015450103
40	0xbe01ff4d	-0.12695046
41	0xbe45ffc6	-0.19335851
42	0xbc81054d	-0.015749598
43	0xbe8b1f05	-0.27172104
44	0x3cc541a0	0.024079144
45	0xbe5f09f5	-0.21781142
46	0xbeae1366	-0.33999175
47	0xbd9fb9de	-0.07799123
48	0xbd69b706	-0.05705931
49	0xbc812b5e	-0.01576775
50	0x3d14789b	0.03624783
51	0xbe0b03c8	-0.13575661
52	0xbe2767e8	-0.16348231
53	0xbe39cb60	-0.18143988
54	0x3d6ee603	0.058324825
55	0xbe15bf24	-0.14623696
56	0xbc06c872	-0.008226501
57	0xbba5933c	-0.005052952
58	0xbe123b1b	-0.1428036
59	0xbce1fc97	-0.027586265
60	0xbd506f68	-0.050887495
61	0xbe8b7972	-0.27241093
62	0xbe475796	-0.19467005
63	0xbd1e8ad8	-0.03870663
64	0xbe84dcb6	-0.2594964
65	0xbdef9180	-0.11697674
66	0xbd6cedcf	-0.05784398
67	0x3c6330f2	0.01386665
68	0x39ab8b7c	0.00032719586
69	0x3d8b7468	0.06809312
70	0xbe979c77	-0.2961156
71	0xbe24dc69	-0.16099705
72	0xbe7f9a89	-0.24961294
73	0xbd842cb3	-0.06453838
74	0xbcfceadb	-0.030873707
75	0xbdf6e870	-0.12056053
76	0xbdfa697b	-0.1222715
77	0xbe1cf903	-0.15329365
78	0x3c8bf711	0.017085584
79	0xbe0683ea	-0.13136259
80	0xbd6b0b38	-0.057383746
81	0xbcf579d4	-0.029965319
82	0xbe2454b0	-0.1604793
83	0xbd9b1cf8	-0.07573885
84	0xbe4153a0	-0.18879557
85	0xbe0b8a55	-0.13626988
86	0xbe15ce67	-0.14629517
87	0xbe2bbeff	-0.16772078
88	0xbe0f6958	-0.14005029
89	0x3c9541d9	0.018219875
90	0xbc82d61e	-0.01597124
91	0xbdaffe6e	-0.085934505
92	0xbdbdbca4	-0.09264496
93	0xbe46beb2	-0.19408682
94	0xbea1b503	-0.31583413
95	0xbea5727e	-0.32313913
96	0xbc508c41	-0.012728752
97	0xbd843b8b	-0.064566694
98	0xbe7d3e92	-0.247309
99	0xbe8e69ec	-0.27815187
100	0xbd8df36e	-0.06931196
101	0xb8ed622c	-0.000113193266
102	0xbdbb3d56	-0.09142558
103	0xbe75cbc4	-0.24003512
104	0xbb01a022	-0.0019779284
105	0xbdd824c1	-0.10553885
106	0xbdf04cf7	-0.1173343
107	0xbeb3e473	-0.3513523
108	0xbe5ecfa4	-0.21758896
109	0xbd514521	-0.051091317
110	0xbdc71d54	-0.09722391
111	0xbc1fe8b9	-0.009760075
112	0xbe3a0457	-0.18165718
113	0xbdb8f0df	-0.090303175
114	0xbd97465c	-0.07386467
115	0xbec55019	-0.38537672
116	0xbde6756d	-0.11252866
117	0xbe50bf05	-0.20385368
118	0xbe992d61	-0.29917434
119	0xbd753965	-0.05986919
120	0xbee38994	-0.444409
121	0xbdff0271	-0.124516375
122	0xbdb4f292	-0.08835329
123	0xbd27900e	-0.040908866
124	0xbd025f01	-0.031828884
125	0x3d6c4cc0	0.057690382
126	0xbdc8b6fb	-0.09800526
127	0xbe711a5e	-0.23545215
128	0x3d1c180e	0.038108878
129	0xbde675be	-0.11252926
130	0xbd8c6037	-0.06854289
131	0xbd60c9cf	-0.05487996
132	0xbf204816	-0.62609994
133	0xbdce332c	-0.10068354
134	0xbcc65c40	-0.02421391
135	0xbda4b54e	-0.080423936
136	0x3ccd17c7	0.025035752
137	0xbe2318e4	-0.15927464
138	0x3d06f5c3	0.03294922
139	0xbddd4848	-0.10804802
140	0xbe376651	-0.17910124
141	0xbd45b4e5	-0.048268218
142	0xbe25f058	-0.16204965
143	0xbd54fdf5	-0.052000005
144	0x3c117034	0.008876849
145	0xbeadd2e0	-0.33949947
146	0xbef1414e	-0.47120136
147	0xbe87b6d8	-0.26506686
148	0xbdadfed1	-0.08495868
149	0xbe0da58c	-0.13832682
150	0xbe114fac	-0.14190549
151	0x3c2eccb0	0.0106689185
152	0xbd843e97	-0.064572506
153	0xbde57cb7	-0.11205428
154	0xbd2e2815	-0.042518694
155	0xbd6ddb71	-0.058070604
156	0xbcfd161b	-0.03089433
157	0xbdadbbf4	-0.08483115
158	0xbde0d93a	-0.10978933
159	0xbd427882	-0.047478206
160	0x3b4ab7f4	0.0030932399
161	0xbed7d73d	-0.421564
162	0xbc0dd277	-0.008656136
163	0xbc48795a	-0.012235964
164	0xbe27f850	-0.16403317
165	0xbe146499	-0.144915
166	0xbeae1d79	-0.3400686
167	0xbd895c1f	-0.06707024
168	0xbe04dae4	-0.12974125
169	0xbe4204d1	-0.1894715
170	0x39a6d628	0.00031821546
171	0xbd28da96	-0.041224085
172	0xbe51112c	-0.20416707
173	0xbe27bc2d	-0.16380377
174	0xbd689b41	-0.056788687
175	0xbe186cdc	-0.14885277
176	0xbd0dc28c	-0.034609362
177	0xbe0d45db	-0.13796179
178	0x3d8bc3bc	0.06824443
179	0xbd862696	-0.065503284
180	0xbe85d94c	-0.26142347
181	0xbdd538d7	-0.10411232
182	0x3cb6a457	0.02229516
183	0xbdd7e180	-0.105410576
184	0xbd857adf	-0.065175764
185	0xbbda2715	-0.006657491
186	0x3cf37ece	0.029723551
187	0xbe8b8605	-0.27250686
188	0xbdff05eb	-0.12452301
189	0xbe0a225c	-0.1348967
190	0xbd3eed21	-0.046612862
191	0x3d0ba2cc	0.034090802
192	0xbe1f818a	-0.15576759
193	0xbd6fb2af	-0.058520015
194	0xbe59e564	-0.21278912
195	0xbce3caa9	-0.027806597
196	0xbdc7e992	-0.09761347
197	0xbd91c22c	-0.071171135
198	0x3d155369	0.0364565
199	0xbf2f68f3	-0.68519515
200	0xbedc210f	-0.42993972
201	0xbdbf280c	-0.0933381
202	0xbe152780	-0.1456585
203	0xbe37d8a7	-0.1795374
204	0xbe8d7192	-0.2762571
205	0xbde06881	-0.109574325
206	0x3d6868bd	0.05674051
207	0xbdc3e796	-0.09565656
208	0xbe5053bb	-0.2034444
209	0xbe9c96f0	-0.30583906
210	0xbc9ab18b	-0.018883487
211	0xbe524b49	-0.20536532
212	0x3c098691	0.0083939
213	0xbde0ad04	-0.109705
214	0xbe1ff89e	-0.15622184
215	0xbea2c563	-0.3179122
216	0xbdf95c39	-0.12175793
217	0xbe376b6b	-0.1791207
218	0xbdbbe1c2	-0.09173919
219	0xbe3eef4a	-0.18645969
220	0xbe33cae8	-0.17557871
221	0xbe028a9f	-0.12748192
222	0xbeba8342	-0.36428267
223	0xbe80714b	-0.25086436
224	0x3be13bf5	0.0068736025
225	0xbd667406	-0.056262992
226	0xbdc02638	-0.0938229
227	0xbe7be8e7	-0.24600564
228	0xbd631b5e	-0.05544602
229	0xbdd9e47f	-0.10639285
230	0xbd9cf46a	-0.07663806
231	0xbc6b3500	-0.014355898
232	0xbe04eca5	-0.12980898
233	0xbec29ab2	-0.38008648
234	0xbe114f7d	-0.14190479
235	0xbe0b8a3e	-0.13626954
236	0x3b95914b	0.0045644394
237	0xbd545790	-0.05184132
238	0xbe1c5229	-0.15265717
239	0xbc937d23	-0.018004006
240	0xbe574077	-0.21020685
241	0xbe2af456	-0.1669477
242	0xbdeb73d0	-0.11496699
243	0xbe987b82	-0.2978173
244	0xbd66646f	-0.056248125
245	0xbe4d8fed	-0.20074435
246	0xbe33d1ca	-0.17560497
247	0xbe16d6d7	-0.14730392
248	0xbdcbf789	-0.09959323
249	0xbdbb7b88	-0.09154421
250	0xbdfebc6d	-0.12438283
251	0xbe427451	-0.18989684
252	0xbe2984de	-0.16554591
253	0xbe3c767b	-0.18404572
254	0x3d1724ae	0.036900215
255	0xbe298b0e	-0.16556951

net.4.bias f4 [102]
0	0x3c88d252	0.016701851
1	0xbdc654c1	-0.09684134
2	0xbde869c6	-0.113483
3	0xbe1ddddf	-0.15416668
4	0xbe2e2d5b	-0.17009489
5	0xbdd1d008	-0.10244757
6	0xbe23b7b6	-0.15988049
7	0xbe36701a	-0.17816201
8	0xbe426dd3	-0.18987207
9	0xbe3d32d7	-0.18476425
10	0xbe037648	-0.1283809
11	0xbe0bf306	-0.13666925
12	0xbdd97c3f	-0.10619401
13	0xbe1c7e82	-0.15282634
14	0xbe0bac1d	-0.13639875
15	0xbe3ecd9c	-0.18633121
16	0xbe357111	-0.17718913
17	0xbe084865	-0.13308866
18	0xbdd6d7e0	-0.10490394
19	0xbe0c45b1	-0.1369846
20	0xbe642000	-0.22277832
21	0xbe5e6cb5	-0.21721156
22	0xbdd22f19	-0.102628894
23	0xbe22e4ff	-0.15907668
24	0xbde383c8	-0.1110912
25	0x3c4cf24d	0.012508941
26	0xbd3f4c6c	-0.04670374
27	0xbc6fef10	-0.014644399
28	0xbd0cc63e	-0.034368746
29	0x3cfd13df	0.030893264
30	0xbd78182c	-0.060569927
31	0x3cc282b4	0.023743965
32	0x3d2911f1	0.041276876
33	0xbc6ae343	-0.01433641
34	0xbc3e6610	-0.011621013
35	0x3dc2ca45	0.09511236
36	0x3dcf6fc7	0.10128742
37	0x3dabdd77	0.083918504
38	0x3dde04fb	0.10840794
39	0x3de3e297	0.11127203
40	0x3c53a7bc	0.012918409
41	0x3cde9652	0.027171288
42	0xbbeaaa23	-0.007161395
43	0x3db70f32	0.08938445
44	0x3d68de7e	0.05685281
45	0x3ce1a953	0.02754656
46	0x3dd5bb81	0.10436154
47	0x3d93be05	0.07213978
48	0x3e32cc35	0.17460711
49	0x3e358c95	0.17729409
50	0x3de86f00	0.113492966
51	0xbdfc382c	-0.123154014
52	0xbe0c6317	-0.13709675
53	0xbdc99fb3	-0.09844913
54	0xbd89d1fc	-0.067295045
55	0xbda7eae8	-0.08199102
56	0xbdd45e00	-0.103694916
57	0xbe3e8a68	-0.18607485
58	0xbe1e6629	-0.15468659
59	0xbe00d4d3	-0.12581186
60	0xbe08fc44	-0.13377482
61	0xbe4b8053	-0.1987317
62	0xbe21fa14	-0.15818053
63	0xbe0f790c	-0.1401102
64	0xbe741393	-0.23835592
65	0xbe552f3d	-0.20818801
66	0xbe510326	-0.20411357
67	0xbe45b2f6	-0.1930655
68	0xbe0ba777	-0.13638102
69	0xbe5ad5b8	-0.2137059
70	0xbe7300b4	-0.23730737
71	0xbe30133b	-0.17194836
72	0xbe1638e9	-0.14670147
73	0xbde642fd	-0.11243246
74	0xbdef4a0e	-0.11684047
75	0xbe0dfede	-0.13866755
76	0x3c86d9b9	0.01646124
77	0xbcac3919	-0.02102332
78	0x3d218181	0.039430145
79	0xbd27e974	-0.040994123
80	0xbd500dff	-0.050794598
81	0xbc451926	-0.012029922
82	0x3cb0f8d1	0.02160302
83	0xbd479181	-0.048722748
84	0xba4202f8	-0.0007400955
85	0xbc203864	-0.00977907
86	0xbd036aa6	-0.03208413
87	0x3d936814	0.07197586
88	0x3ca5c53e	0.020235654
89	0xbac6e74f	-0.0015175137
90	0xbb43df86	-0.002988787
91	0xbcb70898	-0.022342965
92	0x3da0dff2	0.07855214
93	0x3c78e9ab	0.01519243
94	0x3da5652b	0.08075937
95	0x3dba2556	0.090891525
96	0x3cbae7c3	0.02281559
97	0x3cf3d4c6	0.029764544
98	0x3dd772e4	0.105199605
99	0x3e16c218	0.14722478
100	0x3d981ea4	0.07427719
101	0x3e10dc28	0.14146483
