2.4_Categorical-DQN_C51/model/C51_DDQN_LLdV2_320k.pth (torch, 334784 bytes, 6 tensors)

net.0.weight f4 [200, 8]
000000 8a 17 23 3d ff a5 83 3d c1 2b 8c bf cc d7 dc be
       0.03981737 0.064281456 -1.0950853 -0.4313339
000010 21 55 50 be c6 be 14 bd bb 7d 27 3d 1f 8a 51 3e
       -0.20344974 -0.03631475 0.04089139 0.20462845
000020 ed 56 2d be bf f9 6b 3e 44 6d c7 bd 54 63 08 3e
       -0.16927691 0.2304449 -0.09737638 0.1331914
000030 4c 8d f2 be a1 9d a1 bf 34 c2 08 be 78 01 db 3e
       -0.47373426 -1.262623 -0.13355333 0.42774558
000040 74 0d 08 be e8 60 d0 3e ae e8 66 be 21 53 69 3b
       -0.13286382 0.40698934 -0.22549698 0.0035602527
000050 45 83 38 3e 42 f2 66 3f f9 cf 1a 3e 53 3f da 3d
       0.18018825 0.90213406 0.15118398 0.106566094
000060 05 6e b2 3c f2 e2 71 3e 40 07 23 3f db 5e 43 bf
       0.021780977 0.23621729 0.6368294 -0.7631661
000070 a7 c0 13 bf 0a 66 6b be 22 0f bf be 0b de 02 3f
       -0.5771584 -0.22988144 -0.37316233 0.5112006
000080 b1 ae 1f bf 87 2a 0e be 41 3e ce be e4 77 14 bf
       -0.6237593 -0.1388341 -0.4028187 -0.5799544
000090 e1 4c bd be d5 ea 21 3e 16 2a 6d 3e 67 61 45 3e
       -0.36972716 0.15812238 0.23160586 0.19275437
0000a0 92 93 cd 3c 93 fc 37 bf f3 e9 ed 3d 00 9e 26 bf
       0.025094781 -0.7186977 0.11616888 -0.6508484
0000b0 74 ff 15 bf bd 40 40 be ed a0 c8 3d 53 1b 07 3e
       -0.58592916 -0.18774696 0.09796319 0.13194017
0000c0 3a 17 4d be 73 ce 3d bd ed 02 db 3e c1 06 2b 3f
       -0.20028391 -0.046339463 0.4277567 0.6680718
0000d0 d8 0e be 3c 0b cf 64 bd 64 58 da 3e 8b 58 e1 bd
       0.023200437 -0.055861514 0.42645562 -0.11003216
0000e0 53 e1 d0 bc e2 cc 39 be c0 05 dd be 79 fd 0e bf
       -0.025498068 -0.18144563 -0.4316845 -0.5585552
0000f0 6b b4 4b 3f 48 41 49 3d 35 72 c2 3c 0d d8 08 3b
       0.7957217 0.049134523 0.023736099 0.002088073
000100 99 61 2d 3e 2f 81 4a 3e 72 e0 e8 3e 39 5f 4c 3e
       0.16931762 0.19775842 0.45483738 0.199582
000110 b3 99 29 bd a4 83 54 3f ad 77 88 bf 2c b3 b0 bd
       -0.041406345 0.8301337 -1.0661522 -0.08627924
000120 32 a9 48 3d 04 3f e9 3e 50 e2 0e 3f 04 1f 10 3f
       0.048989482 0.4555589 0.55814075 0.56297326
000130 96 bc 48 3e 67 53 81 bf 0d a6 94 be ed 70 00 bf
       0.1960319 -1.0103577 -0.29032937 -0.5017231
000140 a2 36 03 bf 52 e6 2a 3f 1f a8 c0 3e cf 21 02 bf
       -0.5125524 0.6675769 0.37628266 -0.5083284
000150 d4 c4 e4 3c 05 35 32 be a1 a5 56 be 0c 2d bd be
       0.027925886 -0.17403038 -0.2096162 -0.3694843
000160 6d 47 5f 3f 10 56 1d be 9c f1 06 3f 97 8c ba bd
       0.8721836 -0.15364861 0.52712417 -0.09108847
000170 a1 b4 06 be ee 17 d6 3e 2b 25 62 be 3d 15 5f be
       -0.13154842 0.41815132 -0.22084491 -0.21785446
000180 66 e6 71 3f ee 79 94 be 3f 7e 78 3d b8 3a d9 be
       0.94492185 -0.28999275 0.060667273 -0.4242761
000190 d7 f6 05 3f 97 eb 79 3f b3 21 c1 3b 76 a8 25 be
       0.5232977 0.97625107 0.00589391 -0.16177544
0001a0 85 f3 2a bf 76 d5 8f 3c 03 02 43 bf 16 be e3 be
       -0.6677783 0.01755784 -0.76174945 -0.44480962
0001b0 23 0c 00 3e c1 85 4d 3d b4 c8 02 bd fc 87 66 3e
       0.1250463 0.050176386 -0.031929687 0.22512811
0001c0 ef ce 87 bf a8 01 19 3f 4f 32 bf 3e 1f 9a 18 3d
       -1.0610026 0.5976815 0.3734307 0.037256356
0001d0 7f ca c9 bc d7 4d 91 3d 2c fe 26 be fb f6 9b 3e
       -0.02463269 0.07094925 -0.16307896 0.3046187
0001e0 bd 18 1e 3f b2 e9 74 3d e7 a1 8d bb 5b 34 f6 3e
       0.617565 0.05979318 -0.004322279 0.4808682
0001f0 81 4d 6e be 61 98 51 bf ed 9a 87 be c7 9a ad bf
       -0.23271753 -0.81873137 -0.26485386 -1.3562859
000200 39 99 d3 be 9e 21 04 bf 76 4e 0c bf ed cb be bd
       -0.41327837 -0.51613796 -0.5480722 -0.093162395
000210 80 1b 7c bb bc 4f db be 16 5c 1f 3e 56 a0 0d be
       -0.003846854 -0.4283427 0.15562472 -0.13830695
000220 24 7d 8f 3e ef be e7 3d e3 ed 68 3e 09 77 cd 3e
       0.28025162 0.113157146 0.22746997 0.4012988
000230 d4 6a 57 be ac b9 94 3e 34 21 29 3f 14 1a a1 be
       -0.21036845 0.29047906 0.6606629 -0.3146521
000240 f9 11 fb b9 3a d0 ae be 55 27 fb 3d 5c c4 0e bf
       -0.0004788784 -0.3414324 0.12263361 -0.5576837
000250 6a 2f d8 be 3f 83 84 bf ba 52 46 bf 6c 62 86 bf
       -0.42223674 -1.0352553 -0.7746998 -1.0498786
000260 eb 50 ea 3d 00 97 1e 3f c9 54 a1 3e 92 bf 28 bf
       0.11441215 0.6194916 0.31509998 -0.65917313
000270 81 fa 92 3e 78 8c d7 be 29 6e 5f 3d bf ef 1a be
       0.28706744 -0.42099357 0.054548416 -0.15130518
000280 be 8f 7f be 76 2f 1b be cd 3c 33 bf ce 07 0c bf
       -0.24957177 -0.15154824 -0.7001465 -0.5469941
000290 30 00 00 3f d2 73 69 3d fa 0e 33 be 91 93 18 3e
       0.50000286 0.05699522 -0.17486182 0.14900042
0002a0 6e 0e d7 bd f7 b1 9a 3e 9d 1b 4e 3f c2 a1 6d 3d
       -0.10500799 0.302139 0.80510885 0.058015592
0002b0 99 d2 df 3d b2 a3 31 3f 04 f2 09 bf 03 b1 0b 3e
       0.1092884 0.69390404 -0.5388491 0.13641743
0002c0 b7 d6 76 be 25 2d 52 bf f7 88 e1 3e 48 81 14 bf
       -0.24105345 -0.82100135 0.44049808 -0.5800977
0002d0 50 7e 73 be e7 fa 92 be 05 c2 90 3e b0 53 c4 3d
       -0.23778653 -0.28707048 0.28273025 0.095862746
0002e0 5c 39 b6 3e 51 bf 52 3e 41 b5 79 be 18 88 1b 3d
       0.35590637 0.20580794 -0.24385549 0.037971586
0002f0 ad fc 06 bf c2 8b 02 3e 55 98 8d 3e 09 90 8d 3e
       -0.527293 0.12748626 0.27655283 0.27648953
000300 20 cc 4d bf 89 53 16 3e 41 06 1e bf 81 b3 51 3c
       -0.80389595 0.14680304 -0.6172829 0.012799145
000310 54 77 90 be 85 7d d4 3e 0e 82 31 be ea 70 12 be
       -0.2821604 0.41502014 -0.17334768 -0.14300886
000320 d8 94 3c 3d 95 5e f3 3e df cf 81 bf 9c f4 48 be
       0.046040386 0.47533098 -1.0141562 -0.19624561
000330 76 05 a5 be 33 63 52 3f 53 52 e9 bd bf da ca 3d
       -0.3223073 0.82182616 -0.11392655 0.09905004
000340 6f fb 6b 3e 1f 09 62 3e e4 5b 4d 3d ea ea b8 bd
       0.23045133 0.22073792 0.05013646 -0.09029181
000350 03 db 58 3e 20 66 53 be 30 d9 f2 bd cf bc 75 bd
       0.21177296 -0.20644426 -0.118578315 -0.059994515
000360 c4 52 2a bf 5c 49 08 3a 40 a0 0d 3f 6c c8 0a bf
       -0.6653254 0.00051989197 0.5532265 -0.5421207
000370 37 57 4c be c5 ff b0 3e 5b 33 19 3e 67 d8 1f bd
       -0.19955145 0.34570137 0.14960997 -0.039024737
000380 ee 54 f6 be 04 34 fc 3e 64 42 25 bf 3e 42 30 be
       -0.4811167 0.49258435 -0.6455443 -0.1721277
000390 f4 a5 34 be 75 b0 ee be 37 d7 a5 3d 3d 1a c5 3e
       -0.17641431 -0.46619 0.080976896 0.3849658
0003a0 ba 3a 1b 3d 7d c0 16 3f 5a 68 74 3e 98 90 bc be
       0.037897803 0.58887464 0.23867932 -0.36829066
0003b0 84 fe 85 3e 52 28 15 bf 6e 55 03 be c6 1b c7 3c
       0.26170743 -0.5826465 -0.12825558 0.024305236
0003c0 f9 3c ee bd d2 72 96 3e b3 8c e1 bc 4a d6 3c bd
       -0.11632723 0.29384476 -0.02753291 -0.0461028
0003d0 ff 57 ef 3e d8 32 26 bf e3 df 13 3f 16 8d 9c be
       0.46746823 -0.6492133 0.577635 -0.3057639
0003e0 4d 87 70 3b 95 80 8d 3b b4 65 f0 bc 90 ea 4a 3c
       0.003670174 0.0043183067 -0.02934537 0.012385026
0003f0 79 d7 b4 3f fe 1e c4 3b a0 c4 00 be 65 8f ce be
       1.4128257 0.00598514 -0.12575006 -0.40343776

net.0.bias f4 [200]
000000 2a 3a 0d be 56 7c 93 3e 2e d3 74 3e 76 ac b2 be
       -0.13791719 0.28805798 0.23908684 -0.34897202
000010 45 94 86 3d 4a 26 ab bd ca be c3 3e c2 6d e1 bc
       0.06571249 -0.083569124 0.38231498 -0.027518157
000020 70 91 6a be c7 ec 40 3e d6 aa c6 3d f1 37 70 3d
       -0.22907043 0.18840323 0.09700553 0.0586471
000030 fe ea a7 be 37 d3 22 3d bd e7 eb be 23 6f 06 3e
       -0.32796472 0.03975221 -0.4607524 0.13128333
000040 97 69 e7 3e c6 87 32 3d c3 fd e7 bd db a7 b4 3d
       0.45197746 0.043586515 -0.11327698 0.088210784
000050 37 50 30 3d 6b 74 1d be bf b9 d7 bd a8 79 98 3e
       0.04304525 -0.15376441 -0.10533475 0.29780316
000060 42 d3 e0 3e 59 4c 02 3e 58 33 d8 3e ab 31 93 3e
       0.43911177 0.12724437 0.42226672 0.2874883
000070 7f 41 4a 3e 61 d3 b2 3e 56 bb 80 bd 61 52 5b 3a
       0.19751547 0.34926894 -0.062857315 0.00083664624
000080 67 4b 8b 3e b3 2f 81 3e 41 25 ec be 12 3b 45 be
       0.27205965 0.25231704 -0.46122172 -0.19260815
000090 27 68 ff 3e 69 a6 f7 3e b6 55 01 3f ac 80 f4 3d
       0.4988415 0.48369148 0.5052141 0.11938605
0000a0 ae 59 a9 3e 4d 74 28 be 9b ac 47 be d9 b0 c6 bc
       0.33076233 -0.16450615 -0.19499438 -0.02425425
0000b0 34 ca f2 3e e0 b3 6b 3e e8 62 1c be 80 48 7c 3d
       0.47419894 0.23017836 -0.15272105 0.06159258
0000c0 3c 36 1e 3c 8e 19 83 be 7e e7 a8 3e b5 9a 02 3e
       0.009656485 -0.25605434 0.32989115 0.12754329
0000d0 da c5 9a 3c 3f 92 d0 3e 31 e6 8f 3e a8 1c 06 3f
       0.018893171 0.40736577 0.2810531 0.52387476
0000e0 ec 94 e1 3d 83 76 b8 be 65 62 f1 3d 3f 87 dc 3c
       0.11014733 -0.36027917 0.117863454 0.02691996
0000f0 73 52 b6 be ce b5 1e 3c f0 90 87 3e 9a 71 4c 3e
       -0.3560978 0.0096869 0.26477766 0.1996521
000100 e1 6b 41 3e a5 a2 3e be 2c 5f d1 bb 46 37 03 3f
       0.18888809 -0.18616731 -0.006389519 0.51256216
000110 a5 1e ee 3e 8b 01 67 3e 8e 7b 88 3e 00 f8 b0 3d
       0.46507755 0.22559182 0.26656765 0.08641052
000120 b5 9e b8 bb 68 93 fe 3d 36 ef 20 3e 51 f2 f4 3d
       -0.0056341537 0.12430459 0.15716252 0.11960281
000130 5b 1e ad 3e c3 4f 49 be 10 1e 65 be 73 f5 18 be
       0.33812222 -0.19659333 -0.22374749 -0.14937381
000140 4d 89 6b be d6 f1 ee 3e fe e4 a5 bd fd ca 3d bb
       -0.23001595 0.4666888 -0.081003174 -0.0028960102
000150 7d bb 91 bc 6d 55 2c be e6 58 96 be c5 bf a1 3e
       -0.017789597 -0.16829462 -0.293647 0.3159162
000160 f8 ed 1a bb c0 e7 d5 3e c2 b5 a0 3e 6f cd 94 3e
       -0.0023640376 0.41778374 0.3138867 0.29062983
000170 45 61 0f 3e 88 30 35 be b7 25 f2 3e bb 7b f5 3e
       0.14001949 -0.17694294 0.472944 0.4794596
000180 44 6a c2 bd af 12 9c 3e 8f 2b 4b be 8b 33 29 be
       -0.09492925 0.30483004 -0.19840835 -0.16523568
000190 a6 09 85 bb b8 53 16 be 25 43 98 3e ef f5 2e 3c
       -0.004059988 -0.14680374 0.29738727 0.010678752
0001a0 61 8b 39 3a 27 82 9c be 3b e4 38 3e a4 8c b6 3d
       0.0007077959 -0.30568048 0.18055813 0.08913544
0001b0 8c cd 2d 3e a4 d5 ad 3e 2a 73 0b 3f ce 84 6f 3e
       0.16972941 0.33952057 0.544726 0.23390505
0001c0 94 5d 8e 3d 09 6a 7f 3e c2 45 99 3e 89 21 23 3e
       0.06951442 0.24942793 0.29936033 0.15930761
0001d0 7b 7b 95 3e 21 f6 d6 3d 82 77 bb 3e 30 6a 10 be
       0.2919577 0.10496164 0.36614615 -0.14103007
0001e0 10 77 9a 3e 5f 21 e9 be c0 d2 6a be 25 3f 19 bd
       0.30168962 -0.45533273 -0.22931957 -0.037413735
0001f0 12 25 9e bc 81 61 47 3d b2 0d de 3e 7f ce 3a be
       -0.019304786 0.04867697 0.43369824 -0.18242835
000200 22 1f 1c 3e 0c 52 c2 be ba f3 a3 be f3 fb c5 3e
       0.15246251 -0.37953222 -0.32021886 0.38668784
000210 d6 06 8f 3e d2 e4 41 3e d7 26 63 3e af 88 2d 3e
       0.27934903 0.18934944 0.22182785 0.16946672
000220 d2 c1 4b 3e 1c 30 8b 3e 6d 9d 08 3f a4 5a 9b 3e
       0.19898155 0.27185142 0.5336521 0.3034259
000230 08 70 37 be 83 61 06 3f 40 c4 a5 bc 87 4f 55 3e
       -0.1791383 0.5249254 -0.02023518 0.20831119
000240 6f 2f b9 bd 2f a6 fb 3c 43 de 36 3e 6b a5 8e be
       -0.0904225 0.030718891 0.17858224 -0.2786058
000250 8e f6 df bc 12 1b 90 be b2 35 92 be 2f f1 eb 3e
       -0.027339246 -0.28145653 -0.2855659 0.46082446
000260 c1 87 cc 3e 7e 33 70 be ac 5d 90 bb b7 8e a6 bd
       0.39947322 -0.23457143 -0.004405698 -0.081326894
000270 a6 ee 29 3b ff 3d d6 3d ef b2 e6 3c 6f 1f 9a 3e
       0.00259296 0.104610436 0.028161494 0.30102107
000280 58 ca f1 bd 5a e6 51 3e de 46 d5 bd 3d 86 13 bc
       -0.11806172 0.20498028 -0.104139075 -0.009004173
000290 c4 23 fb 3e 88 4d c9 be 00 e1 2a 3e d6 ca f7 3e
       0.49050725 -0.39316964 0.16687393 0.4839694
0002a0 73 3d 8b 3d f0 cc ae be 57 3e cc bd 6c f4 ea be
       0.0679883 -0.3414073 -0.09972828 -0.45889604
0002b0 5f 3c d0 be 98 32 9a 3e 43 ee 5e 3d b8 df ef 3e
       -0.4067106 0.30116725 0.054426443 0.4685037
0002c0 c4 c8 e6 be b6 ad 8f be c8 85 90 3e dd 4e aa 3e
       -0.45075047 -0.28062218 0.28227067 0.33263293
0002d0 54 95 0c 3f 55 6c 0f 3f 12 3f 25 3e 3e 58 2b 3e
       0.54915357 0.56024677 0.1613734 0.1673288
0002e0 11 72 84 bd fc 42 23 be 7d 8a 15 3c 5f e7 93 be
       -0.06467069 -0.15943521 0.009127256 -0.2888746
0002f0 10 99 e7 be 56 e3 b1 3e 2c aa df bd 9c 00 e7 3e
       -0.45233965 0.34743756 -0.109211296 0.45117652
000300 59 93 89 3e f8 54 ac 3e 6f 9a ac 3e 5a 80 85 be
       0.2687023 0.33658576 0.33711573 -0.26074487
000310 aa df ec 3e 51 58 e0 3e 9a d9 0e 3e 21 71 b9 3d
       0.46264392 0.4381738 0.13950196 0.09054781

net.2.weight f4 [200, 200]
000000 cd 0b 8b 3e 91 0b 04 bd 1b 9c aa 3d ae 71 ed 3d
       0.2715744 -0.032237593 0.08330556 0.11593948
000010 a9 ad 5a bc 7c 4d b8 3d e8 25 8e be 60 32 01 be
       -0.013347068 0.08999154 -0.27763295 -0.12616873
000020 ff 1f 79 3d 8b 41 94 3e 21 b5 d8 3c 1d 76 29 bd
       0.06082153 0.28956255 0.026453556 -0.041372407
000030 3b c8 77 3e 81 1d 83 3e b8 c6 a3 3e 4a 2a 87 3e
       0.24197476 0.25608447 0.31987548 0.26399451
000040 64 84 3b 3e b9 d0 ca bd 44 0c 12 3e d8 40 9a 3c
       0.18312222 -0.09903092 0.14262491 0.018829748
000050 ff f6 97 3c 46 d6 34 3e 23 37 38 3d 59 15 8a bd
       0.018550394 0.17659864 0.044974457 -0.06742353
000060 20 f9 2c 3d 3f 16 33 3e b5 4b 4f 3d 15 ea 3b 3e
       0.04222977 0.17488955 0.05060931 0.18351014
000070 9e 8e 68 bd d5 c9 93 3d 3f b6 ed 3c 75 e2 ed 3e
       -0.056776635 0.07216231 0.029017566 0.46461836
000080 4d 50 a2 3c 74 02 26 be fb f6 48 3e 36 70 4e be
       0.019813681 -0.16211873 0.19625466 -0.20159993
000090 e7 e4 fa 3c 2f 4d 1b be 89 62 45 be 1d 42 88 3c
       0.030626727 -0.15166162 -0.1927587 0.016633088
0000a0 12 c2 8f 3c 53 a1 90 bd df 46 21 3e 8a 73 88 3e
       0.017548595 -0.0706202 0.15749691 0.2665065
0000b0 fe c9 be bd 00 5c 04 3e 76 c0 12 3e 82 9f d3 3c
       -0.09315871 0.1292572 0.1433123 0.025832895
0000c0 75 35 2d 3e 3f db 24 be 2c 23 0f 3d af 07 98 3d
       0.16914923 -0.16099261 0.034945652 0.074233405
0000d0 43 d9 46 bc 2b 31 60 3d 37 af 7c 3e c6 bd 82 bd
       -0.01213676 0.05473439 0.24676214 -0.06383853
0000e0 2b 01 65 3d 59 a1 f7 3d 90 29 d5 3c 41 05 9b 3b
       0.055909317 0.120913215 0.026020795 0.004730851
0000f0 13 df 91 3d eb 17 ac 3e 67 80 91 bd 36 e0 b8 bc
       0.07122626 0.33611998 -0.07104569 -0.02256785
000100 8c 5d 2f be c5 e1 e4 3b bf cd 99 bc 4e 66 dd bd
       -0.17125529 0.0069849216 -0.018774865 -0.10810529
000110 92 32 31 3d 24 98 8f 3d 7d 87 3a bd b2 97 53 bd
       0.04326112 0.070114404 -0.045539368 -0.05165834
000120 17 0a 9d be c9 b0 08 bd 3e c7 a1 3c 82 8e 11 3d
       -0.3067176 -0.03337172 0.019748326 0.035536297
000130 1d a3 8a 3d 41 9a b8 bd f0 5f 88 bd 26 16 2e 3e
       0.06769393 -0.090137966 -0.066589236 0.17000636
000140 f0 a7 a8 be 32 f7 db bd 57 a4 2c bd 41 6c 18 bd
       -0.32940626 -0.10740508 -0.042148914 -0.037212614
000150 88 f8 89 3e 1d 37 1d 3e 5e e4 68 3e 08 f7 4a be
       0.26947427 0.15353055 0.22743365 -0.19820797
000160 cd 67 43 be b2 47 40 3c 0a 9e 5f 3d 49 29 ff 3d
       -0.19082566 0.0117358435 0.054594077 0.124590464
000170 78 ff bb 3d d4 1b d4 3d e6 80 a1 bd 16 67 3f bd
       0.09179586 0.1035687 -0.078859136 -0.04672917
000180 12 fb 00 3e f5 20 d2 bc 24 0e b6 3e ba b2 66 3e
       0.12595776 -0.02565048 0.35557663 0.22529116
000190 c1 96 26 3c 76 2a 44 3e e5 06 6a 3d c8 f5 8b bd
       0.0101677785 0.19156823 0.05713548 -0.068339884
0001a0 12 cf 65 3e 70 32 82 bd 3a 0c 8b bc 67 73 00 be
       0.22442272 -0.063572764 -0.016973604 -0.12544023
0001b0 57 53 75 bd be 70 5b 3d 33 24 f0 bc ca 33 b1 3e
       -0.059893932 0.053574316 -0.029314136 0.34609824
0001c0 3a 4a 1c 3e 6c ee 8e 3d 98 90 9e bd 59 1f 1a 3e
       0.1526269 0.06979069 -0.07742423 0.1505102
0001d0 e8 19 9c bc dd fb b6 bd e7 d5 b2 bc b8 e2 d7 bd
       -0.019055322 -0.08934758 -0.021830512 -0.1054129
0001e0 2b 18 95 bc 60 3b 6c be ec 02 9f 3e 6d 8c 8a 3d
       -0.0182 -0.23069525 0.31056917 0.06765065
0001f0 47 1a 9c 3d 15 63 25 3c 0e 48 a8 bd 77 c5 c3 3e
       0.076221995 0.010094424 -0.08216868 0.3823659
000200 ee d6 8a 3d 5e ca 29 be e8 65 dd 3a 5f 97 9e 3d
       0.06779276 -0.16581103 0.0016891332 0.077437155
000210 37 20 54 bc 9a 7d 99 3a 17 dd b4 3d 92 71 31 bd
       -0.012947134 0.0011710406 0.08831232 -0.0433212
000220 3e 38 d8 be 79 50 2f bc f8 9f c8 3c 04 c2 41 bd
       -0.4223041 -0.0107003385 0.024490342 -0.04730417
000230 f6 b2 ac 3c a1 75 46 be 59 9e 93 3d 1c 4f 28 3e
       0.021081429 -0.1938081 0.07207937 0.16436428
000240 3d b2 53 bd ce 9b cb 3e a4 55 04 be e9 f9 92 3d
       -0.051683653 0.39767307 -0.12923294 0.07176573
000250 bb 2c 70 bd 57 8f 78 3e c3 fc 18 3d 39 98 4a bd
       -0.05863641 0.2427343 0.037350427 -0.049461577
000260 38 0c f8 3d 71 ed 58 3d 96 7d 1f bd c6 fc fc 3d
       0.121117055 0.052960817 -0.038938127 0.123529
000270 75 7a e9 bc 78 17 03 be 3c 6f 9e bb 3b a1 df 3d
       -0.028500775 -0.12801921 -0.0048350375 0.10919424
000280 4e a9 47 be 06 78 0d be 14 17 c5 bc 49 90 02 3e
       -0.19498178 -0.13815317 -0.024058856 0.12750353
000290 89 ed 48 be d4 cd 95 3d bb c3 f0 bc 2b cb 81 be
       -0.19621862 0.07314649 -0.029390207 -0.25350317
0002a0 7a 65 79 3d 9e 01 54 3e e2 93 93 3c 30 5e 20 bd
       0.06088779 0.20703742 0.018014852 -0.039152324
0002b0 10 1a 10 3f c2 fb 2e bc c0 4b e4 3d ad 7e cf 3d
       0.5628977 -0.010680141 0.11147261 0.10131583
0002c0 de 85 9d be f2 ad 9b 3e 0f 43 7a bd 55 ed 69 be
       -0.30766195 0.30406147 -0.06109911 -0.22844441
0002d0 9f aa 31 bd cd 01 f6 3d 3c c4 3f 3e e7 df f2 bd
       -0.043375608 0.12012062 0.18727201 -0.11859112
0002e0 2a a2 ea 3d 19 33 0b 3e 05 b5 58 bd 28 bf 36 3e
       0.114567116 0.13593711 -0.05290701 0.17846358
0002f0 3c 4b ec be 6d b0 0a 3e 1d fe 28 3e f2 ec 50 bd
       -0.4615115 0.13543864 0.16503187 -0.05100722
000300 51 22 40 3c 0d 83 6c 3d 45 3a dd bd 20 34 84 3d
       0.011726932 0.057742167 -0.1080213 0.064552546
000310 c1 03 85 3d 0c 63 13 be dd 6d 95 3e ed 7e 99 bc
       0.064948566 -0.14393252 0.29185382 -0.01873728
000320 2c 88 e8 3d 82 50 b0 3d 5d 3e bb 3d dc d0 84 3e
       0.11354098 0.08609106 0.09142754 0.25940597
000330 a4 b2 50 bd aa 0f 61 be 55 6a ed bd 5b e2 bc 3d
       -0.050951615 -0.21978632 -0.11592547 0.092228614
000340 f7 21 ca bc e0 ea dc be c0 0e 9e 3d e6 7a 78 3e
       -0.024674399 -0.43147945 0.07717657 0.24265632
000350 94 67 e6 3d 58 f5 3a be 1b d7 07 3f f8 10 a8 3e
       0.11250225 -0.18257654 0.530626 0.32825446
000360 6b c5 e8 be 95 a2 20 3e 00 07 7b 3d 78 d8 cc 3d
       -0.45463118 0.1568702 0.061285973 0.10002226
000370 53 34 36 bd 32 dc 36 bd a9 05 4b bc 90 7f 44 3d
       -0.044483494 -0.04464359 -0.012391486 0.047973216
000380 92 77 92 be cb a3 17 3c 88 bc 28 3e 47 3a cf bd
       -0.2860685 0.00925536 0.16478169 -0.101185374
000390 a6 c3 c5 bd 25 68 23 3e 00 aa 3f be 17 d7 07 3e
       -0.096564576 0.15957697 -0.18717194 0.13265644
0003a0 70 94 ac 3c 79 70 01 3e 35 30 82 3e d7 11 de be
       0.021066874 0.12640561 0.25427404 -0.43372986
0003b0 01 b2 87 3d 15 dc 09 bf b4 2b a4 3d 11 4b e9 3e
       0.066257484 -0.53851444 0.08016148 0.45565084
0003c0 b6 9a 7b 3d d0 45 16 3e d4 8a 3a be 0e 03 83 bf
       0.06142684 0.14675069 -0.18217021 -1.0235307
0003d0 54 f0 19 3e c3 21 b1 3d 21 c4 c9 be d4 9f 3d 3e
       0.15033084 0.08649018 -0.39407447 0.18518001
0003e0 5a 0f 00 bd c0 18 92 3e 08 6a 63 bd 3a 3c e2 3d
       -0.03126464 0.28534508 -0.05552104 0.110466436
0003f0 9a 9d f3 3c 83 0c 88 bf 15 c2 11 3e f9 bf fa 3d
       0.029738236 -1.0628818 0.14234193 0.12243647

net.2.bias f4 [200]
000000 69 2c 02 bd 35 50 b4 3b d3 d3 bf bd 8f ed aa 3c
       -0.031780634 0.0055027255 -0.09366574 0.02086523
000010 03 25 c8 3d 5b ec 0d 3e 08 7b b5 bd d2 c6 c8 3d
       0.097726844 0.13859694 -0.08861357 0.09803547
000020 8e be d0 3c 1e 6e cb bc 57 e2 09 be d4 17 fa bc
       0.025481489 -0.024832781 -0.13465248 -0.03052894
000030 2b 5c 5a 3d c4 47 a1 bc b4 92 6b bd 82 f1 d6 3c
       0.053310554 -0.01968754 -0.057512954 0.026238207
000040 28 6b bd 3c 97 8f 82 bd ac f5 03 3e 88 53 bd 3d
       0.023122385 -0.06375044 0.12886685 0.09244448
000050 89 8c 01 3e 31 4c c2 3c 01 bf 80 3d 3e 9e 89 bd
       0.12651266 0.023717972 0.06286431 -0.067196354
000060 2b b7 02 3e ba 75 13 be 68 35 2b 3e ee 82 89 bd
       0.12765186 -0.14400378 0.16719592 -0.06714426
000070 ff 79 11 3e f3 bb 0c bd 41 f4 8b bc 33 51 09 3c
       0.14206694 -0.03435893 -0.017084243 0.008381176
000080 60 a3 ba 3d 73 12 04 3d 2b 92 b3 3d 27 3d 83 3d
       0.091131926 0.032244157 0.08768114 0.06408148
000090 9c fc 9c bb 09 68 ba 3b 83 ac f1 bc 48 20 2e bd
       -0.0047908556 0.0056886715 -0.029501205 -0.042511255
0000a0 27 bc e6 3d d1 66 82 bd 33 2f 60 3d af d5 b7 bd
       0.11266356 -0.06367267 0.054732513 -0.08976304
0000b0 c7 0d 39 3e 6f 70 12 bd dc 33 0f 3c cc 19 38 3d
       0.18071662 -0.035751756 0.008740392 0.044946477
0000c0 ae a5 08 3d 8f 61 1d bd f4 18 5f 3b 82 7f 99 3d
       0.03336113 -0.038423117 0.0034041973 0.07495023
0000d0 79 cf 99 3c 4b 00 29 bd bf 46 33 bd df 7f 5c bd
       0.018775688 -0.041260045 -0.04376864 -0.053832885
0000e0 e6 1b 43 3e 09 07 8f 3c be 2a 64 3e ac bf bc 3d
       0.19053611 0.01745941 0.2228193 0.09216246
0000f0 ca d7 c5 3c 6f f2 84 3d 95 7f 1e 3e d4 a0 82 bb
       0.024150748 0.06491553 0.15478356 -0.0039864574
000100 e5 e3 0f 3d ec 93 a8 3c 73 21 eb 3d f7 92 2e bc
       0.035129447 0.020578347 0.11480989 -0.010655156
000110 a3 5b f7 3d ec 74 d5 bc 86 ff 92 bd 58 b6 56 3d
       0.12078025 -0.02605673 -0.071776435 0.05241999
000120 85 e6 2e bd 86 2d 84 bd 7f 76 6d 3b 76 e6 7c 3c
       -0.04270031 -0.064539954 0.003623396 0.015435806
000130 fa dd 22 3e fb 3c e8 3d 0c 73 d0 3d 5a 38 31 3d
       0.1590499 0.11339756 0.101781934 0.04326663
000140 b4 99 c9 bb 0b 20 08 3e 8b 2c 65 3d 19 71 84 3d
       -0.006152356 0.13293473 0.055950683 0.06466884
000150 47 2e 7a bd f7 56 42 3e 28 fa 8f 3d a5 78 21 3e
       -0.06107929 0.18978487 0.070301354 0.15768678
000160 8f c2 10 3e 6a 5d 4a 3d d8 9b b4 3d 2e 1c 5f 3d
       0.14136718 0.049405493 0.08818787 0.054470234
000170 05 eb 3a bd 00 6c 0f 3d 62 e9 89 3c 54 78 00 3e
       -0.04563429 0.035015106 0.016834918 0.12545902
000180 b7 54 24 bd ae 39 9e 3d b4 4b 20 be b4 d4 39 3e
       -0.040119853 0.07725845 -0.15653878 0.18147546
000190 94 66 e2 bd 74 7e 0b 3c bb 13 a5 bb 36 02 4b bd
       -0.110547215 0.0085140355 -0.0050377524 -0.049562655
0001a0 0c 5d 59 bd 63 51 82 bd 9f 76 95 bd 78 a1 a7 3d
       -0.053067252 -0.063631795 -0.07298016 0.081850946
0001b0 14 90 fd 3d 89 36 cd b8 d0 6d 94 3d 2e 71 26 3e
       0.12380996 -9.78532e-05 0.072475076 0.16254112
0001c0 6f d9 b9 3d 7d 72 8c 3d 5d b5 98 3c 82 1e 89 bc
       0.09074675 0.068577744 0.018641168 -0.01673818
0001d0 d6 b3 19 bb 72 7d cb 3d a9 06 e3 3d eb 0a 8a bd
       -0.0023453138 0.09936036 0.11085255 -0.06740364
0001e0 15 40 2e bd 24 2d 9e 3d 5f 1b 9a 3d ba 7b 3e 3e
       -0.042541582 0.07723454 0.07524752 0.18601885
0001f0 35 7b 79 bd a6 20 16 3e 2e 46 e5 ba be c0 40 3d
       -0.060908515 0.14660892 -0.0017492229 0.047058813
000200 3e c4 75 3d dc c4 80 3d da 01 c4 bd c4 ad 69 bd
       0.060001604 0.06287548 -0.09570666 -0.05705048
000210 d2 27 38 3d 2c 0b 02 3e 3c a9 34 3d 56 d6 8b bc
       0.04495985 0.12699574 0.044106707 -0.017069977
000220 51 48 19 bd 8a ba 22 3e a1 71 e5 3d 93 1d e0 bc
       -0.037422482 0.15891472 0.112033136 -0.027357852
000230 2c 00 1a bd 94 91 d2 bc d1 22 fa 3b 98 ee 63 bc
       -0.03759782 -0.025704183 0.007633545 -0.013911866
000240 20 d4 df bb cc ef 03 3d ff cf 50 bc c8 e8 ba bc
       -0.006830707 0.03221111 -0.012744903 -0.022816077
000250 04 fb 8b 3d 1a 1c 24 bd 4a 87 8b 3b f7 a4 bf 3d
       0.06834987 -0.040065862 0.004258071 0.093576364
000260 dc 30 b8 bb 27 ea 19 bd b7 7d 03 3d 10 da 14 bd
       -0.005621059 -0.03757682 0.032102313 -0.036340773
000270 85 c6 33 bd 03 bc 03 3e c0 76 0f bc 43 b0 21 3e
       -0.043890495 0.1286469 -0.00875634 0.15789895
000280 1a d0 3a bd 7d d5 d8 3c e0 0f d6 3d ca b1 49 3b
       -0.045608617 0.026468987 0.10452247 0.0030776137
000290 12 38 9e bc 12 9b be bd 2f a2 36 3c e3 1f c1 3d
       -0.019313846 -0.09306921 0.011147066 0.0942991
0002a0 11 f1 31 bc 9a a1 99 3d 48 f4 b4 3d 06 5c 76 3d
       -0.010860697 0.07501526 0.088356555 0.060146354
0002b0 e5 d9 00 3e 1b 57 57 bc be 0b 58 3d 7b 1b 50 3d
       0.1258312 -0.013143326 0.052745573 0.050807457
0002c0 aa ce b7 3c 31 09 0a bd 49 da a7 bd 1b e1 98 3c
       0.022437412 -0.03370017 -0.081959315 0.018662026
0002d0 3a 5a c0 3d f5 25 cc bc 7c 2e 05 3d d0 ba f4 3d
       0.09392209 -0.024920443 0.032515034 0.11949694
0002e0 5f 5f 75 bd 86 a5 0e 3d 23 f4 00 bd c3 f9 d1 3c
       -0.059905406 0.034825824 -0.031482827 0.025631791
0002f0 20 99 4c 3d ec c8 81 bd fd 66 72 3a 0d 6d 00 3c
       0.04995072 -0.06337151 0.0009246914 0.0078385
000300 ab 9d 39 3d 77 a6 38 3e a6 61 ba 3d 7b 30 db 3d
       0.04531638 0.18032251 0.09100656 0.10702606
000310 85 72 f5 3c e8 a3 e8 bd a3 eb bc bd ec f0 b0 bb
       0.029961834 -0.11359388 -0.09224632 -0.005399814

net.4.weight f4 [204, 200]
000000 a9 ca a2 3d 93 57 10 3d 97 ec a3 bd de 89 84 3d
       0.079488106 0.035239767 -0.0800411 0.064716086
000010 d9 82 1f be 24 90 c0 3e 84 a2 7d bd f9 a2 2c be
       -0.15577258 0.3760997 -0.061922565 -0.16859044
000020 b6 d0 60 3d 5e 0e 40 3d 37 20 00 3e f3 3a ac 3d
       0.054886542 0.0468887 0.12512289 0.08409681
000030 c8 1f b8 3d 53 1f 76 be 45 34 31 be 24 c9 4a 3d
       0.08990437 -0.24035387 -0.17305095 0.04950823
000040 83 5d 91 3c a3 f6 bd 3d 86 3c 51 bd 00 56 a8 bd
       0.017744785 0.09275558 -0.05108311 -0.08219528
000050 19 8c a3 3d 1c 14 8c be 9b 78 2d 3e ea 0a 56 3d
       0.07985706 -0.27359092 0.16940539 0.052256502
000060 c8 51 cd bd 9a 41 32 3e 0e a4 20 bd 48 8e bb 3d
       -0.10025364 0.17407838 -0.039218955 0.09157997
000070 a2 3e c9 bc 42 66 63 3d e3 42 65 3e 5b f8 78 3c
       -0.024565998 0.055517443 0.22388797 0.015195931
000080 8c 29 7a 3d 03 f1 05 3c 08 62 e0 3c 1a 40 aa bd
       0.06107478 0.008175137 0.027390495 -0.08313008
000090 4b 25 17 bd f9 d1 0e be 17 31 06 bc c7 b5 2b bf
       -0.0369008 -0.13947286 -0.008190415 -0.67074245
0000a0 c7 a4 01 be 73 d2 a2 3d bf bf 46 3d c9 c8 0d be
       -0.12660514 0.07950296 0.048522707 -0.13846125
0000b0 f8 38 57 be 5f f3 15 bd 92 76 02 3c 81 9a 07 3b
       -0.21017826 -0.03660905 0.00796284 0.0020691457
0000c0 7b cd a0 3e 22 fb 85 3d 15 6a 7a 3e 2e 00 95 3e
       0.3140677 0.065420404 0.2445453 0.291017
0000d0 1f c2 a2 3d 69 6c b0 3d 19 98 44 3e 47 d3 8d 3c
       0.07947182 0.086144276 0.19198646 0.017312659
0000e0 b5 1e 9c bd d7 41 03 bf 61 14 94 be b3 37 79 3e
       -0.076230444 -0.5127234 -0.28921798 0.24337654
0000f0 f1 63 f4 3c e8 1e 3c be 20 3a 8d be 32 1f 83 bd
       0.029832812 -0.18371165 -0.27583408 -0.064024344
000100 bf b5 30 3d e3 0e 90 be 4f d7 9f be 59 8e 2e be
       0.043142077 -0.28136358 -0.31218955 -0.17046489
000110 f1 aa 18 3e 2e f5 e2 3d fb 83 1c 3e 4c 47 d1 3d
       0.14908959 0.110819206 0.15284722 0.10218677
000120 e3 80 e9 3d 71 30 6c bc 75 3e 1a 3e b8 78 57 be
       0.11401536 -0.014415846 0.15062888 -0.21042144
000130 56 03 e4 3d 86 56 c5 3e 83 99 94 bd c3 03 76 bd
       0.11133449 0.38542575 -0.072558425 -0.06006218
000140 71 01 3f bc 90 20 4a be e7 ce fc 3d a9 33 e8 bc
       -0.0116580585 -0.19738984 0.12344151 -0.028344946
000150 1a 84 41 3d ed be 80 bd 8b 9a 41 bd be 3a c1 bd
       0.047245122 -0.06286416 -0.047266524 -0.09435032
000160 54 17 18 be 6f 38 05 3e 97 3e 5a 3c ec 6d 78 be
       -0.14852649 0.13009809 0.013320587 -0.24260682
000170 37 2d 2a 3d 40 a5 0e 3e ee b8 8b bd 6c aa 96 3d
       0.041547026 0.13930225 -0.06822382 0.07356724
000180 f8 34 87 3c 82 76 05 3e 1c 16 7a 3e de 51 92 bd
       0.01650475 0.13033488 0.24422497 -0.07144521
000190 9e 3d 20 3f 33 ad 9f be c2 54 c7 3d 32 e9 b3 3a
       0.6259402 -0.31186828 0.09732963 0.0013726114
0001a0 6e ae e6 bc ad b8 57 3e d7 6e b7 3d 94 ba 03 bd
       -0.028159346 0.21066542 0.08956688 -0.032160357
0001b0 e1 b9 2e 3d 90 39 90 3d 69 25 9c bc bf a9 d1 bd
       0.042657737 0.07042229 -0.019060807 -0.102374546
0001c0 84 c0 a4 3e 1d 5c 68 be 51 bd e7 3d f8 e3 a5 3e
       0.32178128 -0.22691388 0.11315406 0.3240049
0001d0 71 a2 a5 bd 5e 61 94 bf cc 2a 65 be 3b e4 ad 3e
       -0.08087624 -1.1592214 -0.22379607 0.3396319
0001e0 a1 c3 41 bf 86 64 ce bd 42 3d 85 be b8 ff 8e be
       -0.7568913 -0.10077767 -0.26023299 -0.27929473
0001f0 71 12 76 3e 1e 55 10 be bf 87 a2 bc cf c8 56 bc
       0.24030472 -0.1409497 -0.01984012 -0.0131094
000200 07 ad ff be a8 c9 36 3d 7f 09 cc 3d e0 01 d0 3e
       -0.49936697 0.044625908 0.09962749 0.4062643
000210 fe 3f a2 be c6 79 41 be cd 38 54 3c 24 13 83 be
       -0.31689447 -0.18894109 0.0129529955 -0.2560054
000220 a1 1d 74 bd cf 49 e8 be e1 01 78 3e 65 1c 37 bd
       -0.05959857 -0.4536881 0.24219467 -0.044704814
000230 2f 67 b2 3b 14 7e d1 3c d2 b4 5a 3e fb 37 fc 3c
       0.0054444293 0.025572814 0.2135804 0.030788412
000240 65 75 8a bd b1 8c ae 3e 12 c3 b8 3d 74 70 80 3e
       -0.067606725 0.34091714 0.09021582 0.25085795
000250 fb 74 fa bd 1c c6 2a 3d 4b e9 57 bd 4d 97 89 bd
       -0.122293435 0.041692838 -0.05271272 -0.067183115
000260 cd 15 ef 3c fa 39 82 3e 1d d8 b9 bd a5 23 9c 3d
       0.0291852 0.25434858 -0.090744235 0.07623986
000270 a5 a8 83 3d f5 43 79 3d 25 3e a6 3d b4 d7 6b be
       0.06428651 0.060855825 0.08117322 -0.23031503
000280 e0 fa ca 3d ac 1a 5e 3e 17 73 aa 3d 10 29 8f ba
       0.09911132 0.21689862 0.08322733 -0.0010922272
000290 46 6d b5 be ed 58 bd 3c 79 66 8a 3d 55 4d 98 be
       -0.35434932 0.023113692 0.06757826 -0.297465
0002a0 33 b2 02 be 49 83 7f be 36 18 5a 3e 0c 36 63 be
       -0.1276329 -0.24952425 0.21298298 -0.22188586
0002b0 ff 11 7d be b9 4b 7f bd 4d 55 77 3e 21 b6 dd 3e
       -0.24713896 -0.062328074 0.24153633 0.43303016
0002c0 03 a3 0b 3e 06 ea 6c 3e dc 87 76 bd 9d 24 92 3c
       0.13636403 0.23136148 -0.06018816 0.017839724
0002d0 4d f7 f0 bc cf fa f2 bc 39 52 b1 3d 85 bf e2 3d
       -0.029414797 -0.02966061 0.08658261 0.11071686
0002e0 4c f8 a0 3c 39 8c 8d 3e 38 ad 19 3e 11 31 2a bf
       0.019649647 0.27646044 0.15007484 -0.6648112
0002f0 53 d4 06 be 4b 10 cc 3c 66 60 49 3e 08 e8 8f 3c
       -0.13166933 0.024910113 0.1966568 0.017566696
000300 95 e3 5c be 19 26 8d be 06 95 b3 3c fe 82 81 3c
       -0.2157119 -0.2756813 0.021921646 0.015809532
000310 e9 d3 df 3d 66 e3 1c 3e 11 fc 21 3f b0 d4 d3 bd
       0.109290905 0.1532112 0.6327525 -0.10343301
000320 dc 64 15 3d b4 85 b6 3d ad f7 da 3d 0b c3 33 be
       0.03647314 0.089122206 0.10691772 -0.17554872
000330 75 46 0c be bd 05 36 3d 2e dd a2 bc 98 8d 6a 3c
       -0.13698752 0.044439066 -0.019880857 0.014315985
000340 fb 0b 0f bd 4a ed 60 3d 00 c0 6e ba 42 25 29 3d
       -0.034923535 0.054913796 -0.000910759 0.041295297
000350 0b a3 3b bd 9a a7 e4 3d ce de c3 3d f1 4d 3a 3b
       -0.045809787 0.1116478 0.09563981 0.0028427804
000360 62 73 9e bd 05 4b f8 3c b7 56 16 be 0e 64 50 3d
       -0.07736851 0.03030921 -0.14681517 0.05087667
000370 54 71 52 bd ea 01 e3 bd 22 ff 80 bd 45 8b 83 bd
       -0.05137761 -0.110843495 -0.06298663 -0.06423048
000380 f1 2c bf bd 77 67 0e be d2 c3 cc bd 7d c0 51 3d
       -0.09334744 -0.13906656 -0.09998287 0.05120896
000390 de 93 8a be 99 03 d9 bc 1b ca 13 be 81 aa 59 39
       -0.2706594 -0.026490973 -0.14432566 0.0002075825
0003a0 46 e8 f6 3d 6a 87 08 be 85 d5 9e bd d8 b7 39 3b
       0.120560214 -0.13332906 -0.07755569 0.002833834
0003b0 61 15 c5 3d 54 41 27 bd 0e d1 81 3d 48 01 28 be
       0.09623218 -0.040833786 0.06338702 -0.16406739
0003c0 74 83 44 be f5 58 a3 3d 3c ec e7 bd ce f8 84 3e
       -0.1919077 0.079759516 -0.11324355 0.25971073
0003d0 56 37 61 be d8 16 1c 3e 4a 3b 19 bd 74 95 40 3d
       -0.21993765 0.15243089 -0.037410058 0.04701753
0003e0 ce ce 0f be b7 ef 2e 3e d0 20 c0 3c d1 d1 91 3e
       -0.14043733 0.17083631 0.023453146 0.2848039
0003f0 71 ef 23 be 20 2b 87 3c 47 cb 15 3b 54 a0 91 bd
       -0.16009308 0.016500056 0.0022856758 -0.07110658

net.4.bias f4 [204]
000000 46 5c 9d 3b d5 12 22 bd be 00 62 3b 8e 2a b3 3c
       0.0048022596 -0.03956874 0.0034485306 0.021870878
000010 d6 e2 5e 3d 61 79 eb bc bc 17 15 3d be a0 92 bd
       0.054415546 -0.028744401 0.036399588 -0.071595654
000020 e8 ee 0b 3d 68 78 b1 bd af 0c c9 bd 39 06 a3 bc
       0.034163386 -0.08665544 -0.09816872 -0.019900428
000030 46 31 1c bd d5 b3 d6 3c bf 96 bf bc 9e d1 e9 bc
       -0.03813293 0.026208797 -0.023387311 -0.028542336
000040 ae 97 71 3d 4a 04 31 bc 05 01 17 be bf eb ff bd
       0.058982544 -0.010804245 -0.14746483 -0.12496137
000050 c7 de cd bd 24 05 1d be 7a 91 06 be af 45 31 be
       -0.10052257 -0.15333992 -0.13141432 -0.17311738
000060 fe d0 f9 bd 0c 0b 36 bd 81 bf 78 bd f6 cf 59 3a
       -0.12198065 -0.04444413 -0.060729507 0.00083088817
000070 d3 1a a5 bd b3 6a 28 bd 55 98 ad bc da 4a 4d 3d
       -0.08061757 -0.04111738 -0.021190802 0.050120212
000080 be 67 35 bc fc 99 5d 3c 26 ee 75 3d e9 6a 71 3c
       -0.011072097 0.013525482 0.06004157 0.014734962
000090 1b 5a 02 bd eb e9 c5 bc 23 c2 d0 bc 6f cb b6 3d
       -0.031824213 -0.024159392 -0.025483197 0.08925521
0000a0 39 11 b0 3d 7b eb db 3d df 78 89 3d 83 4d 2f 3d
       0.08597035 0.10738274 0.067125075 0.04279853
0000b0 6d 24 87 3d f3 cd 46 3d f9 55 49 3c a5 4d 95 3d
       0.065987445 0.048536252 0.012288564 0.072902
0000c0 1f 52 e8 3d ea 97 c9 37 33 34 f5 3d d0 4a ca bd
       0.11343788 2.4031808e-05 0.11972847 -0.098775506
0000d0 44 97 45 3b 12 4f df bc c7 75 24 3c 27 8d 62 3d
       0.0030149976 -0.027259383 0.010037846 0.055310395
0000e0 5b 3b ec 3c b8 0f c3 3c 50 39 44 bd 56 30 ae bc
       0.028836897 0.023811206 -0.04790622 -0.021263283
0000f0 dd 7d a3 bd d1 7e b3 bd 0b be 38 3b 09 79 af bd
       -0.07982991 -0.08764423 0.0028189446 -0.085680075
000100 6c 6c 97 bd 75 92 67 bd 2e f3 01 bd a8 0c a8 bd
       -0.07393727 -0.056536157 -0.031726055 -0.08205539
000110 1f f6 13 bd f3 c2 91 bd cb e9 b3 bd 2a b9 18 bd
       -0.03612339 -0.07117262 -0.08784827 -0.03728596
000120 d2 b2 47 bd 2a 51 fc bd 62 23 27 bd f1 f9 d3 bd
       -0.04875452 -0.12320168 -0.040805228 -0.10350407
000130 d5 e9 93 bd 4c 06 d0 bd 50 26 b7 ba 0c ea 8f bd
       -0.07222334 -0.10157451 -0.001397321 -0.07027063
000140 a3 60 a8 bd 0d b6 ef bc e4 aa 99 3d 32 9d 8c 3d
       -0.08221557 -0.029261613 0.07503298 0.0686592
000150 31 a5 0b 3d 15 42 70 3c 16 9b 09 bc 79 f0 11 bc
       0.034093086 0.014664193 -0.008398792 -0.008907431
000160 1c 72 89 3d 33 b5 22 bb 7a 33 76 3d 5c 38 37 3d
       0.06711218 -0.0024827241 0.060107686 0.044731483
000170 32 b8 ed 3d e5 7a 7c bb 0a 41 36 3d bd 21 8e 3d
       0.11607398 -0.00385254 0.04449562 0.06940029
000180 50 da 22 3c 64 48 99 3d b7 dc c5 3d b0 c0 a7 3d
       0.009939745 0.074845105 0.09661239 0.08191049
000190 6e dd 16 3e ef c8 13 3e 9a dd 5b bd 87 f2 ad bd
       0.14732906 0.14432119 -0.053678133 -0.08493524
0001a0 5d 36 30 bd 51 76 fc bc a8 92 bd 3d 9e 87 27 3d
       -0.043020595 -0.030818136 0.09256488 0.04090082
0001b0 47 6c 45 bd 29 0c a5 3d 7b f7 dd 3c 12 f2 85 bd
       -0.048198964 0.0805896 0.027095547 -0.06540312
0001c0 ba 15 e6 3b 8e bf 75 bd 21 f6 0a bd cb 58 8c bd
       0.007021633 -0.059997134 -0.033926133 -0.068528734
0001d0 e3 a7 00 be 7d 3e b1 bc 0c ff 19 bd 41 e4 f9 3b
       -0.12564044 -0.021636242 -0.037596747 0.007626087
0001e0 b1 b5 80 bd c7 68 47 bd 6b c7 5d 3b ed 07 f2 3b
       -0.06284655 -0.048683908 0.0033840786 0.0073861987
0001f0 21 f0 1b 3b bb 74 9e bc 8a 06 ce ba 2f 04 1a bd
       0.002379425 -0.01934277 -0.0015718502 -0.037601646
000200 58 b4 b5 bd 92 4d 55 bd 54 05 0f bd 59 df 05 bd
       -0.088722885 -0.05207593 -0.03491719 -0.032683704
000210 2c 01 ee bc 97 3b 25 3c 16 02 09 bd a5 08 0b bd
       -0.029053293 0.010085008 -0.033449255 -0.03394379
000220 dd a5 8d bc c0 05 c4 3d 79 88 00 3a 67 f3 66 3d
       -0.017291004 0.09571409 0.00049031485 0.05638447
000230 c4 e8 88 3d 42 c0 b4 3d b2 f7 9a 3d dc 7a 2f 3d
       0.066850215 0.08825733 0.075667754 0.042841777
000240 2a ac d1 3d 5f 34 17 3d f1 be bd 3d 88 f4 df 3d
       0.10237916 0.03691518 0.09264935 0.109353125
000250 d6 fa f8 3b a9 d0 bc 3c 2f ad c5 3d 07 ad 8a 3d
       0.0075982613 0.023048716 0.09652173 0.067712836
000260 8f ef b7 3c 57 c5 db bd c8 a6 bb bc b4 fd 50 bd
       0.022453098 -0.10730999 -0.022906676 -0.0510232
000270 16 48 7f 3d 71 dc b9 3c 97 1a a1 bc fc e8 d6 bd
       0.062324606 0.022688122 -0.019666 -0.10493657
000280 ac 11 8d bd 00 36 42 bd 08 a6 da bd e7 4e 31 bb
       -0.06888136 -0.04741478 -0.10676199 -0.0027055086
000290 09 d3 ee bc 5a f1 91 bc 54 b0 f3 bc e3 13 72 bd
       -0.029153364 -0.01781528 -0.029747166 -0.059100997
0002a0 67 02 9e bd f9 ed 87 3c bc 97 b5 bc e5 8d d4 bd
       -0.07715302 0.016592966 -0.02216708 -0.10378627
0002b0 69 54 e0 bd 16 ba 32 bd 13 01 b7 bd 10 0d 08 be
       -0.109536 -0.043634497 -0.08935752 -0.13286233
0002c0 0f 40 2b be 50 72 f6 bc 1a b9 50 3c e4 08 d4 bd
       -0.16723655 -0.030083805 0.012739444 -0.10353258
0002d0 21 3a 9c bd 60 5b 73 bc 47 ce 1e 3c 4a 1a a0 3d
       -0.07628275 -0.0148533285 0.009692735 0.07817514
0002e0 8b 42 7d 3c 56 16 1e 3d 65 52 bb bc d6 ff 4a 3b
       0.01545776 0.03859552 -0.022866437 0.0030975244
0002f0 78 07 0c 3d 5a c4 06 3d bf ec 19 3c c5 d1 74 3b
       0.03418681 0.0329021 0.009394824 0.0037356478
000300 a1 7e bc 3d 84 af ed 3c 18 3c c7 3c da ce 0c 3e
       0.0920384 0.029014356 0.024320647 0.13750783
000310 49 a4 4f 3d 94 6e b0 3c f6 ae 10 3d 55 46 10 3c
       0.050693784 0.021537103 0.035323106 0.008805831
000320 f2 67 1c 3d 49 81 af 3d 4b c3 8f ba d7 df 2f 3d
       0.038185067 0.08569581 -0.0010968236 0.04293808
