4.1 DDPG/model/PV1_actor100.pth (torch, 490711 bytes, 5 tensors)

l1.weight f4 [400, 3]
0.34942606 0.13842419 0.23022372 -0.10235439 0.255573 0.10250948 0.47833842 -0.28934333
0.36148903 -0.5608357 0.14238414 -0.047592547 0.3168093 0.7240782 -0.09811461 0.6813526
-0.2283686 -0.34960848 -0.44166034 -0.003377199 -0.060816977 0.052400533 0.60642946 0.06134115
-0.0031536077 -0.16195138 0.09622719 -0.111439526 -0.95338506 -0.19041678 -0.73729247 -0.24878082
0.124533184 0.41931084 -0.26893425 -0.1767413 0.52376825 -0.59295315 0.037067503 -0.45176744
-1.2425933 -0.19602954 0.47489202 0.501529 0.206767 0.55652666 0.3040582 0.027500944
0.62918687 0.26879382 0.30005464 0.8478344 1.0109341 0.11719332 -0.3112919 -0.11034465
-0.03360799 0.8654498 0.456643 0.3170186 0.83457047 -0.4916528 0.038169675 0.7883399
0.84611195 -0.21838461 0.5976669 -0.78667694 0.2559854 0.69793683 -0.7497911 0.25856912
-0.4680307 0.24789035 0.019222613 0.67629105 -0.5446287 -0.3190981 -0.052566387 0.18069194
0.17405793 -0.2123985 0.072525345 0.093340516 0.5648094 -0.3304197 -0.2216434 0.7906015
-0.5882679 -0.29624906 0.3560044 -0.04819782 0.28938913 0.049337465 0.96801996 0.21792164
-0.596545 -1.2085754 -0.16701555 -0.13119891 -0.4039301 -0.065128334 -0.15640552 1.1752374
0.1414971 0.69399077 0.75098497 0.25666252 -0.47695398 1.3131344 0.27239278 -0.5967988
-0.16061188 -0.05365344 -0.56332844 0.23834175 0.112185255 0.66207546 -0.42674267 0.11475453
0.48570627 -0.2492731 -0.26679102 0.7444794 0.23055468 -0.3630987 -0.48776257 0.0055099693
-0.14245568 -0.5391578 -0.22083534 0.07870478 -0.23472281 -0.11887404 -0.013486641 0.71592903
-0.3462237 -0.4347875 0.25267342 -0.3457768 -0.1188012 -0.4395635 0.15828435 -0.035673983
0.49440223 -0.2980084 -0.31424803 0.5940075 0.3385005 -0.05676444 0.34917983 -0.9693311
-0.029597044 0.20904033 -1.1956264 -0.07023073 -0.65931845 0.8556279 0.15606818 0.20594636
0.052231446 0.029258374 0.20004565 -0.65727496 0.4337213 0.44260618 -0.9600369 -0.23376758
-0.29148242 -1.4496372 -0.18682952 0.2662357 0.41513488 -0.118762255 -0.9007899 -0.94069
-0.31007993 0.45035204 1.3134875 -0.08654447 -0.92888325 -0.029458452 0.16498408 0.9059294
-0.7594357 -0.28920946 -0.2951149 1.0500141 0.26545587 0.6798164 -0.5010096 -0.436084
0.8588278 -0.020456577 -0.32609195 -0.6369372 -0.6108081 -0.20375404 0.72837806 -0.027968002
-0.35187867 -0.90402097 -0.9871865 -0.30484307 0.48460406 0.15988219 0.3172394 -0.6560719
-0.49588194 -0.06191051 -0.812516 -0.0017196785 0.20011067 -0.27791002 -0.09678157 0.06252064
0.23206013 0.33058208 -0.0053147236 0.19009812 -0.21752208 -0.19873434 0.8358137 0.27597743
-0.115633294 -0.08770762 0.116545446 0.32633322 0.6845354 -0.7968154 0.085521296 -0.09545696
-0.51979905 -0.24569412 -0.56496763 -0.46200743 -0.18427557 -0.45738298 -0.073217936 0.019971594
-0.21426137 -0.35981163 -0.14079984 -0.5073281 0.8615027 0.14878124 0.5771721 0.6542225
-0.19810376 -0.67484266 -0.027360404 0.16882792 0.012538335 -1.4710616 -0.22881529 0.83348787
00000000: f9e7 b23e 12bf 0d3e c4bf 6b3e 2e9f d1bd
00000010: 77da 823e 7ef0 d13d c6e8 f43e cf24 94be
00000020: 1715 b93e ee92 0fbf 26cd 113e 67f0 42bd
00000030: d434 a23e 305d 393f 50f0 c8bd 206d 2e3f
00000040: 75d9 69be e2ff b2be 4e21 e2be ff53 5dbb
00000050: 391b 79bd f1a1 563d f63e 1b3f dc40 7b3d
00000060: c2ac 4ebb 95d6 25be c312 c53d 683a e4bd
00000070: 0b11 74bf 9efc 42be 33bf 3cbf 66c0 7ebe
00000080: 410b ff3d e9af d63e c0b1 89be acfb 34be
00000090: ad15 063f c7cb 17bf 18d4 173d 104e e7be
000000a0: 4c0d 9fbf f8bb 48be 0c25 f33e 3464 003f
000000b0: baba 533e 8878 0e3f 84ad 9b3e a949 e13c
000000c0: 6412 213f 589f 893e c3a0 993e ad0b 593f
000000d0: 4a66 813f 0d03 f03d a761 9fbe 60fc e1bd
000000e0: 88a8 09bd 1e8e 5d3f 1ccd e93e 4350 a23e
000000f0: 69a6 553f eab9 fbbe ce57 1c3d a5d0 493f
00000100: cb9a 583f 37a0 5fbe b300 193f a963 49bf
00000110: 8510 833e fdab 323f 4ff2 3fbf 2c63 843e
00000120: b8a1 efbe f8d6 7d3e be78 9d3c 6921 2d3f
00000130: c96c 0bbf d360 a3be da4f 57bd 4f07 393e
00000140: 3e3c 323e fe7e 59be 2b88 943d 5029 bf3d
00000150: 5997 103f c52c a9be 7df6 62be dc64 4a3f
00000160: ba98 16bf f5ad 97be 3546 b63e 146b 45bd
00000170: d02a 943e 1516 4a3d 28d0 773f da26 5f3e
00000180: 2cb7 18bf 99b2 9abf 2006 2bbe 0259 06be
00000190: edcf cebe 0162 85bd c528 20be 2e6e 963f
000001a0: 9ee4 103e 61a9 313f 8d40 403f 4569 833e
000001b0: 5033 f4be ca14 a83f 1177 8b3e cec7 18bf
000001c0: 7177 24be b6c3 5bbd 4b36 10bf dc0f 743e
000001d0: 62c1 e53d c77d 293f 047e dabe 6c04 eb3d
000001e0: 7eae f83e 7341 7fbe d598 88be 3496 3e3f
000001f0: 8716 6c3e 13e8 b9be 04bc f9be f98c b43b
00000200: e7df 11be 3f06 0abf a922 62be f92f a13d
00000210: 2d5b 70be 3c74 f3bd 13f7 5cbc 2047 373f
00000220: 3c44 b1be 789c debe 695e 813e a809 b1be
00000230: 0b4e f3bd 780e e1be 4b15 223e e21e 12bd
00000240: 4a22 fd3e 8f94 98be 1ee5 a0be e010 183f
00000250: f04f ad3e d481 68bd b3c7 b23e 1526 78bf
00000260: 8075 f2bc ab0e 563e 490a 99bf 21d5 8fbd
00000270: 18c9 28bf 6e0a 5b3f 56d0 1f3e 9ae3 523e
00000280: a4f0 553d 42af ef3c c4d8 4c3e 2c43 28bf
00000290: b810 de3e 479d e23e fac4 75bf c560 6fbe
000002a0: 2f3d 95be b68d b9bf 3d50 3fbe 0c50 883e
000002b0: 8f8c d43e a039 f3bd 2b9a 66bf 0fd1 70bf
000002c0: ccc2 9ebe 8b94 e63e 5c20 a83f 3a3e b1bd
000002d0: 4bcb 6dbf da52 f1bc 96f1 283e fdea 673f
000002e0: 616a 42bf 4313 94be 4d19 97be dd66 863f
000002f0: d5e9 873e 7308 2e3f 2a42 00bf 6746 dfbe
00000300: 24dc 5b3f 8d94 a7bc 86f5 a6be 510e 23bf
00000310: eb5d 1cbf e6a4 50be fc76 3a3f 271d e5bc
00000320: 7129 b4be eb6d 67bf 41b8 7cbf 6414 9cbe
00000330: 061e f83e 28b8 233e 346d a23e 54f4 27bf
00000340: 3de4 fdbe e095 7dbd 0c01 50bf d666 e1ba
00000350: d0e9 4c3e 394a 8ebe 6a35 c6bd d20a 803d
00000360: 2ca1 6d3e 0e42 a93e 2227 aebb 15a9 423e
00000370: 1cbe 5ebe 0481 4bbe e3f7 553f ea4c 8d3e
00000380: 26d1 ecbd 0da0 b3bd 61af ee3d 2615 a73e
00000390: b63d 2f3f 18fc 4bbf ca25 af3d f07e c3bd
000003a0: 8d11 05bf 3d97 7bbe b8a1 10bf 3d8c ecbe
000003b0: bcb2 3cbe 1a2e eabe 49f3 95bd 789b a33c
000003c0: 5567 5bbe 3b39 b8be d52d 10be 41e0 01bf
000003d0: 718b 5c3f 1c5a 183e 8dc1 133f 207b 273f
000003e0: b6db 4abe 7dc2 2cbf ed22 e0bc 3ae1 2c3e
000003f0: 976d 4d3c bf4b bcbf 8e4e 6abe 765f 553f

l1.bias f4 [400]
-0.6138131 -0.042191893 -0.28722072 0.269352 -0.18100338 -0.81431127 -0.21558048 0.0007380256
-0.06278311 0.35978994 -0.17082006 -0.29193017 -0.20867492 -0.28408816 -0.44723254 0.07904852
-0.7024425 -0.23401277 0.079454616 -0.8125674 -0.9707851 -0.43460485 -0.11319123 -0.48506984
0.30030617 -0.5514577 -0.138258 -0.16960862 -0.7855609 -0.69717854 -0.7319837 0.15619436
-0.44055244 -0.2862213 -0.66094166 -0.0765003 -0.17855512 0.22911613 -0.49722293 -0.074811734
-0.58539003 -0.42273107 -0.10073317 -0.11540452 -0.21768284 -0.44466233 -0.4051563 -0.06926045
-0.7941434 0.09352441 -0.16248916 -0.32891452 -0.42508322 -0.33009368 -0.04420603 -0.03677456
-0.08700377 -0.123460785 0.22619972 -0.24804997 -0.6495618 -0.7186703 -0.13926658 -0.5314489
-0.7826012 0.12561744 -0.49614936 0.22495204 -0.90430784 -0.09694828 -0.2929425 -0.2506815
-0.09535542 -0.26629335 0.23951468 -1.0352165 -0.29125595 -0.06383419 0.21615073 -0.21229082
0.13305186 0.31728637 -0.33772498 -0.22551975 0.17444171 -0.7728077 -0.16189766 -1.1125389
0.46347007 -0.16135275 -0.6613391 -0.08959797 0.028993996 -0.19063194 0.053606182 -0.3875944
-0.15202248 -0.5956938 -0.028408004 -0.034356818 -0.8964732 -0.49916917 0.39980707 -0.4607207
-0.27998084 -0.14075354 -0.23959424 -0.59948635 0.13769785 -0.62378424 0.025838802 0.20874856
-1.089305 -0.7974261 -0.20645455 -0.028684542 -0.10666568 -0.36226356 0.24106656 -0.06276582
-0.5168709 0.07001279 -0.6090801 0.32691702 -0.7553405 -0.8044191 0.16957285 -0.0915632
-0.55342025 0.19245067 -0.089134395 -0.36366042 -0.19669457 -0.029767629 -0.046910994 -0.52260375
0.30180413 -0.64117795 -0.17562862 -0.005372073 -0.122490816 -0.31964427 -0.3727453 -0.73746747
-0.077027105 -0.8650848 -0.12925817 -1.0756962 -0.56857735 -0.22624637 -0.12468166 -0.47567856
-0.19757648 -0.56255394 -0.3485157 0.49866927 -0.05784622 -0.7643512 -0.38985312 -0.045223184
-0.06687025 -0.036506917 -0.1958815 0.265896 0.5568543 -0.15607412 -0.21582709 -0.24768528
-0.1974565 0.09577344 -0.7504302 0.3848033 -0.5658899 -0.51398957 -0.34272045 -0.6388709
0.07167905 -0.8328235 -0.529467 -0.6795864 -0.06777869 -0.18451189 -0.02442102 -0.08381416
-0.5861525 -0.167549 -0.48147938 -0.83732164 -0.29664177 -0.87653357 0.028144522 -0.1486793
-0.124007314 -0.32868344 -0.11721954 0.3408458 0.052472524 -0.5490043 -0.556698 -0.94133765
-0.52738315 0.30813596 -0.79979795 0.20660706 -0.34597886 0.15106894 -0.43295917 -0.86155546
-0.005703866 -0.34198603 -0.7910485 -0.5350116 -0.72027826 -0.19533354 -0.23129278 0.13552459
-0.52769667 0.04561189 0.021465102 -0.8194764 -0.32030368 0.14155503 -0.13760293 -0.09048197
-0.05807555 -0.06014765 -0.12492187 -0.060014475 -0.640818 -0.20120844 0.21788248 -0.49991933
-0.42087802 -0.35041577 -0.4347317 -0.3820636 -0.8979063 0.040060338 0.12132428 -0.2874074
-0.72189724 0.15212294 -0.034320008 -0.08123159 -0.2556515 -0.056599338 -0.18491814 -0.08933453
0.05199888 0.12453972 -0.5132983 -0.05744454 0.1020575 -0.30717152 0.25447154 -0.46189198
00000000: db22 1dbf 68d1 2cbd 980e 93be 81e8 893e
00000010: f358 39be b476 50bf 21c1 5cbe 0f78 413a
00000020: 6e94 80bd 6336 b83e 74eb 2ebe df77 95be
00000030: e1ae 55be 0174 91be aafb e4be 31e4 a13d
00000040: 46d3 33bf 0ba1 6fbe 1ab9 a23d 6b04 50bf
00000050: 5f85 78bf 8784 debe ced0 e7bd 135b f8be
00000060: bbc1 993e 552c 0dbf 8193 0dbe e2ad 2dbe
00000070: 851a 49bf 4b7a 32bf 4963 3bbf 6af1 1f3e
00000080: 1790 e1be 998b 92be 7933 29bf 30ac 9cbd
00000090: 27d7 36be 6b9d 6a3e 0194 febe e536 99bd
000000a0: 1fdc 15bf 3570 d8be 314d cebd 3459 ecbd
000000b0: 40e8 5ebe c8aa e3be a670 cfbe 6cd8 8dbd
000000c0: fb4c 4bbf ba89 bf3d 8f63 26be 7c67 a8be
000000d0: 82a4 d9be 0a02 a9be 6211 35bd eca0 16bd
000000e0: 082f b2bd 02d9 fcbd e6a0 673e d000 7ebe
000000f0: af49 26bf c7fa 37bf e69b 0ebe 090d 08bf
00000100: 8d58 48bf dca1 003e 4a07 febe d459 663e
00000110: b880 67bf d28c c6bd 8ffc 95be 5359 80be
00000120: b449 c3bd 9a57 88be 5643 753e f981 84bf
00000130: 801f 95be 80bb 82bd 9e56 5d3e c462 59be
00000140: bf3e 083e 5c73 a23e 4aea acbe a6ee 66be
00000150: d9a0 323e bad6 45bf 80c8 25be ad67 8ebf
00000160: f34b ed3e a839 25be 854d 29bf 247f b7bd
00000170: d184 ed3c 0535 43be 2892 5b3d c672 c6be
00000180: c8ab 1bbe 647f 18bf e7b7 e8bc bcb9 0cbd
00000190: 457f 65bf 1a93 ffbe 83b3 cc3e 95e3 ebbe
000001a0: a659 8fbe b221 10be 3158 75be f077 19bf
000001b0: aa00 0d3e 53b0 1fbf e5ab d33c 2fc2 553e
000001c0: 596e 8bbf 1e24 4cbf d268 53be d8fb eabc
000001d0: 8973 dabd 9c7a b9be 27da 763e 5e8b 80bd
000001e0: a751 04bf de62 8f3d acec 1bbf ab61 a73e
000001f0: ff5d 41bf 69ee 4dbf 81a4 2d3e 7d85 bbbd
00000200: f3ac 0dbf ca11 453e 188c b6bd b331 babe
00000210: 4d6a 49be 3edb f3bc be25 40bd 5cc9 05bf
00000220: 1286 9a3e 3d24 24bf fdd7 33be 3708 b0bb
00000230: 77dc fabd 6aa8 a3be 79d8 bebe abca 3cbf
00000240: 63c0 9dbd 3376 5dbf 415c 04be 6ab0 89bf
00000250: 498e 11bf 21ad 67be 1959 ffbd 248c f3be
00000260: 7d51 4abe 8903 10bf a670 b2be 9451 ff3e
00000270: 28f0 6cbd 85ac 43bf d49a c7be f23b 39bd
00000280: 45f3 88bd 4788 15bd 2995 48be 8523 883e
00000290: 018e 0e3f e5d1 1fbe c701 5dbe 36a1 7dbe
000002a0: 0932 4abe de24 c43d 321c 40bf f004 c53e
000002b0: 29de 10bf d294 03bf 0e79 afbe 0b8d 23bf
000002c0: 77cc 923d ec33 55bf 268b 07bf 60f9 2dbf
000002d0: 8ecf 8abd aff0 3cbe 970e c8bc c2a6 abbd
000002e0: 170e 16bf f791 2bbe 7784 f6be b65a 56bf
000002f0: 6ee1 97be 8164 60bf 578f e63c 633f 18be
00000300: 8cf7 fdbd 3249 a8be cc10 f0bd 5783 ae3e
00000310: 6eed 563d 8c8b 0cbf c383 0ebf 81fb 70bf
00000320: 9502 07bf ffc3 9d3e 8fbf 4cbf cd90 533e
00000330: 2424 b1be d1b1 1a3e d3ac ddbe e68e 5cbf
00000340: 7fe7 babb cb18 afbe 2882 4abf 85f6 08bf
00000350: 2864 38bf 8405 48be 04d8 6cbe f5c6 0a3e
00000360: 2117 07bf 88d3 3a3d 95d7 af3c 35c9 51bf
00000370: d8fe a3be cdf3 103e c8e7 0cbe 9c4e b9bd
00000380: a1e0 6dbd 625d 76bd 0ad7 ffbd bdd1 75bd
00000390: a60c 24bf 9609 4ebe 961c 5f3e 6df5 ffbe
000003a0: 537d d7be b269 b3be 2795 debe d79d c3be
000003b0: 30dd 65bf 4f16 243d dd78 f83d 1027 93be
000003c0: 42ce 38bf 1ec6 1b3e 2393 0cbd bf5c a6bd
000003d0: c1e4 82be b5d4 67bd 2e5b 3dbe 06f5 b6bd
000003e0: c7fc 543d ae0e ff3d 8467 03bf f74a 6bbd
000003f0: 8603 d13d 9645 9dbe 184a 823e 1b7d ecbe

l2.weight f4 [300, 400]
-0.030866671 -0.016883662 -0.040432166 0.029184835 -0.010379766 0.012182462 0.0012243853 0.044749964
0.03696458 -0.029947422 -0.004795268 0.02557647 0.005623164 -0.00018412803 -0.007688928 0.04085081
-0.0039146007 0.00532226 0.036518253 0.04959258 0.037333827 0.017051045 0.041594252 0.030212974
-0.005169471 -0.04127338 -0.010650545 -0.0019365017 0.005116773 -0.05267652 0.039938845 0.021399401
-0.0037122476 0.010852831 0.044891845 0.04361394 -0.011624293 -0.024709562 0.041612495 0.02410312
-0.035909623 -0.04805524 -0.0011349436 0.028378142 0.040598854 0.01662547 -0.056736436 -0.0036478748
-0.047613863 -0.006725613 -0.026165701 0.006910952 -0.03343724 -0.035106756 -0.00018855455 -0.04824724
-0.0436093 -0.04366002 0.028007882 -0.04107583 0.04859653 0.034994066 -0.0040610465 -0.022077795
0.0040585794 0.009857309 -0.0038229283 -0.006402036 -0.012545812 0.03520278 0.02110487 -0.01679327
-0.05173615 -0.04734924 0.020355435 -0.00028166175 -0.0070226667 -0.0062895194 0.0046806713 -0.011879325
-0.010079817 -0.0037004498 0.024938688 -0.011460305 0.02437233 0.013742871 0.020112209 -0.03434473
0.032924708 0.027631588 0.012087209 -0.045315474 0.029784514 -0.005033163 0.0037949646 0.042120475
-0.04778544 -0.031674407 -0.046825282 0.031043323 0.015810633 -0.034381576 0.0054507116 0.04227035
0.017641846 0.02520427 0.019368315 -0.041133713 -0.046105962 0.003934407 0.0018929447 0.0034753915
-0.047975034 -0.023018053 -0.006091613 0.013124198 -0.044184852 -0.055605803 -0.023039978 -0.010416869
-0.03414354 -0.005437796 0.008550819 -0.0014225846 -0.043791525 -0.020504558 -0.005063661 -0.053018887
-0.0029904426 -0.038651522 -0.0381798 -0.018270178 0.0037102762 0.035857573 -0.018551698 0.029470984
-0.007890819 0.023642804 -0.031344905 -0.028923437 -0.04951704 -0.00056166743 -0.018060004 0.0074827075
0.031033576 -0.05024494 0.041459627 -0.0020202936 0.006960962 -0.0024368495 -0.03502293 -0.041391343
-0.04829573 0.0384439 -0.015015635 0.007858283 -0.018088184 0.033867598 -0.039578788 -0.002376714
0.047560453 -0.011887642 -0.023633316 0.0030682662 -0.046370864 -0.014262078 -0.04885554 0.036877796
-0.028057348 -0.024724333 -0.045279056 -0.013369309 0.013179463 -0.03567335 -0.017037151 0.03222155
-0.021491103 -0.02392305 -0.025203181 -0.033077024 0.011635576 -0.02628456 -0.043918952 -0.013999951
-0.030332828 -0.03443626 -0.046891123 -0.04416767 -0.047398668 -0.022636378 -0.011831215 0.041997556
0.040312923 -0.016128553 0.046873685 0.0002729952 -0.007472674 -0.029111136 -0.0079344455 -0.038271587
0.03208891 -0.03870485 0.02404836 0.0058926446 0.025281344 -0.02931412 0.03169066 0.005853701
0.03210637 -0.044793975 -0.024063187 -0.02587717 -0.03044433 -0.013154517 -0.03498202 -0.028546471
-0.013532937 -0.028142208 0.02340628 -0.017930865 -0.036387254 -0.053025905 0.039015062 0.026267456
-0.030634673 0.01890765 0.007976574 0.032856133 0.0025843382 0.031132784 0.02943334 -0.04451025
0.00051857607 0.02208296 -0.03620835 0.034575846 0.045659617 -0.026602725 0.019106768 -0.019884465
-0.034566987 -0.0030500654 0.016875895 0.04542379 0.030334903 0.007545706 -0.001001213 0.021183977
0.04078931 -0.012916307 0.021147976 -0.031768795 -0.03756309 0.034482934 0.030668931 -0.052447405
00000000: 1adc fcbc 9b4f 8abc 339c 25bd 0915 ef3c
00000010: e50f 2abc f398 473c 8e7b a03a bd4b 373d
00000020: 2c68 173d 4c54 f5bc a021 9dbb bf85 d13c
00000030: 8542 b83b 7e12 41b9 67f3 fbbb 2e53 273d
00000040: 0d46 80bb 5a66 ae3b 2a94 153d 9721 4b3d
00000050: 5beb 183d a2ae 8b3c bc5e 2a3d 3381 f73c
00000060: aa64 a9bb 470e 29bd a07f 2ebc 37d2 fdba
00000070: 9aaa a73b 56c3 57bd ea96 233d cc4d af3c
00000080: 2e49 73bb 13d0 313c 83e0 373d 88a4 323d
00000090: d273 3ebc b56b cabc dd71 2a3d e873 c53c
000000a0: f815 13bd 92d5 44bd 63c2 94ba 4779 e83c
000000b0: fc4a 263d 2332 883c 7764 68bd 2f11 6fbb
000000c0: c106 43bd 8862 dcbb 7459 d6bc 4475 e23b
000000d0: 7df5 08bd 1acc 0fbd bab6 45b9 e69e 45bd
000000e0: aa9f 32bd d9d4 32bd c970 e53c 213f 28bd
000000f0: 280d 473d f055 0f3d 8712 85bb 7edc b4bc
00000100: d5fd 843b 8d80 213c 188a 7abb 2cc8 d1bb
00000110: f38c 4dbc ca30 103d 1fe4 ac3c 0a92 89bc
00000120: 49e9 53bd 47f1 41bd 71c0 a63c 00ac 93b9
00000130: 661e e6bb 5018 cebb 5160 993b 80a1 42bc
00000140: d125 25bc 3f83 72bb 384c cc3c 01c4 3bbc
00000150: 7ba8 c73c c729 613c 5cc2 a43c 0fad 0cbd
00000160: 0fdc 063d a45b e23c 6e09 463c b89c 39bd
00000170: a7fe f33c 3bed a4bb f1b4 783b 8586 2c3d
00000180: aaba 43bd 06bd 01bd decb 3fbd 914e fe3c
00000190: 4d85 813c b2d3 0cbd e29b b23b ad23 2d3d
000001a0: a285 903c 2f79 ce3c 4daa 9e3c d37b 28bd
000001b0: 9bd9 3cbd 33ec 803b af1c f83a 65c3 633b
000001c0: 7881 44bd 5b90 bcbc 279c c7bb e006 573c
000001d0: 2dfb 34bd e9c2 63bd 56be bcbc 84ab 2abc
000001e0: 19da 0bbd 8a2f b2bb bc18 0c3c 0576 baba
000001f0: be5e 33bd 2df9 a7bc 11ed a5bb 552a 59bd
00000200: 4dfb 43bb 0f51 1ebd 6c62 1cbd 57ab 95bc
00000210: 1b28 733b 64df 123d bbf9 97bc 226d f13c
00000220: 7e48 01bc 8eae c13c 8463 00bd d8f0 ecbc
00000230: 61d2 4abd dd3c 13ba 93f2 93bc 8031 f53b
00000240: 203a fe3c a3cd 4dbd 92d1 293d e766 04bb
00000250: c818 e43b 8db3 1fbb 3474 0fbd f889 29bd
00000260: bed1 45bd 5a77 1d3d 2304 76bc 07c0 003c
00000270: ac2d 94bc c0b8 0a3d 5e1d 22bd a5c2 1bbb
00000280: c0ce 423d 62c4 42bc a89a c1bc f714 493b
00000290: 60ef 3dbd 7eab 69bc bf1c 48bd 2c0d 173d
000002a0: 86d8 e5bc af8a cabc 8876 39bd f20a 5bbc
000002b0: adee 573c 381e 12bd 7f91 8bbc befa 033d
000002c0: 1c0e b0bc 46fa c3bc e776 cebc c67b 07bd
000002d0: 25a3 3e3c b852 d7bc 5ce4 33bd 0d60 65bc
000002e0: 8d7c f8bc 090d 0dbd e810 40bd 29e9 34bd
000002f0: 1b25 42bd ed6f b9bc b6d7 41bc a105 2c3d
00000300: 2a1f 253d 0720 84bc 9ffe 3f3d cc20 8f39
00000310: 55dd f4bb 7a7a eebc 7aff 01bc abc2 1cbd
00000320: a96f 033d fa88 1ebd 1101 c53c 1617 c13b
00000330: d21a cf3c 2a24 f0bc 11ce 013d 67d0 bf3b
00000340: f881 033d e379 37bd 2920 c5bc 5cfc d3bc
00000350: 6366 f9bc 0b86 57bc 4e49 0fbd 4ada e9bc
00000360: 40b9 5dbc 7d8a e6bc 87be bf3c c0e3 92bc
00000370: cd0a 15bd b131 59bd 42ce 1f3d d92e d73c
00000380: 91f5 fabc 37e4 9a3c 2db0 023c 2794 063d
00000390: 005e 293b 2e0a ff3c 301e f13c 6150 36bd
000003a0: 0df1 073a 53e7 b43c 354f 14bd 679f 0d3d
000003b0: 9405 3b3d f5ed d9bc cc85 9c3c bfe4 a2bc
000003c0: 1d96 0dbd 9be3 47bb 513f 8a3c 4c0e 3a3d
000003d0: e780 f83c f841 f73b 223b 83ba 058a ad3c
000003e0: b112 273d eb9e 53bc 853e ad3c ff1f 02bd
000003f0: c1db 19bd fa3d 0d3d 693d fb3c 17d3 56bd

l2.bias f4 [300]
-0.022014447 -0.4468048 -0.030675057 -0.009080363 -0.052637808 -0.06686717 -0.007746262 -0.023797736
0.22795321 -0.004962342 0.043800134 -0.05865593 0.027823476 -0.042531993 0.040689092 -0.04204421
0.023545826 -0.06660962 -0.011655264 0.001714117 -0.044084344 -0.039099455 -0.024919657 -0.035124015
0.05875119 -0.124306016 -0.0928932 -0.03542718 -0.032871798 0.03165473 -0.051749736 0.03833949
-0.007579286 0.10730798 -0.14451605 -0.068206 -0.009090809 -0.0082154535 -0.3698961 0.009597551
-0.058260866 -0.09373783 0.025994487 -0.0064961105 -0.031836435 -0.022477088 -0.06458009 0.1045133
0.1811686 -0.04826672 -0.03649685 0.04019993 -0.015789406 0.03580946 -0.04841269 0.04251918
0.023939943 0.0035636255 -0.020137057 0.021917092 -0.04253898 -0.050406236 0.005791303 -0.02341571
0.1416876 -0.19753094 -0.064977266 -0.16679019 0.08278459 0.05009329 0.25020558 0.02391396
0.0006484182 0.031434324 -0.049962007 -0.3318288 -0.025533164 -0.10822904 -0.10211841 -0.019201225
-0.016867293 -0.00971386 -0.041101452 -0.07496444 0.016740939 -0.10113624 -0.0073129004 -0.14196198
-0.012893622 -0.0289322 0.03344874 -0.31583136 0.056827974 0.014619429 -0.043388043 0.017168947
0.0743503 -0.00637271 -0.03783903 -0.023791494 0.015353624 -0.012117562 -0.061299767 0.06599196
-0.108938135 0.0031722458 -0.07878125 -0.08234086 -0.31205213 -0.042174216 -0.5811343 -0.021007916
0.19887106 -0.06553331 -0.050550595 0.008369307 -0.13259435 -0.007538098 -0.008259779 -0.18205644
-0.0017873135 -0.042546466 0.07486168 -0.0628021 0.025055682 -0.24211787 -0.18743047 0.007175003
-0.02522485 0.014432301 -0.003801614 -0.026138265 0.023580845 -0.042252332 0.023685332 -0.015091149
-0.11746346 -0.120266825 -0.011303329 -0.042760067 -0.024258032 0.07558795 -0.06086128 -0.04504823
-0.04933172 -0.05705297 0.025223887 -0.027479028 -0.030979538 0.009700765 0.094005935 -0.053534523
-0.14413823 -0.011840485 -0.039930493 0.19845021 -0.05966312 -0.013373298 -0.024424097 -0.059212703
0.032624073 -0.029104495 -0.46255362 0.035679784 -0.021264365 -0.007919373 -0.097809985 -0.0685145
-0.028586892 0.016687697 -0.03943787 -0.0020609908 -0.048681837 -0.0589681 -0.3113473 0.006441284
-0.08653756 -0.042950273 -0.009575359 0.037500758 -0.016992686 0.020947762 0.021544317 -0.07205594
0.043873247 -0.07706421 0.0086434465 -0.049219836 -0.053292762 0.027249305 -0.016456604 -0.056076866
-0.038243532 0.054885965 0.037879243 -0.008164115 -0.010113236 0.041873936 0.0028497134 -0.43976948
-0.0026104238 -0.11446979 -0.056535322 -0.15332256 -0.038112607 -0.1103425 0.0015666984 0.03818073
-0.1211182 0.07164243 0.054428674 0.021795992 -0.036155317 0.005942871 -0.011315016 -0.014356163
-0.04354367 0.012077448 -0.062257376 -0.079221815 0.01085492 -0.019038474 0.07934094 -0.03405892
0.029281832 -0.0034706173 -0.012544249 -0.03342831 -0.051295076 0.03437317 0.10545502 -0.022577835
-0.049020365 -0.019210368 -0.038052037 0.002714525 -0.01632756 0.0008467004 0.002087346 -0.03511482
-0.060986638 0.041470014 -0.01157991 -0.07499855 -0.06820751 -0.039577924 -0.06605058 0.1644074
0.14954144 0.060665052 -0.039057538 -0.06767689 -0.020873666 -0.3179948 -0.07982087 -0.05866334
00000000: a457 b4bc 99c3 e4be 424a fbbc cec5 14bc
00000010: be9a 57bd a8f1 88bd 5bd4 fdbb 78f3 c2bc
00000020: 916c 693e 249b a2bb c567 333d 3341 70bd
00000030: 0fee e33c 0736 2ebd 9ba9 263d 8d36 2cbd
00000040: 2de3 c03c a06a 88bd b8f5 3ebc 39ac e03a
00000050: c991 34bd c026 20bd 4f24 ccbc 33de 0fbd
00000060: 16a5 703d 2794 febd ca3e bebd 171c 11bd
00000070: 94a4 06bd 64a8 013d 88f7 53bd de09 1d3d
00000080: a95b f8bb 49c4 db3d 04fc 13be 96af 8bbd
00000090: 9ef1 14bc 1c9a 06bc 0663 bdbe 0c3f 1d3c
000000a0: f2a2 6ebd 9ff9 bfbd 64f2 d43c 53dd d4bb
000000b0: ec66 02bd df21 b8bc 9142 84bd 120b d63d
000000c0: 4384 393e 53b3 45bd b97d 15bd afa8 243d
000000d0: c958 81bc f1ac 123d 634c 46bd 9728 2e3d
000000e0: b31d c43c b78b 693b 78f6 a4bc 798b b33c
000000f0: 5a3d 2ebd c576 4ebd f8c4 bd3b 4ed2 bfbc
00000100: 8e16 113e 8d45 4abe cd12 85bd 0ccb 2abe
00000110: f88a a93d 9f2e 4d3d f21a 803e 36e7 c33c
00000120: 9cfa 293a 47c1 003d f6a4 4cbd 77e5 a9be
00000130: ed2a d1bc 30a7 ddbd 7523 d1bd e34b 9dbc
00000140: 472d 8abc e226 1fbc ff59 28bd f586 99bd
00000150: 4b24 893c 8420 cfbd 0ea1 efbb 7b5e 11be
00000160: c53f 53bc 3903 edbc 8c01 093d a6b4 a1be
00000170: 73c4 683d 5486 6f3c a9b7 31bd e4a5 8c3c
00000180: f844 983d 2bd2 d0bb 19fd 1abd 61e6 c2bc
00000190: c48d 7b3c bd88 46bc 7715 7bbd cb26 873d
000001a0: f51a dfbd 74e5 4f3b 1058 a1bd 53a2 a8bd
000001b0: 4cc5 9fbe dfbe 2cbd 38c5 14bf cb18 acbc
000001c0: dba4 4b3e 5436 86bd 240e 4fbd 6b1f 093c
000001d0: d0c6 07be 2602 f7bb 0654 07bc 016d 3abe
000001e0: 4a44 eaba 3445 2ebd 1551 993d 639e 80bd
000001f0: 9341 cd3c bfed 77be c6ed 3fbe 4a1c eb3b
00000200: 58a4 cebc 7575 6c3c 8024 79bb ea1f d6bc
00000210: 9e2c c13c c810 2dbd be07 c23c de40 77bc
00000220: af90 f0bd 744e f6bd 9931 39bc 2e25 2fbd
00000230: c8b8 c6bc dbcd 9a3d ad49 79bd 7e84 38bd
00000240: 0f10 4abd 60b0 69bd 53a2 ce3c b31b e1bc
00000250: cdc8 fdbc f5ef 1e3c 2f86 c03d 0447 5bbd
00000260: f998 13be 98fe 41bc 288e 23bd 8836 4b3e
00000270: 5161 74bd ad1b 5bbc 0b15 c8bc 0589 72bd
00000280: d2a0 053d 8d6c eebc d4d3 ecbe f724 123d
00000290: 9b32 aebc 42c0 01bc 9a50 c8bd 5551 8cbd
000002a0: 0f2f eabc a3b4 883c 9b89 21bd b011 07bb
000002b0: 9b66 47bd 8988 71bd ea68 9fbe 6811 d33b
000002c0: 9b3a b1bd a0ec 2fbd f7e1 1cbc 659a 193d
000002d0: 3f34 8bbc a49a ab3c b57d b03c 1192 93bd
000002e0: 6fb4 333d d7d3 9dbd 3e9d 0d3c bd9a 49bd
000002f0: 8349 5abd ef39 df3c 00d0 86bc dbb0 65bd
00000300: 40a5 1cbd 1bd0 603d 4427 1b3d c8c2 05bc
00000310: fcb1 25bc 0184 2b3d 42c2 3a3b 7729 e1be
00000320: a513 2bbb 236f eabd 9591 67bd 9700 1dbe
00000330: f71b 1cbd 40fb e1bd ad59 cd3a 6663 1c3d
00000340: d20c f8bd 44b9 923d 9af0 5e3d 828d b23c
00000350: 9917 14bd 6abc c23b 9e62 39bc 1d36 6bbc
00000360: d95a 32bd 7de0 453c 9701 7fbd 0c3f a2bd
00000370: d6d8 313c 93f6 9bbc 817d a23d 5e81 0bbd
00000380: 74e0 ef3c 4c73 63bb 6586 4dbc 20ec 08bd
00000390: c91a 52bd e2ca 0c3d cdf8 d73d 27f5 b8bc
000003a0: 94c9 48bd 105f 9dbc 74dc 1bbd 2ce6 313b
000003b0: 60c1 85bc 1af5 5d3a dbcb 083b 8fd4 0fbd
000003c0: 20cd 79bd 76dc 293d aab9 3dbc d798 99bd
000003d0: 61b0 8bbd 761c 22bd 8745 87bd 6a5a 283e
000003e0: 6421 193e eb7b 783d ccfa 1fbd 2e9a 8abd
000003f0: 40ff aabc 37d0 a2be 2079 a3bd f848 70bd

l3.weight f4 [1, 300]
-0.035325784 -0.3005532 0.022739392 0.03012727 -0.007156223 0.03421699 -0.04207468 0.01161868
0.6296723 -0.037731092 -0.66538036 0.0052398504 -0.005316293 -0.012942245 -0.22494885 -0.011966286
-0.003725195 -0.054743305 -0.00092526776 0.053526226 -0.04970371 0.014497629 -0.086051196 0.008376495
-1.3659471 0.02720606 -0.04571207 -0.02568308 0.03492749 -0.038408794 -0.019588498 -0.003820804
-0.017144024 -0.24412952 -0.0091060335 -0.30239516 -0.33230206 -0.29573697 -0.35224745 0.48479483
8.757367e-05 -0.017415576 0.46271393 -0.00204832 -0.007181378 -0.004292984 -0.030863494 0.5098445
0.47263592 -0.028211355 0.0023058236 0.010456822 -0.024443798 0.02924449 -0.019715058 -0.9377912
-0.067568325 -0.0037431412 0.019322837 -0.019091144 -0.01087013 0.033314086 -0.017502123 -0.04795506
0.70530367 -0.31072775 -0.0042713587 0.26243308 2.625255 -0.07853863 0.7094229 -0.040587418
0.010070943 0.010250835 -0.011401916 -0.30403894 -0.024863701 -0.61949635 -0.033513986 0.5255395
0.8742095 -0.015575787 -1.00846 0.013011281 0.51457703 -0.3091154 0.0028619186 -0.28897431
-0.0017787388 -0.022686996 -0.03350113 0.018427262 -1.0306784 -0.040426627 0.030988341 0.030127157
0.8060625 -0.050392803 0.045371924 0.026070636 -0.036320154 -0.016895035 0.055477247 -0.6909031
0.4666569 -0.033014037 0.004713864 0.0025968964 0.3256548 0.02811596 0.14941533 -0.032579485
0.61964417 0.5489225 -0.05627196 0.004736834 -0.44457045 -0.03710292 -0.017639155 0.41912806
0.046842135 -0.028065449 0.11067556 0.008122864 -0.02598441 0.60135067 1.1844883 -0.034657106
-0.015304754 0.007488342 0.017342785 -0.00045078012 -0.07095774 0.015726862 -0.014094579 0.7666977
0.081512876 0.60322875 -0.021579467 -0.006814023 -0.045166746 -0.32016325 -0.01849799 -0.0152746495
0.0042475173 -0.047452807 -0.06646685 0.00833036 -0.01058892 -0.012674043 -0.58887637 0.021033546
-0.0070769116 -0.036459036 0.004241664 0.5310414 0.0043645874 0.04456231 -0.036014546 -0.0056490866
-1.0525597 0.00037736332 0.040200036 0.00339506 -0.015472058 -0.015987445 0.032729674 -0.009115817
0.028075168 0.036664236 -0.002099236 -0.025273027 0.013686294 0.024751289 -0.31301075 -0.04488128
0.022006301 -7.622125e-05 0.0007023354 0.0009327412 -0.047924735 0.047929514 0.90338874 0.012898869
-0.002194424 -0.017909411 -0.034260307 -0.023685683 -0.004911206 0.00049294543 0.03437646 -0.044120904
0.012912746 0.199677 0.0018436915 -0.0026180819 0.0169212 -0.004163326 -0.05282099 0.011438236
-0.3166772 -0.07343833 0.0017035372 -0.08225902 0.045824487 -0.020936016 -0.0034509418 0.00384013
-0.0137379095 -0.975792 0.15166189 -0.032884434 0.045184873 -0.0358777 -0.0021467686 0.011235767
-0.024127893 0.0058491356 -0.00852925 0.02127125 -0.012353378 0.0057820976 -0.3969524 -0.010331681
-0.0046910103 -0.0071122027 0.036327872 -0.0008225719 0.0012451287 0.036323335 -0.13177009 -0.047199115
0.0020944155 0.055966906 0.035178646 -0.0070710084 0.0076682637 0.038888972 -0.008781727 -0.009511015
0.013573554 -0.0021958998 -0.026140986 -0.0059560263 -0.022767603 -0.021795975 0.0030438679 0.19294098
0.24807388 -0.2805681 0.0029268493 0.014269008 0.56958365 0.15241261 0.14868918 -0.004323356
00000000: c5b1 10bd 1ce2 99be f647 ba3c 77cd f63c
00000010: c07e eabb 1d27 0c3d 8056 2cbd 475c 3e3c
00000020: 3432 213f eb8b 1abd 5e56 2abf 0db3 ab3b
00000030: 4c34 aebb b60b 54bc fe58 66be 3e0e 44bc
00000040: 6722 74bb 843a 60bd ab8d 72ba 513e 5b3d
00000050: 1e96 4bbd 7787 6d3c 9c3b b0bd 913d 093c
00000060: 5bd7 aebf 3edf de3c 943c 3bbd 5365 d2bc
00000070: 2110 0f3d 8a52 1dbd 0f78 a0bc 7466 7abb
00000080: a071 8cbc 17fd 79be 7931 15bc 8ad3 9abe
00000090: 7f23 aabe d66a 97be c759 b4be 0737 f83e
000000a0: c2a7 b738 1cab 8ebc d7e8 ec3e 1b3d 06bb
000000b0: c451 ebbb 29ac 8cbb 70d5 fcbc 2b85 023f
000000c0: 56fd f13e 801b e7bc 4d1d 173b 1753 2b3c
000000d0: 5c3e c8bc 2492 ef3c 7981 a1bc 1613 70bf
000000e0: 4361 8abd 7d4f 75bb ed4a 9e3c 0865 9cbc
000000f0: a118 32bc 5a74 083d 9d60 8fbc 866c 44bd
00000100: c88e 343f b517 9fbe c1f6 8bbb a15d 863e
00000110: 2e04 2840 dcd8 a0bd bd9c 353f fe3e 26bd
00000120: 9900 253c 1ef3 273c 1acf 3abc feaa 9bbe
00000130: f6ae cbbc 5097 1ebf f645 09bd c289 063f
00000140: 32cc 5f3f 9631 7fbc 3815 81bf 452d 553c
00000150: 52bb 033f 6044 9ebe 078f 3b3b 71f4 93be
00000160: 9224 e9ba 14da b9bc 7b38 09bd c5f4 963c
00000170: 45ed 83bf 6496 25bd 43db fd3c 3acd f63c
00000180: 1d5a 4e3f af68 4ebd e9d7 393d 1692 d53c
00000190: 71c4 14bd 7567 8abc 1c3c 633d 07df 30bf
000001a0: a7ed ee3e ba39 07bd c276 9a3b b130 2a3b
000001b0: 3abc a63e 7153 e63c 5500 193e 1172 05bd
000001c0: 00a1 1e3f 2f86 0c3f 6d7d 66bd 7237 9b3b
000001d0: bd9e e3be 3bf9 17bd fd7f 90bc f497 d63e
000001e0: 8add 3f3d 83e9 e5bc dea9 e23d c315 053c
000001f0: 42dd d4bc 1ef2 193f 509d 973f 9cf4 0dbd
00000200: cac0 7abc c460 f53b 7512 8e3c af56 ecb9
00000210: 4b52 91bd 9fd5 803c f3ec 66bc 4d46 443f
00000220: 39f0 a63d 336d 1a3f 6cc7 b0bc 2b48 dfbb
00000230: c400 39bd 70ec a3be 1989 97bc 8642 7abc
00000240: c22e 8b3b e05d 42bd c61f 88bd 107c 083c
00000250: 267d 2dbc caa6 4fbc 9ac0 16bf 8b4e ac3c
00000260: 70e5 e7bb 1256 15bd a8fd 8a3b 54f2 073f
00000270: d004 8f3b f886 363d fd83 13bd f91b b9bb
00000280: 47ba 86bf d9d8 c539 cba8 243d a87f 5e3b
00000290: 847e 7dbc 1af8 82bc 8d0f 063d 825a 15bc
000002a0: e5fd e53c 3d2d 163d 5693 09bb 6109 cfbc
000002b0: 7a3c 603c 37c3 ca3c f242 a0be 6fd5 37bd
000002c0: 8f46 b43c f9d8 9fb8 ee1c 383a 3483 743a
000002d0: ba4c 44bd bd51 443d 7c44 673f c755 533c
000002e0: 53d0 0fbb c2b6 92bc 8954 0cbd 7a08 c2bc
000002f0: 2fee a0bb 0239 013a 55ce 0c3d 1fb8 34bd
00000300: fb8f 533c 2178 4c3e 05a8 f13a 2094 2bbb
00000310: 549e 8a3c 836c 88bb d35a 58bd 7067 3b3c
00000320: 8423 a2be d666 96bd 3949 df3a 6b77 a8bd
00000330: 75b2 3b3d 0282 abbc 3229 62bb b1aa 7b3b
00000340: f814 61bc 81cd 79bf 414d 1b3e d4b1 06bd
00000350: c613 393d 7ff4 12bd cdb0 0cbb 3916 383c
00000360: dca7 c5bc 1baa bf3b 44be 0bbc 0b41 ae3c
00000370: d365 4abc c077 bd3b 583d cbbe 3646 29bc
00000380: 0cb7 99bb 7b0d e9bb 89cc 143d dea1 57ba
00000390: 9633 a33a c7c7 143d bdee 06be dc53 41bd
000003a0: 7642 093b 8e3d 653d 7c17 103d ebb3 e7bb
000003b0: 0f46 fb3b 0b4a 1f3d 3ce1 0fbc 17d4 1bbc
000003c0: 9d63 5e3c 16e9 0fbb 9f25 d6bc c52a c3bb
000003d0: 2083 babc 798d b2bc a17b 473b 5292 453e
000003e0: 1407 7e3e 9fa6 8fbe 62d0 3f3b 8fc8 693c
000003f0: 3cd0 113f 0d12 1c3e fa41 183e f0aa 8dbb
