4.1 DDPG/model/PV1_q_critic100.pth (torch, 492311 bytes, 5 tensors)

l1.weight f4 [400, 4]
00000000: 71d2 d6be 3b20 003d ca22 13be 5931 28bd
00000010: 16a0 043e 46d2 bdbf cc2f 71be f6b3 06bd
00000020: ec1a eabd 4215 80bf fea6 ecba 25e4 d63a
00000030: 45ec 5e3f 6239 223e ed3d 05bf 7491 a5bd
00000040: 560e 93be 2160 253f 7105 2e3e c872 873d
00000050: acfc 1abf 35fe 47be e8f7 42be a7f8 dcbc
00000060: 793c 2d3f 28ec bdbe 3d3c 86be 9bb8 70bd
00000070: a0b2 44bf f4af 66bf 9425 87be 43b4 05bd
00000080: dac6 30bf c54f d6be ff1c d1be 9be6 94bd
00000090: a988 823e cd9e cb3f dc98 933e aeb5 c73c
000000a0: 4070 533f 21b2 f63e 486b c03e ee46 453d
000000b0: 1c51 e13e c4da 953d 3bda 1fbe 93c6 16bd
000000c0: ab54 29bd 088d 91bf 0ad6 80be 5c0f 12bd
000000d0: 11a0 8f3e 4f91 683d c188 a039 3e5a d8bc
000000e0: 43fb b93b f877 babc 7e47 23ba 6969 6dbc
000000f0: b8be d83e 309e b03f 1fa6 7f3e b7ff 2d3d
00000100: 4984 5c3f c5c9 b13f 6435 cd3e 45d9 843d
00000110: 5ccc 00bf 748a 3c3e ceac 3d3e c0ad d63c
00000120: 9127 8abe 5cdc 3abf 8343 36be f2e6 e5bc
00000130: 0e98 bbbe 8bb1 7abf fba0 73be cbb2 1abd
00000140: 31d9 aa3f 8a93 81bc dd2a a2bd 5191 1bbc
00000150: c95a c73e 1542 9f3d 2cb9 ac3e 5e19 0e3d
00000160: 4960 8c3f cf19 c1bf d948 3b3d c4e5 b0bb
00000170: bffb d9bd 8093 c0be 665e a0bd 3bf6 95bc
00000180: 1f3f 483f e930 cebe 978e d4be 99e5 57bd
00000190: a70e 1e3f 9b98 9c3e f6a0 9cbe 48d3 3cbd
000001a0: a9a7 4b3f 39ff b83f 08b3 bd3e 570c 813d
000001b0: 744a 073f 8f43 093f fec2 87be 4696 63bd
000001c0: 4f83 09bf 7cc1 1fbf f47b 5fbe 9d9d f8bc
000001d0: 9171 ecbd 121c 90bf e2de 7ebe 90f6 13bd
000001e0: c3e7 7b3f afc7 51bf ceb2 203e 3e09 ea3c
000001f0: 6810 a23f 5a5e 1cbe 3ae9 953e b89e 3d3d
00000200: 4006 49be 41b5 8a3f 5462 2cbe 346a fabc
00000210: ad88 953f 310a 493f 479a e13e c43c 7d3d
00000220: def8 063f 1d01 94bf aba4 97be 6663 17bd
00000230: bd49 5cbe 1e10 7abf 3cd1 63be ff65 f9bc
00000240: 1639 4cbe a19b 0740 ef76 f63e 4563 9d3d
00000250: d013 f83b 31b0 dabe a076 783e 3f9b d83c
00000260: feab a33f 0cd5 763f b299 de3e 9123 7e3d
00000270: db66 98be 8624 55bf 5979 68be 4f3b 6cbd
00000280: 5da8 893f 3889 adbf 43fa d4bd bca1 b5bc
00000290: 05da fb3e 263f dc3f d65a c53d 8131 873c
000002a0: d9ea bb3f 7a31 6d3f 4f3c 153f 03d4 be3d
000002b0: 125c ad3f 956f 82bf 1917 e2be 6d5b 7ebd
000002c0: 4f62 07bf aaf2 a03e 14a6 1fbe 5f28 9c39
000002d0: b6ba 06bf 477c fb3d f975 6f3e fddd db3d
000002e0: 45fb 93bf 0182 e1be 2229 52be c83c bfbc
000002f0: efce 713f 1c59 eebf 8504 fcbe 7a03 8cbd
00000300: 0b5c e03f df35 743f 12ea 28bd 46a9 b7bb
00000310: c91a e7bd baf7 0940 4002 e23d 9759 6b3c
00000320: c16e de3e a290 e6bf 2f2d d7be ae50 6cbd
00000330: de0f ab3f e9f8 90bf e2cd 14be b399 9bbc
00000340: 9103 e73e 2b79 ca3f ea42 c03e 7398 723d
00000350: 6e36 11bf 36e6 103e 679b c03e 9e32 843d
00000360: 10de dc3c d718 ddbb 8f8a 55bb 0806 a73b
00000370: 4d4b 9fbe 7997 c0be 0da9 d83d b5a3 473c
00000380: 742e 493f 8aed e1be 4933 c4be dbb4 5abd
00000390: 0342 113f 325d c03f dd66 bc3e 176a 533d
000003a0: 29da 28bd ca1b 84be 9a05 1e3d 7271 463c
000003b0: 169f a6be 60ce 613e fbaa 28be abad c5bc
000003c0: 2868 263d 9361 71bf 64ff 4bbe a0f9 c6bc
000003d0: 9128 833f 9aa5 30bf f600 c5be 136f 5fbd
000003e0: eb76 583f dc71 fb3e a67f c4be 2d40 90bd
000003f0: 900a 6a3f 7595 82be 0615 93be 18d1 31bd
-0.4195743 0.031280737 -0.1436874 -0.041062687 0.12951693 -1.4829795 -0.2355339 -0.032886468
-0.11430916 -1.0006487 -0.0018055139 0.0016394897 0.8707927 0.15842202 -0.52047616 -0.080843836
-0.28721875 0.64599806 0.16994263 0.0661369 -0.60541797 -0.19530566 -0.19039881 -0.026974035
0.676704 -0.37094235 -0.26217833 -0.058769803 -0.7683506 -0.90112233 -0.26395857 -0.032642614
-0.69053423 -0.41857734 -0.40842435 -0.07270547 0.25494888 1.5907837 0.2882756 0.024378624
0.82593155 0.48182777 0.3758185 0.048163347 0.44007194 0.07317117 -0.15610592 -0.03681047
-0.04134051 -1.1371164 -0.251633 -0.03565918 0.28051808 0.056779202 0.00030619468 -0.026410218
0.0056757047 -0.022762284 -0.000622861 -0.014490464 0.42333007 1.3798275 0.24965714 0.042480197
0.8613935 1.38897 0.40079796 0.064867534 -0.5031183 0.1841219 0.18522951 0.026205897
-0.26983312 -0.7299249 -0.17799191 -0.028064225 -0.36639446 -0.9792716 -0.23791878 -0.037768167
1.3347532 -0.015817422 -0.07918332 -0.009495095 0.3893645 0.07776276 0.33735025 0.03469216
1.0966884 -1.5086001 0.04572377 -0.005398484 -0.1064372 -0.37612534 -0.07830505 -0.018305888
0.78221315 -0.4027169 -0.41515037 -0.052709196 0.6174111 0.3058518 -0.30591553 -0.04609993
0.79552704 1.4452888 0.37050653 0.06301182 0.5284798 0.5361871 -0.26515955 -0.055563234
-0.53715986 -0.6240461 -0.21824628 -0.030348593 -0.115450986 -1.1258566 -0.2488971 -0.036123812
0.98400515 -0.8194532 0.15693209 0.02856886 1.2661257 -0.15270367 0.292795 0.046293944
-0.1963129 1.0836564 -0.16834384 -0.03056822 1.1682335 0.78531176 0.44063017 0.06182553
0.5272349 -1.156284 -0.2961782 -0.036960028 -0.21512504 -0.9768084 -0.22247785 -0.030444143
-0.19943652 2.1188738 0.48137614 0.0768495 0.007570721 -0.42712548 0.24264002 0.026441215
1.2786863 0.96418834 0.43476635 0.062045638 -0.29765972 -0.83258855 -0.2270254 -0.05767375
1.0754505 -1.3557501 -0.10399296 -0.022171848 0.49189773 1.7206771 0.09636466 0.016503097
1.4681045 0.9265362 0.5829515 0.09317782 1.3543723 -1.0190302 -0.44158247 -0.06209891
-0.5288438 0.31435138 -0.15590698 0.00029784717 -0.5262865 0.122795634 0.23384847 0.107357
-1.1561056 -0.44044498 -0.20523503 -0.023344412 0.9445638 -1.8620944 -0.49222198 -0.068366006
1.7528089 0.953947 -0.04123885 -0.0056048958 -0.11284406 2.155745 0.110355854 0.014364622
0.43443874 -1.8012888 -0.4202666 -0.05769413 1.3364217 -1.1325961 -0.14531663 -0.018994188
0.45119908 1.5818228 0.3755105 0.05922742 -0.5672368 0.14150319 0.37618563 0.06454967
0.026961356 -0.006747346 -0.0032583808 0.0050971545 -0.31112137 -0.37615564 0.10579119 0.012185027
0.78586507 -0.4412654 -0.38320377 -0.053395133 0.5674135 1.5028441 0.36797228 0.051614847
-0.04122368 -0.2580245 0.03857956 0.012112008 -0.32543248 0.22051382 -0.16471474 -0.024130663
0.040626675 -0.9428951 -0.19921643 -0.024288952 1.0246755 -0.6900269 -0.38477296 -0.054549288
0.84556454 0.49110305 -0.38378638 -0.070434906 0.9142237 -0.25504652 -0.28726977 -0.043412298

l1.bias f4 [400]
00000000: e23c 3a3e 7275 ad3d acb7 24be 96c4 b9be
00000010: 9511 c8be ae19 273f 93b6 50bf 0c87 2a3e
00000020: 476e 37bf 3c56 643e ab75 87bf eeff c9ba
00000030: 6497 bdbe fc67 6e3e 9ffa 62bd c15f 7f3e
00000040: 5efa 8cbe 5f33 1e3f 5e4d f73e a864 263f
00000050: 7a0b 1e3f 1211 9cbf adbc 09bf 8ee2 2a3e
00000060: 9a52 b6bf a055 a63e 9fa8 c3bd 6166 e83c
00000070: 9af1 aa3e 5c07 dc3e 2aaa 08bf ef80 fbbd
00000080: 8855 80be 9199 80bf b058 57bd 73fb f93e
00000090: c4c6 e0be a6d8 8bbf 8989 6abf edc6 9d3e
000000a0: 5e23 f1be 3aa4 8cbf 2d9f b8bf b94b 6bbf
000000b0: d9d5 203f ada0 c03e 63d0 ccbd 5640 2bbe
000000c0: b3e3 a43e 4943 59be 03f8 76bf 850f 38be
000000d0: aca4 6cbf bd88 59bf 5492 57bd f523 8e3e
000000e0: f9c7 96bf a5a2 81bf 3213 653e d15d cf3e
000000f0: e1bd 0bbe d70d 64bf a154 4fbf c8f2 ebbe
00000100: 5475 cb3e a466 b13d 4be9 82be a220 25bf
00000110: 2232 1dbc f2be 113e ad7e 1fbf e802 d33e
00000120: 8910 c7be 5d1c 07be ac92 8f3e 3d0c 9c3d
00000130: 920c 103f e32c bb3e 35e5 8abf 5bdf 41be
00000140: da6d 94bd 3f03 96be 8a7e fa3e 1229 8b3e
00000150: 0256 12bf 067c 29bf aa3e f3be 44f3 fd3d
00000160: a4ab 25be c8ba d53e ce6c 07bf f718 e03e
00000170: b877 143f 1625 a6be c535 b73e 0ef6 f63e
00000180: cc33 e8be ef19 bbbd 150b b8bc d15a a2bf
00000190: b6b9 1e3f ef4b 42bf dcea 47bf f685 ba3e
000001a0: 3220 a9be 8486 d4be f36c 583e af2d b53e
000001b0: 61e9 f7be 66f2 2c3d 413a e53e f758 973e
000001c0: 9c47 a0be 7ad2 62bf 2211 6e3e 3339 0b3e
000001d0: b1f4 cdbe 3df7 e3be f424 1cbf bcdb 903d
000001e0: bf6b 423c a3e5 223c d4b5 8fbf d5c3 c63d
000001f0: 50d0 e03e 7c24 9fbf f4b3 8bbd 790e 18bf
00000200: 7d05 5d3d c9b2 153d 927c a9bf 53b0 63bf
00000210: e81e a23d c61e 01be 7f54 54bf 5a37 d53c
00000220: 05f5 2cbf 349e dd3e 76e1 ae3e e7de 6dbc
00000230: e9b6 76bf 8dc0 5e3e 3534 65bf 9367 413d
00000240: edb2 d43e 5623 85be 350c 4abe 4e1a 453e
00000250: da03 213e ee6a c2be 8215 0abf 5b1d be3b
00000260: 2b93 22be b400 73be e37d 253e 3567 1e3e
00000270: f0ae e13d c548 56bf ad8c 6cbf 500c a43e
00000280: 1876 08bf a2c4 58be 4fc4 37be c1db 033f
00000290: 20db 33bf 2a53 63bf 374a 343d 7917 093f
000002a0: 4334 9dbf 727c babe beba 623d a35e ba3e
000002b0: 29d9 efbe 5e13 023f f622 19bf 6e2e 0a3f
000002c0: bad8 01bf b8e3 a53e 9088 59bf fd06 da3d
000002d0: cca2 56bf ff23 41bf c8e6 893e 307c 4bbd
000002e0: 6a2b 4b3d 3119 ba3e 3715 a9be 3e6a d9be
000002f0: 9dbd 27bf 05c4 6d3e 9e91 7ebf 6b9b 8d3d
00000300: 4a65 57bf ac89 e8be f2b1 22be b2be 7bbf
00000310: ed95 193e aaa5 edbe e465 7c3e 1c61 46bf
00000320: bd8f aabd 156a 3e3d 86fb b33e a294 4dbe
00000330: 1f92 653b e7b4 4abe dedf 69be df0e a4be
00000340: 066b b4be b369 f23e b7e4 ee3e e017 a73e
00000350: be16 bdbe cdeb a8be f99f f7be 76f5 2dbe
00000360: 3f48 33bf 6ee3 cd3e 702b c43e cb62 4bbf
00000370: d215 133e 7624 ea3e b4c6 29bf 538a f9bd
00000380: 76a5 1bbf 847d ad3d 16d4 4dbe bba6 59be
00000390: 7c32 38be 5fa4 073f 02d3 1e3f c6eb e8be
000003a0: 50ea fb3e dee9 c6bc 71a8 a1bd 102b 9f3e
000003b0: 66f5 123f b1b3 233f 51c8 5ebe da14 90be
000003c0: 4b7b ce3e 438a da3e c1d9 43bf 850d f0be
000003d0: 1b83 f53e 190f 113f d462 d8be 0d92 93bf
000003e0: d8b8 8cbe 3fd6 923e b585 9a3d d7f2 62bf
000003f0: e27b af3d 5b85 ec3e 241f 2dbf d1ef dbbe
0.18187287 0.084696665 -0.1608569 -0.36282796 -0.39075914 0.6527356 -0.81528586 0.16653079
-0.71652645 0.22298521 -1.0582784 -0.0015411356 -0.37029564 0.23281854 -0.055414792 0.24938871
-0.27534765 0.61797136 0.48301214 0.6499734 0.6173626 -1.219271 -0.5380352 0.16687986
-1.4243958 0.32487202 -0.09553646 0.02836913 0.33387452 0.42974365 -0.5338465 -0.122804515
-0.25065255 -1.0046865 -0.052574813 0.48824653 -0.43901646 -1.0925491 -0.9161611 0.3081583
-0.47097296 -1.0987618 -1.4423577 -0.9191242 0.62826306 0.37622586 -0.10000684 -0.16723761
0.3220497 -0.21217074 -0.96472186 -0.1797467 -0.9243877 -0.8497427 -0.052629784 0.27761808
-1.1779777 -1.012776 0.22370604 0.40501264 -0.13646652 -0.8908362 -0.8098851 -0.46083665
0.39737952 0.08662155 -0.25568613 -0.6450292 -0.009594472 0.14232996 -0.62302667 0.41213155
-0.38879803 -0.13194413 0.2804159 0.07619522 0.5626918 0.36557683 -1.0851198 -0.1893286
-0.07247515 -0.29299352 0.48924667 0.27179772 -0.5716249 -0.6620487 -0.47508746 0.12399915
-0.16178757 0.41744065 -0.529004 0.43769047 0.57995176 -0.3245017 0.3578321 0.482346
-0.45352018 -0.09135806 -0.022466222 -1.2683965 0.6200212 -0.75897115 -0.7809274 0.3643033
-0.33032376 -0.41508877 0.21135311 0.35386416 -0.4842024 0.042223357 0.44771007 0.29560062
-0.31304634 -0.8860241 0.23248723 0.13596039 -0.40225747 -0.44524565 -0.60993886 0.07073161
0.011866509 0.009942445 -1.1227365 0.09705321 0.4390893 -1.2433009 -0.06821433 -0.59397084
0.053960312 0.036547456 -1.3241141 -0.88940924 0.07916051 -0.12609395 -0.8294143 0.02602737
-0.6756137 0.43284762 0.34156388 -0.014518476 -0.9637285 0.2175314 -0.89532787 0.047217917
0.4154276 -0.26003522 -0.19731219 0.19248316 0.15724126 -0.37972206 -0.5393907 0.0058018393
-0.15876453 -0.23730737 0.16161303 0.15469058 0.11019695 -0.8370479 -0.92402154 0.32040644
-0.53305197 -0.2116876 -0.1794598 0.5150719 -0.70256233 -0.88798773 0.04401609 0.5355144
-1.2281574 -0.3642307 0.055353872 0.36400327 -0.46845368 0.508108 -0.5981897 0.53977096
-0.50721323 0.32400298 -0.84974 0.10645864 -0.8384216 -0.7544555 0.26933885 -0.04967898
0.04960195 0.36347345 -0.33023998 -0.4246387 -0.655237 0.23219307 -0.99440944 0.06914409
-0.8413893 -0.45417535 -0.15888193 -0.9833785 0.14998598 -0.46415454 0.24648243 -0.7749193
-0.08328197 0.046487886 0.35152835 -0.2007623 0.0035029722 -0.19795571 -0.22839305 -0.32042596
-0.35237902 0.47346267 0.4665887 0.32635403 -0.36931413 -0.32992402 -0.48364237 -0.16988167
-0.70032114 0.40212578 0.3831439 -0.7944762 0.14363793 0.45730942 -0.6631882 -0.121845864
-0.6079935 0.08471206 -0.20100436 -0.21255009 -0.17988008 0.52985185 0.6204072 -0.4549238
0.49202204 -0.024281438 -0.07893456 0.31087542 0.574057 0.6394606 -0.21756102 -0.28140908
0.4032844 0.4268361 -0.7650414 -0.46885315 0.47951588 0.5666366 -0.422629 -1.1528946
-0.27484775 0.28679082 0.07545034 -0.88651794 0.08568551 0.46195492 -0.6762564 -0.42956403

l2.weight f4 [300, 400]
00000000: d7f0 3abc c20e efbe e56b 0abf 78e2 d73d
00000010: 101f 513d 0d3d 473d 3286 c03c 6628 9dbc
00000020: edf9 7abe d21d 86bc f76c dc3d 3915 b13d
00000030: aab6 12be 2316 ff3a e568 0a3c 9afe 76bd
00000040: 5799 8fbd 3b12 c43d dc2a 58bc e88b 6ebd
00000050: b9bb ac3e 8c32 c63d 56e7 88be 6b5b 13be
00000060: 103a b43d e0ae f73b 5981 37bd 93c2 943d
00000070: a480 61bc 6ea2 15bb 61cb 3c3e 4e22 b23d
00000080: f27b 44be c732 813d f9e4 ecbd 6867 353c
00000090: 3330 8b3e 69bb f53d f9fd 61bc 2f04 cebd
000000a0: 97ff 83be 2db4 43bd 989b 5bbd 68b8 38bc
000000b0: 705b b9bc 3c3e e23d bffd 57be 7ae1 04be
000000c0: 3c2a 743d c4ba 05bf d12b e63e cf79 37be
000000d0: e697 0dbe dce2 1e3d 6e1f 3a3d 46a6 383e
000000e0: 54ba 403c 2d10 dcbd 58fc 6d3d bd1a 79bb
000000f0: 0e77 fdbe fe19 13bd 224f 823e 4799 ae3d
00000100: c836 12bc 9f21 c5bb f8d2 333e ccc4 1dbb
00000110: 60ae 673b dcc4 e3bd 6dd9 9d3e a519 57bc
00000120: d466 77bf 7158 23bd dd07 6fbd ae3b e93d
00000130: c798 183d 1201 593d ec8c 713d bd08 f53d
00000140: 20c8 5bbf 21f9 d9bd f456 8b3d 62b7 1e3d
00000150: 70e7 fa3e bbbd 463c 5545 69bf a6fc 3ebd
00000160: 79fd 1bbe d199 0c3d 53d0 0abe 0e6a a53d
00000170: 01ce a43d 65d5 09be 72bc 093e b9e4 d03d
00000180: b7b2 88bc ffae f53b 8927 153e b62d 76bc
00000190: 012d 563b fd51 2fbe 135f af3e 5955 a43d
000001a0: 463d f1bd 40f9 59be 5de9 00be 7321 6f3d
000001b0: f3d9 fbbd a61b a8bd d5f5 5c3d e1e3 1abe
000001c0: d4e9 1dbf 8663 bc3e 7c30 d73d f19d f6bd
000001d0: 10d7 11bf 5bc7 5abf 6a76 f6bd 7609 5bbc
000001e0: 337c 743e 88fc 50bd b6e5 ac3d cca5 d8bc
000001f0: 417e 483d 74a5 c03c 7efb 9a3d 2255 79bd
00000200: 581d 103d 1bd3 ccbb 4c76 183e db0e d9bd
00000210: f83a 0a3d ecb1 00bf 8bd7 393c 4297 1b3e
00000220: fd0b f9bf 6093 7dbd 2e3b a53d 12e1 dfbd
00000230: 35b7 df3c 4f16 843d 2dba b93e 14d9 97be
00000240: abe6 cb3d edb3 c1bd c584 8cbe ac6e 08bd
00000250: 2183 9c3c f881 56bd ff90 75bd c200 d13c
00000260: a04a ec3c fefa bdbd 8736 8cbd 2238 053c
00000270: 8dd1 2abe d3f3 c53d 0020 3ebd d6e2 a9bb
00000280: f214 71c0 fd8c 62be eacf 7bbd b209 583d
00000290: b562 50bf cd0c f23d 61d8 223c b2a7 993d
000002a0: 3250 023f 8c15 01be 227c 14bc 0252 0cbb
000002b0: e73e 05be 316d f23c f767 7abe 71e4 ef3d
000002c0: 239d ba3d 5b0c 93be d5d5 0d3e 296f 5c3d
000002d0: 624d d93e f9ce 603d e1aa 00bd a4af 4d3d
000002e0: 066a 80bd feef 273b b0ef a5be 7ed5 1bbb
000002f0: 3ba1 ecbe 5c61 00be 42bf 0a3d 3713 443d
00000300: 5a52 833d 8cfc 20be 9e64 f7be d855 1f3a
00000310: 11cc 273e 091a bbbd d783 37bd 4918 2ebe
00000320: 07f5 ed3b ad31 9dbd 7d4e f93c 5136 36bf
00000330: 342d 0dbd 5e72 be3b d389 4fbf 406e 26bf
00000340: 701d d4bf 295f 123e e609 193e ef4d bdbc
00000350: a2a5 6ebe 5f82 8ebe 7abe 333d 74f8 8b3c
00000360: ae50 03be 35c2 693d 084d adbd 54a7 da3d
00000370: 51a1 afbd 9136 a9bb bedf 8fbc 72f0 e0bd
00000380: 00fc d23d ea59 fa3c 9c95 c33d 4b91 e4be
00000390: c1c7 3ebd 5566 61bd 893c 093e 055a 8fbf
000003a0: ce25 6ebc 51db 5f3d 1f13 42be e7a8 1a3c
000003b0: 53e3 4cbd 24f4 4d3d a4b7 dc3d 596e a1bc
000003c0: 2e21 d33d 6ee9 c23c 8aae e8bd 2ed7 ddbc
000003d0: d93c 4a3d c222 e73d 1f36 7bbf bbe3 9a3e
000003e0: 5821 f1be 8b32 233d 8c4f c7bb 3b5f 43be
000003f0: ffb9 7fbc 2fa2 8fbd 4e38 b1bd 5f51 c4be
-0.01140996 -0.46690947 -0.54070884 0.10541242 0.051055014 0.048642207 0.02350149 -0.019184303
-0.24509402 -0.016371641 0.10762971 0.08646626 -0.14327493 0.0019461553 0.00844786 -0.0603014
-0.07011669 0.0957379 -0.013193812 -0.058238894 0.3373697 0.0967761 -0.26738995 -0.14390342
0.08800137 0.0075586885 -0.04480109 0.072636746 -0.0137635805 -0.0022832411 0.18436958 0.08697949
-0.19187906 0.06308513 -0.115671106 0.011072017 0.2718521 0.11998636 -0.013793462 -0.10059392
-0.25780937 -0.04777925 -0.053615183 -0.011274435 -0.022626609 0.110470265 -0.2109289 -0.12976637
0.05961059 -0.52238107 0.44955304 -0.1791756 -0.13827476 0.03879057 0.04544013 0.18032178
0.011763174 -0.10745273 0.058101982 -0.0038010322 -0.49504894 -0.03591346 0.25451 0.08525329
-0.008924194 -0.006015971 0.17560947 -0.00240736 0.0035351738 -0.11121532 0.30829945 -0.013128673
-0.9664128 -0.039879266 -0.05835711 0.11388336 0.037255075 0.052979536 0.058972284 0.11964557
-0.8585224 -0.10643221 0.06803694 0.038749106 0.49004698 0.012130196 -0.9112142 -0.046627663
-0.15233411 0.03432638 -0.13556032 0.08076869 0.080471046 -0.1346031 0.13450792 0.101998754
-0.01668678 0.007497668 0.14565863 -0.015025547 0.0032680633 -0.1712112 0.34252223 0.08024091
-0.11779265 -0.21286488 -0.12589021 0.05838151 -0.1229743 -0.082083985 0.05394538 -0.15125991
-0.6168492 0.3679468 0.105072945 -0.12041844 -0.56968784 -0.8546044 -0.120343044 -0.013368955
0.23875503 -0.051022083 0.084422514 -0.026446246 0.04894853 0.023516394 0.075674996 -0.060872205
0.035184234 -0.0062507517 0.14888877 -0.105985366 0.033747643 -0.5027149 0.011342893 0.15194419
-1.9456784 -0.061908126 0.08067928 -0.10931601 0.02730904 0.064495675 0.36274853 -0.29657805
0.09956106 -0.09458146 -0.27445045 -0.03330867 0.019105496 -0.05237004 -0.059952732 0.025513057
0.028844178 -0.092763886 -0.06846338 0.008131059 -0.166815 0.096656464 -0.046417236 -0.0051845117
-3.7669034 -0.22124095 -0.06147758 0.05274362 -0.81400615 0.11818848 0.009939284 0.075026885
0.5090362 -0.12605876 -0.009062799 -0.0021411185 -0.13012277 0.029593082 -0.24453722 0.117134936
0.09112003 -0.28720364 0.13851102 0.053816948 0.4244185 0.054884885 -0.031412963 0.050216332
-0.06270222 0.0025625224 -0.3240943 -0.0023778374 -0.4621676 -0.1253714 0.033873804 0.047869887
0.06412192 -0.15721339 -0.48318952 0.00060781604 0.16386439 -0.09135825 -0.044803467 -0.17001452
0.0072618756 -0.076754905 0.030432934 -0.7117663 -0.034466937 0.0058119735 -0.8106968 -0.6501198
-1.6571484 0.14294113 0.14945182 -0.02310845 -0.23305371 -0.2783384 0.043882824 0.017086245
-0.12823746 0.057069976 -0.08461958 0.106764466 -0.085756905 -0.0051639755 -0.017562743 -0.10983361
0.103019714 0.030560452 0.0955002 -0.446421 -0.04657722 -0.055029232 0.13401999 -1.1199347
-0.0145353805 0.054652516 -0.18952607 0.0094396835 -0.05002148 0.05028166 0.10777214 -0.019705938
0.10309063 0.023792949 -0.11361416 -0.027080145 0.049374435 0.112859264 -0.9812946 0.3025187
-0.47095752 0.039843123 -0.006082481 -0.19079296 -0.01560831 -0.07013356 -0.086533174 -0.3834333

l2.bias f4 [300]
00000000: 65b5 dc3c cd8e a7bc 2cd9 1a3e abe7 d83d
00000010: bd88 773c 0ab3 19bc fd94 e23d 6b99 1bbc
00000020: d35c be3b 92ff 053d e253 cd3d 4d5e 5ebb
00000030: cf26 303d 0439 fcbc 49a9 fc3c 3436 793c
00000040: f96b 0a3d c001 50bc 91af db3d 9155 203d
00000050: 359a 1b3e 9ef7 be3c 0c5f 893c 4e66 ba3c
00000060: d5ca 30bd 0c66 783d 0058 3e3e 1adf 923d
00000070: 93e7 c83d c2e0 993c e7ca 23bc fd67 af3c
00000080: 54b8 573d 1d50 353d 3254 07bd fe01 a33c
00000090: 9473 a13a 17a2 063e 6374 ff3c a535 673d
000000a0: a6ad 893d 96f9 9c3c 6f7b a33b 2d30 ab3d
000000b0: 2b89 27bc 0f59 e2bc a368 69bd 2cdd 943a
000000c0: a73a 4f3d 5c9b 3f3d 1901 1bbd 3a79 24bd
000000d0: d53a fcbc 5f6e 0f3e 6708 71ba 3004 f63d
000000e0: 3ae3 47bc 5bf7 de3d daa7 173a 0f10 833d
000000f0: 6ff7 013e e773 553d cb76 62bd 4759 a03b
00000100: 7b16 d2bc 9059 833d 3727 a53c 4583 553c
00000110: 08d9 243d 1901 823d 9c6f 513d d084 38bc
00000120: 1ec8 be3d 7dc3 f73d 0955 d6bd 2da7 1c3d
00000130: 623e 28bd 0a8f d9bc 9a7a 39bd 6ce0 c5bc
00000140: 85d4 f13c 620d d7bc 054b af3d 29a6 6e3b
00000150: d1b0 c23c 6126 a4bc c04d fa3d 5a37 ed3d
00000160: 8555 7a3d 29e4 b03d e4f7 533c b80c 943d
00000170: 519b 62bd 110c 8b3d 601a 14bd 93c7 ef3d
00000180: 1f96 123e 0ad1 573c 1eba c43d 3a6a 0d3d
00000190: 518d 32bc da54 29bc 2d0c 28bd 07f0 ca3d
000001a0: 60e6 f03d 156a 37bd 211e 0c3d 7df8 debc
000001b0: 0c94 8b3c 7df6 903c 4beb ef3d cb15 383c
000001c0: c6cc 39bd 805d a83d eb77 563d 8916 243e
000001d0: 8cd1 5a3d d11e fd3c c5bb 48bd 8956 51bc
000001e0: 671e bd3d ec62 e93b 4987 d03d c53c fd3d
000001f0: bcc3 953d 2e78 26bc f591 19bd 0ff3 d13d
00000200: 7750 c03e 0df9 063d 5fa6 70bd 07c3 033d
00000210: 82be 49bc f808 25bc aa2b 01be 904e 6e3d
00000220: 91f4 0c3d 3a89 e8bc a666 a43d e2b4 0cbd
00000230: 11a0 20bd ad6e c83d 7d1f 0e3d cb89 df3d
00000240: 0fae 69bc 0d4f d43c b891 8b3d e232 c2bc
00000250: d95c 46bd f9d4 10bc a46d e83d d70e f83d
00000260: 8069 37bd bbeb ba3d 5395 ff3c cdd3 39bc
00000270: 6993 4a3d 0712 be3b 7a80 12bc 3545 4cbc
00000280: a78b 8e3d b547 053e 81cd f53d 68b0 2dbd
00000290: 0349 b23c 1232 60bd 43df 993c 803b be3c
000002a0: 2054 993d 92e9 26bb 1a2d ffbb 218e a2bc
000002b0: 389c 33bd 4139 46bd 104c 87bb 753d 9a3d
000002c0: 8ac9 da3d 54bb 47b9 df1e 043e 5ba0 08bd
000002d0: d40b c3bc fde5 9b3d 9b95 fb3d bed0 50bd
000002e0: 3ea9 923c 6b69 a93d b756 adbb 7be0 acbb
000002f0: 15fd 87bc 930f 78bd f139 173c 15ae 113c
00000300: 13b1 2cbd 7514 493e d957 a43c ad92 d83d
00000310: c7c2 04bd b537 1dbd 789b d53d 9a97 0b3c
00000320: dd3b fd3d 8f83 d53c 2cd9 0bbd fc1a 833c
00000330: 2c74 f73c ff07 cc3c 3b77 1cbd 1fe9 c13c
00000340: 1c98 e1bc 6f11 9a3c 2c4f c8bc e2a4 1e3c
00000350: f913 a3bc 251c 163d 7537 973c 39f9 4a3d
00000360: 11be 51bd c5ea 893d 3302 3e3d c713 523c
00000370: 0014 153c 9630 eabb 204e 37bb 2ba6 61bc
00000380: d98f 313e 7d13 20bd 4634 a13d 8aa4 c03c
00000390: 52b2 a03d d1b4 3b3d bc75 2d3e a13a 1e3a
000003a0: 49b7 8ebc 426e 0b3a 16ce 273e f7da f1bc
000003b0: bc59 24bd 5d6d 203d 4cb0 d83c 0b12 183d
000003c0: 6554 173d 4263 1dbd 8428 8c3d 7d77 ea3d
000003d0: 9d96 023d 68e0 413d 30ab e1b9 e9a0 bf3d
000003e0: 6ea0 593d 3fff 8d3d 7ce4 39bd ae75 b3bb
000003f0: 0f13 e73d 7c41 39bb 18ac 9e3d 00ae 0abd
0.026941964 -0.020453835 0.15121907 0.10591062 0.015108285 -0.009381065 0.110635735 -0.009497027
0.0058094054 0.032714434 0.10025765 -0.003393072 0.04300576 -0.030788906 0.03084244 0.015210677
0.033794377 -0.01269573 0.10726846 0.039144102 0.15195544 0.023311432 0.016768955 0.02275386
-0.043162186 0.060644194 0.18588257 0.071714595 0.09809794 0.01878393 -0.009997106 0.02141189
0.052666023 0.044265855 -0.03303928 0.01989841 0.001231777 0.1314777 0.031183427 0.056447644
0.06722574 0.01916198 0.0049890797 0.08358798 -0.0102255745 -0.027630357 -0.056984555 0.0011357418
0.050593045 0.04677902 -0.037842844 -0.040154673 -0.030789772 0.14006947 -0.00091946725 0.120125175
-0.012200171 0.10887023 0.00057852047 0.06399547 0.12692045 0.052112486 -0.05528907 0.004893455
-0.025645485 0.06413567 0.0201603 0.013031785 0.04024604 0.063478656 0.05113183 -0.011262134
0.09315513 0.12097833 -0.10465438 0.03824537 -0.041075118 -0.026557464 -0.045282938 -0.024154864
0.029520283 -0.026251499 0.08559231 0.0036414957 0.023765953 -0.020037832 0.12221861 0.11582823
0.061116714 0.08637268 0.01293752 0.072289884 -0.055323903 0.06789411 -0.036157966 0.11707988
0.14315079 0.013172397 0.096058115 0.034525134 -0.01089795 -0.010335172 -0.041027237 0.09909063
0.117626905 -0.044778902 0.03420842 -0.027218098 0.017038368 0.01769566 0.117148004 0.011235665
-0.045361303 0.08220959 0.052360456 0.16024221 0.053422496 0.030898483 -0.049007196 -0.012776979
0.092343144 0.007122388 0.101820536 0.123651065 0.07312724 -0.010160489 -0.03749271 0.10251438
0.3756139 0.032952357 -0.058752414 0.032168414 -0.012313487 -0.010072939 -0.12614313 0.05818039
0.034412924 -0.028385747 0.08027391 -0.03435219 -0.03921515 0.09786735 0.034698 0.10914954
-0.01426269 0.0259166 0.06814903 -0.023705903 -0.04842839 -0.008839839 0.11349037 0.121122055
-0.044778347 0.09126993 0.031199133 -0.011342001 0.049456988 0.005800489 -0.008941764 -0.012467672
0.0696023 0.13015635 0.120020874 -0.042404562 0.02176333 -0.05473525 0.018783217 0.023221731
0.07486749 -0.0025468809 -0.007787359 -0.019843163 -0.043850154 -0.048394445 -0.0041289404 0.07531253
0.10682972 -0.00019047904 0.12902401 -0.033356052 -0.023809351 0.07612226 0.12284394 -0.050980322
0.017902967 0.0827206 -0.005289878 -0.0052757836 -0.016600171 -0.060561728 0.009230123 0.008891602
-0.04216106 0.1963671 0.02006142 0.10574851 -0.032412317 -0.038383204 0.10430044 0.008520031
0.12364934 0.026063709 -0.034142658 0.016004078 0.030206762 0.024906157 -0.038199645 0.023670731
-0.027538352 0.018807141 -0.024451815 0.009682866 -0.019906985 0.036647934 0.018459061 0.049554083
-0.051206652 0.06734232 0.046388816 0.012822098 0.009099007 -0.007146905 -0.002797015 -0.013772528
0.1734003 -0.039081085 0.078712985 0.023515958 0.07846512 0.045826737 0.16939443 0.0006035958
-0.017421382 0.0005318859 0.1638721 -0.029523356 -0.04012464 0.039166797 0.026451252 0.037126582
0.03694572 -0.038424738 0.06843665 0.11448572 0.031881917 0.04733315 -0.0004304289 0.09356863
0.053131513 0.0693345 -0.045383915 -0.005476675 0.11282932 -0.0028267791 0.07747668 -0.033857346

l3.weight f4 [1, 300]
00000000: 6fe7 3cbe c6a2 0fbf 1ff6 5bbe 8733 2fbe
00000010: 3ade 08bf ef8b c9ba 879e c9bd 76ad b1bb
00000020: 37d3 7ebf c101 5ebf ce74 14bf a74e 5f3c
00000030: 7aa8 aabf 1d89 333d 54e7 58bb 313c 58bf
00000040: c867 4bbf 1497 c4bb 2268 d2be e999 a83c
00000050: 209b 80be fd06 233c 4dd3 623c 13f6 dbbe
00000060: ca36 923c 4536 61bf 62c5 44be 60ff 89bf
00000070: 82db 5abf 40c7 34bb 5341 d0bd f4fb debe
00000080: 6477 e7be 5318 33c0 215e f23c eb9d f3bb
00000090: 1db9 b1bf 2efd 9ebf d7f6 c63c 2603 d8bf
000000a0: 8701 b5bf 2a23 98bf b16f 39be 0580 debe
000000b0: 6547 46ba 464b 073d 44b3 73b9 97e5 92bf
000000c0: 5c13 b3be bfbb 84bf 842d af3c 42c0 fd3b
000000d0: 3b63 1d3d 56ce a5be 4896 8cbc 534b 05bf
000000e0: ec73 b43c f327 50be f4c4 ef3a 4513 29bf
000000f0: a47c 60bf 3562 27bf 9cf2 d93c 0b8c a33c
00000100: b243 353d 08ea 32bf e6fb 5dbf edf1 9f3c
00000110: 7a85 c33c ae63 78bf ed9d 98bf e68e 87bc
00000120: deda 40bf 083a d2bd 77d9 81bf 556b b1be
00000130: 525c 013d ef9c 4b3c 6210 dc3b 7743 7d3b
00000140: c21f 15bd 38de 9e3c 8b5c 83bf 25f3 b03c
00000150: 35fc 22c0 71ee 263c c40a b3be ef62 80be
00000160: b16a a9be d31b a7be 900c a3bb 3143 92bf
00000170: 2fca 47ba bb44 5bbf 2bb0 ab3c a26b 59bf
00000180: 8d82 90bf 51e8 3b3d 526b d2be 35b3 fa3a
00000190: 12e8 1d3d a6ac cc3c 2fff 233d b4e3 9fbe
000001a0: 99a3 bbbe 62d4 173b e896 45bb 990a 9f3c
000001b0: f303 a7bf 497a 90bf 7911 6c40 3c0b 4ebc
000001c0: c8dd 163d d0b9 85bd a8bf 4ebc c505 8cbf
000001d0: 0f49 9bbf b9f5 5dbd 36e4 123c 1d61 353d
000001e0: ef13 2ebf 8cd4 513c 33e4 50be c6f2 50bf
000001f0: fb36 91be a0f4 c3b9 b63c db3c 711c e9bd
00000200: d2b0 8840 980c 773c 966f d13c a166 2e3c
00000210: f654 9d3c 17b0 a4bb eaa6 4dbf a81b 7dbe
00000220: a496 b3bb 9088 ae3c 74d7 7fbf b4af 7b3c
00000230: 8487 343d f2be d7be 216a 463d 4adb 35bf
00000240: a8c5 a93c ef8c eebd 9e23 cfbf f0d5 093d
00000250: 5d64 ce3c b9e7 9fbf 4f42 0dbf 6d44 60bf
00000260: 8ff0 753c be21 27be 08b7 173d ec95 e1bb
00000270: aa16 dfbe fa85 153d 814d b73c ee3d 83bf
00000280: 3db1 7ebe f61a 17be 9201 82bf 209a 663c
00000290: e549 fa3c a813 77bb 2369 8abf 9bdc 213d
000002a0: b68a a5bf bbce 823c 9d39 2ac0 27a6 6f3c
000002b0: 6b58 453d 5aa7 483c ade7 cb3c 3919 35bf
000002c0: 0676 a1be a9fe 89bf b2d3 a7bf 4398 003d
000002d0: 8cbb f8ba 7564 79bf 0a36 9bbd cdb5 e53c
000002e0: e2d7 84bf 6d55 3ebf 6ae7 923b 83d1 453d
000002f0: b5d7 2b3d 7581 573c 56dc 113c 5621 fd3a
00000300: bf05 65bf a445 2ebe 45b5 9b3c 6798 dbbe
00000310: 991e bd39 3475 76bf 2680 72bf 8f67 9b3c
00000320: 2904 61be 7ea6 d13c 7aa2 aebb 0d99 203d
00000330: c3f7 e1be 57b1 2c3d 1782 eb3c c9e4 2c3d
00000340: 6d07 ae3c 0d43 65bf 59ac e23c 4e88 41bf
00000350: 00ea 69bc c7f1 003d 47d5 f43c e0c2 d2be
00000360: 129f ff3b 659e 5fbe 6b83 ddbf 1971 72bf
00000370: 9a55 fc3c d62a 003c e0a9 253d 989b 423d
00000380: 8e48 4bbe 9e15 3bba 900a 1dbf b730 11bb
00000390: 1c76 2abf b530 1ebf a13c 2ebe 3bea 1cbd
000003a0: 27ba 773c c1f6 033d ceed 16bf cc85 773c
000003b0: f119 e13c af0e a4bf 2ab4 413d ce9e 403d
000003c0: e3dd 1bbd 3632 3d3c c76b b9bb dd26 9dbf
000003d0: 2bea a33c 8c5b 4cbe 6174 473c f7bc 23be
000003e0: 1906 99bd 40af 1bbf d306 3c3b 91d1 603a
000003f0: b2b4 1bbe ca9d 353b ac16 13bf 56bd a3bf
-0.1844766 -0.5610775 -0.21480606 -0.171095 -0.5346409 -0.0015376786 -0.0984469 -0.0054222895
-0.9954104 -0.86721426 -0.5799073 0.013629592 -1.3332665 0.043831933 -0.0033096867 -0.84466845
-0.7945523 -0.005999455 -0.41095072 0.020581203 -0.2511835 0.009950397 0.013844323 -0.42961177
0.017848391 -0.87973434 -0.1921592 -1.0781059 -0.8549119 -0.0027584583 -0.101687096 -0.435516
-0.45208275 -2.7983596 0.0295859 -0.007434597 -1.3884617 -1.2421014 0.024287624 -1.6875961
-1.4141091 -1.1885731 -0.18109013 -0.43457046 -0.0007563739 0.03303077 -0.00023241068 -1.1476315
-0.34975708 -1.0369796 0.021384008 0.007743866 0.03842471 -0.32383984 -0.017161503 -0.5206806
0.022027932 -0.2032774 0.001829295 -0.6604503 -0.87690187 -0.6538423 0.026604943 0.019964239
0.044254012 -0.69888353 -0.8671249 0.019524539 0.023867358 -0.970271 -1.1923195 -0.016547631
-0.75333965 -0.10264975 -1.014449 -0.346522 0.031582184 0.012427553 0.00671582 0.0038644949
-0.03640724 0.019393072 -1.0262617 0.021600315 -2.5466435 0.010188685 -0.3496915 -0.2507548
-0.33089212 -0.32638416 -0.004975863 -1.1426755 -0.0007621375 -0.8565175 0.020958027 -0.8492986
-1.1289841 0.04587585 -0.41097504 0.0019126894 0.038551398 0.024984669 0.040038284 -0.3122841
-0.36648253 0.0023167362 -0.0030149762 0.019414233 -1.304808 -1.1287318 3.6885664 -0.012575921
0.0368326 -0.065295815 -0.012618937 -1.0939261 -1.2131671 -0.054189418 0.008965543 0.044282068
-0.67999166 0.012807023 -0.20399551 -0.8162044 -0.2836226 -0.00037375558 0.026762348 -0.11382378
4.2715845 0.015078686 0.025565904 0.010644586 0.019205552 -0.0050258744 -0.80332816 -0.24717581
-0.0054806042 0.021305352 -0.9993813 0.015361715 0.04407455 -0.42137867 0.048441056 -0.71037734
0.020724133 -0.11647975 -1.6182745 0.033651292 0.025194341 -1.2492591 -0.55179304 -0.8760441
0.015010967 -0.16321465 0.037039787 -0.006884327 -0.4357198 0.036504723 0.022375824 -1.0253274
-0.24872299 -0.14756379 -1.0156729 0.014074832 0.030552814 -0.0037700925 -1.0813335 0.039517026
-1.2932956 0.015967717 -2.6597664 0.014627016 0.048180025 0.012246931 0.024890745 -0.7074161
-0.31535357 -1.0780841 -1.3111479 0.031395208 -0.0018976792 -0.9741891 -0.075786665 0.02804079
-1.0378382 -0.743491 0.004483153 0.04829551 0.04195376 0.013153424 0.00890263 0.0019312303
-0.8946189 -0.17018753 0.019007334 -0.4288971 0.00036071686 -0.9627259 -0.9472679 0.018970279
-0.21974243 0.025592085 -0.0053294273 0.03920846 -0.4413434 0.042161312 0.028748555 0.042210374
0.021243775 -0.89555436 0.027670072 -0.7559861 -0.014276981 0.031480577 0.029886855 -0.41164303
0.007800945 -0.21837766 -1.730573 -0.94703823 0.030802537 0.007822713 0.04044521 0.047511667
-0.19851896 -0.0007136705 -0.6134424 -0.002215428 -0.6658647 -0.6179307 -0.17015316 -0.038309317
0.015120066 0.032217745 -0.5895661 0.015107583 0.02747819 -1.2816981 0.04729096 0.047026448
-0.038053405 0.011547616 -0.0056586 -1.2277485 0.02000912 -0.19956797 0.012173743 -0.15990053
-0.07471866 -0.60814285 0.002869059 0.00085761497 -0.15205649 0.0027712458 -0.5745647 -1.2792156
