4.2 TD3/model/BWHv3_actor5000.pth (torch, 295576 bytes, 6 tensors)

l1.weight f4 [256, 24]
0	0x3f70a37b	0.9399945
1	0xbffcb8c8	-1.9743891
2	0x40a93a17	5.288341
3	0xbee27faa	-0.44238025
4	0xbe8c1707	-0.27361318
5	0x3da05466	0.07828598
6	0x3e64c6f5	0.22341521
7	0x3e852acd	0.26009217
8	0x3e9b76f6	0.30364197
9	0xbf0d23bf	-0.5513267
10	0x3d997840	0.07493639
11	0xbefb5bb8	-0.49093413
12	0x3e3ed3f7	0.18635546
13	0x3dffc6fc	0.12489125
14	0x3d32358a	0.04350809
15	0xbe4317b8	-0.19052017
16	0xbe13ed0c	-0.14445895
17	0xbcf5a412	-0.029985461
18	0x3ee08ecf	0.43858954
19	0x3ebc992e	0.36835617
20	0xbef89b9f	-0.4855623
21	0xbf4362f8	-0.7632289
22	0xbf0a7435	-0.5408357
23	0xbe3c6f38	-0.18401802
24	0xbe7b0b16	-0.24515948
25	0xc060bcef	-3.5115316
26	0x3fe31d94	1.7743402
27	0xc094fb71	-4.6556935
28	0x3e734daa	0.23760095
29	0xbe545656	-0.2073606
30	0x3e7db184	0.24774748
31	0xbd8d5f97	-0.06902998
32	0x40862608	4.1921425
33	0xbf4509c9	-0.76968056
34	0x3dd37621	0.10325266
35	0x3ff8230a	1.9385693
36	0x3e16a9e1	0.14713241
37	0xbed4a85a	-0.41534692
38	0x3e73dc19	0.2381443
39	0x3e14cf13	0.14532118
40	0x3ee73d56	0.45163983
41	0xbe0f68de	-0.14004847
42	0xbdf45c37	-0.11931651
43	0xbe8157b1	-0.25262216
44	0xbe0bb0eb	-0.13641708
45	0x3d990c70	0.074730754
46	0xbed2d93c	-0.41181362
47	0xbe077a09	-0.13230146
48	0xbe161ad4	-0.14658672
49	0x3fe2284a	1.7668545
50	0x3ef53acd	0.47896424
51	0x40b36166	5.6056395
52	0x3f3e3aa2	0.74308217
53	0xbe6231fc	-0.2208938
54	0x3fc3b0f4	1.5288377
55	0xbc04ec99	-0.00811305
56	0x3d3c51f4	0.045976594
57	0xbfd7999a	-1.684375
58	0x3f081ce4	0.53169084
59	0xbf374556	-0.71590173
60	0xbe64d8ff	-0.22348402
61	0xbf335cbe	-0.7006339
62	0x3f055e00	0.5209656
63	0x3f3ab428	0.72931147
64	0x3f0e93f7	0.55694526
65	0x3f3b5d19	0.7318893
66	0xbcea3139	-0.028587924
67	0x3da24c09	0.07924659
68	0xbe3dd3e5	-0.18537863
69	0x3e837e7c	0.25682437
70	0x3efcd7c1	0.49383357
71	0xbe0958a8	-0.13412726
72	0x3f015831	0.50525194
73	0x3ddeabd6	0.10872619
74	0x3fa5b13c	1.2944713
75	0xbf9e5d2d	-1.2372185
76	0x3eec3128	0.46131253
77	0x3eda109d	0.425908
78	0xbfa33e75	-1.2753435
79	0xbcd6bfd4	-0.026214518
80	0xbf2b5c16	-0.66937387
81	0xbf51be57	-0.8193106
82	0xbe830f66	-0.25597686
83	0x3ee3b673	0.44475135
84	0xbca66a12	-0.02031425
85	0xbde58934	-0.1120781
86	0xbea13ea7	-0.31493112
87	0x3e4229d4	0.18961269
88	0x3e097c77	0.13426386
89	0x3da4c55e	0.08045457
90	0x3ded4e13	0.11587157
91	0xbe9546e1	-0.2915564
92	0xbe91eea2	-0.28502375
93	0xbe50700b	-0.20355241
94	0xbeba6fd3	-0.3641344
95	0xbd50866d	-0.05090945
96	0x3ecf5b80	0.40499496
97	0x3ebf0423	0.37307844
98	0xbda3177f	-0.07963466
99	0x3fc81ffa	1.5634758
100	0x3f23d6b7	0.63999504
101	0xbde32581	-0.11091138
102	0x3f19f211	0.6013499
103	0xbc9cd2f0	-0.019143552
104	0xbe6a6c22	-0.22892812
105	0x3daa4f81	0.083159454
106	0x3e05066a	0.12990728
107	0xbedbf502	-0.42960364
108	0x3c5d2e0f	0.013499751
109	0x3e00b2aa	0.12568155
110	0x3e8ce9cc	0.27522123
111	0x3e9ce84e	0.30645984
112	0x3f442e22	0.76632893
113	0xbe8d1012	-0.27551323
114	0x3ebb0901	0.36530307
115	0x3f0a62fc	0.5405729
116	0x3f10258c	0.5630729
117	0x3ea92323	0.3303462
118	0xbf342fad	-0.7038525
119	0xbeb2a0aa	-0.34888202
120	0xbe13d65c	-0.1443724
121	0x3f552a0a	0.8326727
122	0xbd22cd98	-0.03974685
123	0xbfbd2807	-1.477784
124	0x3de030d8	0.10946816
125	0x3da8d522	0.08243777
126	0xbf049963	-0.5179655
127	0xbda02027	-0.078186326
128	0x3f4ce39e	0.80034816
129	0x3e5010a4	0.20318848
130	0xbd8d2f27	-0.06893759
131	0xbe0e20a9	-0.13879646
132	0x3d4e82d9	0.050417755
133	0x3d2e9d49	0.042630468
134	0x3dbe143a	0.09281202
135	0x3f367f5a	0.71288073
136	0x3f9cdd0d	1.2254959
137	0x3dac7ef2	0.084226504
138	0xbf8c1df6	-1.0946643
139	0xbea5d3b2	-0.32388073
140	0xbe88e9a4	-0.26740754
141	0xbe5095fb	-0.20369713
142	0xbeacd80f	-0.3375859
143	0x3e5172ff	0.20454024
144	0x3ea86e45	0.3289663
145	0xbf4ae9b8	-0.79262877
146	0x3e66ae64	0.22527462
147	0xc049ba17	-3.151983
148	0x3c8ce5a2	0.017199341
149	0x3e055400	0.13020325
150	0xbebdbea0	-0.37059498
151	0x3e3802fe	0.17969891
152	0xbf05c7a1	-0.52257735
153	0xbfa9e044	-1.3271565
154	0xbd0e03c3	-0.034671556
155	0x3e8cb35d	0.27480593
156	0xbb811e06	-0.0039403467
157	0xbeff8f34	-0.49913943
158	0xbecc5e5d	-0.39915743
159	0xbf03fcca	-0.515576
160	0xbf0259eb	-0.50918454
161	0x3ea24749	0.3169501
162	0xbbcfc13c	-0.006340174
163	0xbc9fe0e4	-0.019516416
164	0xbe199c3c	-0.15001005
165	0x3bba6fb3	0.005689585
166	0xbe5e2494	-0.21693641
167	0xbe5ed3cb	-0.2176048
168	0xbf3376ac	-0.70102954
169	0xbfb5554b	-1.4166654
170	0xbea83faa	-0.32861072
171	0x3f604a35	0.8761323
172	0xbeb1fa16	-0.34761113
173	0x3e451ef7	0.19250093
174	0x3ed657e5	0.41863933
175	0x3e5bebd3	0.21476679
176	0xbdc488ab	-0.0959638
177	0xbe75907d	-0.23980899
178	0xbed3d482	-0.41373068
179	0xbe45afdf	-0.19305371
180	0x3c554d70	0.013018951
181	0xbe048b42	-0.12943748
182	0xbec39dd0	-0.3820634
183	0x3cefc45e	0.02926844
184	0x3c072381	0.008248211
185	0x3f2cbb12	0.67472947
186	0xbf61f429	-0.88263184
187	0xbf83e9f0	-1.0305767
188	0xbeefe081	-0.4685097
189	0xbd7a52b6	-0.061114036
190	0x3f95bec9	1.1698848
191	0x3d84eefd	0.06490896
192	0xbd52b242	-0.05143953
193	0x3f81c2bd	1.0137554
194	0x3e8ed4ab	0.27896628
195	0xc00f0d21	-2.2351763
196	0x3d5d2994	0.05399473
197	0x3e766645	0.2406245
198	0x3f677eb8	0.9042773
199	0xbd6c52c3	-0.057696115
200	0xbf213d23	-0.6298391
201	0x3d2fd45c	0.04292713
202	0x3e389716	0.18026385
203	0xbff59d14	-1.9188561
204	0x3d2217d6	0.039573513
205	0xbf036274	-0.513221
206	0xbe876f03	-0.26451883
207	0xbec6ca95	-0.38826433
208	0x3e7371bd	0.23773856
209	0x3e470705	0.19436271
210	0x3e198a7e	0.14994237
211	0xbc83404c	-0.01602187
212	0xbeb47d0c	-0.35251653
213	0x3d405bdc	0.046962604
214	0x3e37370d	0.17892094
215	0x3de36822	0.11103846
216	0x4007f84b	2.1245296
217	0x3ff983f1	1.949339
218	0x3f207f11	0.6269389
219	0x3fe38485	1.7774817
220	0xbf9734e9	-1.1813022
221	0xbd6a4f65	-0.057204623
222	0xbf97ffda	-1.1874955
223	0xbcc76dd9	-0.024344372
224	0xbe059829	-0.13046326
225	0x3fc7269a	1.5558655
226	0x3d1e4748	0.038642198
227	0x3ebad841	0.36493114
228	0x3d2d534e	0.042315774
229	0x4014de5b	2.3260715
230	0xbf4061c5	-0.75149184
231	0xbf51d9ba	-0.8197285
232	0xbec35f84	-0.3815881
233	0x3dc88b97	0.0979225
234	0x3d1265d3	0.03574164
235	0x3f291939	0.6605411
236	0x3eb853db	0.36001477
237	0x3c8b070f	0.01697114
238	0xbe922995	-0.2854735
239	0xbf6213a9	-0.8831125
240	0xbf369731	-0.7132445
241	0x405e47f4	3.4731417
242	0x3fac6f1e	1.347141
243	0xbe6ef3ba	-0.23335162
244	0xbfdb1011	-1.7114278
245	0x3e5d7963	0.21628337
246	0xbf116d65	-0.5680755
247	0xbe59f0ae	-0.21283218
248	0xbf23ff54	-0.64061475
249	0x3f4e8d64	0.80684495
250	0xbe258e1b	-0.1616749
251	0x3f02cabc	0.510906
252	0x3dcfbe53	0.10143723
253	0x3d33a9a8	0.04386297
254	0x3e541184	0.20709807
255	0xbe907169	-0.28211525

l1.bias f4 [256]
0	0x3e54da61	0.2078643
1	0x3e29199d	0.16513677
2	0xbf281113	-0.65651053
3	0x3dfcec29	0.123497315
4	0xbf2ab5c6	-0.66683614
5	0x3ea195c2	0.3155957
6	0x3ecb4fe2	0.39709383
7	0x3f0e0cee	0.5548848
8	0xbd024a29	-0.031809006
9	0xbef1478b	-0.47124895
10	0x3e78a82e	0.24282905
11	0xbe9cdccb	-0.30637202
12	0x3e214649	0.15749468
13	0xbe305831	-0.17221142
14	0x3e2908b8	0.16507232
15	0xbe85f48e	-0.26163143
16	0xbd137bfa	-0.036006905
17	0xbe57f557	-0.21089683
18	0xbe5d2b82	-0.21598628
19	0xbe967bf7	-0.29391453
20	0xbda35fb5	-0.07977239
21	0x3f596739	0.8492313
22	0x3e82ef80	0.2557335
23	0x3f3fb644	0.7488749
24	0x3e1105dc	0.14162391
25	0xbf13817d	-0.5761946
26	0xbe92515b	-0.28577694
27	0x3e2ca1c2	0.1685858
28	0x3f0d65e6	0.5523361
29	0x3e388147	0.18018065
30	0xbf6bc348	-0.9209485
31	0x3eb426a5	0.35185733
32	0xbe7a80d3	-0.24463205
33	0xbd366b67	-0.04453602
34	0xbe4c3e5a	-0.1994566
35	0x3ea9359a	0.33048707
36	0xbe1c69d8	-0.15274751
37	0x3e21ef15	0.15813859
38	0xbf2c9229	-0.6741052
39	0xbf087175	-0.5329812
40	0xbf4bedbe	-0.7965964
41	0x3e31ef1e	0.17376372
42	0x3ed868ce	0.4226746
43	0xbef0f432	-0.47061306
44	0xbe83c925	-0.257394
45	0x3dd14283	0.10217764
46	0xbdd98034	-0.10620156
47	0x3e6869f7	0.22696672
48	0x3ed4ac3c	0.41537654
49	0x3ee9c455	0.45657602
50	0xbeac75da	-0.33683664
51	0xbe0e6fe5	-0.13909872
52	0x3ef3452b	0.47513708
53	0xbf0e909f	-0.55689424
54	0x3e25acf6	0.1617926
55	0x3f148447	0.5801434
56	0x3e98b99b	0.29829106
57	0x3ef81d19	0.484597
58	0x3f40a34c	0.7524917
59	0xbe837176	-0.256725
60	0x3d040db7	0.032239642
61	0x3f32a195	0.69777805
62	0xbe363a25	-0.17795618
63	0x3dfced95	0.12350003
64	0xbe111eba	-0.14171878
65	0xbf1419aa	-0.5785166
66	0x3e07bd27	0.1325575
67	0x3d181a1a	0.037134267
68	0xbe833bd8	-0.25631595
69	0x3e9a4a86	0.30134982
70	0x3ded0220	0.11572671
71	0xbcb74faf	-0.022376863
72	0xbe91b10f	-0.28455397
73	0x3e0dc126	0.13843212
74	0xbea9f9f6	-0.33198518
75	0x3f1ef2c0	0.6208916
76	0xbf0862a0	-0.5327549
77	0x3e083516	0.133015
78	0x3e6290d6	0.22125563
79	0x3c518634	0.012788344
80	0x3d4ef03e	0.05052208
81	0xbf083b73	-0.5321571
82	0xbf0a04b0	-0.539134
83	0xbcd46a81	-0.025929691
84	0xbe50ef18	-0.20403707
85	0xbea7457e	-0.32670206
86	0x3e27b762	0.16378549
87	0xbf2ccc79	-0.674995
88	0x3e00778b	0.12545602
89	0xbdb2bed8	-0.08727807
90	0x3e81b4f0	0.25333357
91	0x3f0bbf0e	0.545884
92	0xbf71474d	-0.9424942
93	0x3f04c1ab	0.51858014
94	0xbf12cb62	-0.5734159
95	0x3dca5973	0.09880342
96	0x3e37c9cc	0.17948073
97	0x3e5b5bc7	0.21421729
98	0x3e7a61be	0.24451348
99	0x3e5b6593	0.21425466
100	0xbebbdedd	-0.3669347
101	0x3ee27800	0.44232178
102	0xbdbae372	-0.09125413
103	0x3f0726dd	0.52793676
104	0xbf556f6d	-0.8337315
105	0x3e7f2bec	0.24919099
106	0xbdd918c5	-0.106004275
107	0x3cb7b3f1	0.02242467
108	0xbf0fd76a	-0.5618807
109	0xbee12ced	-0.43979588
110	0x3e5d54ff	0.21614455
111	0xbecfa5eb	-0.40556273
112	0xbf416f96	-0.7556089
113	0xbf2f3b31	-0.68449694
114	0x3ee43266	0.445697
115	0xbf00d8ab	-0.5033061
116	0xbeed81ea	-0.4638818
117	0xbd3aec84	-0.045635715
118	0x3ef95b8b	0.48702654
119	0x3f0c29a8	0.5475106
120	0x3e194014	0.1496585
121	0x3eb7f594	0.3592955
122	0xbef5f6ca	-0.48039848
123	0x3e8c5f7c	0.274166
124	0xbe54b369	-0.20771565
125	0xbed798b0	-0.4210868
126	0x3f11b9a2	0.5692388
127	0x3da6bade	0.08141111
128	0xbdacfec5	-0.08447031
129	0x3e3d45aa	0.18483606
130	0x3da1c185	0.07898239
131	0x3d7ac5c4	0.06122376
132	0x3f2a27cd	0.6646698
133	0xbda52c45	-0.08065084
134	0x3bb30522	0.0054632584
135	0x3e300dbb	0.17192738
136	0xbefb4f28	-0.4908383
137	0x3d99b25c	0.075047225
138	0x3e278043	0.16357522
139	0x3f189bac	0.59612536
140	0xbe38a8f2	-0.18033198
141	0x3f1547ca	0.58312666
142	0x3ebde735	0.3709046
143	0xbe1b2492	-0.15150669
144	0x3f481ccf	0.7816896
145	0x3eab8b47	0.33504698
146	0x3e77c608	0.24196637
147	0xbef83e9d	-0.4848527
148	0x3d555c8f	0.052090224
149	0x3ee96ed5	0.4559237
150	0x3ef9fc3c	0.48825252
151	0x3ec26fc7	0.37975904
152	0x3ec09d8f	0.37620208
153	0x3e20948d	0.15681668
154	0x3d622433	0.055210304
155	0x3eb97c36	0.36227578
156	0xbd675e8c	-0.05648665
157	0x3b495be3	0.0030724935
158	0xbe5629de	-0.20914409
159	0xbe71b4ee	-0.23604175
160	0x3ebc6889	0.36798504
161	0x3c712a9c	0.0147196315
162	0xbec8c4d6	-0.39212674
163	0x3dd01042	0.10159351
164	0xbcbcd49b	-0.023050597
165	0xbf2757ea	-0.6536852
166	0xbd8d2fd2	-0.068938866
167	0x3c9ee637	0.019396884
168	0xbe19c9b0	-0.15018344
169	0xbf37b30f	-0.71757597
170	0xbc84bcc1	-0.016203286
171	0xbe0e6044	-0.1390391
172	0x3eb3e2ed	0.35134068
173	0xbe997225	-0.29969898
174	0x3dcb042a	0.099129036
175	0xbe6f9d28	-0.23399794
176	0xbda22f4a	-0.07919176
177	0xbef2ef36	-0.47448128
178	0xbe435b7c	-0.19077867
179	0x3e54aea8	0.20769751
180	0x3e4416e3	0.19149356
181	0x3e7a2462	0.24427941
182	0x3ddf7ef8	0.10912889
183	0xbea499d1	-0.32148603
184	0xbf188a37	-0.595859
185	0x3f2be1b7	0.6714129
186	0x3e8c9b47	0.27462217
187	0xbe853b16	-0.26021641
188	0x3e4a95a1	0.19783641
189	0xbe92fd45	-0.28708854
190	0xbecbbee9	-0.3979409
191	0x3d3ea8b7	0.046547618
192	0xbe696172	-0.22791079
193	0xbdcc2e17	-0.099697284
194	0xbe202d88	-0.15642369
195	0xbf76fa5e	-0.9647578
196	0xbe944464	-0.28958428
197	0xbed1902a	-0.409303
198	0xbf4be641	-0.79648215
199	0x3f25016d	0.644553
200	0xbec2a3ba	-0.38015538
201	0x3db8362f	0.0899471
202	0x3ef6786f	0.4813876
203	0xbe2e8617	-0.17043339
204	0xbef6fc02	-0.48239142
205	0x3e34b397	0.17646633
206	0xbe912dda	-0.28355294
207	0x3f2186b4	0.63096166
208	0xbe4f0401	-0.20216371
209	0xbeccd299	-0.40004423
210	0x3e200b74	0.15629369
211	0x3eab3fd9	0.3344715
212	0xbe8b3cd1	-0.27194837
213	0x3d0006a0	0.031256318
214	0xbd959325	-0.07303456
215	0x3d9056b5	0.07047788
216	0xbeb263e1	-0.34841827
217	0xbf29dd06	-0.6635288
218	0xbf2dbf04	-0.6786959
219	0x3ede8720	0.43462467
220	0x3e8d78c3	0.27631196
221	0x3cdef103	0.027214533
222	0x3ec4044c	0.38284528
223	0xbe1d6981	-0.15372278
224	0xbe3e5105	-0.18585594
225	0xbd24081a	-0.04004679
226	0xbede137a	-0.43374234
227	0x3f426c99	0.75946957
228	0xbd82321c	-0.06357214
229	0x3e7a0283	0.2441502
230	0xbe3fb153	-0.18719988
231	0xbeba5d46	-0.36399287
232	0xbea86b0a	-0.32894164
233	0xbe96f974	-0.29487193
234	0x3e0cd5eb	0.13753478
235	0x3d8e4ddf	0.069484465
236	0xbe8192a2	-0.25307184
237	0x3cbc07d9	0.02295296
238	0xbdb13ac1	-0.086537845
239	0x3dda54f3	0.10660734
240	0x3c35c538	0.011094384
241	0x3e915d26	0.2839138
242	0xbea1246f	-0.3147311
243	0xbf1ec14f	-0.62013716
244	0x3f343a5a	0.7040154
245	0x3e47f07a	0.19525328
246	0x3dfe23e2	0.12409188
247	0x3e508815	0.20364411
248	0xbf37db0f	-0.7181863
249	0x3e99ad65	0.30015102
250	0xbe95ca81	-0.2925606
251	0x3e9b567f	0.3033943
252	0x3ec99a79	0.39375666
253	0x3f6aafa5	0.9167426
254	0xbe89f6fa	-0.2694624
255	0xbe0e812c	-0.13916463

l2.weight f4 [256, 256]
0	0xbe9173f8	-0.2840879
1	0x3d833f3c	0.064085454
2	0x3e541c1b	0.20713846
3	0xbdc0f2b2	-0.094212905
4	0xbe8890cf	-0.2667298
5	0x3eb2aa93	0.34895763
6	0x3d391162	0.045182593
7	0x3be43bf4	0.006965155
8	0xbeb2f1f0	-0.3495021
9	0xbecfa506	-0.4055559
10	0x3e8ac825	0.27105823
11	0xbe831099	-0.255986
12	0xbf1ac92d	-0.6046322
13	0x3d8ac8e7	0.067766
14	0x3bd9f7d2	0.006651857
15	0x3e5b7661	0.21431877
16	0x3dd8b66d	0.1058167
17	0x3eec36f5	0.4613568
18	0x3e949a0d	0.2902378
19	0x3ed12b01	0.40853122
20	0x3e030404	0.127945
21	0x3e469883	0.19394116
22	0xbe10c3ae	-0.14137146
23	0x3deff88c	0.117173284
24	0xbec88d2c	-0.39170206
25	0xbef0781e	-0.46966642
26	0xbdb556fc	-0.088544816
27	0x3f01db0b	0.5072486
28	0xbd8042af	-0.06262719
29	0xbed854ad	-0.42252102
30	0x3de08519	0.10962886
31	0xbdb71cbf	-0.0894103
32	0x3e405c20	0.18785143
33	0x3c964c59	0.018346952
34	0xbd7e67b8	-0.062110633
35	0x3f3ce9ea	0.73794425
36	0xbe1764fb	-0.14784615
37	0xbd749961	-0.059716586
38	0x3e6ea3fa	0.2330474
39	0xbbf3b8ae	-0.007437787
40	0xbee4f5aa	-0.44718677
41	0x3ecc9f39	0.39965227
42	0x3ce498a2	0.027904812
43	0xbeb765e7	-0.35819933
44	0xbd37dc32	-0.04488773
45	0xbe8b2f64	-0.27184594
46	0x3dc25c9a	0.094903186
47	0x3ed78bbe	0.42098802
48	0xbd877086	-0.06613259
49	0xbebe144e	-0.37124866
50	0xbd60a477	-0.054844346
51	0x3dce6a8f	0.10078918
52	0xbe9ff707	-0.31243154
53	0xbc6f7ed4	-0.0146176405
54	0x3d916210	0.07098782
55	0x3c524519	0.012833857
56	0xbe09736d	-0.13422938
57	0x3d090ff4	0.03346248
58	0xbe74e244	-0.23914438
59	0xbdb4a7d8	-0.08821076
60	0x3e740b89	0.23832525
61	0x3cc9a1ad	0.024613226
62	0xbe7ce6cf	-0.24697421
63	0x3e0bd8c3	0.13656907
64	0xbe8b0b53	-0.27157077
65	0xbefdb7d9	-0.49554327
66	0xbd6d5cf3	-0.05794997
67	0xbdb06540	-0.08613062
68	0xbb838f33	-0.0040148734
69	0xbe901b9a	-0.28146058
70	0x3d90c88e	0.07069503
71	0xbe88260f	-0.26591536
72	0x3eaf6e25	0.3426372
73	0x3df8cde5	0.12148646
74	0xbe16a89f	-0.14712761
75	0xbf47a616	-0.779878
76	0x3e5f4d76	0.21806893
77	0xbd964b13	-0.07338538
78	0x3e4a26f0	0.19741416
79	0x3f21481f	0.63000673
80	0xbe8c16e6	-0.2736122
81	0x3ec740e8	0.38916707
82	0xbed7f089	-0.421757
83	0xbd846abd	-0.06465671
84	0x3c842f39	0.016135799
85	0xbe3a7533	-0.1820877
86	0xbd3fa0ba	-0.04678414
87	0x3eeb6a94	0.4597975
88	0xbec2aa28	-0.38020444
89	0xbddc77c3	-0.1076503
90	0x3e55279c	0.20815891
91	0xbe4374ba	-0.19087496
92	0x3f33c5da	0.7022377
93	0x3ce6d32d	0.028176868
94	0xbe9717c8	-0.2951033
95	0x3f04a5a2	0.51815236
96	0x3dda5a02	0.10661699
97	0x3eea01c8	0.45704484
98	0xbed726e3	-0.42021856
99	0x3e513f3c	0.20434278
100	0xbe0b0081	-0.13574411
101	0x3e954e3a	0.29161245
102	0xbe9e145a	-0.30874902
103	0x3e94e930	0.29084158
104	0x3f0a1d83	0.5395128
105	0x3e3e0066	0.1855484
106	0xbec128d6	-0.37726468
107	0xbe2ba95b	-0.16763823
108	0x3e21bef6	0.15795502
109	0x3f2395db	0.63900536
110	0x3e892132	0.2678314
111	0xbe2fa603	-0.17153172
112	0x3ed0cfff	0.40783688
113	0xbea03fd2	-0.3129869
114	0x3e99b860	0.3002348
115	0x3e0428d7	0.12906204
116	0x3bf75e3d	0.007549076
117	0xbec6e42c	-0.38845956
118	0xbdd1deb3	-0.10247555
119	0x3da64f04	0.0812054
120	0x3e8ea7bb	0.27862343
121	0xbe3d367d	-0.18477817
122	0x3eadc283	0.33937463
123	0xbe211e56	-0.15734228
124	0x3d667a54	0.056269005
125	0x3d0af73d	0.03392719
126	0xbee35d8d	-0.4440731
127	0xbe85d226	-0.26136893
128	0xbcf7655d	-0.030199701
129	0xbe0f8f14	-0.14019424
130	0x3d9a267c	0.075268716
131	0x3dbc2057	0.09185856
132	0xbee452ca	-0.44594413
133	0xbdd28e20	-0.102810144
134	0x3b7c9f3a	0.0038547055
135	0x3d6df927	0.05809894
136	0x3d164089	0.03668264
137	0x3da03715	0.07823006
138	0xbe974eed	-0.29552403
139	0x3d0ea344	0.03482367
140	0x3ebab547	0.3646643
141	0xbee93603	-0.4554902
142	0x3dfbac4b	0.12288722
143	0x3e89c889	0.2691081
144	0x3d4642ff	0.048403736
145	0xbe249530	-0.16072536
146	0x3dcdfc56	0.10057895
147	0x3ec0ed19	0.3768089
148	0xbd85d215	-0.065342106
149	0x3e109a15	0.14121278
150	0x3e8db45b	0.27676663
151	0x3e0545ea	0.13014951
152	0x3ce3599a	0.027752686
153	0x3ddb7794	0.10716167
154	0xbd40a372	-0.047030874
155	0xbdf38774	-0.1189107
156	0xbdf265af	-0.11835801
157	0xbd6ad934	-0.057336047
158	0x3e98949a	0.29800874
159	0x3e276285	0.16346176
160	0x3e31007b	0.1728534
161	0xbf140cfa	-0.578323
162	0x3e4eadd3	0.20183496
163	0xbf183d5e	-0.5946864
164	0xbccedf87	-0.02525307
165	0x3cde1910	0.02711156
166	0xbde2f1b7	-0.1108126
167	0x3df5824a	0.11987741
168	0x3cc7888a	0.0243571
169	0xbce95368	-0.028482154
170	0xbf02dd8c	-0.51119304
171	0xbe52d588	-0.20589268
172	0x3eba0407	0.36331198
173	0x3e883d6c	0.2660936
174	0x3ec54d27	0.38535425
175	0x3e6801b1	0.22656895
176	0x3e76b9a7	0.24094258
177	0xbde4df64	-0.11175421
178	0x3e2b5a34	0.16733629
179	0x3d99c137	0.07507556
180	0xbe9c5b7b	-0.30538544
181	0xbca933ab	-0.02065452
182	0x3d288294	0.041140154
183	0xbdf99aaa	-0.12187703
184	0xbd985bbf	-0.07439374
185	0xbe447e46	-0.19188794
186	0x3e6e7899	0.23288192
187	0xbd9b7381	-0.0759039
188	0x3e74d549	0.23909487
189	0x3bc5b22f	0.006033204
190	0xbda02a96	-0.078206226
191	0xbe7d9a1e	-0.24765822
192	0x3d8b0bb4	0.067893416
193	0xbecb3825	-0.39691272
194	0x3d79dfcd	0.06100445
195	0x3f43816b	0.7636935
196	0xbd9d69a7	-0.07686167
197	0x3e7b03fa	0.24513236
198	0x3e8e041f	0.2773752
199	0x3d128251	0.03576881
200	0x3e23cf80	0.15997124
201	0xbc245f33	-0.010032463
202	0x3ba0e774	0.004910404
203	0xbd6b6432	-0.0574686
204	0xbd77259a	-0.060338594
205	0x3f4af955	0.792867
206	0x3f160a42	0.586094
207	0x3e9100b8	0.2832086
208	0x3e8625a7	0.262006
209	0x3e97552f	0.29557177
210	0xbea40d2a	-0.32041293
211	0xbe61c6a9	-0.22048439
212	0x3eaff143	0.34363756
213	0xbf00dd7b	-0.5033795
214	0xbeb37d22	-0.35056406
215	0xbdb075a0	-0.08616185
216	0xbe24e16e	-0.1610162
217	0x3f300995	0.6876462
218	0x3ee44009	0.44580105
219	0x3ce4bbca	0.027921576
220	0x3e953b3b	0.29146752
221	0xbe3c83a5	-0.18409593
222	0xbd067871	-0.032829706
223	0x3dd62c21	0.10457636
224	0x3def9f85	0.11700348
225	0xbd8c29b6	-0.06843893
226	0x3eca6cd3	0.3953615
227	0xbe4b8075	-0.19873221
228	0xbd09b3c4	-0.033618703
229	0xbd896720	-0.06709123
230	0x3d134119	0.035950754
231	0xbe846621	-0.25859168
232	0x3d65cd36	0.056103908
233	0x3e2a4f7f	0.16631888
234	0x3e943240	0.28944588
235	0x3e9a2255	0.30104318
236	0x3e89903a	0.2686785
237	0x3e3e41cf	0.18579791
238	0x3ebe6cae	0.3719229
239	0x3f68985b	0.90857476
240	0xbf0f38d6	-0.559461
241	0x3e9c0e25	0.3047954
242	0x3e556ada	0.20841542
243	0xbe051bd4	-0.12998897
244	0xbe8b0c38	-0.2715776
245	0xbd96b13f	-0.07358026
246	0xbe706912	-0.23477581
247	0xbeda006a	-0.4257844
248	0x3ee1bc0d	0.44088784
249	0xbde0a738	-0.109693944
250	0xbdf41e1d	-0.11919806
251	0xbe474532	-0.1945999
252	0x3e04f21c	0.12982982
253	0xbe27396e	-0.16330501
254	0x3f0051e5	0.5012496
255	0xbee1fac1	-0.44136623

l2.bias f4 [256]
0	0xbe5e9e58	-0.21740091
1	0x3e7c7ba5	0.24656542
2	0x3eaed263	0.34144887
3	0x3dac06f3	0.08399763
4	0x3d154443	0.036442053
5	0x3cf8ac77	0.030355675
6	0xbde8eee7	-0.11373692
7	0x3e623cf3	0.22093563
8	0x3e03b371	0.1286142
9	0xbd789cae	-0.060696296
10	0x3d4fd63d	0.050741423
11	0x3cc21d74	0.023695685
12	0xbe0998cb	-0.13437192
13	0x3c99950f	0.018747834
14	0xbeab3296	-0.33437032
15	0xbbec4f59	-0.0072116074
16	0x3e590ea4	0.21196991
17	0xbeb6c945	-0.3570043
18	0xbec4bd90	-0.38425875
19	0x3e8de6ae	0.27715057
20	0xbda25689	-0.079266615
21	0x3e3e291a	0.18570367
22	0xbd65e6ad	-0.056128193
23	0xbe369d33	-0.17833404
24	0xbe4992f9	-0.19684972
25	0xbe39506f	-0.18097089
26	0xbee236e0	-0.4418249
27	0x3e03f5f4	0.12886792
28	0xbe96b366	-0.29433745
29	0x3e8b1c90	0.2717023
30	0xbe7769a2	-0.2416139
31	0xbb36b011	-0.002787594
32	0xbe78115f	-0.24225377
33	0x3d54d5b3	0.051961612
34	0xbcd6b793	-0.026210582
35	0x3eef31f6	0.46717805
36	0x3ec7fd4e	0.39060444
37	0xbdd71bbf	-0.10503339
38	0x3c068b16	0.008211872
39	0x3e80ae8f	0.25133178
40	0xbd643eb0	-0.055723846
41	0x3e18f58e	0.14937422
42	0x3e5235c9	0.2052833
43	0x3c840c1d	0.016119057
44	0xbd0d0baf	-0.03443497
45	0x3dbaf6e7	0.09129124
46	0x3d846386	0.06464295
47	0x3dd35914	0.10319725
48	0x3e627dd9	0.2211832
49	0xbdcfce87	-0.10146814
50	0x3d015cef	0.03158277
51	0xbe50f598	-0.20406187
52	0x3e068a07	0.13138591
53	0xbe1e18cb	-0.15439145
54	0xbd9800c9	-0.07422025
55	0xbe714901	-0.23563005
56	0xbe390c64	-0.18071133
57	0x3d1fc189	0.03900293
58	0x3d6ddc4a	0.058071412
59	0xbda53e5a	-0.08068533
60	0xbe15f557	-0.14644371
61	0xbacfb4be	-0.0015846712
62	0xbdfde140	-0.12396479
63	0x3d1a9de2	0.037748225
64	0xbdcf13cf	-0.101112
65	0x3d88c565	0.06678275
66	0xbeb23a83	-0.34810266
67	0x3e689f59	0.22717036
68	0x3daf9a34	0.08574334
69	0xbdcbb897	-0.09947317
70	0x3db7419c	0.08948061
71	0x3d14cfae	0.03633087
72	0xbe2e0654	-0.16994601
73	0x3e131d4d	0.14366646
74	0x3ef89339	0.48549822
75	0x3f0a6fc3	0.54076785
76	0x3e5a30e3	0.21307711
77	0x3ca2a3de	0.019853529
78	0xbe1c6e07	-0.15276347
79	0x3c4e6359	0.0125969285
80	0xbcd4bbce	-0.025968459
81	0x3e4b4853	0.19851808
82	0xbd11eb4e	-0.035624795
83	0xbe1920f6	-0.1495398
84	0xbe9b6006	-0.30346698
85	0xbe57305b	-0.2101454
86	0x3e4f20fb	0.20227425
87	0xbe8e04a6	-0.2773792
88	0x3d00ba9c	0.031427965
89	0x3da8bd1a	0.08239193
90	0x3ec2f616	0.38078374
91	0xbe921f65	-0.28539577
92	0xbd890cdf	-0.06691908
93	0x3dccc151	0.0999781
94	0xbe87b3cb	-0.2650436
95	0xbb1d935b	-0.002404413
96	0x3cad50e2	0.021156732
97	0xbe805538	-0.25065017
98	0xbd8da8cb	-0.0691696
99	0x3d7e3e4a	0.062071122
100	0xbdcf8ea1	-0.10134626
101	0x3e597419	0.21235694
102	0x3e1ff005	0.15618904
103	0xbde5c6f9	-0.11219592
104	0x3d829604	0.063762695
105	0x3ec94669	0.3931153
106	0x3e0d435c	0.13795227
107	0xbe1e8ad3	-0.15482645
108	0xbe9d01fa	-0.3066557
109	0x3e45391d	0.19260068
110	0xbe828ced	-0.25498143
111	0xbe551a1e	-0.20810744
112	0x3ea58af2	0.3233257
113	0xbe1206ff	-0.14260481
114	0x3dc0eb59	0.09419889
115	0xbecbf681	-0.39836505
116	0x3d9523ac	0.072821945
117	0x3eb5165a	0.35368615
118	0x3d8a0b0f	0.067403905
119	0xbe13d2bd	-0.14435859
120	0xbd29b8d1	-0.04143602
121	0x3d34ade8	0.044111162
122	0xbdd13012	-0.10214247
123	0x3e046f6a	0.12933126
124	0xbde71e2a	-0.1128505
125	0xbe0fa9d8	-0.14029634
126	0xbe4f562c	-0.20247716
127	0x3ec34d18	0.38144755
128	0x3d5c9c64	0.053860083
129	0xbc128126	-0.008941924
130	0xbd639209	-0.05555919
131	0x3eac6669	0.33671883
132	0x3e79dd53	0.24400835
133	0x3e58e906	0.21182641
134	0x3e95d688	0.29265237
135	0x3d6355db	0.0555018
136	0xbe1cd981	-0.15317346
137	0xbe0185f6	-0.12648758
138	0xbb6fe384	-0.0036604116
139	0xbd965347	-0.07340103
140	0x3c2dd806	0.010610586
141	0x3e9c713c	0.3055514
142	0xbe6d3a63	-0.23166804
143	0xbd519cc5	-0.051174898
144	0xbdee5d6e	-0.11638914
145	0x3e6878b6	0.22702298
146	0xbe400511	-0.18751933
147	0xbd46eacc	-0.048563763
148	0xbe6405a2	-0.22267774
149	0x3e01c73a	0.12673655
150	0x3e6e2659	0.23256816
151	0x3e80fb96	0.25191945
152	0x3eb74a05	0.3579866
153	0x3caadd02	0.020857338
154	0xbc69fc45	-0.014281337
155	0x3e19a899	0.15005721
156	0x3ecb297f	0.39680097
157	0xbe87907d	-0.26477423
158	0xbe291390	-0.16511369
159	0x3d6960e6	0.056977175
160	0x3e1e81f9	0.15479268
161	0x3e698666	0.22805175
162	0x3eb12dcc	0.34605253
163	0xbe8bba40	-0.27290535
164	0x3beb9036	0.007188822
165	0xbd249fa7	-0.04019132
166	0x3b6a82f7	0.0035783628
167	0xbe9ccae7	-0.30623552
168	0xbd498d79	-0.049207184
169	0x3e1578ef	0.14596914
170	0x3eba00a0	0.36328602
171	0xbe774026	-0.24145564
172	0xbe5f79b1	-0.21823765
173	0xbe7d27b9	-0.24722184
174	0x3daec71c	0.08534071
175	0x3dcd1650	0.100140214
176	0x3e94e6b2	0.29082257
177	0x3d42aa67	0.04752579
178	0xbe1de00d	-0.154175
179	0xbd63846e	-0.055546217
180	0xbede4245	-0.43409935
181	0xbdd22c0c	-0.102623075
182	0x3d82cc44	0.06386617
183	0x3e1d4068	0.153566
184	0x3d55de50	0.052213967
185	0x3db032de	0.08603452
186	0xbb757d1f	-0.0037458611
187	0xbdaca49c	-0.08429834
188	0x3e1d6e65	0.15374143
189	0xbd247c4d	-0.040157605
190	0x3d02487d	0.03180741
191	0x3ea01275	0.31264082
192	0x3de18bf2	0.110130206
193	0xbe50a4c8	-0.20375359
194	0x3ebb77e5	0.3661491
195	0xbe7045eb	-0.23464172
196	0x3df528ae	0.1197065
197	0x3e38c068	0.18042147
198	0x3e1c6558	0.15273035
199	0xbe205860	-0.15658712
200	0x3b82d18e	0.003992266
201	0x3e6a09a7	0.22855245
202	0xbe940d14	-0.28916228
203	0x3e697da0	0.22801828
204	0x3e6aa509	0.22914518
205	0x3e82c009	0.25537136
206	0xbe082ec0	-0.13299084
207	0xbec08353	-0.37600192
208	0x3e0379dc	0.12839454
209	0x3d1590e7	0.036515143
210	0xbd4c70f3	-0.049912404
211	0x3d80563f	0.0626645
212	0xbdf94e17	-0.121730976
213	0x3dae12e8	0.084997
214	0xbe4fb773	-0.20284824
215	0x3ebdf45f	0.37100503
216	0x3e082f96	0.13299403
217	0xbcf9cc48	-0.030492917
218	0x3eb90283	0.3613473
219	0x3e022e69	0.12713017
220	0x3c3d66cc	0.011560153
221	0xbd9bb382	-0.07602598
222	0xbd044f7e	-0.032302372
223	0xbdc04925	-0.09388951
224	0xbddb46a1	-0.10706831
225	0xbe8e97d8	-0.27850223
226	0x3a6326c8	0.00086651416
227	0x3e782b27	0.24235211
228	0xbd8bf4f4	-0.068338305
229	0xbdbdb8d4	-0.09263769
230	0xbdc48b1b	-0.09596845
231	0xbe74d023	-0.23907523
232	0x3e130216	0.14356264
233	0xbcc5a668	-0.0241272
234	0xbe126a46	-0.14298353
235	0xbdbaa453	-0.091133736
236	0x3e8f4d9d	0.27988902
237	0xbd9fbc93	-0.077996396
238	0xbde7820b	-0.113041006
239	0x3eb5b9ff	0.35493466
240	0xbe18e6c4	-0.1493178
241	0x3e6e3c58	0.23265207
242	0x3ee2ca42	0.44294935
243	0xbd89d420	-0.06729913
244	0xbb8801bc	-0.0041505974
245	0xbe8a8916	-0.27057713
246	0x3e4b02de	0.19825312
247	0xbe19228c	-0.14954585
248	0x3d65a2b2	0.05606336
249	0xbe8c43f1	-0.27395585
250	0xbd21bcf4	-0.03948684
251	0xbec3db07	-0.38253042
252	0xbe2ea37d	-0.17054553
253	0x3ca23a61	0.019803228
254	0xbd96e0fc	-0.07367131
255	0xbe64a561	-0.22328712

l3.weight f4 [4, 256]
0	0xbb427e4e	-0.0029677334
1	0xbf0007b7	-0.5001177
2	0xbe2e188b	-0.1700155
3	0x3c08b68e	0.008344306
4	0x3e064c4c	0.13115042
5	0x3e0d87e4	0.1382137
6	0xbe8e1bae	-0.27755493
7	0x3e95c976	0.29255265
8	0x3c49f724	0.012326989
9	0xbec380d5	-0.3818423
10	0xbd9f03e5	-0.07764415
11	0xbe862189	-0.2619746
12	0x3c8668d0	0.0164074
13	0x3cff22cd	0.031144524
14	0xbe5098e6	-0.20370826
15	0xbd4ce664	-0.050024405
16	0xbed3053c	-0.4121493
17	0xbd6782e7	-0.056521323
18	0xbc7662fa	-0.015038246
19	0xbd3fb460	-0.04680288
20	0x3df06bd6	0.11739318
21	0xbe20c52a	-0.15700212
22	0x3b084de9	0.0020798391
23	0xbed73544	-0.42032826
24	0xbd842bcc	-0.06453666
25	0x3e44ab9b	0.19206087
26	0xbf1792ea	-0.5920855
27	0xbd44d4f4	-0.04805465
28	0xbdf1befb	-0.11804005
29	0xbccd145c	-0.025034122
30	0x3e83699b	0.25666508
31	0x3e309027	0.1724249
32	0xbecb49ff	-0.39704892
33	0x3d6fdf27	0.058562424
34	0xbe5c03fd	-0.21485896
35	0xbe5f6e62	-0.21819451
36	0xbecd3dc3	-0.40086183
37	0x3e9af0cd	0.3026184
38	0xbd9d9f30	-0.07696378
39	0x3ec5d21b	0.3863686
40	0x3f0d1191	0.5510493
41	0xbd158bc8	-0.03651026
42	0xbdf4cbfd	-0.1195297
43	0x3e16690a	0.14688507
44	0xbe0417b9	-0.12899674
45	0x3e6e44e5	0.23268469
46	0x3d73af8e	0.059493594
47	0x3e2689d6	0.16263518
48	0xbeb669ba	-0.35627538
49	0xbdac60a7	-0.084168725
50	0xbeb178d3	-0.34662494
51	0xbf07dc75	-0.53070766
52	0xbaa0da23	-0.0012272041
53	0x3d624e89	0.05525068
54	0xbe88d676	-0.2672612
55	0x3e0c4af6	0.1370047
56	0xbda50826	-0.08058195
57	0xbe75403b	-0.23950283
58	0xbe12535e	-0.14289615
59	0xbe13985f	-0.14413594
60	0x3f1aee68	0.6052003
61	0xbe3ee3f0	-0.18641639
62	0xbe8ebaf6	-0.27877015
63	0xbd84a169	-0.06476099
64	0x3d34d65d	0.044149745
65	0xbe4627a4	-0.19351059
66	0xbdbcc4e3	-0.09217241
67	0xbe4f0ea2	-0.20220426
68	0x3c90d7d6	0.017681044
69	0x3e9351b4	0.28773272
70	0xbd755449	-0.059894834
71	0x3de0ea1e	0.10982154
72	0xbe22b915	-0.15890916
73	0xbdf4b2a7	-0.11948138
74	0xbec0450a	-0.37552673
75	0xbd4b3436	-0.04961034
76	0xbe675e73	-0.22594623
77	0x3e32f7ec	0.17477387
78	0x3e599cb1	0.2125118
79	0x3ebe88a6	0.3721363
80	0xbd8d6685	-0.0690432
81	0xbf37ff62	-0.7187406
82	0xbe0ce313	-0.13758497
83	0xbe3d4434	-0.18483049
84	0xbf351458	-0.7073417
85	0xbc8f7e7a	-0.017516363
86	0x3dbd9b6d	0.09258161
87	0x3d0325b9	0.032018397
88	0xbce4aa18	-0.027913138
89	0xbdd89244	-0.10574773
90	0x3e02a1d4	0.12757045
91	0xbdb4ae31	-0.08822287
92	0x3ca0b390	0.019616872
93	0x3e595a5d	0.21225877
94	0x3ebc45b0	0.36771917
95	0x3f16f385	0.5896533
96	0xbba61cde	-0.005069359
97	0x3dce27b0	0.100661635
98	0xbe082baf	-0.13297914
99	0x3de283b0	0.11060274
100	0xbcc0ecd2	-0.023550425
101	0xbe954a08	-0.29158044
102	0xbedaf85c	-0.42767608
103	0xbe48ed26	-0.19621715
104	0xbcfa326d	-0.030541623
105	0x3e4b7153	0.19867449
106	0xbed7bfad	-0.42138425
107	0x3bfcf6e0	0.0077198595
108	0xbe4c8507	-0.19972621
109	0x3e501816	0.20321688
110	0x3e2278e5	0.1586643
111	0xbd59d37c	-0.053180203
112	0x3e9dc07f	0.30810925
113	0x3d9663d9	0.07343263
114	0x3eebfbdd	0.46090594
115	0xbebd26df	-0.3694372
116	0xbcb03ed9	-0.021514343
117	0x3bcd420b	0.0062639765
118	0xbea7a470	-0.32742643
119	0x3b2ae260	0.0026074871
120	0x3ba46162	0.0050164917
121	0x3ce5101c	0.027961783
122	0xbdccf05d	-0.10006783
123	0x3d33352f	0.04375189
124	0x3e013089	0.12616171
125	0x3e3588bf	0.17727946
126	0xbee89b46	-0.45430964
127	0x3ed1ed25	0.4100124
128	0x3c1a082f	0.009401365
129	0xbec8808a	-0.39160568
130	0x3dfc15d4	0.12308851
131	0xbe920951	-0.28522733
132	0xbe97d75e	-0.296565
133	0xbde20853	-0.11036744
134	0x3efb1af8	0.49044013
135	0xbd7d6526	-0.06186404
136	0xbca75fdf	-0.020431457
137	0xbdd6be7e	-0.10485552
138	0xbda01d63	-0.07818105
139	0xbd1936da	-0.037405826
140	0xbe8a5670	-0.27019072
141	0x3e4ac4e2	0.19801667
142	0x3f0a7275	0.540809
143	0x3e193767	0.1496254
144	0xbd622e9e	-0.05522024
145	0x3e97c546	0.29642695
146	0x3abd32f0	0.0014434736
147	0x3dd763c7	0.10517078
148	0xbe5df618	-0.21675909
149	0x3e3c725c	0.18403
150	0x3e22b214	0.15888244
151	0x3d3196cb	0.043356698
152	0xbd6fedbc	-0.05857633
153	0xbe5cdd23	-0.21568732
154	0xbdce3566	-0.10068779
155	0x3ca5a80c	0.020221733
156	0xbeddee22	-0.43345743
157	0xbe00d986	-0.12582979
158	0x3b87a6c2	0.004139752
159	0xbe85aae3	-0.2610694
160	0x3e9651ea	0.2935937
161	0x3e8a3fd8	0.27001834
162	0xbef18ba2	-0.47176844
163	0xbed53fd1	-0.4165025
164	0xbdccc555	-0.099985756
165	0x3e12c141	0.14331533
166	0x3c85cd28	0.016333178
167	0x3ea3093c	0.31842983
168	0x3e12e47e	0.14344975
169	0x3d63f494	0.05565317
170	0x3ce2130b	0.027596971
171	0x3e9685c2	0.29398924
172	0xbeb031ff	-0.34413144
173	0x3e390014	0.18066436
174	0x3dbc5003	0.091949485
175	0xbdd5edbd	-0.104457356
176	0xbf3b9d7b	-0.7328717
177	0x3e6c77a6	0.23092517
178	0xbe32d14d	-0.17462654
179	0x3c9f63fd	0.019456858
180	0x3e50594f	0.20346569
181	0x3ec4e4a2	0.38455683
182	0x3d4ad9fb	0.04952429
183	0xbe076274	-0.1322115
184	0x3ddcfcad	0.107903816
185	0x3dec07d0	0.115249276
186	0xbe049456	-0.1294721
187	0xbe919f40	-0.2844181
188	0xbe797c37	-0.2436379
189	0x3dfba487	0.122872405
190	0xbd81934e	-0.06326924
191	0x3ea16ab8	0.31526732
192	0x3e244ff8	0.1604613
193	0x3e024854	0.12722903
194	0xbea1159e	-0.31461805
195	0xbe9dc32b	-0.30812964
196	0x3cc327ad	0.02382263
197	0xbe3dbe35	-0.1852959
198	0xbe07f143	-0.13275628
199	0xbde6bb47	-0.11266189
200	0x3d919fa7	0.071105294
201	0xbe4f1d89	-0.2022611
202	0xbcb5a9ab	-0.02217563
203	0xbeadca0b	-0.3394321
204	0xbdcdfe03	-0.100582145
205	0xbdac868a	-0.08424099
206	0xbe297c1b	-0.16551249
207	0xbf098245	-0.537144
208	0xbe74ee88	-0.23919117
209	0x3e447969	0.1918694
210	0x3e43d4dd	0.1912417
211	0x3dd17309	0.10227019
212	0xbdfb6b56	-0.12276332
213	0x3ecb15da	0.3966511
214	0x3e18ec24	0.1493383
215	0xbe22b316	-0.15888628
216	0x3e196584	0.14980131
217	0xbe0bedeb	-0.13664977
218	0x3f3f92e8	0.74833536
219	0xbd36174e	-0.04445582
220	0xbea80548	-0.3281653
221	0xbcf90a97	-0.030400557
222	0x3e5e7be0	0.21726942
223	0xbeee10b4	-0.46497118
224	0xbe6a73a3	-0.22895674
225	0xbed442f8	-0.41457343
226	0xbe2fb959	-0.17160548
227	0x3e7ff519	0.24995841
228	0xbe681918	-0.22665823
229	0x3eb516a3	0.35368833
230	0xbdd93ba9	-0.106070824
231	0xbec59479	-0.38589838
232	0xbefd483a	-0.49469167
233	0x3c4012d6	0.011723241
234	0x3e5aa82f	0.2135322
235	0xbe2b56e6	-0.16732368
236	0x3e4f7343	0.20258813
237	0x3e304ef3	0.17217617
238	0x3ef59cc1	0.47971156
239	0xbea76dcb	-0.32700953
240	0x3e41cc6c	0.18925637
241	0xbe960f73	-0.29308662
242	0x3dc45601	0.095867164
243	0x3e94b4ab	0.2904409
244	0x3daf5658	0.08561391
245	0xbf0e145e	-0.5549983
246	0xbd21d244	-0.039507166
247	0x3dc433cb	0.09580191
248	0xbe08aa32	-0.13346174
249	0xbf302334	-0.68803716
250	0xbd883f43	-0.06652691
251	0xbf148028	-0.5800805
252	0x3e0363ac	0.1283099
253	0x3e6a9962	0.22910073
254	0x3d41d6da	0.04732404
255	0xbee0b29b	-0.43886265

l3.bias f4 [4]
0	0xbc980890	-0.01855877
1	0x3bab2e67	0.0052240374
2	0xbcbeed2f	-0.023306457
3	0xbc3b628f	-0.011437072
