4.2 TD3/model/BWHv3_q_critic5000.pth (torch, 592290 bytes, 10 tensors)

l1.weight f4 [256, 28]
00000000: c917 793e 75bc da3f 92eb 3ec0 86f6 c2be
00000010: d3eb 9abe 39cc 4fbd 0947 2bbe 9c9c 923c
00000020: eaa3 34be ab24 68be 107a 623d ce44 68bb
00000030: 89b8 02be f38c 073d 7d81 263d 6ac6 ee3e
00000040: e280 b53e 598a 10bf 2de3 69bf 459f 0abf
00000050: 825e 2e3e 0d46 a03e 3a83 82bd 300f 423d
00000060: 3a44 d63d 779e 83bd 0066 533d 71f6 3ebe
00000070: fd2f 983e 72ab 31bf abf1 ca3d 5080 9b3e
00000080: 2fe5 483d 2082 0ebd 0d07 9c3d 3f5a 12bd
00000090: 66e9 09bd ab40 b7bd 92f2 af3d bb72 f13d
000000a0: 57fd 423d 47ce 6e3c 5472 da3d 2539 7ebe
000000b0: e8ee f6bd b38c 1d3d 9df8 4d3e 9286 e5bd
000000c0: 16cb 413e fff7 e4bc 13c8 c73e 410e ac3e
000000d0: 0b7f bf3d fef4 0f3c 9fcc 3b3d 5db3 67bc
000000e0: 410c 233d c2d9 71be 7915 1abe 34f3 1b3e
000000f0: d6c7 093c a952 02bc cad6 0c3d f840 d1ba
00000100: eaee 3cbc ebf0 f13c 4f23 e9b9 d0ba c33c
00000110: 3da5 3dbb 420d 363a 5b53 953e 9ecf 553e
00000120: 04d3 843e e9ff 25bf b305 3ebf 48e1 13bf
00000130: af2b 893d 4664 0c3f af0d 243f d8f8 ccbe
00000140: 3f42 983b 7ad2 6e3b e497 943b 6f34 de3b
00000150: b3e4 85be 0e8f 4bbf 87f7 f83d 22ae 19c0
00000160: 7747 afbe 5d3c 06bd 71b8 46bd 91e0 403c
00000170: 1f9a af3b 622d 9ebe f8a7 44bd 2d99 58be
00000180: 8630 6c3c ca56 983c 366c 253e b3f4 0ebd
00000190: aa25 ab3e fb87 a9bc cdf2 eebe 4768 c53e
000001a0: 09b6 253f 3f3a c6be d7b7 743d 76de c3be
000001b0: 5091 20bd 3d06 28bc dcfe 05bd 2486 85bc
000001c0: ce8d 4b3e 8c86 a6be c0a1 0f3f 42c7 e4bd
000001d0: 6f82 133e c4b1 9c3c d5f6 093e 190a 8c3c
000001e0: 36f3 5ebc 4ee1 423e 000b 1c3c 4a79 0a3d
000001f0: 3f96 cd3c 346c 173d aef0 063d c3e5 ddbd
00000200: a6e9 543f 52ab 333f 104b b93c 0831 5e3e
00000210: fb06 acbe 3e85 8fbd 2689 723d 1e14 56bf
00000220: eb7e af3c aa8b 3ebb 4bc1 9d3c 8ac2 a43c
00000230: a85e be3e ca14 b13e 8752 cbbc 893d aebe
00000240: 56a9 56bc 0f8e 0cbc b1b2 29bd df44 973b
00000250: 7189 e93b d9b7 973d 26b0 833c 0983 6b3d
00000260: 0a6e 623c 7e14 de38 2923 a43d 928e 1bbe
00000270: 8ac9 483e f4b1 043e fd93 983c fc99 1dbe
00000280: e82c 66be 977d c43c 6acd 103f b6af 8e3d
00000290: b159 8abb fcae 39bc 4aa9 373c 8864 1a3c
000002a0: cc39 3a3e c427 363f 05fe 06bf 8b12 b83d
000002b0: e51b 73bc 5927 2f3a 9ba1 48bc 9615 f83b
000002c0: ae5e c43b 2832 393e 5d24 cb3c 1a71 813d
000002d0: 77de 033c f5e7 a3bc 51c1 9a3d 75f1 563e
000002e0: 1df9 093e 3964 d6be 6e27 afbe 9e5f 3d3f
000002f0: 7ee3 e5bc 209e 063f 5310 1ebf f84a 9c3e
00000300: fe65 833b 5877 cc3b 1338 243a 7cfb 953b
00000310: 165a 133f 07ae e23d f2f5 edbf d19d 083f
00000320: b6d8 903e 4b87 fcbd dc33 063f 0ef3 c0bd
00000330: ede9 0cbd 0852 b03e c358 f4bc 026f e03d
00000340: 0554 3bbd dcbf 78bb a514 8c3d 8cfe b23e
00000350: a86e 2e3f f41d 64bd 4b43 b8be dbb0 19bf
00000360: 6211 09bf 9aec a6bc 39d7 a63e d21e a4bb
00000370: 155c a2bd 6339 4e3c 655e dfbc 915a f8bc
00000380: c23d 9e3e f2be 25c0 87ef 8a3e 658b 39bf
00000390: ee19 a8be 543c 8cbd 5229 1ebe f3cd 0fbc
000003a0: 0c52 ef39 d237 203e 6dd4 1cbd 601c 10be
000003b0: a0f6 0a3a 0858 da3b 64e6 e13e 39fb 523d
000003c0: 2b85 2dbf 35c8 b6be 9ab1 b6bd 8187 2bbe
000003d0: 89c3 a43c 4178 f13d 067d 8bbe 01da ee3c
000003e0: 1351 7abc ca6b 0d3d 4154 0b3d 747f 79bd
000003f0: 81a5 d73c d7bc 683f 36dd 353f 8c4b 06bf
0.2432548 1.7088763 -2.983128 -0.38078707 -0.30258045 -0.05073187 -0.16726317 0.017896943
-0.17640653 -0.22670238 0.05529219 -0.0035441401 -0.12765707 0.033093404 0.040650833 0.46635753
0.35449892 -0.564611 -0.9136227 -0.54149276 0.1702824 0.31303445 -0.06372686 0.047377765
0.10462232 -0.06426709 0.051610947 -0.18648697 0.29724112 -0.6940223 0.09909376 0.30371332
0.04904669 -0.034792066 0.07618532 -0.035730597 -0.03366985 -0.08947881 0.085911885 0.11789461
0.047604885 0.014575548 0.106663376 -0.24826486 -0.120572865 0.03846426 0.2011437 -0.11207308
0.18925127 -0.027950285 0.39019832 0.33604625 0.093504034 0.008786438 0.04584944 -0.014141885
0.039806608 -0.23618224 -0.15047254 0.15229493 0.008409461 -0.007954278 0.034384526 -0.0015964797
-0.011531571 0.029533824 -0.0004446753 0.02389279 -0.00289376 0.00069447246 0.29165158 0.20879981
0.25942242 -0.6484361 -0.74227446 -0.57765627 0.06697785 0.54840505 0.6408338 -0.40033603
0.004646569 0.0036441372 0.0045347083 0.006781153 -0.26151046 -0.7951516 0.12156587 -2.4012532
-0.3423421 -0.03277241 -0.04851574 0.011772291 0.005358949 -0.30894 -0.04801175 -0.21152182
0.014415866 0.018596072 0.1615456 -0.034901332 0.33427173 -0.020694723 -0.46669617 0.3855612
0.6473089 -0.38716313 0.059745636 -0.38255662 -0.03920108 -0.010255394 -0.032713756 -0.016299315
0.19878313 -0.32524526 0.56106186 -0.11170818 0.14405225 0.019127734 0.13473065 0.017094659
-0.013607791 0.1903126 0.009524107 0.033807077 0.025096057 0.036968425 0.032944374 -0.10834839
0.8316902 0.7018329 0.0226188 0.21698391 -0.33599076 -0.07007836 0.059212826 -0.83624446
0.021422824 -0.0029074945 0.019257208 0.020112295 0.37181592 0.34586173 -0.024819626 -0.34031323
-0.013101896 -0.008578791 -0.04143018 0.0046163644 0.00712698 0.07408113 0.016075205 0.05749801
0.013820181 0.00010589602 0.08014519 -0.15191105 0.19608131 0.12958509 0.018625254 -0.15390772
-0.22478068 0.023985667 0.56563437 0.06967108 -0.004222118 -0.011333223 0.011209795 0.009423383
0.1818611 0.7115443 -0.52731353 0.08987912 -0.014838194 0.00066815835 -0.012245561 0.0075709326
0.005992732 0.1808554 0.024797613 0.063204005 0.008048645 -0.020008067 0.075564034 0.20990546
0.13473935 -0.4187334 -0.3420977 0.73974025 -0.028062578 0.5258503 -0.6174366 0.30525947
0.004009961 0.006239813 0.0006264459 0.0045770984 0.57559335 0.11068349 -1.8590682 0.5336581
0.28290337 -0.123304926 0.5242288 -0.09421359 -0.034402777 0.34437585 -0.029827481 0.10958673
-0.045734424 -0.0037956154 0.06839875 0.3495983 0.681376 -0.055692628 -0.3598884 -0.60035485
-0.5354215 -0.020376492 0.32586077 -0.005008557 -0.079277195 0.012586924 -0.02726669 -0.030316623
0.30906492 -2.5897794 0.2713587 -0.72478324 -0.32832283 -0.06847444 -0.1544545 -0.008777129
0.00045646762 0.15646294 -0.038288523 -0.14073324 0.0005301032 0.006663326 0.44121087 0.051509116
-0.67781323 -0.3569962 -0.089205936 -0.1675091 0.02011277 0.11790515 -0.27243823 0.029156687
-0.015278119 0.034526624 0.034015898 -0.060912564 0.026324036 0.90913147 0.71040666 -0.52459025

l1.bias f4 [256]
00000000: d5f6 bbbc 0eed c6be 7492 5b3e a797 23be
00000010: 70c8 efbd 62c3 27bf 7a2e d03c 87ff 053f
00000020: feaf 6abe b8fd 603f d78f 7fbe e814 ee3e
00000030: cfab e33d 2cde dfbe b648 773e 717b ab3d
00000040: 4cd8 873e af20 853e 3f50 85bd 1f26 42bf
00000050: 3f0b 07bf 0d13 1dbf 147e dfbe d02a 55bf
00000060: 6ab5 26bd 7854 a8be bdb7 82be 3d43 9a3e
00000070: 8bdc 513d a2dc 90bd b83a 8abe 0e79 21bf
00000080: 8a34 923e 9f96 883d 7c4a 5e3e aa0c 48be
00000090: 778d 003f 740b f1be 8e5e 0fbd 466d 00bf
000000a0: ec68 d23e 84cc c8be b882 51bf 0f5f f33e
000000b0: ee97 913e 34fb 88bd c72a f53e 4b98 16bf
000000c0: 734b 6fbc 3626 6cbd effa dfbe fbb3 aabe
000000d0: b088 f7be 80e8 83be c7d9 c7be 48d2 bf3e
000000e0: 68d6 be3d dccb fc3e 8dea d8be c71c 523e
000000f0: 5c80 5ebe 8d38 d83e f28d 883e b5c1 b6be
00000100: 1791 143f 00f3 c63d 9482 f93c fd35 2fbe
00000110: 8714 dc3e c8c7 9f3e ca17 cebe 0f83 cdbd
00000120: b089 74bd 77fb cbbe 6a4f 8e3e f494 5c3d
00000130: 1219 5b3f d776 373f 9091 0d3f bcc4 04be
00000140: d9a0 25bf 6305 d7bd 1e9b 983d 2f98 08bf
00000150: 08ec f2be 5f62 9c3d 5b7e b3bd cc46 04be
00000160: a3c9 e23e ee8d 09bf 7ed4 b0be a28f 073f
00000170: ee79 8abd 6fca 953e 5e93 0dbf b1f2 9abe
00000180: 0006 e4be d3e0 05bf d77c 043e 5d5b 103f
00000190: b5ed 213e 0493 d2be df57 e1be 4f54 193f
000001a0: fa13 f63d c23e 723e bbaa 9d3e 7d5d f73e
000001b0: 681c 01bc 5749 da3e a34e 9ebe 9eca 18bf
000001c0: 2483 dcbe 18e7 e33d b5a8 103f b3ec b33e
000001d0: c13c c43e a709 6fbe eb17 13bf a0fd 26bf
000001e0: 9250 f33e 12ec 593e addc 04be 4b9c 08be
000001f0: 1aa3 03bf e5f8 85be 9498 143f d371 c13e
00000200: b495 823e 1471 513d 62fa 1d3e 37bd 29bf
00000210: e525 343f 6cec 1cbd e82b 8abe 97fb 6fbe
00000220: 6efd 0b3f 591c a6be dfc3 ecbd 0761 d03e
00000230: 93cf 453c 7880 363d c42f 0abf 2af0 7a3c
00000240: adb6 b73d b69f 25bf 44cb 793f 802e a9bc
00000250: 7829 a33e 64de 343f 91ef 2abe 2e22 383e
00000260: dc29 103f 8b69 d13e 57b5 0abf e565 20be
00000270: 3dcc d6bd 77e1 d23d 0565 a23e e87e 4cbe
00000280: e1cd d2be 9237 683e f5a6 d2be ab13 31bf
00000290: 0b57 debe 0b27 803e be5c 053e e9d3 d23e
000002a0: 12be 283d a22d eabd 5563 d83e af1f 38be
000002b0: 7df2 c13e ca5d a5be a501 213f ede4 bbbd
000002c0: e2c4 603e 87db 873d e577 cfbe a828 b9be
000002d0: e18f 0ebe 8803 87be dcd8 173f 6470 5b3e
000002e0: 0e8f 0c3f cbf3 08bf b1a9 bc3e bcfe 4bbe
000002f0: d425 9b3e 6261 e83e a66a c73e a53e 04bf
00000300: bd3b ac3e 954f 2dbe 246d 05bf a57b d23e
00000310: 57b2 4b3e 33d3 7a3d b669 883e 3272 8a3e
00000320: a3c9 2cbf 70d6 71be 87ca 153e 64ef 243e
00000330: bff7 263d 536f 4e3f 714e 7b3e 2fb8 ee3e
00000340: 67ec 013e c533 7f3e 9c0f 553e 0772 66be
00000350: 3af6 66be f3b5 b33c 5a79 483e eba1 d4be
00000360: b8ba 3ebe 50e5 373e 931a c6bc 6862 d13e
00000370: 7014 28bf 561c d83e 359c ad3d d142 843e
00000380: 425f cf3e 3302 263e 8393 6f3e 2841 fabe
00000390: b787 9d3e cb1e 373e 65a7 56bd c7d8 5f3e
000003a0: a8f1 853e 17f3 a13c ff6f 69be 5433 f6be
000003b0: 975e 95bd 6961 25bf f303 18bf 80a5 c7be
000003c0: 8df5 99be a15e 95bd e404 1c3f 7af2 83bd
000003d0: 4be1 ce3e 72db 5fbe 6118 053e 89ec e33d
000003e0: c31e d9be ddcc 063d 7c45 083e 0c92 d43c
000003f0: 4147 493e 7540 033e bae0 943d 6a98 d33e
-0.022944847 -0.38852733 0.21442586 -0.1597582 -0.11708152 -0.65532506 0.025412787 0.5234303
-0.22918698 0.87887144 -0.24957214 0.46500325 0.11116754 -0.4372419 0.24148831 0.08373154
0.2653221 0.26001498 -0.06509446 -0.7583942 -0.52751535 -0.61357194 -0.43650877 -0.8326845
-0.040700354 -0.32876945 -0.25530806 0.30129424 0.051235717 -0.07073332 -0.26997924 -0.6307534
0.2855571 0.06669354 0.21708101 -0.19536081 0.5021586 -0.4707905 -0.035002284 -0.5016674
0.41095674 -0.39218533 -0.81840086 0.4753346 0.28436226 -0.06688538 0.478842 -0.5882613
-0.014605391 -0.05765363 -0.43746135 -0.3334044 -0.48346472 -0.2576332 -0.39033338 0.3746512
0.093182385 0.49374282 -0.42366448 0.2051879 -0.21728653 0.42230645 0.26670796 -0.35694662
0.5803389 0.09714317 0.030457772 -0.17110439 0.4298441 0.31207108 -0.40252525 -0.10034763
-0.05970162 -0.3984029 0.27794963 0.05385299 0.8558513 0.7166571 0.55300236 -0.12965673
-0.6469856 -0.10499074 0.07451461 -0.53357214 -0.47445703 0.0763595 -0.08764335 -0.12917632
0.44294462 -0.5373219 -0.3453712 0.5295354 -0.067615375 0.29256007 -0.5530299 -0.30263284
-0.44535828 -0.5229618 0.12938248 0.5638941 0.15813334 -0.4112779 -0.44012353 0.5989427
0.12015529 0.23656753 0.3079432 0.48313513 -0.007880308 0.4263408 -0.3091937 -0.5968417
-0.43068802 0.11128062 0.56507427 0.35141525 0.38327602 -0.23343526 -0.5745837 -0.6523075
0.47522408 0.2128146 -0.12974806 -0.13340871 -0.5142075 -0.26166454 0.58045316 0.37782153
0.2550484 0.05113323 0.15427545 -0.66304344 0.7037032 -0.038311407 -0.26986623 -0.23435818
0.5468358 -0.32443503 -0.11560797 0.40699026 0.012073415 0.04455611 -0.53979135 0.015316049
0.089703895 -0.64696825 0.97575784 -0.020652056 0.31867576 0.7065184 -0.1669295 0.17981789
0.5631387 0.40900835 -0.5418295 -0.1566387 -0.10488174 0.1029691 0.31717697 -0.19970286
-0.41172698 0.22677448 -0.41143003 -0.69170636 -0.43425784 0.25029787 0.1302366 0.411773
0.04119689 -0.11434485 0.42263284 -0.17980836 0.37880316 -0.32298118 0.62893134 -0.091745235
0.21950105 0.066336684 -0.4052116 -0.3616383 -0.13922073 -0.26369882 0.59315276 0.21429592
0.54905784 -0.53497 0.36848214 -0.19921392 0.30302298 0.45386797 0.38948554 -0.5165809
0.33639327 -0.1692489 -0.5211966 0.41109958 0.1989225 0.06123657 0.2664315 0.2704025
-0.67495173 -0.23616958 0.1462804 0.16106945 0.040763613 0.8063862 0.24541642 0.46624896
0.12687837 0.24922092 0.20806736 -0.22504435 -0.22554865 0.021937346 0.19577542 -0.41529784
-0.18625915 0.1795857 -0.024182593 0.4089539 -0.65656185 0.4220912 0.0847706 0.25832227
0.40502363 0.16211776 0.23396115 -0.48877835 0.30767605 0.1788284 -0.052405734 0.21860038
0.26160932 0.019769235 -0.2279663 -0.48086035 -0.07293432 -0.6460176 -0.59381026 -0.38993454
-0.30070153 -0.0729344 0.6094496 -0.06442733 0.4040626 -0.21861055 0.12997581 0.111291
-0.42406282 0.032910217 0.13307756 0.025948547 0.19656087 0.12817557 0.07269426 0.4132722

l2.weight f4 [256, 256]
00000000: a7f5 173c e0a5 843d 5d99 3bbe 29ce 573e
00000010: a707 7bbe 60bb e63d 228f 0d3e 9ae3 c03e
00000020: f4fc cc3e ebae e1bd c8aa 263e a517 3cbe
00000030: 905b 7ebf ba0d 4cbe c501 1a3c d918 0fbc
00000040: 29ff a43d 6226 d8bd 44b7 073e 4fd9 433e
00000050: 5d74 85be 7903 e5bc f3f6 5c3f db51 1e3f
00000060: e9a3 833e e28e 0fbf 5d6d 5bbe c6c0 683d
00000070: b2bf 113e b2c2 ca3d f00b 0a3f f334 8c3d
00000080: 4e4a babe d30a 043e b6fc 45be c654 2abe
00000090: 8332 c6bd 475e 133d a33f 33bf ec3e 96bd
000000a0: b33c 88bd 5a54 68be 049f a43e d23a bebd
000000b0: 3d77 223e ffa8 243e b9c2 2b3e aeea 1e3d
000000c0: c068 093e 8322 2ebe 60d9 84bf ac40 4a3d
000000d0: d84b b93d bf7a 02bd ee83 903e fc63 01be
000000e0: 4523 e43d a163 e13d d1fe 2d3e 126c 413e
000000f0: e038 06be a7ea 39be 908c 5bbe 06d7 f33d
00000100: 60d0 61be c533 37bd 69c3 a13c 1bb8 9cbd
00000110: faf2 d33c 9951 1d3e 2c9c 913d cd40 adbd
00000120: 457b e83e ea20 a03d cd34 7abe 97bf 113e
00000130: 5417 0dc0 a6e1 3a3c e8b6 9cbb fb1d 153e
00000140: f188 813b 26e0 d1bd c864 8ebf b9f1 eabd
00000150: 0702 89bd 1811 e0bd 230d c2be 5408 1bbe
00000160: a9cb 21be ddf2 c1bc 0c0a aa3d 449f 6e3d
00000170: b144 a6bd e76f 0c3e a289 953e 3fad 33be
00000180: 5e0a a03c 3706 e63d 9219 263d be13 413e
00000190: 6aaf 203f f092 0fbf 4b8f 3dbe 8917 bc3c
000001a0: d8be 923e 4eee a63e 272b 9ebd db01 9a3d
000001b0: 8231 5d3d 6e31 ad3e 70ff e13e 567e 483e
000001c0: 84b2 a3bd 4a57 ff3d 2e43 81bf 0b7a 203f
000001d0: 11d9 1bbe 798a 25bd 18dc ca3d 8102 e93d
000001e0: 55b8 babc 2bb2 413d 202a 55be b097 b0bd
000001f0: 240c 61bd fbd1 16be e2af c33d 295d 593e
00000200: e0c6 b83d 5878 9d3e a0e7 bb3e 6428 3a3e
00000210: 34db 5c3e 5244 30be 7498 f9bd 2c18 3d3f
00000220: 3ea3 c13a 8efb 1abf 48c9 833d e8a0 01bf
00000230: 23e3 8d3e 2c40 5abe 584d 57be d889 233e
00000240: ca45 8d3f a3ff 223e d670 1e3e a465 23be
00000250: 95dd 5ebd 3919 8cbd 77c9 35be eee2 50bf
00000260: 9596 18be c140 ee3d bf70 65be 1d76 873e
00000270: c864 41bd 8f58 313e 8fb5 933d 8522 0ebe
00000280: 8cd2 243e e398 bcbd 72cf 8a3d 58ed 81bd
00000290: 0c06 243d 1571 d0be 28bf 0a3f 7e61 b8bd
000002a0: a774 0dbd cde4 25be 6da1 cb3e 5f55 c8bd
000002b0: 85f5 6dbd c981 3bbc 60aa 27bf f2b3 1c3e
000002c0: f730 fbbd e525 113e b2a7 bfbe 9604 fdbe
000002d0: 4f62 8fbe b060 683d d10b 313e 92cd 36be
000002e0: 38e0 bbbd 1972 a8bd 4a43 da3d 1497 35bd
000002f0: 14fa 8dbe 95d6 5b3e ede2 dcbe 7f30 f43c
00000300: e774 663f 2313 323e 2227 373e d067 25bd
00000310: e368 be3e 1e08 873f 254a 863c e253 5d3e
00000320: 4d16 a43b 04db babd d8d0 e83b eea6 52be
00000330: 3f84 c23e 4ac4 0bbe 873b e93e 0499 913d
00000340: 2835 a13e 0504 a4be ecee bd3d d2f7 2a3d
00000350: 05bb 923e 8d90 b9bc d2fd 49be 50b8 bb3e
00000360: 9bd0 c53e 9752 acbd f85f 82be 230b 703d
00000370: 4740 9ebd f617 e33d 860f d83d 9958 acbc
00000380: cf45 c93c 4d59 03be b80a 42bd f68d d33d
00000390: 11ad 2f3f 83ed 68bd 34e7 febd 9cba d8be
000003a0: 80e9 01be d31a 983c e1e9 e6bc 2bf2 e7be
000003b0: 05da 3d3d 9a43 6ebd 2ffc 993e 2e07 71bd
000003c0: 8b06 41bd 4345 8fbd 6251 a83e 30c3 773d
000003d0: b155 eabf bf32 4f3d 4060 293e 9131 c5be
000003e0: a7fb 22be ed74 2dbe e67b 293f 5ae9 023d
000003f0: b14a 993c 4058 993e b08e 82bc 096e 1cbe
0.009274877 0.06476951 -0.18320222 0.21074738 -0.24514638 0.11266208 0.13824132 0.37673646
0.40036738 -0.11019691 0.16276085 -0.18368395 -0.99358463 -0.19927111 0.009399836 -0.0087339515
0.080564804 -0.10554196 0.13253504 0.19125865 -0.2606534 -0.027955757 0.86314315 0.6184365
0.2571099 -0.56077397 -0.21428438 0.056824468 0.14233282 0.099004164 0.53924465 0.06846037
-0.36384815 0.12894754 -0.19334683 -0.16633901 -0.09677603 0.03597858 -0.70018977 -0.0733622
-0.066522025 -0.22688428 0.3215257 -0.09288563 0.15865798 0.16080092 0.167735 0.038798027
0.13418865 -0.17005353 -1.0378838 0.049378082 0.09047669 -0.03185534 0.28225654 -0.12635797
0.1113954 0.11005331 0.16991736 0.18888882 -0.13107634 -0.18155919 -0.21440339 0.11906247
-0.22052145 -0.044727106 0.0197465 -0.07652303 0.025872696 0.15363158 0.071098655 -0.084596254
0.45406547 0.07818778 -0.24434204 0.14233242 -2.2045488 0.011406338 -0.0047825463 0.14562218
0.0039530923 -0.10247831 -1.1124506 -0.11471886 -0.0668984 -0.109407604 -0.37900648 -0.15139896
-0.15800346 -0.023675377 0.083026975 0.058257356 -0.081185706 0.13714562 0.29206568 -0.17546557
0.019536193 0.11231654 0.04055173 0.18855187 0.6276766 -0.56083584 -0.18511693 0.022960441
0.28661227 0.32603687 -0.077230744 0.07519885 0.054002292 0.33826774 0.44140196 0.19579443
-0.079930335 0.12467821 -1.0098627 0.6268622 -0.15219523 -0.04041526 0.09905261 0.11377431
-0.022792974 0.047289055 -0.2081685 -0.08622682 -0.05494322 -0.14728539 0.09555031 0.21226944
0.090223074 0.30755877 0.36700153 0.1817947 0.21567994 -0.17213562 -0.12187281 0.7386501
0.0014773381 -0.6054009 0.06434876 -0.5063615 0.27712354 -0.21313542 -0.21025598 0.15970552
1.1036923 0.1591783 0.15472731 -0.15956742 -0.054410536 -0.06840748 -0.17752634 -0.8159627
-0.14901192 0.116334446 -0.2240629 0.264573 -0.047215253 0.17318939 0.07212364 -0.13880356
0.16095942 -0.09208848 0.06777848 -0.06344098 0.04004483 -0.40711275 0.5419793 -0.0900297
-0.034535076 -0.16200562 0.39771596 -0.09781908 -0.058095474 -0.011444517 -0.65494347 0.15303019
-0.12265199 0.14174612 -0.3743263 -0.4941756 -0.2800469 0.056732833 0.17289664 -0.17851856
-0.09173626 -0.082248874 0.106573656 -0.044333532 -0.27729857 0.21468575 -0.4314188 0.029808281
0.9002213 0.17390113 0.17886022 -0.040382206 0.37189397 1.0549352 0.016392777 0.2161403
0.0050075413 -0.09123805 0.0071049742 -0.20571491 0.3799152 -0.13649097 0.45553228 0.071092635
0.31485868 -0.32034317 0.09274086 0.041740246 0.2865831 -0.022651935 -0.19725731 0.36664057
0.38635716 -0.0841419 -0.25463843 0.05860437 -0.07727104 0.110885546 0.10549836 -0.02103834
0.02456942 -0.12827034 -0.047373503 0.10329811 0.68623453 -0.056867134 -0.12446442 -0.42329872
-0.1268673 0.018567478 -0.028187694 -0.45301947 0.046350498 -0.05816994 0.30075213 -0.058844738
-0.04712538 -0.069956325 0.3287459 0.06048888 -1.8307401 0.050585505 0.16540623 -0.3851438
-0.1591631 -0.16939135 0.6620468 0.031960823 0.018712373 0.29950142 -0.01593718 -0.1527635

l2.bias f4 [256]
00000000: 8f1e 1fbd 67a1 e13d c0e7 003e eb1a 843d
00000010: 0f85 08bc 8d9a f03d fbcc 9b3e bfeb 85bd
00000020: d0c5 893d 8f55 d63c 3140 163e f8d7 7a3d
00000030: 6731 873e 9e31 773d e351 603a 65e4 643d
00000040: cdd3 9e3d fe14 2c3e 9e09 293d 144b 2c3d
00000050: 0c43 8fbc 25ff 7b3d 24a7 103d e109 853d
00000060: cfd2 723c 0f23 563c edf6 b83d 3626 7cbd
00000070: a0eb 0e3c 13a0 fbbd 9a88 173d 5aea 243d
00000080: f49b 4e3e edb0 453e 6875 d83d 7dcb 17bc
00000090: c754 9d3d 178f 5cbc 6451 b1bd 0486 bf3d
000000a0: 4ed7 863e f2c0 3fbe bd4d 02bd 00c1 a03d
000000b0: c566 013e 530a dbbc 376a 0abe 1f09 1fbc
000000c0: bb54 453d 108d 123d d281 99be cd2f babd
000000d0: e00e 3e3d c2f3 453d 2257 40bd 3817 573c
000000e0: 20d2 583e 3f21 cb3c 07b7 eb3c 8039 f0bb
000000f0: c552 43bd 8d0f e0be 9094 493e cd98 2bbe
00000100: e09b 943e 9665 99bd ac3b 0d3e c8bb 4f3d
00000110: 9fbe 1fbc 3293 1f3e 461d 8dbc 81a7 81ba
00000120: dc0e 5f3c 1b92 5bbd 9558 bc3d 7745 3a3d
00000130: 9735 a63d 8626 6ebe 5e41 633d 48c9 51be
00000140: 2bfe 133e 7ded fd3d eaa9 8e3d c934 e03c
00000150: 57a5 863d 54ba b8bb 036e 923d 3f0b c0bb
00000160: 8b1c 563e de0e df3d d67d a9be 213d e73c
00000170: 08a4 cabc cc41 43bc 4955 4fbd 59a8 663d
00000180: ca35 58bd 81ba 0abe c871 9a3d 420d 0bbd
00000190: da2a 9a3d 5947 b53b 5dc2 2dbd aa00 5ebc
000001a0: 8811 173d 555d 4d3d 09fa 62bd a7c9 343e
000001b0: 9327 b33d f89a e63d 0731 193d 6202 4bbe
000001c0: 9436 a8bd ae42 833c c31d a3bb 5132 63bd
000001d0: 1e36 88bd 9238 a43d f7f3 433d 3ba2 b43b
000001e0: 19d4 94be 62ed 943d 1c82 903c 9d27 733e
000001f0: b614 cebd d795 6a3c 768e 93bb 0c2a c33d
00000200: 76da d7bb 206a 933d 00e8 123d 3f33 37be
00000210: 8d42 003d a320 98bc 8d5c fa3d f6ed 66be
00000220: ab74 18bd 961a d43d eced 54bd 8f8a c83d
00000230: fadd 63bd 6cd7 8f3b 33ff 49be 9fab 0d3c
00000240: f716 d03d d728 6a3d 008c 1bbd 9f07 093d
00000250: fc1c ef3c f12c 0ebb 0f09 893d f958 73bd
00000260: a9e4 0c3c ae54 49be 71d4 01be 4e91 d5be
00000270: cefd 783c bf88 8b3e e8fc 9b3d 0e19 973a
00000280: 3b6d 353e 6bcb 5ebc 64a5 493e ac4c 183d
00000290: e7d9 5e3e 774f c6be 9354 97be 1bf4 b73d
000002a0: 3da8 98bd ef07 583e 08cd adbc 59bc 823d
000002b0: 53c1 dd3d f88c 1cbd 950c 9d3e 4683 e9bd
000002c0: 79fe 063f ddf7 afbd 4a6e 47be e817 8abe
000002d0: def6 043c 15fc 873c 3789 d6be b69c b33d
000002e0: 7246 cebd 56cb 7bbd 5f19 2fbe 3037 6c3c
000002f0: b39d 703d dfe7 14be 0974 5a39 ee78 eabd
00000300: 1588 42be c051 fe3d ba70 883d 3656 4fba
00000310: 426f 913d 831b 523c 19e3 15be e303 8c3d
00000320: 6383 c8be 9cd7 71be 9813 a43e e2c7 593c
00000330: b6fd 213c 54a9 1b3e c3ad 683d f220 f5bc
00000340: fb8f a43c 7673 973e 2971 863d 1272 dd3d
00000350: a98d dd3d 4978 053d 05f3 00bd 56e1 913d
00000360: 3bbf 64be 3d65 0bbe 75e3 c53d 8bd3 c0bc
00000370: 6a07 67bd c951 1bbd 09d1 ab3a d9c9 85be
00000380: 6a5c 803d f707 c43c d114 f23d 24f0 00bf
00000390: c22e dd3c 06a6 c0bc 6469 e9b9 7192 e63c
000003a0: 39d7 10be a5cd e73d eb85 ba3d 766a f13b
000003b0: e94d 8b3e f824 063e c30a 8a3d 2769 3a3d
000003c0: 0f12 ed3b 0abb 8f3d cf3f 003c e958 073e
000003d0: 7119 47bc 77a8 4b3e 2545 19bd e591 a63d
000003e0: 065c 0a3e da70 9cbd f7d2 323e 9504 653d
000003f0: 2221 c83d 9bc0 4cbc 1db9 f23d 8c2b b03d
-0.038847502 0.11017113 0.12588406 0.06450447 -0.008332505 0.11748228 0.30429825 -0.065391056
0.06727183 0.026163844 0.14672925 0.06124112 0.26404878 0.060350053 0.0008557124 0.055881876
0.077552415 0.16804883 0.041268937 0.042063788 -0.017488025 0.06152262 0.035315648 0.06496025
0.0148207685 0.013069882 0.09031472 -0.06155988 0.00872317 -0.12286391 0.036995508 0.040262558
0.20176679 0.19305773 0.105692685 -0.009264824 0.076821856 -0.01346185 -0.08658102 0.09351733
0.2633614 -0.18725947 -0.03181242 0.07849312 0.1263686 -0.026738321 -0.1351708 -0.0097067645
0.04817651 0.03577906 -0.29981858 -0.090911485 0.046400905 0.04832817 -0.046958096 0.013128094
0.21173906 0.024796126 0.028773798 -0.0073310733 -0.047686357 -0.43761864 0.19685578 -0.16757508
0.29025173 -0.07490079 0.13792294 0.05071619 -0.009750037 0.15583494 -0.017225873 -0.0009891839
0.013614383 -0.053606134 0.09196583 0.045476403 0.0811569 -0.23256883 0.05548226 -0.20486939
0.14452426 0.12398813 0.06966002 0.02736892 0.06574505 -0.0056374464 0.07149889 -0.0058607156
0.20909326 0.108915076 -0.33103818 0.02822739 -0.02473642 -0.011917543 -0.050618444 0.056312893
-0.052785672 -0.13547708 0.07541233 -0.03394819 0.075277045 0.005532187 -0.042421687 -0.013549963
0.036881953 0.050137836 -0.055414233 0.1765505 0.087477826 0.11260027 0.03740027 -0.19825128
-0.08213535 0.016023006 -0.004977913 -0.055467907 -0.06650947 0.080186024 0.047840085 0.0055125034
-0.29068068 0.0727184 0.017640166 0.2374558 -0.10062544 0.014317951 -0.0045030667 0.09529504
-0.006587322 0.07197976 0.035865784 -0.17890643 0.031313468 -0.01857025 0.12224684 -0.22551712
-0.03722064 0.10356633 -0.051984712 0.09792053 -0.055631615 0.004389694 -0.19726257 0.008646875
0.1016063 0.057167854 -0.03797531 0.033454534 0.029188626 -0.0021694268 0.06691181 -0.059411023
0.008599439 -0.19661209 -0.12678696 -0.4171242 0.0151972305 0.27252766 0.076165974 0.0011527853
0.1771745 -0.013598303 0.19691998 0.037182495 0.2176281 -0.38732502 -0.29556713 0.08982106
-0.07453964 0.21096776 -0.02121593 0.06383581 0.10827889 -0.038220376 0.30673662 -0.114019915
0.52732044 -0.08592198 -0.19475666 -0.26971364 0.008115498 0.016599694 -0.41901562 0.087701246
-0.1007203 -0.061473213 -0.17099522 0.014417455 0.058744144 -0.14541577 0.00020833327 -0.11448847
-0.18997224 0.12417936 0.06662126 -0.000790927 0.07101299 0.012823942 -0.14637412 0.06836679
-0.3916274 -0.23617405 0.320462 0.013292285 0.00988715 0.15201312 0.056806337 -0.029922936
0.020088186 0.29580277 0.06564552 0.10812773 0.10818035 0.032585416 -0.03148176 0.071230575
-0.22338574 -0.13612838 0.096625246 -0.023538372 -0.056403555 -0.037919793 0.0013108562 -0.2613056
0.062676266 0.02392958 0.11820377 -0.50366426 0.026999835 -0.023516666 -0.00044519745 0.028146
-0.14144601 0.113185205 0.09107574 0.0073674275 0.27207878 0.1310004 0.06740334 0.045510437
0.007234819 0.07018097 0.007827713 0.1321751 -0.012152062 0.19888483 -0.037419457 0.08133296
0.13511667 -0.07638712 0.17463289 0.055912573 0.097719446 -0.012497093 0.11851714 0.08602056

l3.weight f4 [1, 256]
00000000: a40a 6a3f 7347 243e 2d27 84c0 4304 113f
00000010: 35b7 3cbf 20ab 313e 0bc9 4040 c415 59c0
00000020: c889 e8be 77e5 0e3f 3768 edbe de62 14c0
00000030: a3b8 0fbf c309 3bbf dac8 96bf fc8d 8ebf
00000040: 208a ffbe 0f39 abc0 a362 aac0 f9d1 c9c0
00000050: 4424 113f 71c7 f33e 98f7 a7bf 2556 d43e
00000060: 2d42 593e 92dc da3e bc02 05bf bac7 493f
00000070: 7cce d43f 6f52 103f 22cd aebe 3285 723e
00000080: f7ef 0ebf f5c3 d7bf 3c59 00c0 1156 e93f
00000090: d9a3 9dbf f415 1e3f 687f 80c0 515f 013f
000000a0: bdde f9bf 2706 0b3f 331d 193f 3298 1a3e
000000b0: 668f cfbf bb66 8ec0 fd34 86bf cd44 1ac0
000000c0: 936f 37bf e6a6 a13e c3f0 1b40 1b01 2ebf
000000d0: 4667 2b3e 38b0 f8bf 1411 86bf 66ea 0640
000000e0: 2f30 71bf a409 113f ff6b 203e 65a2 dfbf
000000f0: 2bdd d23e e940 0540 9664 b1bf ce3f 683f
00000100: 3441 d03f f9bb 103f 1bbf f53e d51e 0bbf
00000110: 872e 79c0 e88a 503e 08d8 783f 8eb0 143f
00000120: 53cd 96bf b5ba ee3e 8021 963e 7ac5 1a3e
00000130: 374a 203f ad78 893f 4bc7 a83e fb6b 36c0
00000140: aeb9 29c0 421a 073f f000 803e 9283 c13e
00000150: dd87 e2be dbac 033f f07c c63e 5068 d63e
00000160: cf76 b73f da07 06c0 512a dbbf deef d4c0
00000170: 14ab 3bbf bc2f 3c3e 93df ad3f 8a09 5abf
00000180: 625a ea3e 1f2a 0dc0 9049 233e adcc 8d3e
00000190: 32c9 f33e e1de bf3e 9179 29bf 6b19 23bf
000001a0: 3664 03c0 889f bf3e a1de 1fc0 bd93 08c0
000001b0: ee4e 24bf fdc6 d03d 3004 ca3d 23b6 24c0
000001c0: b040 12c0 6608 f73e 19b3 ebbf dd94 8ac0
000001d0: 14b2 203f d582 223e 6017 d1be b8b5 ea3f
000001e0: c78f f73f 4d6c bebf cd19 973e 44c4 15c0
000001f0: c015 d8bf 1870 bb3e 96e4 1f3f 5cd5 ce3e
00000200: 909d fcbf 564b a7bf 5127 9d3e ff40 5dbf
00000210: 0541 18bf a9ed 083f 2d9a 69bf e1fc 1940
00000220: eb52 1cc0 a155 cec0 4427 93bf 18bf 89bf
00000230: b451 df3e 26f2 e73e 4d29 9140 616e 2cc0
00000240: 2117 29bf e4d7 d8be c71c cbbf 10b2 b5bf
00000250: afe4 be3e 0c15 1d3f e51a 53bf 7630 19bf
00000260: 3502 083f 784d ce3f 012a 12c0 2cfe 0140
00000270: ed8c 853e 6706 5dc0 b6d0 333e 9a13 4d3f
00000280: a7fd 93c0 2038 1d3f dc90 64c0 73c9 da3e
00000290: fe47 4dc0 bc06 e23f e665 8e40 414b d4bf
000002a0: 65f6 093f 55e7 14bf cd24 80bf 7b89 6e3e
000002b0: e418 16c0 2c28 8bbf ebe5 05c0 6fc4 1dc0
000002c0: a1bf 4540 9e94 533f f1fd 95bf 9fc0 4740
000002d0: 40b1 3bbf 9249 e83e 1f28 1740 22e2 7d3e
000002e0: e44f 083f 2cd7 0a3f f3d1 0241 723e f03e
000002f0: 1f66 bcc0 9102 c73f 252f 513f fc32 ab3f
00000300: 644f 1c40 1f63 0dbf ce23 823e 1440 29bf
00000310: e690 773d 440c 003f c032 a53f a22b 943e
00000320: 920c ec3f 69f7 d23f 8ac9 ef3f 7168 0d3f
00000330: 9c8c 1ac0 be73 16c0 ea63 3c3e 3ccf 0840
00000340: 2a17 30bf 776b 48c0 c76e 03bf b97e 1fc0
00000350: 7063 f1be 4675 493f a860 1cbf bf79 19bf
00000360: 763d 3840 0d4f b83f 9fd2 d03e 8976 d73e
00000370: 5a57 cabe 0407 eb3e 836e c53f 3972 0940
00000380: 5b81 0bc0 cc27 96c0 b2de dd3e f67b 2940
00000390: f050 ed3e bd28 7dc0 163e 0bbd 9602 1d3f
000003a0: 601a 3f40 b0d8 5a3e 8aba 413f d4ae 1e3f
000003b0: 0895 99c0 f4d5 ab3f 33bd 903e 2024 0840
000003c0: fcdf a9bf ba77 6bbf 11b9 1abf 7b04 f9be
000003d0: 9a08 44bf 44d6 95bf 884e efbf d6f3 35c0
000003e0: 0bcb fabf 1eb9 89bf fca7 acbf 4af3 603f
000003f0: 11e2 0fbf d55e d5bf 17bd 4f3e e36d cc3e
0.91422486 0.1604288 -4.129782 0.5664713 -0.7371705 0.17350435 3.0122707 -3.3919535
-0.4541762 0.55818886 -0.46368572 -2.3185344 -0.5614111 -0.7306177 -1.1780045 -1.113708
-0.4991007 -5.350715 -5.3245406 -6.3068814 0.5669596 0.476131 -1.3122435 0.41471973
0.2121665 0.42746407 -0.519573 0.78820384 1.6625514 0.56375784 -0.3414088 0.23683622
-0.5583491 -1.6856676 -2.0054464 1.822939 -1.2315627 0.6175225 -4.0155525 0.50536066
-1.9521099 0.5430626 0.5981018 0.1509712 -1.6215637 -4.4500403 -1.0484921 -2.4104493
-0.71654624 0.31572646 2.43657 -0.67970437 0.16738614 -1.9428778 -1.0473962 2.1080565
-0.9421415 0.56655335 0.15666197 -1.7471434 0.41184363 2.0820868 -1.3858821 0.9072236
1.6269898 0.56536824 0.47997364 -0.5434392 -3.8934648 0.20365489 0.9720464 0.580819
-1.178141 0.4662682 0.29322433 0.15114394 0.6261324 1.0739952 0.32964548 -2.8503406
-2.651958 0.5277444 0.25000715 0.37795693 -0.4424428 0.5143563 0.38767195 0.4187646
1.4333133 -2.0942292 -1.7122289 -6.6542807 -0.7330792 0.18377584 1.3583854 -0.85170805
0.45772082 -2.2056959 0.1594603 0.27695218 0.47614437 0.3747473 -0.6620112 -0.6371066
-2.0529914 0.374264 -2.4979632 -2.1340172 -0.6418294 0.10194204 0.0986408 -2.5736167
-2.2851982 0.48248595 -1.8414031 -4.330672 0.62771726 0.15870221 -0.40838146 1.8336706
1.9340752 -1.4876801 0.29511872 -2.340104 -1.6881638 0.36608958 0.6245817 0.40397155
-1.9735584 -1.3069866 0.3069406 -0.864273 -0.5947421 0.5348764 -0.9125088 2.4060595
-2.442561 -6.4479527 -1.1496358 -1.0761442 0.43617022 0.45301932 4.5362916 -2.694237
-0.66050917 -0.4235221 -1.5868157 -1.4194965 0.37283847 0.6136024 -0.8246291 -0.5983957
0.5312837 1.6117392 -2.2838137 2.0311384 0.2608408 -3.4535158 0.17560086 0.80108035
-4.6247134 0.61413765 -3.5713415 0.4273182 -3.207519 1.7658305 4.449939 -1.6585466
0.53891593 -0.58165485 -1.0011231 0.23294632 -2.3452692 -1.0871634 -2.092158 -2.4651144
3.089821 0.82648647 -1.1718122 3.1211317 -0.7331734 0.4536863 2.3618238 0.24793294
0.53246903 0.54234576 8.176257 0.46922642 -5.887466 1.5547658 0.8171256 1.3374934
2.4423456 -0.5522937 0.25417942 -0.661134 0.06044092 0.50018716 1.2906113 0.2893954
1.8441336 1.6481754 1.873338 0.5523749 -2.414832 -2.3508143 0.18397489 2.1376486
-0.68785346 -3.1315591 -0.5134091 -2.4921095 -0.47146177 0.7869457 -0.61084986 -0.59951395
2.8787513 1.4399124 0.4078569 0.42082623 -0.3951977 0.4590379 1.542435 2.1475966
-2.1797702 -4.692358 0.43333966 2.648191 0.46350813 -3.9556115 -0.033994757 0.6133207
2.9859848 0.21371722 0.7567526 0.61985517 -4.7994423 1.3424668 0.28269348 2.127205
-1.327148 -0.91979563 -0.6043864 -0.4863623 -0.76575625 -1.1706014 -1.8695841 -2.8430076
-1.9593214 -1.0759618 -1.3488765 0.8787123 -0.56204325 -1.6669565 0.20286976 0.39927587

l4.weight f4 [256, 28]
00000000: 7f23 d4be 2984 e5bf b6f7 0f3f a3d5 12bf
00000010: 41b1 52bd ee20 7ebc b195 c3be 35f5 f6bc
00000020: 54e1 0c3d 3a4b 373e e77f 663c eed1 3fbe
00000030: c986 2e3c 5f70 ffbc 4c1f 013f 3053 f0be
00000040: 1a1d adbe 2b1a c43e 0ee8 3ebf ebdc f3be
00000050: 51ad c1be 1bad 613e 762d 2dbb 3b3c 4a3e
00000060: b381 cb39 00dc 96bd 950c 343d 3802 16bd
00000070: 29be 023d fd0d 903f 13c9 8f3e 02ce 8fbe
00000080: 620a 403d 9da9 1f3c d093 81bd 37a1 aa3c
00000090: 6dfb d53b 7908 be3d 334a 513d eb72 c9bc
000000a0: 96ae 2c3c dfea 183c afca d83d aa60 8cbc
000000b0: 1e96 b3be fc64 cb3e c4ca 623a eb8b 123f
000000c0: d34f 0cbe 7c7b dabe 2dd2 c93e bc41 463e
000000d0: 12c8 0a3c 0ac2 b73a c226 863c 5b21 e63c
000000e0: 1630 ac3e 3d57 913f 1a8e 5c3e 3e16 463f
000000f0: 6ed4 533f c27e 8f3d 0708 e33e d8b2 2f3c
00000100: 5540 63bd 2580 36bf f6cf bebc 9ad4 68be
00000110: b93a 35bb d574 9bbd 4809 95bd 7db1 893e
00000120: 2835 af3e 44d0 293e 365e 9c3d bcc7 383d
00000130: c15b 253e aa73 eabd 143e 793e b956 3abe
00000140: 02aa 623b 5b1a 483c 0c1d e33c dde2 51bd
00000150: e88a aabd 2918 57be 506c 663d 4598 9c3a
00000160: 9e14 c9bc 11e6 d3bb 82e9 08bc 955b b1ba
00000170: e7d2 24bc 5263 1cbd 15d2 a2bb 0329 b83b
00000180: 3220 56ba c81d bbbb 1050 e7bc 0a47 1fbd
00000190: 867d a33d 3499 023b a0fe f23d 1d60 9bbe
000001a0: a4bc efbe 70ae c2be b9fe 743f ee9e 1fba
000001b0: 4e6c 4938 601b 06b9 9e07 003a 2579 ac3b
000001c0: e65b 06bf 4cf3 0dbf 2bbb 02bf 099f 4e3d
000001d0: 0b25 eebc afcb 3eba 6848 473d 5693 caba
000001e0: fb43 033b 5d94 523c 3146 ebbc f39b ae3d
000001f0: 6a16 23bc 0b7b babb 0473 e93d 3952 a5bd
00000200: 5f34 a53e 3593 353e b3fa 0c3e af3b 82be
00000210: 8dfe d33e 61b0 01bf 8ff6 0d3f 5731 ab3e
00000220: 640b 9f3b 28e2 95ba 9dd5 89bb b616 02bc
00000230: 9115 5a3e 379f d5bf 5eff 0a3e 7987 783e
00000240: 5c07 ae3e 6f05 b7bc 0222 c1bd 2842 b3bb
00000250: 350e 5d3d 005d f23e dde4 053d 3493 84bd
00000260: 6efb c33c cee5 3d3e b4ae 323d 45d1 f6bd
00000270: ed79 2cbe 381f 02bf edad c23e 5d34 e4be
00000280: 008c 53be 825c 293e 3b08 0b3e 9482 42bd
00000290: 26c5 233d 9246 b03b 0ef1 653d 9d3e e73c
000002a0: d129 3fbe 6b29 78be dc02 3b3e f012 f8be
000002b0: eece 37be 5eb4 74bd 056d 21be ef20 33bd
000002c0: 3436 efbc dc1b 63bd 1e27 7ebb 22a5 babc
000002d0: c3e2 813c 396e a43b acd1 c0be e538 a83e
000002e0: eb86 513e 5855 043d ad04 48be 7353 1abf
000002f0: f8a6 023f c7e9 5fbe ca89 fbbe 416f 173e
00000300: 1a33 09bd 750f 32bd c610 8d3c e453 c8bb
00000310: 28d7 cebe 0792 94bf 80c7 22bf 8046 a0be
00000320: ae4e a9be a60c 5ebd cdc9 c6bd e87f 3dbc
00000330: ed86 e2bc 2b80 febc 41e5 31bd 6dbd 3d3d
00000340: a133 a5ba d433 c73b ff16 8a3d b700 e4bc
00000350: 3b06 c83c 0b0b e7be 05b8 5b3f c1cb 443f
00000360: 9399 aebe ca89 79be 2ec9 72be 64ee 7dbd
00000370: a8fa 78bc 7434 2dbc bd11 1cba b115 f93c
00000380: b5b4 5ebf 0468 a2bf 2df3 49be f026 5cbf
00000390: a305 723f 72b8 d8bd 5207 42bf f26f 5b3d
000003a0: 9011 18be a0ea 7e3f 2351 a1bb 6a7a 463d
000003b0: 7636 b33d ee21 8e3d 93c0 8bbc 3fb5 ab3e
000003c0: c128 07be 9af4 79be 4ad2 95be fc6e 29bb
000003d0: cb2d 563c 6a79 30be 9ddf 08bf 677b e33c
000003e0: b9b8 863d 01e2 28be d357 4a3d c7a1 16bc
000003f0: 5a2e 44bd c807 0abe eb52 283e 066f ba3d
-0.4143333 -1.7930957 0.5623735 -0.57357234 -0.051438574 -0.015510781 -0.38200143 -0.03014622
0.034394577 0.1789979 0.01406858 -0.18732426 0.0106522525 -0.031181512 0.5043838 -0.46938467
-0.33811265 0.38301215 -0.7457284 -0.47629485 -0.37827542 0.22038691 -0.0026424802 0.19749539
0.0003881581 -0.073661804 0.04395731 -0.03662321 0.031919632 1.1254269 0.28083095 -0.2808686
0.0468849 0.009745029 -0.06327021 0.020828826 0.0065302164 0.0927896 0.051096153 -0.02459093
0.010539671 0.009333341 0.10585534 -0.017135937 -0.35075468 0.39725482 0.000865143 0.5724475
-0.13702326 -0.42672336 0.39418164 0.19361013 0.008470552 0.001401962 0.016375903 0.028092077
0.33630437 1.1354748 0.21538582 0.7737769 0.82746017 0.07006599 0.44342062 0.010723792
-0.055481274 -0.71289283 -0.023292523 -0.22737351 -0.002765341 -0.07590643 -0.07277161 0.26893225
0.34220243 0.16583353 0.07635157 0.045112357 0.16148283 -0.114478424 0.24340087 -0.18197145
0.0034586196 0.012213315 0.027723812 -0.051241744 -0.083272755 -0.2100531 0.05625564 0.0011947235
-0.024545964 -0.006466635 -0.008356454 -0.0013531322 -0.010060049 -0.038180657 -0.0049688914 0.0056201234
-0.00081682496 -0.0057103373 -0.028236419 -0.038886108 0.07982926 0.0019927742 0.11864972 -0.30346766
-0.4682361 -0.3802371 0.95701176 -0.0006089051 4.8023e-05 -0.00012789434 0.00048839475 0.005263465
-0.52483976 -0.55449367 -0.51066846 0.050444636 -0.029070398 -0.0007278276 0.048653036 -0.0015455286
0.0020029533 0.012852755 -0.028719993 0.08525839 -0.009954074 -0.0056909374 0.113988906 -0.08072323
0.32266518 0.17731936 0.13767509 -0.2543616 0.41405144 -0.5065976 0.55454344 0.3343608
0.004853653 -0.0011435198 -0.004206373 -0.007939985 0.2129729 -1.6689214 0.13573977 0.24270429
0.3398999 -0.022341458 -0.094303146 -0.005470533 0.053968627 0.47336578 0.032688964 -0.06473389
0.023923602 0.18544695 0.04362364 -0.12051634 -0.16843386 -0.50828886 0.3802332 -0.445712
-0.20658875 0.16539195 0.13577358 -0.04748781 0.039982937 0.0053795064 0.05613809 0.028228099
-0.18668295 -0.2423455 0.1826281 -0.48451948 -0.17950031 -0.059742324 -0.15764244 -0.04373258
-0.02920065 -0.05544649 -0.003878064 -0.02278382 0.015855199 0.0050180224 -0.37659967 0.32855907
0.20461623 0.032307953 -0.19533034 -0.60283583 0.51036024 -0.21866523 -0.49128562 0.14788534
-0.033496 -0.043471772 0.017219912 -0.006113516 -0.40398526 -1.1607064 -0.6358566 -0.31303787
-0.3306784 -0.05421128 -0.09706459 -0.01156614 -0.027652228 -0.031066975 -0.043431524 0.04632323
-0.0012603888 0.0060791764 0.067426674 -0.027832372 0.024417033 -0.45125613 0.85827667 0.76873404
-0.34101543 -0.24368969 -0.23709556 -0.061994925 -0.01519648 -0.010571588 -0.0005953571 0.030405851
-0.8699449 -1.2687993 -0.1972167 -0.85996914 0.9453985 -0.10582055 -0.7579242 0.053573556
-0.1485045 0.9957676 -0.0049230023 0.048456587 0.08750622 0.06940065 -0.0170596 0.33536717
-0.1319914 -0.24409714 -0.29262 -0.0025853505 0.013072441 -0.17233816 -0.53466207 0.027768804
0.06578202 -0.16492464 0.049400162 -0.009193844 -0.047895767 -0.13479531 0.1643788 0.09103207

l4.bias f4 [256]
00000000: 782b 943e 3ddf 0ebf b70e 06bf 8e28 d7bc
00000010: 5106 24be f8e4 353e 95f8 063f fa49 f93e
00000020: 9206 f9bb 23e3 bbbd 1a66 e73e 6373 27bf
00000030: 95d9 be3e 366b df3e 83d0 0fbf 90d5 9ebe
00000040: 3f28 0abe 389d 693e f8b9 b6be df37 debe
00000050: 5329 c8be b966 bd3e 5215 18bf ba83 e03e
00000060: 4fbb 823e 4898 c9be e7b2 093d aea2 5c3e
00000070: 5a8b 26bf 8016 0bbe f6ed 04bf 8197 d73e
00000080: fd9f 17bd d77e d13e 9e39 febd b58f a63e
00000090: 047c 9cbe 5af0 2abe 59d9 d73e 603f 54be
000000a0: bca8 ef3e 5485 4b3e 7cfe d23e 7118 343e
000000b0: e438 0c3e 2f1a c13e 59fb 123f be91 e03c
000000c0: 6936 87be b1b1 0d3f b504 b9bd f47c cabd
000000d0: 984d 83be 48fb c3bd f6f8 e5bd 9ea2 853d
000000e0: 2f1e d2be fd70 473e 3261 0b3e 8214 223d
000000f0: 7fcc 683e 40b8 17bf e438 fe3e 069c 29be
00000100: 7f44 ad3c 317d 743e c679 90bd c4e7 753e
00000110: 5763 fa3e c3be a2be 8197 e6be be99 4c3e
00000120: f682 493d 5d82 efbd 1977 62bf 6e22 abbe
00000130: 3dce 48be 02f2 d23c 09cb 01be c98b b8bd
00000140: 7ea6 ecbe ba44 07bf 4067 323e c3db 1a3d
00000150: 3c5f 89be de62 4bbe 7aa9 293d 40a1 f4be
00000160: 019d bebe 548a 5cbd 03ca 0e3f d698 893e
00000170: 9f9c 39be 5c76 b2be c6a5 363f e91b 513e
00000180: 23ff 08bf 1404 9dbd df41 653e 161d 85be
00000190: b347 953d 3cde 233e 14b2 26bf c8cc 373e
000001a0: ff55 b53e 0117 f7be 67e7 fa3e 6bef f9be
000001b0: bace be3e 8d98 153f 6e7e d2be 335a 2b3f
000001c0: 6e75 633e 6c81 b03b fd23 97bd c8db 133f
000001d0: 85b9 90be 6fcf 6d3e 3539 18bf 6b4e e23e
000001e0: 9379 1a3f 0ada 17bf 4402 1a3f 4e06 05bd
000001f0: 1180 1f3e 5ddb 1f3f f706 e43e 0cdf 0cbf
00000200: cf4b 563e 9555 17bf f8cf 073f 7773 6d3e
00000210: af0d a3be 8947 0b3f 5f61 8a3e 354d 023f
00000220: 6e5f 9c3c f260 f43e 79ff 943e 1ee0 acbe
00000230: 35e2 eebe cf36 d9be 4b54 13bf 7ac6 c7be
00000240: edb8 00bf b198 cbbe b4a6 013e 8ee5 c33d
00000250: e151 253d b091 86be 3f9c 303f a2de 2cbe
00000260: 5ad8 05be f4b1 c8be 9d47 b73e 5f00 fdbe
00000270: 9458 bfbd 4195 c23e 010f 283f b8da 0fbe
00000280: ba1a 413e 4961 ffbe e3aa e2be ac41 163f
00000290: fdcc 313f 54c6 1ebe 679d b73e 0aea debe
000002a0: cbcc 8ebe e66d a23e 9e6e 61bf 921a d13e
000002b0: 96f9 a9be 544c 97be bc5f 633e 9874 d2be
000002c0: 1154 073f 47f6 223e cca8 033f 62a5 003e
000002d0: 5b52 ce3e bf99 cabb 7cf3 023e 507e f83e
000002e0: 60b4 0f3f 0628 debd 72c0 0c3d 7d4f c63e
000002f0: 1a99 d2be ce30 003f d79e e43e 3e40 ad3e
00000300: 8695 323e 4f45 b33d 62c4 b1be e816 0f3e
00000310: 5800 973b 701e 5b3c 41e2 643e 63e7 6dbe
00000320: 5b16 0b3f 7aa2 98be f066 043e 9395 68be
00000330: 9a71 01bf 312e 90be 94e0 ccbe 5fbf 18bf
00000340: dff5 8fbe 45fc c43d 9be6 fa3e 8adc b2be
00000350: 397b 01be a87b fa3e 486c 673e b6c4 dc3e
00000360: 5a25 a7be 687c a4be c21a 32be 3e9b a13d
00000370: e690 a03e 014d 333b e6e3 74be 0029 a9be
00000380: c2de 25bf 1423 e23e bda2 303d 3c78 a43d
00000390: 781a a2be 621e 393e 246e 663e 8d77 0a3f
000003a0: 65cf 3b3f d40a babe fed9 c43a 37e9 c9be
000003b0: 1d38 173f d563 ca3e 1c39 5fbe cc8f 8d3e
000003c0: 467c 32bf 04a2 aabd d109 f7be 8c8a 12bf
000003d0: 934a 923e b191 063f 0eed 8dbc 7d8e bbbe
000003e0: 2962 933e e6f8 b0be f4c8 10bd 1952 343e
000003f0: 13fe d63d 87f3 abbe 29a7 6fbe b25f 53bf
0.28939414 -0.55809385 -0.52366203 -0.026264455 -0.16018035 0.17763126 0.52723056 0.48689252
-0.00759966 -0.09174182 0.45195085 -0.6541044 0.37275377 0.43636483 -0.5617754 -0.3102231
-0.13491915 0.2281388 -0.35688758 -0.43402 -0.39094028 0.36992434 -0.5940753 0.438505
0.2553353 -0.39373994 0.03361788 0.21546432 -0.65056384 -0.13582802 -0.519256 0.42107776
-0.03701781 0.40917084 -0.12413333 0.32531515 -0.30563366 -0.1669325 0.4215801 -0.207273
0.46808422 0.1987508 0.4120978 0.17587449 0.13693577 0.3771529 0.57414776 0.027413245
-0.264087 0.5534926 -0.09034101 -0.09887114 -0.25645137 -0.095694125 -0.11229126 0.065251574
-0.41038653 0.19476695 0.13611296 0.03957034 0.22734259 -0.5926552 0.4965278 -0.16563424
0.021150826 0.23875882 -0.070544764 0.24014193 0.48903915 -0.31786165 -0.45037463 0.19980523
0.04919716 -0.11694787 -0.8846298 -0.33424705 -0.19609924 0.025750164 -0.12675108 -0.09011037
-0.46220773 -0.52839243 0.17422199 0.037807237 -0.2683047 -0.19861934 0.04142139 -0.47779274
-0.3722916 -0.053842857 0.55776995 0.26874417 -0.18126152 -0.34855926 0.713467 0.20420803
-0.5351431 -0.076667935 0.22388409 -0.25998753 0.07289066 0.16002744 -0.65115476 0.17949212
0.35417172 -0.48259738 0.4900467 -0.48815474 0.37267095 0.584359 -0.41112083 0.6693451
0.22212765 0.005386522 -0.07379911 0.57757235 -0.2826654 0.23223661 -0.5946229 0.44200453
0.6034176 -0.59317076 0.6015971 -0.032476716 0.15576197 0.62444097 0.44536564 -0.5502784
0.20927356 -0.5911496 0.5305171 0.23188578 -0.31846377 0.5440603 0.27027413 0.5089906
0.019088473 0.47730213 0.2910116 -0.33764738 -0.46656957 -0.42424628 -0.57550496 -0.39018613
-0.50282174 -0.39764932 0.12661248 0.095652685 0.04036129 -0.26283026 0.6898841 -0.16881803
-0.13070813 -0.39198267 0.35796824 -0.49414346 -0.09343067 0.38004497 0.65647894 -0.14048278
0.18857852 -0.4987891 -0.44271 0.5869396 0.6945341 -0.15505344 0.35862276 -0.43537933
-0.2789062 0.3172447 -0.88059413 0.40840584 -0.3319823 -0.2955042 0.22204489 -0.4110458
0.5286265 0.1591426 0.5142944 0.12563089 0.40297207 -0.0061828787 0.12788194 0.4853387
0.56134605 -0.108474776 0.034363218 0.3873252 -0.41132432 0.5007447 0.44652435 0.33838075
0.17439851 0.08753454 -0.3472014 0.13973582 0.0046081953 0.013373956 0.22351934 -0.23232798
0.54330987 -0.2981146 0.12929893 -0.22713308 -0.5056397 -0.2816024 -0.4001509 -0.5966701
-0.28117272 0.09618429 0.49004063 -0.34933883 -0.12644662 0.48922467 0.225999 0.4311883
-0.32645684 -0.32126164 -0.1739302 0.07890938 0.3136055 0.002735913 -0.23915061 -0.33039093
-0.64793026 0.44167387 0.04312395 0.080307454 -0.3166082 0.18077996 0.22502953 0.5408867
0.73363334 -0.36336386 0.001501858 -0.3943574 0.5907 0.3952929 -0.21799129 0.2764877
-0.69720876 -0.08331683 -0.48249677 -0.57242656 0.2857252 0.5256606 -0.01732495 -0.36632147
0.28785828 -0.34564894 -0.035347894 0.17609443 0.104976796 -0.33584234 -0.2340361 -0.82567894

l5.weight f4 [256, 256]
00000000: 669f 55be 5920 a83c 3680 f23d 5364 40be
00000010: edfe 94be 8ce2 2f3c 6f1f ab3e 2704 9d3e
00000020: bc13 0abf f21b a9be c583 85bf 9ffd ce3d
00000030: 8871 9b3d c841 d23f 65d6 903e 88c9 2dbd
00000040: 8e87 a63e dfb1 a9be 1cd5 b5bf 42ce 503e
00000050: f632 f8be efe3 643b 2ed4 a3be cf4a b9be
00000060: 9856 383e 301a 80bf 3c3d 8dbd de6d 063f
00000070: dd40 48bf 8d06 c0be 3457 98be b1ce aa3e
00000080: 99b2 9cbf c9a0 13c0 87e5 ab3d cae4 223f
00000090: c8b8 a4be 5d9b b53d 9a23 22bd d8da 603b
000000a0: cf0e 183e fee8 cc3e be43 d6be 00d4 093e
000000b0: f22e 45bf ab1b a33e 130f 5dbe 48e6 50bd
000000c0: 4921 543e f645 0d3e 2f22 b2be b391 493e
000000d0: acc5 403e 671e 3dbe 37e1 c53d fffe 863f
000000e0: e333 89bc 05bf a9be 4ec0 37bf 1423 413c
000000f0: 7051 de3e fb36 41bf c39b 2dbe 8cb1 98bd
00000100: c954 6a3e 5d38 18c0 eb0a 0b3e 87fa 5a3d
00000110: 9b8f 0abe de7d 313d ba11 63bc 6c8a fd3d
00000120: 3397 b6bd 275e fb3c e269 22bf f54b 36be
00000130: 7c34 15bf e0d4 e73d 1795 cf3d 5637 223e
00000140: 80e6 653e c9bb 2a3f dc72 f13d 24ab 7cbe
00000150: 1056 50be fec5 0e3d b864 8b3c 0805 2b3d
00000160: c44c e8be f486 7cbb a317 8d3e 4c41 b93e
00000170: 0eb7 20bf 4f17 73be d6db 08bf fa5f 49bf
00000180: f322 7dbe 78fc 00bf 2538 e23e 2540 c03d
00000190: 8155 023e ccfa f03e 6e29 93bd 5882 5e3e
000001a0: 8d3b 6abc 71e4 32be 5e10 efbe 54ee 3fbf
000001b0: 1977 3bbe c620 b5be b553 96be cf06 9c3e
000001c0: fc1b 343d 3d63 6ebf bb62 f7be ed51 503d
000001d0: 12dd e5be a579 5fbd e1fa 9a3e 9481 203f
000001e0: 0cc0 29be e3e7 2cbf 63c0 3dbe 86ed 033e
000001f0: ff1a 81bd d5c0 2ec0 67e5 083d 6513 73c0
00000200: 4cfb 76be 89a9 4bbf 5d09 f53d 3ca9 3ebf
00000210: 8f09 b3bd 4b2a c6bd 5330 54be f663 243f
00000220: 960d 253f e4ee 773e fece c73e 03df 7e3e
00000230: 1648 81bc 0b4b f73e 1db1 55bb 6b6f 2bbf
00000240: 22a3 cbbe 6e23 d7be 66d0 c4be 47d8 b6bd
00000250: 1491 39be 6633 8dbd 979d 8cbe 7930 4cbf
00000260: 6766 fbbe 6e09 aabd 3ef9 c73e 330e 72be
00000270: 391f 44bc f3ec 41bb 7567 a1be ca40 dfbe
00000280: 6249 dcba 9af8 57be 65ac 06bf 3f93 0ebe
00000290: ee6e ef3d 3a2b 8dbe d389 29be 7b9f 0f3f
000002a0: 0b4b f33d 2ced 5f3e a520 753e 0abb 903d
000002b0: cc40 3f3d cdd1 01bf 3d73 93be dbed 79bd
000002c0: d297 3fbf d460 43bd 0982 3d3e 79a5 d7be
000002d0: 0c46 b63e 549f d53e 146c 4abd f2d3 d23e
000002e0: ae19 ef3d c9cd f53d ac05 f43e 8f70 4cbf
000002f0: e236 2b3e 9916 9a3d 1876 013e e104 25bb
00000300: aef6 413f 39b2 60bc 6bfe 043e 064a 74bd
00000310: ed8b 433e 72ee f83d e25b e93e 7c0f 46be
00000320: 7c1c ad3e 8e81 d53e abb2 0e3e 36e7 f03d
00000330: 0b6b 973e 69f4 a1bf 45bd 56bd 786b 1abe
00000340: b4ec 2ebe 18c9 38be ec02 d33e 41aa ebbd
00000350: bfc1 0cbf 5d50 b73b cc95 cfbd c70a a9bd
00000360: be85 1b3e 1e90 d3bd a0c1 e9be 74eb 88bf
00000370: c03a 99bb 5b9d df3d d4db 3cbe d758 e23d
00000380: 8ec5 aebe 48a4 cd3d 5cb8 183f 97ba f03e
00000390: 09da 2fbf fbab 94be 6bee 823d f618 cd3e
000003a0: f68c 4bc0 dcfd 0bc0 cd26 48be d4eb 11c0
000003b0: 4d38 bc3e 4b16 443e c318 00bd 241f c53e
000003c0: 5ba5 a2bb dbda 07bf c13d 28be 15f3 babd
000003d0: 0fd6 e53d b68f 27bf 092c 343f bab1 a23e
000003e0: 9f94 9d3e 3692 a03e 9bca 58be aec9 a0be
000003f0: 998b 59bf e8f9 833e 7d08 44be 4226 17bf
-0.20861587 0.020523237 0.118408605 -0.1878827 -0.29100743 0.010735165 0.3342242 0.3066723
-0.5393636 -0.33029133 -1.0430838 0.10106968 0.07590014 1.6426325 0.2828857 -0.042428523
0.32525295 -0.33143517 -1.4205661 0.20391181 -0.4847638 0.0034925898 -0.31997818 -0.36189887
0.18001783 -1.0007992 -0.06896445 0.52511394 -0.78223974 -0.37504998 -0.2975403 0.33360818
-1.2242004 -2.3066885 0.08393388 0.63630354 -0.32172227 0.08867524 -0.039584734 0.0034310129
0.14849399 0.4002151 -0.41848558 0.13459778 -0.7702476 0.31857046 -0.21587782 -0.051000863
0.20715822 0.13796219 -0.34791705 0.19684486 0.18825406 -0.18468629 0.09662097 1.0546569
-0.016748374 -0.3315355 -0.7177781 0.011788148 0.43421507 -0.7547452 -0.1695395 -0.074557394
0.22883905 -2.3784401 0.13578384 0.053461578 -0.13531344 0.043332927 -0.013859207 0.123799175
-0.08915558 0.030684544 -0.63442814 -0.17802413 -0.5828321 0.113198996 0.101358585 0.15841421
0.2245121 0.6669279 0.11789486 -0.2467466 -0.2034533 0.03485679 0.0170158 0.041752845
-0.45371068 -0.0038532587 0.27557096 0.3618263 -0.6277932 -0.2373936 -0.53460443 -0.78662074
-0.24720363 -0.50385237 0.4418346 0.093872346 0.1272793 0.47066343 -0.071856365 0.2172941
-0.014296425 -0.17469956 -0.46692175 -0.74973035 -0.18307151 -0.35376567 -0.29360738 0.30473945
0.043972 -0.93120176 -0.48317513 0.05085938 -0.44895226 -0.05455937 0.3026953 0.6269772
-0.16577166 -0.6754133 -0.18530421 0.12883577 -0.06303977 -2.7305195 0.0334219 -3.7980587
-0.241193 -0.79555565 0.119646765 -0.7447698 -0.087420575 -0.096760355 -0.20721559 0.6421503
0.64473855 0.24212223 0.3902511 0.2488976 -0.015781444 0.4829944 -0.0032606788 -0.66966885
-0.39772898 -0.42019218 -0.38440245 -0.089279704 -0.18121749 -0.06894569 -0.27463982 -0.79761463
-0.49101564 -0.0830258 0.39057344 -0.23638229 -0.011970335 -0.0029590696 -0.31524244 -0.43604118
-0.0016806538 -0.21090928 -0.52606803 -0.13923357 0.1169108 -0.27572042 -0.16556482 0.5610272
0.11879548 0.21867818 0.23938234 0.07066925 0.046692654 -0.50710756 -0.28798857 -0.061017852
-0.74841034 -0.047699764 0.18506636 -0.42118433 0.35600317 0.4172312 -0.049419478 0.41177326
0.1167482 0.12002141 0.47660577 -0.7985925 0.16720155 0.075238414 0.12642705 -0.002517991
0.7576703 -0.013714367 0.12987678 -0.059640907 0.19096346 0.12154855 0.45577914 -0.19341844
0.33810794 0.41700405 0.13935344 0.1176285 0.29573855 -1.2652713 -0.052426595 -0.15080059
-0.17082483 -0.18045461 0.41213167 -0.11507083 -0.54983133 0.005594297 -0.10135993 -0.08254009
0.15187737 -0.103302225 -0.45655537 -1.0696855 -0.004676193 0.10918685 -0.18443233 0.11052101
-0.34135097 0.100411 0.5965631 0.47017357 -0.6869207 -0.2903746 0.06393131 0.40058106
-3.1804786 -2.1873693 -0.19546051 -2.2800188 0.36761704 0.19149129 -0.031273615 0.3850032
-0.0049635596 -0.5306832 -0.16429807 -0.091283955 0.11222469 -0.6545366 0.7037969 0.3177622
0.3077745 0.3136155 -0.21171038 -0.3140387 -0.84978634 0.257766 -0.19143863 -0.5904275
