4.2 TD3/model/HCv4_actor5000.pth (torch, 290446 bytes, 6 tensors)

l1.weight f4 [256, 17]
-5.572716 -0.81326425 0.2622202 0.86608464 -0.38822675 0.5319003 -0.12872902 0.16863146
-0.03985622 -0.7029161 -0.18114567 -0.18337816 -0.034449596 0.003058381 -0.028840167 -0.042329364
0.013661327 -0.09516769 0.23922706 -1.0157671 1.173056 -0.4404769 1.6068925 1.1497369
0.6711355 -0.12130874 -0.3035406 0.33937818 -0.0010337594 0.1778481 0.07118054 0.025051916
0.057684924 0.02104031 0.0471674 -0.7202571 1.1823413 0.70767146 0.3288252 0.35323572
-0.46459234 -0.17026135 0.61923784 -0.77562034 -0.51647043 -0.08659592 -0.001594932 0.06810334
0.20097521 0.031599488 0.020243704 -2.0299973 1.1796176 -0.115755565 -0.38882062 -1.1500938
0.762483 0.6619556 1.1560154 0.1880708 -0.7293831 0.12891352 -0.11744394 0.01646042
0.028833967 0.15124348 0.10027313 0.043453027 0.019052165 -0.6230526 0.22218503 -2.1186829
-1.0354986 0.5003709 -0.80819964 -0.41872606 0.17212893 -0.37264386 -0.09420192 -0.13001819
-0.11540093 -0.059988495 0.13439666 0.031458326 -0.00339142 -6.6780577 -3.0642965 0.42962587
-0.34571427 0.51743007 -0.62393093 -0.38798597 0.06961187 -0.024781676 -0.6812216 -0.25409228
0.033489518 -0.01300936 0.0470179 -0.035653688 -0.0076345997 0.025908383 0.5725854 0.28733286
-1.2111129 1.6597955 0.090106145 1.3917298 0.3695654 -0.3697974 -0.10225074 -0.04423933
0.90185994 -0.043286387 0.09670214 -0.0047550774 0.27780163 0.098584734 0.053446732 -2.6085227
-0.104589656 -0.40834737 -0.5113771 0.08216297 0.09181292 -1.3573413 -0.17150776 0.038602225
-0.086142786 1.1085837 -0.023329826 0.040581807 0.03977099 0.07056254 0.09299525 0.036907963
4.2850494 2.8445618 -0.97592556 -0.85495275 -0.8906578 0.8593534 1.113339 0.65121996
0.17143099 0.7834014 0.45256233 0.1129472 0.2338135 0.020650197 0.03146191 -0.0092246765
-0.0013299581 10.904729 -1.4784744 -0.4466203 0.17840374 -0.2973303 0.60742915 -0.62422687
-0.044905223 0.058774024 0.79057324 -0.09255449 0.015511815 0.0033801447 0.010092231 0.0065312223
-0.015942082 0.0038679508 0.47972724 0.12760007 -0.07952505 -1.0617322 -0.36940923 1.3997693
-0.6300346 -0.35165986 -0.09226818 -0.5309678 -0.97250736 -0.19327827 -0.24039024 -0.053648245
-0.13720186 -0.08356799 -0.0004716161 -0.66293705 0.19834295 -0.45062774 0.24735762 0.4686752
-1.3591418 -0.21679044 -0.4017259 -0.15074362 0.044967238 -0.45173058 0.13701823 -0.021269804
0.027731806 -0.1340922 0.09160193 -0.024738757 4.7927337 1.0372944 -0.92550594 0.26180655
-0.04829692 -0.38176146 1.2866614 0.5992422 0.09525326 1.7357104 0.6262354 0.28304592
0.20442761 0.023803355 -0.0034990693 -0.09613736 -0.024130192 -0.4147555 -1.1018153 1.5242273
0.03778472 0.5381874 -0.61335146 -1.4458563 0.112371504 0.0467982 -0.8406864 0.47923073
-0.0029579082 -0.047391832 -0.061182324 0.16007473 0.11875917 0.012037875 4.6154823 2.505731
-0.7927759 -0.9660808 0.29004192 -0.67528063 -0.1348124 0.32268053 -0.023409827 1.6123301
0.13685586 0.040663008 0.056818195 0.0023764714 0.09824496 0.022833908 0.020873457 -3.3385632
00000000: b153 b2c0 1632 50bf ba41 863e b9b7 5d3f
00000010: a8c5 c6be 9e2a 083f 8ad1 03be baad 2c3e
00000020: 4740 23bd 4ff2 33bf 407e 39be 7cc7 3bbe
00000030: 051b 0dbd 1e6f 483b 3742 ecbc 8e61 2dbd
00000040: c2d3 5f3c 47e7 c2bd f0f7 743e a804 82bf
00000050: b326 963f 3086 e1be a7ae cd3f 942a 933f
00000060: 89cf 2b3f b770 f8bd ac69 9bbe fac2 ad3e
00000070: 367f 87ba d01d 363e 1ac7 913d ad39 cd3c
00000080: 0747 6c3d ba5c ac3c 9b32 413d c562 38bf
00000090: f656 973f f529 353f c75b a83e 50db b43e
000000a0: 0cdf edbe fe58 2ebe 5f86 1e3f 0e8f 46bf
000000b0: 6837 04bf 3459 b1bd 0a0d d1ba c479 8b3d
000000c0: 72cc 4d3e 776e 013d 20d6 a53c 7aeb 01c0
000000d0: b6fd 963f 4111 edbd 7f13 c7be 4636 93bf
000000e0: 1632 433f ec75 293f 50f8 933f a295 403e
000000f0: dab8 3abf e801 043e 7386 f0bd 01d8 863c
00000100: 3635 ec3c 92df 1a3e 005c cd3d cdfb 313d
00000110: 4913 9c3c 6080 1fbf 7984 633e 8098 07c0
00000120: 388b 84bf 4f18 003f 2ce6 4ebf 4363 d6be
00000130: 9142 303e 2dcb bebe f0ec c0bd 7d23 05be
00000140: 5357 ecbd 7fb6 75bd 479f 093e 72da 003d
00000150: 9642 5ebb a6b2 d5c0 6f1d 44c0 ecf7 db3e
00000160: 7601 b1be 4c76 043f f0b9 1fbf 19a6 c6be
00000170: ab90 8e3d f102 cbbc 8a64 2ebf 6218 82be
00000180: 4e2c 093d 3625 55bc d795 403d 9a09 12bd
00000190: aa2b fabb d13d d43c f594 123f 4b1d 933e
000001a0: bf05 9bbf 2e74 d43f 9289 b83d 3424 b23f
000001b0: ad37 bd3e 1656 bdbe d668 d1bd 4d34 35bd
000001c0: 4be0 663f 114d 31bd c60b c63d 7bd0 9bbb
000001d0: 043c 8e3e cbe6 c93d f6ea 5a3d 09f2 26c0
000001e0: 1a33 d6bd e812 d1be 9ce9 02bf 0f45 a83d
000001f0: 6a08 bc3d 5cbd adbf bb9f 2fbe 5e1d 1e3d
00000200: a16b b0bd 12e6 8d3f 311e bfbc 1c39 263d
00000210: e8e6 223d 1883 903d 4b74 be3d ce2c 173d
00000220: 201f 8940 4d0d 3640 42d6 79bf 2fde 5abf
00000230: 2602 64bf 96fe 5b3f e481 8e3f 5ab6 263f
00000240: 9b8b 2f3e ff8c 483f 40b6 e73e dd50 e73d
00000250: ce6c 6f3e 9a2a a93c 34de 003d 1923 17bc
00000260: fd51 aeba c579 2e41 a63e bdbf 6aab e4be
00000270: 78af 363e ad3b 98be 7a80 1b3f 55cd 1fbf
00000280: 8aee 37bd 08bd 703d 0263 4a3f 358d bdbd
00000290: 4525 7e3c 6b85 5d3b e359 253c dd03 d63b
000002a0: f898 82bc 727d 7d3b cf9e f53e 98a9 023e
000002b0: 08de a2bd d7e6 87bf 3523 bdbe a42b b33f
000002c0: f349 21bf c30c b4be 19f7 bcbd 81ed 07bf
000002d0: 3ef6 78bf bdea 45be dc28 76be 43be 5bbd
000002e0: a57e 0cbe b225 abbd 3e43 f7b9 3eb6 29bf
000002f0: 6a1a 4b3e aeb8 e6be 514b 7d3e 32f6 ef3e
00000300: 5cf8 adbf 50fe 5dbe 04af cdbe 895c 1abe
00000310: 912f 383d 3b49 e7be 824e 0c3e 033e aebc
00000320: d02d e33c 774f 09be cb99 bb3d efa8 cabc
00000330: 135e 9940 10c6 843f f5ed 6cbf 820b 863e
00000340: fed2 45bd 3d76 c3be 52b1 a43f f067 193f
00000350: 2414 c33d c22b de3f f750 203f 65eb 903e
00000360: 7955 513e 41ff c23c a450 65bb aae3 c4bd
00000370: aeac c5bc d55a d4be 4908 8dbf e119 c33f
00000380: 27c4 1a3d a6c6 093f 9a04 1dbf d211 b9bf
00000390: 0823 e63d 78af 3f3d 3937 57bf bb5d f53e
000003a0: 77d9 41bb f01d 42bd 519a 7abd a1ea 233e
000003b0: 0238 f33d 823a 453c 08b2 9340 e65d 2040
000003c0: 5df3 4abf 1251 77bf 6080 943e 31df 2cbf
000003d0: 430c 0abe 6236 a53e f7c5 bfbc d560 ce3f
000003e0: f123 0c3e 418e 263d 32ba 683d 93be 1b3b
000003f0: a734 c93d 2d0e bb3c d0fe aa3c 05ab 55c0

l1.bias f4 [256]
0.4344246 0.188961 0.007787802 -1.6694187 -1.0407948 0.7967738 -0.74134755 0.75326955
0.3855045 -0.07296644 -0.37272924 0.71499324 0.5115344 0.48584956 0.065930456 1.3742809
0.8509172 0.1754562 -0.22601485 -0.52160376 1.6599578 0.7424375 0.50617915 1.5222105
1.1331991 0.49371397 -0.24590808 0.042193383 -0.67317104 0.19781461 -0.26458815 -0.67547727
1.5910138 1.8899581 -0.30737385 0.56286055 0.29843694 1.3455559 1.2159821 0.3153826
-0.41576007 1.7035338 -1.4416602 0.7499901 -1.7270724 0.8443437 0.67627907 -0.2720846
0.06845286 0.004406155 1.2041258 -0.4868409 1.448019 -0.017183773 -0.9413305 1.2398
1.1953304 -0.49777114 -0.56875163 -0.63105637 0.96114826 0.5909683 1.2831846 1.1704216
-0.2808389 -0.4516856 -0.19453494 -0.24757846 -0.19786312 1.6947993 0.10023411 -0.23747765
-0.069560304 -0.8605037 -1.1346478 -1.2039576 -0.1885863 1.4952432 1.4402398 -0.81185466
-0.44225043 -0.85242623 1.3936473 0.94052714 -0.9037046 1.0510935 0.5089236 -0.8614826
-0.25743222 -1.5766706 -0.2950978 0.29439837 -1.7832808 0.99014753 0.760656 1.5801666
-0.38216567 0.6653422 0.9098339 1.0331802 0.2937612 -0.20705688 0.5816035 1.7633051
-0.9031595 -0.41313082 0.18990608 -0.7901654 0.0981446 1.0152023 -0.13145533 -1.6155208
-0.70717454 0.054844964 0.4269866 1.4999183 -0.19022886 0.5490605 0.86989886 -0.015904821
-1.1935855 0.33245414 -1.8011056 0.84585184 -0.04207274 -1.5559423 -0.04897312 -1.0190837
0.045992028 0.3541988 -0.45066568 1.4656582 -1.4502457 0.99721736 -1.2630874 0.5444294
0.4009909 1.5768529 0.1800935 -0.92183614 -0.6075467 0.6346571 0.829458 -1.5484306
-0.6952059 -0.4046371 1.4436756 0.031996608 0.95752287 -1.231604 0.27913794 -0.9394094
-0.81523824 0.23564243 1.5415859 0.9717699 0.31445378 -0.7534901 -0.48372573 1.6553445
-0.9536449 -0.21594712 -0.6160085 -0.5706166 2.0101216 -1.4698516 -1.4606994 -0.1924071
-1.4503816 -0.99780303 -1.3920643 0.64624226 -0.028199373 1.0359453 -0.70927125 0.5133005
0.41045138 1.6541706 0.4069602 -0.5805603 0.4081415 -0.53934693 0.004309848 0.35631457
-1.0150707 0.82540625 -0.012059789 -0.5527058 0.10150133 0.78674185 0.4880147 -1.1085479
-1.6458634 1.0798291 -0.82134354 1.2420776 0.927731 1.4099594 -0.29636762 0.3969571
0.19176316 1.4098105 0.107062414 -0.42399406 1.4597968 -1.4779621 0.8693742 -0.969283
-1.2777346 1.1855154 0.31270835 1.0093485 -0.84681404 1.5366749 -0.29115734 -0.26658386
1.7042919 -0.27931094 -1.1986755 -0.17154856 1.1174464 -0.28890976 0.7287396 0.8497641
0.3447899 1.2414525 0.45947042 -0.61289364 1.4295261 0.7234704 0.962214 0.23093283
0.046001162 0.06928479 -0.16263488 -1.2031157 0.21655789 2.002754 0.9568096 -0.5957324
-0.3065298 0.27067757 0.4456163 1.3765976 0.10440394 0.82543373 0.041342214 0.39406812
1.4898788 0.39422485 -1.1789232 1.0412539 -0.21783085 -0.5045472 1.1724485 1.9086285
00000000: e76c de3e fe7e 413e d130 ff3b 83af d5bf
00000010: c438 85bf 5ef9 4b3f f4c8 3dbf 46d6 403f
00000020: d960 c53e 6e6f 95bd 5ed6 bebe cc09 373f
00000030: ebf3 023f 46c1 f83e 8c06 873d 70e8 af3f
00000040: b6d5 593f caaa 333e 7070 67be d387 05bf
00000050: 7f79 d43f 6210 3e3f f594 013f cbd7 c23f
00000060: ab0c 913f 14c8 fc3e 54cf 7bbe f8d2 2c3d
00000070: f054 2cbf ea8f 4a3e 1978 87be 14ec 2cbf
00000080: 57a6 cb3f 26ea f13f 1b60 9dbe a117 103f
00000090: bacc 983e 2d3b ac3f 4da5 9b3f d479 a13e
000000a0: 81de d4be 650d da3f 5288 b8bf 5aff 3f3f
000000b0: b510 ddbf e926 583f a020 2d3f ac4e 8bbe
000000c0: 0331 8c3d 8261 903b cb20 9a3f 3643 f9be
000000d0: b058 b93f fcc4 8cbc 09fb 70bf c4b1 9e3f
000000e0: 9600 993f dcdb febe b599 11bf e98c 21bf
000000f0: d00d 763f b349 173f 653f a43f 60d0 953f
00000100: 1eca 8fbe 5643 e7be 2b34 47be 3585 7dbe
00000110: a19c 4abe 2fef d83f 8b47 cd3d 572d 73be
00000120: a275 8ebd f849 5cbf 243c 91bf 481b 9abf
00000130: c41c 41be 2164 bf3f c759 b83f b5d5 4fbf
00000140: a66e e2be 9b38 5abf 0963 b23f 63c6 703f
00000150: 2f59 67bf 3b8a 863f d148 023f 208a 5cbf
00000160: 28ce 83be 58d0 c9bf 0f17 97be 62bb 963e
00000170: 8c42 e4bf 4f7a 7d3f 5aba 423f e642 ca3f
00000180: 38ab c3be de53 2a3f e0ea 683f 403f 843f
00000190: de67 963e b806 54be f8e3 143f fbb3 e13f
000001a0: 7635 67bf e285 d3be bd76 423e 4848 4abf
000001b0: 0900 c93d 26f2 813f 3a9c 06be 63c9 cebf
000001c0: 6409 35bf 1da5 603d fd9d da3e 53fd bf3f
000001d0: 5bcb 42be 3b8f 0c3f b1b1 5e3f d44a 82bc
000001e0: 69c7 98bf 6e37 aa3e a18a e6bf bf89 583f
000001f0: 7754 2cbd 1e29 c7bf 0a98 48bd 5671 82bf
00000200: 2362 3c3d 8c59 b53e a7bd e6be b09a bb3f
00000210: a7a1 b9bf a349 7f3f d9ac a1bf ba5f 0b3f
00000220: ae4e cd3e 51d6 c93f 6e6a 383e 74fd 6bbf
00000230: 2e88 1bbf e378 223f 5c57 543f f932 c6bf
00000240: 04f9 31bf 982c cfbe 5dca b83f e00e 033d
00000250: 3820 753f 33a5 9dbf 2beb 8e3e 227d 70bf
00000260: 74b3 50bf 404c 713e b052 c53f eac5 783f
00000270: 1600 a13e bae4 40bf e6aa f7be 54e2 d33f
00000280: 1222 74bf 3e21 5dbe bcb2 1dbf ee13 12bf
00000290: d5a5 0040 1924 bcbf 33f8 babf 5e06 45be
000002a0: 1ba6 b9bf 0570 7fbf 2a2f b2bf 2270 253f
000002b0: 5f02 e7bc db99 843f cd92 35bf a967 033f
000002c0: af26 d23e ddbb d33f 165d d03e 9a9f 14bf
000002d0: ecf7 d03e a412 0abf a039 8d3b dd6e b63e
000002e0: d6ed 81bf d34d 533f 6c96 45bc 217e 0dbf
000002f0: eedf cf3d ea67 493f 10dd f93e e6e4 8dbf
00000300: a7ab d2bf d737 8a3f 9243 52bf 66fc 9e3f
00000310: c77f 6d3f 8d79 b43f 7fbd 97be f63d cb3e
00000320: 905d 443e ac74 b43f 8a43 db3d c015 d9be
00000330: 9fda ba3f dd2d bdbf 4f8f 5e3f ee22 78bf
00000340: cf8c a3bf f8be 973f 4f1b a03e 5532 813f
00000350: cec8 58bf c3b1 c43f 9312 95be ae7d 88be
00000360: 3d26 da3f d801 8fbe 336e 99bf 6daa 2fbe
00000370: 7c08 8f3f fbeb 93be ae8e 3a3f 248a 593f
00000380: 4d88 b03e eae7 9e3f b53f eb3e 99e6 1cbf
00000390: b6fa b63f 5b35 393f a853 763f a879 6c3e
000003a0: b76b 3c3d 2fe5 8d3d c289 26be b2ff 99bf
000003b0: 5ac1 5d3e 1f2d 0040 79f1 743f eb81 18bf
000003c0: 79f1 9cbe 4096 8a3e d227 e43e 5a34 b03f
000003d0: bcd1 d53d a04f 533f 7456 293d 4cc3 c93e
000003e0: 59b4 be3f d7d7 c93e f5e6 96bf cf47 853f
000003f0: 0d0f 5fbe 012a 01bf cb12 963f f04d f43f

l2.weight f4 [256, 256]
0.03904396 -0.34265006 -0.3784251 0.15762563 -0.09027924 0.24506588 -0.01640229 -0.057802513
0.18607609 -0.061875563 0.145659 0.027329268 -0.18269752 -0.3066988 0.08713938 -0.16584727
-0.36160204 -0.06905094 -0.4322812 0.28550503 -0.20583338 0.09809806 0.051536243 -0.16341154
0.43020347 0.08839365 -0.115394495 -0.17232825 -0.04933249 0.0611978 -0.2393191 0.031301655
-0.1928913 -0.17122881 -0.095918976 -0.42264152 0.0013381655 -0.31398684 -0.1316798 -0.28765306
0.17242602 0.3607442 -0.66619295 -0.019480139 0.35567603 -0.21225248 -0.065366484 0.0036115628
0.3718484 -0.11983725 0.039571613 0.117606096 0.037670664 -0.33652392 -0.1412921 -0.017029809
-0.007696613 -0.20724705 0.1512065 0.19653139 -0.049718045 0.13584158 -0.35829782 -0.02134789
-0.06334116 0.17349365 -0.3442006 0.042017534 0.026018724 0.22211966 -0.050048433 -0.022365911
-0.10925979 -0.09086372 0.0054466855 -0.024617247 0.20619076 -0.08693147 -0.17770605 0.597896
-0.25524572 -0.15142745 -0.03653943 -0.21247992 -0.12396902 -0.16841592 -0.11029524 0.035759132
-0.06284975 0.23915675 -0.2971928 -0.5430287 0.07968511 0.28559023 0.100177 0.007493494
0.43788582 0.30708137 0.39719653 0.12799954 -0.19796187 -0.41122165 -0.16295229 -0.14408268
0.10092407 0.2111639 -0.40179747 0.086798176 0.14976546 -0.08759386 0.18508852 -0.41025022
0.39733705 -0.02804277 -0.23737411 0.03949866 0.08102054 -0.122619204 -0.034195725 -0.045258645
-0.154048 0.101715125 0.085339025 0.20813356 -0.34011868 0.28427172 0.20159154 -0.07677891
0.057739083 -0.15194653 0.18218575 0.15674913 0.41210628 0.28379235 -0.11848765 0.046959404
-0.67129105 0.011097774 -0.15420416 0.12679899 0.105492875 0.17100053 0.22010669 0.08525341
0.030222205 -0.17707317 0.10217151 0.023081219 -0.04552277 0.11122708 -0.45063 0.08234903
0.58493245 -0.25833303 -0.043967213 -0.16128743 0.21987064 -0.031430718 -0.057490926 0.25503603
0.20191857 -0.11584863 0.29977518 0.45119682 0.14987396 0.47257322 0.08863795 -0.14326552
0.2888581 0.026525564 0.40735883 -0.02651363 0.30423942 -0.12739316 -0.17389703 0.24467735
-0.44868916 0.16364405 0.043297462 -0.1480704 -0.1528675 0.34184828 0.44357917 0.18057181
-0.013865926 -0.21672963 0.2701145 -0.030634169 -0.09139244 0.06318773 0.5578647 0.30910802
-0.020469945 -0.07565118 0.3962877 0.27128026 -0.07129418 0.018317806 0.02348436 -0.19775285
-0.10767853 0.14566374 -0.06801525 0.046219483 -0.19460422 -0.23016435 0.17987339 -0.13086154
-0.0644494 0.16083862 0.21647394 0.27360788 0.14916167 0.12595907 0.2864673 -0.20962825
-0.09917048 0.5485137 0.4203861 -0.09799386 -0.23557797 -0.22011189 -0.30058396 0.15230368
0.34268308 0.09860176 -0.15882589 0.48510164 0.18309568 -0.27986613 -0.39914075 -0.06201565
0.039813958 -0.21540654 0.029224131 -0.23725593 0.040186618 0.02260837 0.39535433 0.09880751
-0.13019015 -0.18807884 -0.3243421 -0.17816947 0.16389918 -0.12636895 0.083289385 -0.2823638
-0.18191019 0.3894935 0.18176201 0.017896483 -0.19223595 0.29986826 -0.23125675 -0.20657496
00000000: 8fec 1f3d d46f afbe efc0 c1be 9d68 213e
00000010: 52e4 b8bd 8df2 7a3e 185e 86bc 54c2 6cbd
00000020: bb8a 3e3e 3b71 7dbd a227 153e a1e1 df3c
00000030: 0f15 3bbe a007 9dbe 2276 b23d ded3 29be
00000040: e723 b9be 946a 8dbd f653 ddbe b72d 923e
00000050: fcc5 52be a3e7 c83d ab17 533d 5b55 27be
00000060: a143 dc3e bb07 b53d f353 ecbd d176 30be
00000070: dd10 4abd 8baa 7a3d 1110 75be 2a36 003d
00000080: 4c85 45be 9b56 2fbe 2b71 c4bd 7864 d8be
00000090: 6265 af3a e2c2 a0be 12d7 06be 4347 93be
000000a0: 7290 303e 77b3 b83e 9f8b 2abf d094 9fbc
000000b0: 2b1b b63e b758 59be ddde 85bd f8af 6c3b
000000c0: ea62 be3e 3b6d f5bd d815 223d 77db f03d
000000d0: 8e4c 1a3d dd4c acbe e0ae 10be 1982 8bbc
000000e0: df33 fcbb 9238 54be e0d5 1a3e 863f 493e
000000f0: 26a5 4bbd 0e1a 0b3e d072 b7be c5e1 aebc
00000100: 03b9 81bd 52a8 313e 103b b0be 941a 2c3d
00000110: 3825 d53c 5673 633e 96ff 4cbd b738 b7bc
00000120: 99c3 dfbd c216 babd 1c7a b23b 1caa c9bc
00000130: ac23 533e 2009 b2bd 93f8 35be b60f 193f
00000140: 91af 82be cc0f 1bbe 5faa 15bd 5694 59be
00000150: 78e3 fdbd 3975 2cbe 79e2 e1bd 2b78 123d
00000160: 5fb7 80bd 82e5 743e a829 98be ee03 0bbf
00000170: f231 a33d e238 923e 9929 cd3d fc8b f53b
00000180: 9232 e03e c539 9d3e 585d cb3e 5012 033e
00000190: 84b6 4abe a58b d2be f7dc 26be 698a 13be
000001a0: 47b1 ce3d 593b 583e 66b8 cdbe 3ec3 b13d
000001b0: 1e5c 193e 6964 b3bd d887 3d3e 510c d2be
000001c0: c36f cb3e f4b9 e5bc 3312 73be 59c9 213d
000001d0: 19ee a53d c71f fbbd d110 0cbd 2161 39bd
000001e0: c2be 1dbe 0550 d03d 3ac6 ae3d f720 553e
000001f0: 0924 aebe 108c 913e 036e 4e3e 433e 9dbd
00000200: d17f 6c3d df97 1bbe e78e 3a3e d882 203e
00000210: 98ff d23e 3b4d 913e a7a9 f2bd 8158 403d
00000220: bbd9 2bbf 70d3 353c b2e7 1dbe 98d7 013e
00000230: a60c d83d c31a 2f3e a663 613e 5799 ae3d
00000240: 8f94 f73c ab52 35be 4c3f d13d d314 bd3c
00000250: 1676 3abd 06cb e33d fab8 e6be 9ca6 a83d
00000260: 22be 153f 3a44 84be f716 34bd 8828 25be
00000270: c525 613e 7fbd 00bd 9b7b 6bbd 1594 823e
00000280: bec3 4e3e 0c42 edbd 227c 993e 4503 e73e
00000290: 8f78 193e 1ef5 f13e d087 b53d 32b4 12be
000002a0: 35e5 933e 244c d93c 5691 d03e 1d33 d9bc
000002b0: 45c5 9b3e 5a73 02be 1012 32be b38c 7a3e
000002c0: 96ba e5be 4e92 273e ae58 313d c49f 17be
000002d0: 4c89 1cbe bd06 af3e cf1c e33e d1e7 383e
000002e0: e92d 63bc 5fee 5dbe 734c 8a3e 82f4 fabc
000002f0: f62b bbbd 9268 813d 39d0 0e3f 6843 9e3e
00000300: 96b0 a7bc 02ef 9abd 39e6 ca3e 3fe5 8a3e
00000310: af02 92bd 390f 963c 4662 c03c b97f 4abe
00000320: 9086 dcbd e028 153e 944b 8bbd a450 3d3d
00000330: 5446 47be 34b0 6bbe bb30 383e 9100 06be
00000340: 0cfe 83bd e1b2 243e 58ab 5d3e 5516 8c3e
00000350: d6bd 183e 6afb 003e d8ab 923e caa8 56be
00000360: e519 cbbd 656b 0c3f d93c d73e 01b1 c8bd
00000370: 5a3b 71be 0365 61be 24e6 99be 7ff5 1b3e
00000380: 2874 af3e b8ef c93d 41a3 22be 3e5f f83e
00000390: 6f7d 3b3e 9d4a 8fbe 2d5c ccbe 1f04 7ebd
000003a0: f613 233d 8893 5cbe 7267 ef3c 38f3 72be
000003b0: b99a 243d 3035 b93c e26b ca3e 985b ca3d
000003c0: 9150 05be bd97 40be 2b10 a6be 0f72 36be
000003d0: 30d5 273e dd66 01be a093 aa3d fd91 90be
000003e0: aa46 3abe b16b c73e d21f 3a3e a59b 923c
000003f0: 80d9 44be 5588 993e 92ce 6cbe 6388 53be

l2.bias f4 [256]
0.0598612 0.6453649 -0.45094627 -0.055442836 -0.5687749 0.06556906 0.6407159 -0.11000323
0.26963755 0.03850615 -0.16305079 0.06299039 0.056225393 -0.46997535 0.16155021 0.16580497
0.0083697755 -0.43298054 -0.12690116 0.33106017 -0.17702736 -0.5392261 0.1941797 -0.3693555
0.25256112 -0.7196542 0.1627312 -0.32716593 -0.4521635 -0.34715277 0.51798046 -0.006623364
0.40819165 -0.07134054 -0.016832775 0.56244236 -0.2566725 0.057287022 0.11765567 -0.15328538
-0.39061108 1.2477355 -0.549907 0.30405432 0.19865711 -0.19659334 0.3283865 0.4248781
-0.07902618 0.2741668 -0.5568852 -0.31862086 -0.12582687 -0.2604708 0.44548208 0.25940344
0.14949678 0.56034255 0.30405998 -0.017466875 -0.62996584 0.08434223 -0.18447192 -0.4425434
-0.3635923 0.1627907 0.059747644 0.92358655 -0.3299398 -0.31588677 -0.11061883 0.031580087
0.26773125 0.04518835 -0.14237228 0.30368194 -0.3805033 -0.040168196 -0.17229979 -0.08458705
-0.56934977 0.13979438 -0.42320642 0.005431422 -0.21983603 0.10991215 -0.5246297 0.12966189
-0.11679897 -0.22052643 -0.42073485 -0.14283107 0.31658652 0.72151893 -0.06300375 0.14164189
0.04014761 -0.26385722 -0.0028211325 -0.6868351 -0.7164579 -0.10594607 0.2515715 0.3291256
-0.0042378563 -0.16671029 0.04234755 0.068528734 0.14137451 0.1977136 -0.07637093 0.13961022
0.1790022 0.22903836 0.17636864 0.022673069 -0.15351655 0.015393829 0.1182522 -0.054434888
0.14273566 0.046800174 0.5947444 -0.05484251 -0.2032609 -0.07536267 -0.56004417 -0.66806996
-0.008009385 -0.3681016 -0.5004131 -0.2896748 0.100834206 0.14999531 0.112348825 0.14099474
0.31609902 0.29167122 -0.2026833 -0.30434656 0.024156073 -0.34747323 -0.08794881 0.09861839
-0.07923038 0.34538636 -0.059805498 -0.121896714 0.8471883 0.4472134 0.6107293 -0.047418553
0.2231246 0.27489614 0.16179013 -0.45304605 0.19036217 -0.19102989 0.23111238 -0.033960715
-0.4253179 0.21448311 -0.05016402 -0.28661898 -0.12644693 0.22589625 0.33028382 -0.4891053
0.15637816 0.0150564825 -0.70858145 -0.049596783 0.17130424 -0.42407376 0.23886234 -0.103845134
-0.22584455 -0.5581833 -0.1784564 0.11712358 -0.00017773779 0.0019810155 -0.18710329 -0.16737756
0.090930745 0.15379535 0.33039024 -0.116463795 0.36595064 0.113431856 0.33985218 0.41350797
-0.08540789 -0.058046117 0.40232438 0.7383281 -0.6141606 0.37713885 -0.30804935 -0.4403471
-0.083124906 0.45191875 -0.15732308 -0.2548008 -0.21045695 0.25510272 -0.36905915 -0.362771
0.043896224 -0.22674958 -0.7189123 -0.029902043 0.090335846 0.7126235 0.413112 -0.0459789
0.15123208 -0.50041974 0.2443638 0.12378521 0.23252985 0.6445036 0.44526762 0.12680553
-0.24623999 0.28296673 0.21721812 -0.06670722 0.24779277 0.23471366 -0.35732925 0.13265532
-0.3447683 -0.004940885 -0.13798815 0.34134236 0.5273093 -0.24461369 0.09555253 -0.2968262
-0.095628396 0.49113387 -0.6129969 -0.20347212 -0.12250062 0.2591162 -0.07951654 0.44047046
-0.21941271 -0.20621327 -0.25386232 0.18386547 -0.18655577 -0.1847476 0.45910472 0.53169477
00000000: 0531 753d a236 253f 6ee2 e6be 0718 63bd
00000010: 3b9b 11bf 1249 863d f505 243f 6049 e1bd
00000020: ef0d 8a3e a0b8 1d3d c9f6 26be 1b01 813d
00000030: 994c 663d 9ca0 f0be 6b6d 253e c7c8 293e
00000040: 6221 093c a0af ddbe 61f2 01be b880 a93e
00000050: a946 35be b90a 0abf 0bd7 463e 2a1c bdbe
00000060: b14f 813e 423b 38bf 02a3 263e 4b82 a7be
00000070: f981 e7be 02be b1be 5e9a 043f ce08 d9bb
00000080: 7ffe d03e fd1a 92bd e3e4 89bc 39fc 0f3f
00000090: 946a 83be cca5 6a3d 75f5 f03d d8f6 1cbe
000000a0: 2dfe c7be ccb5 9f3f b5c6 0cbf 02ad 9b3e
000000b0: c56c 4b3e c44f 49be 4622 a83e 9f89 d93e
000000c0: 7ad8 a1bd 975f 8c3e 0790 0ebf 4622 a3be
000000d0: c2d8 00be 6e5c 85be 3a16 e43e 87d0 843e
000000e0: af15 193e 9c72 0f3f c0ad 9b3e b116 8fbc
000000f0: 7145 21bf 9ebb ac3d 35e6 3cbe 0c95 e2be
00000100: c528 babe 9bb2 263e f2b9 743d 2b70 6c3f
00000110: dfed a8be e9bb a1be 208c e2bd 1f5a 013d
00000120: 1214 893e 6b17 393d 0aca 11be 337c 9b3e
00000130: 54d1 c2be 6887 24bd 5b6f 30be fa3b adbd
00000140: e8c0 11bf 4226 0f3e 83ae d8be 12fa b13b
00000150: b21c 61be 9f19 e13d 224e 06bf 16c6 043e
00000160: 4c34 efbd aed1 61be 8f6a d7be 4f42 12be
00000170: a117 a23e 77b5 383f 1c08 81bd 920a 113e
00000180: d271 243d 4b18 87be c0e2 38bb 6dd4 2fbf
00000190: c969 37bf 41fa d8bd fbcd 803e 2783 a83e
000001a0: b7dd 8abb 1ab6 2abe a074 2d3d cb58 8c3d
000001b0: 7bc4 103e 6f75 4a3e 5d68 9cbd fbf5 0e3e
000001c0: 5a4c 373e 0889 6a3e fb99 343e dfbc b93c
000001d0: 7133 1dbe 6636 7c3c 362e f23d 1ef7 5ebd
000001e0: 4c29 123e 8ab1 3f3d 2b41 183f 8aa2 60bd
000001f0: a023 50be be57 9abd 0e5f 0fbf a206 2bbf
00000200: cc39 03bc d077 bcbe 131b 00bf 4150 94be
00000210: 2a82 ce3d 5f98 193e 2417 e63d ed60 103e
00000220: bbd7 a13e ee55 953e 368c 4fbe 50d3 9bbe
00000230: f5e2 c53c 03e8 b1be 811e b4bd 70f8 c93d
00000240: 8a43 a2bd 7bd6 b03e 9cf6 74bd fca4 f9bd
00000250: 55e1 583f 28f9 e43e c158 1c3f f539 42bd
00000260: c67a 643e 30bf 8c3e 50ac 253e a7f5 e7be
00000270: 4dee 423e 579d 43be b9a8 6c3e 641a 0bbd
00000280: 45c3 d9be 76a1 5b3e ca78 4dbd b9bf 92be
00000290: 4e7b 01be 5951 673e f61a a93e 036c fabe
000002a0: 9921 203e 77af 763c 9865 35bf ff25 4bbd
000002b0: 616a 2f3e 3220 d9be 5498 743e c2ac d4bd
000002c0: cb43 67be 1ae5 0ebf 46bd 36be 7dde ef3d
000002d0: 205f 3ab9 edd3 013b 0198 3fbe 0665 2bbe
000002e0: e639 ba3d 877c 1d3e e928 a93e 9284 eebd
000002f0: e25d bb3e f64e e83d 1b01 ae3e 51b7 d33e
00000300: 55ea aebd c4c1 6dbd 76fd cd3e 1203 3d3f
00000310: a139 1dbf 5818 c13e a5b8 9dbe 2d75 e1be
00000320: 643d aabd e561 e73e 4d19 21be 4075 82be
00000330: 0782 57be d39c 823e 52f5 bcbe 1fbd b9be
00000340: 87cc 333d 0b31 68be a30a 38bf 21f5 f4bc
00000350: 0002 b93d 7e6e 363f 6b83 d33e 5f54 3cbd
00000360: 95dc 1a3e 821b 00bf 813a 7a3e 1a83 fd3d
00000370: 4e1c 6e3e 30fe 243f 1efa e33e 4fd9 013e
00000380: 5626 7cbe 04e1 903e 6d6e 5e3e cc9d 88bd
00000390: 63bd 7d3e c758 703e dcf3 b6be ccd6 073e
000003a0: 7885 b0be 26e7 a1bb c44c 0dbe 6dc4 ae3e
000003b0: befd 063f 037c 7abe 0bb1 c33d 9bf9 97be
000003c0: d2d8 c3bd e675 fb3e 5ded 1cbf ff5a 50be
000003d0: 9be1 fabd e1aa 843e 91d9 a2bd 5885 e13e
000003e0: baad 60be 9229 53be 3efa 81be 3b47 3c3e
000003f0: 7a08 3fbe 7a2e 3dbe c60f eb3e 261d 083f

l3.weight f4 [6, 256]
1.3490639 2.287614 0.36345175 0.16578004 0.12144328 0.26991847 -0.8567893 0.1578034
-0.37446508 0.14423683 0.3487823 0.14694664 -1.1508069 1.1358253 0.018958097 0.8018274
0.46172193 0.35434607 -1.1379106 0.4035996 -0.51746553 -0.32286024 0.6938129 0.003644588
-0.40035778 0.1313521 0.66251314 -1.6113206 -0.923315 -0.67523134 -0.05420567 -0.34909162
1.576976 -0.15628642 -0.50613165 -0.5803765 0.3811726 -0.6715841 0.4881912 0.5977844
0.33704445 -0.22327021 0.97812605 0.08656695 0.4355957 -0.08949213 -0.30151153 0.1887729
0.56322855 0.14764182 0.09616876 -0.38708055 0.3698445 -0.19496778 -1.3062043 -0.28320035
0.5306517 0.8044197 0.83169687 0.8409092 -0.68341905 0.83396906 -0.72665614 0.214856
0.77407116 -1.4714267 1.1041988 0.23162879 0.4091227 -0.029752947 0.54558915 1.0554271
0.23153813 -0.62876004 0.033553503 -0.10034128 1.553285 0.06229377 -0.3453455 0.80284446
-0.75862545 -0.7007239 -0.30636537 -0.24637787 -0.3728354 0.50081813 -1.0650274 -0.60557395
-1.1043962 0.3542381 -0.009096085 -0.3151298 0.57374454 -0.1864181 -0.6582675 0.06400858
-0.7087622 -0.69167 -0.042135727 -0.3483586 0.17586584 -0.057587214 0.44064963 0.2520008
0.19974405 -0.22669032 0.502066 -0.22517537 -0.09156947 -0.6024241 0.33563155 -0.37178257
-0.04556069 -0.8290879 0.39501914 -0.32822102 -0.7051431 0.021811293 -0.26401415 -0.19457266
-0.7169311 0.7873992 -0.27521864 0.26835996 0.4397445 0.42835665 -0.5809618 -0.3795814
0.10162932 -0.10612673 0.20987536 -0.7591269 -0.6969507 -0.05897888 -0.8732098 -0.78142667
-0.026116885 0.27644002 0.30477762 0.97840995 0.12553704 -0.99473053 -0.02598069 0.5984059
0.2865336 -0.028817035 -0.49429655 -0.46296933 -0.76707757 1.0919816 1.30721 -0.48881707
0.45461896 -0.046497688 -0.8437723 0.19335328 0.6722851 -0.21946768 -0.39108455 0.856948
-1.0656124 0.82320017 -0.7975838 0.06871839 0.08728825 -0.72345036 0.20871966 0.02347195
0.49790066 0.10851116 0.38319245 0.5383985 -0.28804877 -0.39935592 -0.8315977 -0.29345295
-0.7849522 0.54032546 1.2969086 -0.39300817 0.58184844 -1.4571917 -0.9341208 0.9562257
1.3356818 -0.074830614 -0.64795816 0.90164953 0.5343623 -0.53704304 1.0054628 -1.3082871
-0.8610903 -1.964645 0.35713336 -0.16152759 0.2696834 -0.28890046 -0.60688674 -0.5721083
-0.30002362 0.70246625 0.43263924 0.3678526 0.58393985 0.72457135 -0.7506556 1.388388
0.46333578 -0.55242044 -0.63701993 0.28954107 0.68032503 -0.3797803 0.35764417 0.61669976
-0.8430172 -0.18058215 0.730937 0.44989783 0.14623033 -0.83171296 -0.6178664 -0.55281925
-2.3646896 1.9912004 0.21742392 0.11215265 -1.1939085 1.2524648 1.8011591 0.17910402
-0.900596 0.35759637 -0.19425373 1.5082061 -0.18134074 0.9333818 -0.24263313 -0.69076514
-0.16022652 0.94093925 -0.53198594 -0.7871378 -1.0085757 -0.6332749 0.4269587 -0.3048918
-0.78524584 -0.089876406 -0.015777832 -0.1025345 -0.20017006 -1.07348 0.9321062 0.22713307
00000000: 20ae ac3f 4568 1240 5916 ba3e 3ec2 293e
00000010: 41b7 f83d c132 8a3e 8b56 5bbf 3797 213e
00000020: e3b9 bfbe d2b2 133e 9893 b23e 2e79 163e
00000030: a44d 93bf b962 913f 034e 9b3c 8f44 4d3f
00000040: d166 ec3e d96c b53e 0ea7 91bf 9ba4 ce3e
00000050: 9f78 04bf f04d a5be b99d 313f 0ada 6e3b
00000060: b2fb ccbe 2a81 063e 769a 293f c13f cebf
00000070: 5f5e 6cbf f6db 2cbf c406 5ebd 23bc b2be
00000080: 59da c93f 8c09 20be d891 01bf 8e93 14bf
00000090: 0e29 c33e f0ec 2bbf 32f4 f93e 6608 193f
000000a0: 1791 ac3e f2a0 64be 7866 7a3f 034a b13d
000000b0: 6606 df3e a647 b7bd b85f 9abe af4d 413e
000000c0: bf2f 103f 6b2f 173e 20f4 c43d 6c2f c6be
000000d0: 425c bd3e a2a5 47be b431 a7bf a3ff 90be
000000e0: cad8 073f 73ee 4d3f 16ea 543f d345 573f
000000f0: 8df4 2ebf ff7e 553f 2306 3abf 3603 5c3e
00000100: 8729 463f b657 bcbf 6356 8d3f 1930 6d3e
00000110: 8878 d13e 74bc f3bc bbab 0b3f 3c18 873f
00000120: 5518 6d3e 6bf6 20bf 666f 093d bb7f cdbd
00000130: 0bd2 c63f c127 7f3d 20d1 b0be 3787 4d3f
00000140: 4735 42bf a462 33bf ecdb 9cbe 7b4a 7cbe
00000150: 48e4 bebe 9e35 003f d152 88bf e506 1bbf
00000160: db5c 8dbf b25e b53e bf07 15bc b158 a1be
00000170: ece0 123f 63e4 3ebe 3884 28bf ee16 833d
00000180: 7171 35bf 4911 31bf 8396 2cbd 0f5c b2be
00000190: 2d16 343e 92e0 6bbd d49c e13e 4006 813e
000001a0: b489 4c3e 8221 68be 6687 003f 5f94 66be
000001b0: c688 bbbd 7738 1abf e6d7 ab3e 495a bebe
000001c0: d99d 3abd 1b3f 54bf f33f ca3e 960c a8be
000001d0: 4284 34bf 99ad b23c dd2c 87be 0e3e 47be
000001e0: cc88 37bf fe92 493f 75e9 8cbe 7a66 893e
000001f0: 3126 e13e 9051 db3e eab9 14bf 7e58 c2be
00000200: 0823 d03d f958 d9bd 91e9 563e 2456 42bf
00000210: 5c6b 32bf d793 71bd ad8a 5fbf 940b 48bf
00000220: 14f3 d5bc 8c89 8d3e d00b 9c3e 1379 7a3f
00000230: c88c 003e a9a6 7ebf 75d5 d4bc 2131 193f
00000240: 88b4 923e b411 ecbc 7014 fdbe 510a edbe
00000250: 325f 44bf 0ec6 8b3f a852 a73f 3b46 fabe
00000260: d1c3 e83e 5c74 3ebd 7601 58bf 67fe 453e
00000270: e01a 2c3f 23bc 60be 3c3c c8be f260 5b3f
00000280: fd65 88bf 3fbd 523f 742e 4cbf 3abc 8c3d
00000290: 2fc4 b23d 0b34 39bf 9bba 553e 3f48 c03c
000002a0: d6ec fe3e 193b de3d cd31 c43e 7cd4 093f
000002b0: 217b 93be 6178 ccbe 96e3 54bf 773f 96be
000002c0: a1f2 48bf c552 0a3f 1a01 a63f 5e38 c9be
000002d0: 05f4 143f 4285 babf 8a22 6fbf 35cb 743f
000002e0: 9ff7 aa3f cb40 99bd 96e0 25bf 81d2 663f
000002f0: f8cb 083f a77b 09bf 01b3 803f f475 a7bf
00000300: 6a70 5cbf 7d79 fbbf 2fda b63e 7d67 25be
00000310: f113 8a3e c3ea 93be ee5c 1bbf b175 12bf
00000320: b29c 99be d4d4 333f e482 dd3e 2d57 bc3e
00000330: 157d 153f 827d 393f f72a 40bf b3b6 b13f
00000340: 593a ed3e 6d6b 0dbf bd13 23bf ba3e 943e
00000350: c829 2e3f 9072 c2be 231d b73e 09e0 1d3f
00000360: facf 57bf 87ea 38be b01e 3b3f 0259 e63e
00000370: 67bd 153e 24eb 54bf 7e2c 1ebf 9085 0dbf
00000380: 1357 17c0 a8df fe3f 60a4 5e3e 4ab0 e53d
00000390: fed1 98bf c450 a03f 628c e63f 0b67 373e
000003a0: 768d 66bf df16 b73e 73ea 46be e60c c13f
000003b0: 63b1 39be 1cf2 6e3f d274 78be fcd5 30bf
000003c0: 6c12 24be 65e1 703f 3b30 08bf dd81 49bf
000003d0: 0219 81bf 4e1e 22bf 559a da3e c71a 9cbe
000003e0: df05 49bf 1f11 b8bd 8340 81bc 9cfd d1bd
000003f0: 61f9 4cbe cb67 89bf 839e 6e3f 9295 683e

l3.bias f4 [6]
0.20188914 0.08265633 -0.17882806 -0.2986225 -0.14804035 0.013384278
00000000: 07bc 4e3e b947 a93d b41e 37be 0ce5 98be
00000010: e497 17be bb49 5b3c
