4.2 TD3/model/Humanv4_actor5000.pth (torch, 669420 bytes, 6 tensors)

l1.weight f4 [256, 376]
000000 22 2e cb 3d 00 8a 79 bc e1 be 59 be 81 a5 7a 3e
       0.099209085 -0.015230656 -0.21264221 0.24477197
000010 5f 57 5b 3f f2 a5 e4 3c dc a4 0e 3e fa 1c 23 3e
       0.8568019 0.02791116 0.13930076 0.15929022
000020 58 bd 1b be ba b2 3e bf ab 04 b4 3f 97 7d d8 3c
       -0.15208948 -0.74491465 1.4063925 0.026427073
000030 0f e3 7d be 1a cc 84 bd 0c 9d 0f bf bf 98 36 3f
       -0.24793647 -0.06484242 -0.5609901 0.7132682
000040 ab 34 b6 3e 1b b1 b6 3e c0 ca 3f bf 1a f8 40 3f
       0.35587057 0.35681996 -0.74918747 0.7537857
000050 e3 2e 28 bf b9 78 05 bf ef 8b 8e be fe a3 4b bf
       -0.65696543 -0.52137333 -0.27841136 -0.7954711
000060 b6 c9 a7 3e 0b a9 c8 3e 1c a5 61 3e 2c 57 bc 3e
       0.3277108 0.3919147 0.2203564 0.36785257
000070 47 9e f1 3c ef fe 65 3d 6e dd 01 be 40 19 05 3e
       0.029494418 0.056151327 -0.12682125 0.12997913
000080 68 5b d1 3d 87 41 ca bd ae 99 e6 be 0a 54 a1 be
       0.102225125 -0.098757796 -0.45039123 -0.3150943
000090 91 a9 3c 3e 4c 1f 39 3e f4 27 2b 3e c4 39 51 be
       0.1842406 0.18078345 0.1671446 -0.20432192
0000a0 80 88 05 3e e5 91 d3 bd 15 fb f5 bc 09 af f6 3e
       0.13040352 -0.103305615 -0.030026952 0.48180416
0000b0 92 80 a2 be eb 27 d9 3c 73 41 e0 bc 3c 80 78 3c
       -0.31738716 0.026508292 -0.027374959 0.015167292
0000c0 8c fb 73 bc e0 44 b9 bb 32 14 4b bd 12 6d c9 bc
       -0.014891516 -0.0056539625 -0.049579807 -0.024588142
0000d0 26 3f e5 3c c3 62 4d bc 8e 66 52 3d 0c e8 d6 3d
       0.027984213 -0.012535754 0.051367335 0.10493478
0000e0 e8 f3 f6 3c 1b 0d db be 36 14 0b 3e 69 b7 5a bf
       0.0301456 -0.42783436 0.13581929 -0.8543611
0000f0 73 41 cb 3c 75 80 68 3f ea 52 33 ba cc e8 90 3d
       0.024811482 0.9082101 -0.0006840663 0.070756525
000100 34 48 89 bd f9 50 98 bd b4 2a 3c be 47 22 8c 3e
       -0.06703225 -0.07437319 -0.18375665 0.27369902
000110 23 b4 94 be 22 cc b8 be b5 83 33 3f 7a 50 bc 3e
       -0.29043683 -0.3609324 0.70122844 0.3678015
000120 da b5 26 bf 12 63 c0 bd f7 84 ad bc 14 d2 49 be
       -0.65121233 -0.09393896 -0.021181567 -0.19709045
000130 63 82 10 bf a6 89 77 be e2 e0 39 3f 24 43 16 3e
       -0.56448954 -0.24173602 0.7260877 0.1467405
000140 93 6e 3d 3f 96 59 8f be 8b 80 29 bf 65 59 07 bf
       0.7399685 -0.27998036 -0.66211766 -0.5287078
000150 e5 55 00 bc 5d d7 87 3e c8 25 ee 3b 45 3a 96 3d
       -0.007832979 0.26531497 0.0072676875 0.07335333
000160 7c 52 43 be 82 32 f8 be e9 a4 cb be 1e 8b 88 be
       -0.19074434 -0.48476034 -0.39774254 -0.26668638
000170 26 5d d1 be 53 e4 16 be 1f cb 94 bd 33 b5 38 bd
       -0.4089138 -0.14735536 -0.07265305 -0.04509468
000180 15 01 c2 3c 0d 44 62 3e f8 d4 10 bf d0 9b 9e bf
       0.023682157 0.22096272 -0.56574965 -1.23913
000190 19 6b df 3e c6 49 b6 bf 61 0b d3 3e 16 e8 3b 3d
       0.43636397 -1.4241264 0.4121962 0.04587563
0001a0 46 57 92 bd 9b 57 16 be 24 78 f1 3c 19 00 c6 3e
       -0.07145552 -0.14681856 0.029476233 0.3867195
0001b0 36 75 a3 bd 00 75 47 bf 9e 2f 39 3f 44 e2 7a bf
       -0.079813406 -0.779129 0.72338283 -0.98001504
0001c0 d1 9f 42 3f 3a 97 23 3d a0 b2 01 bd a3 ae b3 3d
       0.7602511 0.039939143 -0.03166449 0.08773544
0001d0 92 d1 70 bc bf f0 41 be 69 71 84 3f 12 17 79 bf
       -0.014698403 -0.18939494 1.034711 -0.9730083
0001e0 7c 69 1b 3d 18 26 59 bf 68 bc 7d bd 57 e5 3b be
       0.037942395 -0.8482375 -0.061947256 -0.18349205
0001f0 0e 52 2e bc 27 10 87 3d 6e 00 3d 3d 92 78 8c 3e
       -0.010639681 0.06594878 0.046142988 0.27435738
000200 94 81 b3 3e bc 21 0c bf 84 c7 f8 bd 41 85 0a bf
       0.35059798 -0.54738975 -0.121474296 -0.5410958
000210 2d 64 3e bd b9 2f fa 3c 02 dc c3 bb a6 81 18 3e
       -0.046482254 0.030540334 -0.0059771547 0.14893207
000220 f2 95 06 3e 9f 6c f2 3e ec f5 9b be 64 b2 35 be
       0.13143137 0.47348496 -0.3046106 -0.17743832
000230 6c d7 a6 bd 15 67 b9 bd 3c 56 a2 bd d2 fe 66 3c
       -0.08146557 -0.090528645 -0.07926604 0.01409884
000240 12 76 b5 bc f4 f4 f2 3d 3f ae 4b 3e e5 8a f8 bd
       -0.022151027 0.11863127 0.19890688 -0.12135867
000250 a7 66 9d 3f 02 37 b3 bf 7a 5a 6b 3e 3f 27 a7 3f
       1.2296952 -1.4001162 0.22983733 1.3058852
000260 eb 72 5c 3d ff 50 15 3e cf bf b1 bd b0 27 84 bd
       0.05382053 0.14581679 -0.08679163 -0.06452882
000270 65 1d 5c 3e c0 71 1a 3e 72 80 41 3f 8f ea e4 bf
       0.21495588 0.15082455 0.75586617 -1.7884082
000280 a1 f6 b8 bd 93 5b 8e 3f 22 05 6c 3e 4e f0 c4 3b
       -0.09031416 1.1121696 0.23048833 0.006010092
000290 7c b1 84 bd 9f 9d 81 3e 4a c7 19 3e 1d 87 12 3e
       -0.06479165 0.25315568 0.15017429 0.14309354
0002a0 cd 0a fa be 75 fb 28 be af ae 9c be 7b a5 a7 3d
       -0.48836365 -0.16502173 -0.30602023 0.0818586
0002b0 4f 56 20 3e c3 eb e7 3d 03 de 5a 3c 9d 5b e2 3e
       0.15657924 0.11324265 0.013358596 0.4421052
0002c0 4a b3 ca 3e fa f3 49 3f 21 a7 ad be 2a 69 f1 be
       0.39589912 0.78887904 -0.33916572 -0.47150546
0002d0 69 9a b3 be c1 ed 29 bd 4c 9a 80 3e 09 a7 17 3e
       -0.35078743 -0.041486505 0.2511772 0.14809813
0002e0 19 2b 92 bd ed 1a 42 3d ff 9d 36 bd 73 a7 24 bd
       -0.071371265 0.04738896 -0.04458427 -0.040198755
0002f0 3f 87 e5 ba a7 6f e4 bc 2e 2a 97 3c 1b bf ce be
       -0.001751162 -0.027885271 0.01845273 -0.40380177
000300 fa 04 53 3e 9a e6 0a 3f 6a f6 5c be ee 1d 22 bf
       0.20607367 0.5425812 -0.21578375 -0.6332692
000310 0e 44 8a bc 0f b4 8b 3a 7a 90 08 3e 70 0f ea 3e
       -0.016878154 0.001065852 0.13336363 0.45714903
000320 d6 a1 94 be a0 78 fe be 51 d8 eb 3c aa 1e 3f be
       -0.2902972 -0.49701405 0.028789671 -0.18664041
000330 1c cb a8 3e 7d 1c e0 3e 36 cf c9 be 71 95 21 bf
       0.3296746 0.43771735 -0.39415902 -0.63118654
000340 25 91 a6 3d 39 fa 97 bf 6e d1 6b bb ad 10 0d 3f
       0.08133153 -1.1873237 -0.0035982984 0.5510357
000350 3a 63 f5 be 74 fc fc be 31 cc 99 be 6a 72 32 be
       -0.47927266 -0.49411356 -0.30038598 -0.17426458
000360 57 4a 3d 3f 7a b5 a3 3e 29 b8 60 3e 14 7c 31 bf
       0.7394156 0.31974393 0.21945252 -0.69329953
000370 ff 95 46 3f 2e 31 2e be 88 24 29 3f d3 29 a4 3e
       0.77572626 -0.17010948 0.6607137 0.3206316
000380 d2 0e 87 3e 9d 9c 46 bf f9 9d 4d 3f 5e 04 a5 3e
       0.26378495 -0.7758272 0.8031917 0.32229894
000390 01 fb 67 3e 78 b2 31 3e d8 55 18 be 23 05 01 be
       0.22654344 0.17353237 -0.14876497 -0.12599616
0003a0 ae 42 a9 be 40 62 80 3d d7 a1 9c 3b f8 06 20 3d
       -0.33058685 0.0626874 0.004780035 0.039069146
0003b0 cb 36 15 be ba 93 6c 3e 9e 6d 14 bf a1 20 06 3d
       -0.14571683 0.23103228 -0.5797976 0.03274596
0003c0 f1 06 86 bc 0a 0d b4 3c e8 32 b4 bd 38 58 48 3e
       -0.016360732 0.021978874 -0.08798772 0.19564903
0003d0 0e 65 23 bf df c1 a0 be ee 68 6a 3a bb a2 04 3e
       -0.6382607 -0.31397912 0.00089420273 0.12952702
0003e0 0c cf 6c 3b 2a ed 77 be 11 1b 2a 3e 4f 44 af bc
       0.0036134152 -0.24211565 0.16611888 -0.021394877
0003f0 1c 4a a4 bd 53 e8 11 3c 20 4b 5c 3e cc 8b 99 be
       -0.08021948 0.008905488 0.21513033 -0.2998947

l1.bias f4 [256]
000000 fb 72 55 bd 9c d3 f6 bc c0 fc 34 3e 00 45 14 bd
       -0.052111607 -0.0301302 0.17674541 -0.036198616
000010 76 08 28 be a6 d1 a1 3d 1f 63 e3 be c4 43 f3 3d
       -0.16409478 0.079013154 -0.4441156 0.1187816
000020 d0 9f 02 bb 3c 05 cd 3c f0 93 e5 ba db 8f c9 3c
       -0.0019931681 0.02502691 -0.0017515402 0.024604728
000030 74 e3 23 3e 76 73 ed 3e 87 e6 9d be 03 f3 a5 3d
       0.16004735 0.46377152 -0.3083994 0.081029914
000040 95 13 42 3e 90 0e e9 3d c0 32 87 3d d1 df 55 3e
       0.18952782 0.11379731 0.06601477 0.2088616
000050 ea 52 33 be 31 db 02 3d 20 da 1f 3e 15 b3 d9 bd
       -0.17512098 0.03194732 0.15610552 -0.1062986
000060 b9 66 11 be 4a 72 c8 bd 96 ad 27 be c2 c9 86 3e
       -0.14199342 -0.09787424 -0.16374812 0.26325804
000070 65 19 01 3e 28 c8 aa bd 85 e6 fb 3d ec 45 9a 3d
       0.12607343 -0.08338958 0.122998275 0.07532868
000080 1f a8 47 bd 7c 8b 1d 3e 52 c0 e6 3d 10 d8 0d be
       -0.048744317 0.1538524 0.11267151 -0.13851953
000090 46 3a 53 3d 10 cc e2 bc b8 19 9f be f5 65 fe 3d
       0.051569246 -0.027685195 -0.3107431 0.124217905
0000a0 65 2f 37 be 33 fd 9b bd 8c fe f8 bd 13 47 18 be
       -0.17889173 -0.07616653 -0.12157926 -0.14870863
0000b0 85 85 d1 3d c5 c2 a0 be a3 7b a9 bc c8 5f f8 bd
       0.10230545 -0.31398597 -0.020688837 -0.12127644
0000c0 0b b2 24 bd 3f 74 61 bc fd f0 88 3d 24 32 0e bf
       -0.040208858 -0.013760625 0.0668659 -0.5554526
0000d0 bb b9 9f bd ac 43 3a 3e 1c 40 12 3b 9e a6 c3 3d
       -0.07799097 0.18189877 0.0022316044 0.09553264
0000e0 0b 6f 25 be 40 29 44 3e cb 94 31 bd 0c 94 c7 bd
       -0.16155641 0.1915636 -0.04335479 -0.097450346
0000f0 19 a8 af bc a8 97 a0 bd 31 b3 e7 b9 01 68 74 bd
       -0.02144246 -0.07841426 -0.0004419326 -0.0596695
000100 7f 75 1c 3d ef 96 f7 bd 98 ad 41 3e 33 ae a3 bd
       0.03819799 -0.12089335 0.18913877 -0.0799221
000110 fe e6 29 bd fa d7 47 be 67 cb 25 be 98 6a ff bd
       -0.041480057 -0.19515982 -0.16190873 -0.12471503
000120 bb ed 06 be be c3 c8 3e b9 45 4b bd 11 5f cf bc
       -0.13176624 0.3921184 -0.04962704 -0.025313886
000130 37 40 8f 3d 72 c2 12 3e be a1 1a be 60 1c 3a 3e
       0.0699467 0.14331988 -0.15100762 0.18174887
000140 19 b9 9e bd 6d ec 53 bd 7f 2c d0 be 29 87 90 3d
       -0.07750148 -0.051739145 -0.40658948 0.0705703
000150 1d 91 d4 3d 29 dc 72 3d 96 6b 42 3e c9 fe f3 3e
       0.10379241 0.059291992 0.18986353 0.47655323
000160 e9 e9 01 bd ac 86 56 3d 29 09 36 bd 8f f5 19 3e
       -0.031717215 0.052374527 -0.04444233 0.1503508
000170 32 07 a7 3c ee 34 84 3b c0 db 25 3e 22 fa 03 3e
       0.020389173 0.00403463 0.16197109 0.12888387
000180 b5 ce 8e 3d 8e 05 be 3d 81 ca 8c 3e 36 fa 71 be
       0.0697302 0.09278403 0.27498248 -0.23630604
000190 34 61 70 be 6c bf af 3c 32 15 6f bd 31 e8 7d 3d
       -0.2347458 0.021453582 -0.058369823 0.061989013
0001a0 9e 80 a5 3d 85 cc 83 3e f4 75 f3 3d 35 b9 4a bc
       0.080811724 0.25741974 0.11887732 -0.012373258
0001b0 84 84 97 be 83 92 4a 3d ad 48 b8 be 1d e9 8d bc
       -0.2959329 0.04945613 -0.35992947 -0.017323071
0001c0 69 1b 20 3e 3b 0c 39 3d 0f 98 b2 3e be a7 63 bd
       0.15635456 0.04517768 0.34881637 -0.055579893
0001d0 a0 1b d0 bd c9 73 1b 3e f1 dc af bd aa 6d 20 bd
       -0.10161519 0.15180887 -0.08587063 -0.039167084
0001e0 e3 f4 79 bd 03 e1 d0 3e be ea 5c 3c a7 5e b2 3d
       -0.061024558 0.4079667 0.013483701 0.0870946
0001f0 4d 62 92 bd 8d 72 3a 3d 1b eb 20 bc 36 bd 13 be
       -0.07147656 0.0455194 -0.0098216785 -0.14427647
000200 40 68 ff bd 77 2a 6d 3d 2c 9e be 3d bb 53 e2 3c
       -0.12471056 0.057901826 0.09307513 0.027627816
000210 bb d0 26 3d a4 03 a7 bd 24 19 e5 bc 2b 96 a6 3d
       0.040726405 -0.08154991 -0.02796609 0.08134111
000220 f5 3f 91 3d 26 ac 48 be a0 69 70 3c f5 f3 f7 3a
       0.07092277 -0.1959692 0.01467362 0.0018917309
000230 25 c4 44 3e 5e 5f ca bd f5 f5 aa be 82 f0 01 be
       0.19215448 -0.09881471 -0.33390775 -0.12689403
000240 f2 7a 22 be d2 ec 15 3d 44 8f cf bd c2 ff c2 bd
       -0.15867212 0.036602803 -0.101347476 -0.09521438
000250 b0 a4 2d be 94 27 70 3d e9 d6 af 3e 8d 53 94 bd
       -0.16957355 0.058631495 0.3434365 -0.072424985
000260 46 ef 1d 3d cd c9 dd bd 1e 51 4a 3e 63 55 af bd
       0.038558267 -0.10829506 0.19757506 -0.08561208
000270 d6 d1 85 bc d2 1e 67 be 5a c5 68 3d b9 7f 17 bd
       -0.01633541 -0.22570351 0.056828834 -0.03698704
000280 35 1d 99 3d d1 43 d2 3c cf 80 63 bd 74 67 ae 3e
       0.07476274 0.025667103 -0.055542763 0.34063303
000290 af 9c 85 3d 8f 36 2c 3c 5b 00 9f bb 41 34 74 3d
       0.06524026 0.010511055 -0.0048523373 0.059620146
0002a0 d3 c5 9d 3d 99 cd 7e bd ed 90 20 3e e0 ed 9f bd
       0.077037476 -0.062207792 0.15680285 -0.07809043
0002b0 37 77 c5 bd 1a ef 01 be c5 2b c8 3c a7 4c 80 bb
       -0.09641879 -0.12688866 0.024434933 -0.0039153877
0002c0 8b 3b a3 3d f0 a4 45 3e 01 30 45 3d 3a 7d b9 be
       0.07970341 0.193012 0.048141483 -0.36228353
0002d0 2e f4 4f bd 23 fe 20 be 68 68 5b bd 4b ca c8 3e
       -0.050769977 -0.15721945 -0.053566366 0.39216837
0002e0 b1 d5 57 3d 41 9c 8b 3d ec 29 08 3e 5a 66 99 bd
       0.052694026 0.068169124 0.13297242 -0.07490225
0002f0 3e 9d 96 3d 3e 35 24 bd c7 d9 33 3e 0e 81 cf 3b
       0.0735421 -0.04008984 0.17563544 0.006332523
000300 cc 70 16 3e 9d f4 97 3e ba e6 9d bd 0b bf c9 bd
       0.14691466 0.29678813 -0.07710023 -0.09850892
000310 fc d1 25 bd b9 4c 9d bc 24 d2 62 bd f4 43 c2 3d
       -0.04048346 -0.019201623 -0.055376187 0.09485617
000320 99 43 88 bd c5 63 08 3b 08 3b d5 bc 35 5b 3b 3d
       -0.06653518 0.002081142 -0.026029125 0.04574128
000330 67 0e 69 3d 39 16 9b 3e e1 55 a9 bd e5 d1 9f bd
       0.0568985 0.30290392 -0.08268333 -0.07803706
000340 f9 93 2a bd 42 3a 22 b9 f1 b7 b4 3d f5 ce 16 be
       -0.041645024 -0.00015471227 0.088241465 -0.14727385
000350 ee 38 ac bd f7 7e 4d 3d 81 bf 55 be 22 30 c8 3d
       -0.08409296 0.05016991 -0.20873834 0.097748056
000360 a5 b2 c2 bc 3c 06 4a 3d 31 76 d1 bd 0f ae 91 3c
       -0.023766825 0.04932235 -0.10227621 0.017783193
000370 a0 9a c2 3d 0e 22 7f bd 8a 1f 0c 3d 4f 98 66 bd
       0.09502149 -0.062288336 0.034209765 -0.056297597
000380 4c 39 fa bd 03 86 09 be 90 a4 01 bd 0b c0 f8 bc
       -0.1221796 -0.13430028 -0.03165108 -0.03036501
000390 71 b7 5d 3d 48 aa 96 3d 2a 85 79 3d 42 50 87 be
       0.05413002 0.07356697 0.06091801 -0.2642842
0003a0 27 60 27 3e 7d 8e 9a 3d 10 1b 40 3c e9 e2 97 3d
       0.16345273 0.07546709 0.011725202 0.074163266
0003b0 a3 9b bb bd 8c 50 ab 3d 63 46 35 3e 91 a5 80 3d
       -0.09160545 0.083649725 0.17702632 0.06281579
0003c0 38 a7 5a 3d ba 80 d2 3d 53 7b 10 be fb 85 4f bd
       0.05338213 0.10278459 -0.14109544 -0.050664883
0003d0 32 0e 72 bb eb 3e aa bd 3c 21 3e bd 1f 6c ed 3d
       -0.003693473 -0.08312782 -0.046418414 0.11592888
0003e0 82 bf 1f 3e 8b 0b 21 be 6a 30 06 bd 55 6e 98 bd
       0.15600398 -0.1572706 -0.032761015 -0.07442919
0003f0 33 e4 54 bd bc c2 9f bd 69 b2 1a be b3 1a 8b 3c
       -0.05197544 -0.078008145 -0.1510712 0.016980505

l2.weight f4 [256, 256]
000000 8c a1 12 3e 17 94 a2 3d 35 34 c4 be 5f 52 97 3d
       0.14319438 0.07938402 -0.3832108 0.07388758
000010 85 b9 eb bc e8 c8 c9 3d ee 77 76 3e b0 f8 1a bf
       -0.028774986 0.09852773 0.24069187 -0.60535717
000020 09 c1 53 3d 49 aa be bc ab 58 09 3f 89 ee cc bd
       0.051697765 -0.023274558 0.5365092 -0.100064345
000030 5c d3 bc 3d 7a 85 61 bd b8 8d b2 3e 84 15 59 3d
       0.09220001 -0.055058934 0.34873748 0.052999035
000040 a8 99 77 be 67 1e 25 3f 0b c2 ea bc cc 0e 4b be
       -0.24179709 0.64499515 -0.02865698 -0.19829863
000050 69 48 d6 3d 8b bc ef 3b 0a 89 24 3a 01 d6 b7 bd
       0.1046303 0.0073161772 0.0006276524 -0.08976365
000060 cf af 95 3e cf 90 4a bd ee b8 df 3d 85 66 25 be
       0.29235694 -0.049454506 0.109239444 -0.1615239
000070 27 d6 a5 3c a3 36 8c 3d e8 3f 6a bd 74 79 22 bd
       0.020243717 0.068463586 -0.057189852 -0.039666608
000080 15 fc d2 3c 75 55 14 3e 84 1a 79 be 52 68 70 3c
       0.025754968 0.14485724 -0.24326521 0.014673309
000090 63 92 59 ba bb 46 20 3d 99 5d 3d 3e 3a e0 76 bd
       -0.00082997064 0.039129954 0.18492736 -0.060272433
0000a0 4e 30 26 3e 1c 18 17 be b2 3d aa 3c da c6 2b bd
       0.16229364 -0.14755291 0.020781372 -0.041937687
0000b0 4a 9d 83 3e 6d 0e b6 3e 1d 5f 3b bb ce 8e df bc
       0.2570594 0.3555788 -0.0028590627 -0.027289774
0000c0 40 e8 09 3d 49 f1 0b 3e 0b d7 07 3a fc 06 9d 3e
       0.033668756 0.13666262 0.0005181885 0.3066939
0000d0 52 bc 12 3f c2 cd 39 3c f5 9e 23 be e1 3c 28 be
       0.57318604 0.01134056 -0.15978606 -0.16429473
0000e0 ac b8 05 3b c8 fb 95 be 57 79 c3 3b 71 a9 3e 3c
       0.0020404262 -0.29293656 0.0059653926 0.011637078
0000f0 11 65 d6 ba fd 89 81 3c f6 ce a1 bd 85 32 7a ba
       -0.0016357024 0.015812868 -0.07900803 -0.0009544271
000100 cd 61 30 3e 1a a7 21 3c e2 a5 61 be 7e 2f b7 3e
       0.17224808 0.0098665 -0.22035936 0.3577842
000110 f5 1e 0a 3d 3e 27 bd bd 42 63 02 3e 0d 57 e1 bc
       0.03372093 -0.092360005 0.12733176 -0.02750733
000120 de 02 1e bd 40 ce d5 bd 69 1d c2 be ba 86 0c bd
       -0.038576953 -0.1043973 -0.37913063 -0.034308173
000130 7c 21 07 3e 62 55 ac bc e1 26 1d be c6 80 ad 3c
       0.13196367 -0.021036807 -0.15346862 0.021179568
000140 67 36 4c 3e e2 c5 59 be 5f 86 3c bd 3f 64 df be
       0.19942628 -0.21266893 -0.046026584 -0.4363117
000150 8a d3 9e be bc d0 73 bd f6 4c 41 bc 2e 4a 55 be
       -0.31020766 -0.059525236 -0.011798134 -0.20829079
000160 3e 0c d4 be 4f 12 a4 bd 9a c7 3c bb d5 d2 b6 3d
       -0.4141559 -0.080113046 -0.0028805495 0.08926932
000170 af 84 35 bb 73 00 da be ff 93 e1 3c 01 cf 50 be
       -0.0027697494 -0.42578468 0.02753639 -0.20391466
000180 0b 35 be 3f 11 16 43 be 6b 77 99 bc 4e 7b 87 3e
       1.4859937 -0.19051386 -0.0187337 0.26461262
000190 02 b9 09 3e 9c b8 6c 3d b7 8a 0d be ae 3f f2 3c
       0.13449481 0.057793245 -0.13822447 0.02957138
0001a0 37 4a f2 bd 1b 2f 0e bc e3 e4 ae bd 53 aa 43 3c
       -0.118305616 -0.008678223 -0.085397504 0.011942464
0001b0 27 48 c5 3d ed 46 76 3e ab 74 4d 3e 5b ce 82 3e
       0.096329026 0.24050494 0.20064037 0.25548062
0001c0 9d 4b 5a 3d 63 94 a2 3d 82 11 9f 3c 9a 3a 0b 3e
       0.053294767 0.07938459 0.019417528 0.13596573
0001d0 64 f8 9f 3d e9 5e 06 3c fc 48 9e 3e 5b c7 1c 3d
       0.078110486 0.008201339 0.30915058 0.038276058
0001e0 4f 01 e7 3d 4e c8 b6 be ea 7b 25 3c e3 4a 32 be
       0.112795465 -0.35699695 0.010100344 -0.1741138
0001f0 be 4a c8 3b 07 de ce 3d 6f 73 be 3d a9 11 2c 3e
       0.0061124256 0.10100942 0.09299361 0.16803612
000200 0b 8b fd 3d ce c9 eb 3d f1 0a 4e be c4 af f0 3d
       0.12380036 0.115131006 -0.20121361 0.11752275
000210 72 25 04 bd 59 e4 05 be 61 b1 58 3e e1 ec 16 3c
       -0.032262273 -0.13075389 0.21161415 0.00921175
000220 3b 88 76 bd 39 5c 1f be cc ce 05 3d e7 06 91 3d
       -0.060188513 -0.15562524 0.03266792 0.07081395
000230 1d a4 90 be 5a ba ff bd 5b aa 72 3e d7 48 8c be
       -0.28250208 -0.124867156 0.23697798 -0.27399322
000240 5b 42 09 3e a6 0d c7 3c 27 0a 38 3d c7 f8 fe 3b
       0.13404219 0.0242985 0.044931557 0.0077811214
000250 09 85 54 bd cb 3b 45 be 1a ee 1a be eb c8 8b be
       -0.051884685 -0.1926109 -0.15129891 -0.27301726
000260 e4 c2 35 be f5 44 b6 3d f7 fb 42 bd a9 ae 39 3a
       -0.17750126 0.08899871 -0.047603574 0.00070832163
000270 de a1 14 be bf ca 81 3e 17 0d cb bd cb 2a f8 3e
       -0.14514872 0.25349995 -0.09914606 0.48470148
000280 d7 f0 0e be 84 6d 87 be a6 99 ba 3d 30 3a d3 bd
       -0.1395906 -0.2645074 0.09111337 -0.10313833
000290 e9 b6 06 be d1 af 2d 3d 30 f4 62 be fe 12 24 3e
       -0.13155712 0.042404 -0.22163463 0.1602287
0002a0 54 5d e8 3d 36 9b a4 3c 91 8c a9 3c 37 e7 7b bd
       0.11345926 0.020093542 0.02069691 -0.0614998
0002b0 7d 83 df bc 51 b7 fe 3d 29 29 e5 bd ba 04 b3 be
       -0.027284378 0.124373086 -0.11189491 -0.34964544
0002c0 7e 94 63 3d 07 e1 9b be 3c e8 00 3d 87 3a a0 3e
       0.055561535 -0.3044512 0.031471476 0.31294653
0002d0 b5 a4 94 3e c1 9e d1 bd 1f 13 3a bb 64 2f 8d be
       0.29031911 -0.10235358 -0.0028392745 -0.2757522
0002e0 9f f7 5e be 81 b3 06 be 78 13 58 be 59 76 dc bd
       -0.21774147 -0.13154413 -0.21101177 -0.107647605
0002f0 3c 9c c4 bc 28 07 4e be f7 f0 26 be 7a b7 0e 3e
       -0.02400028 -0.20119917 -0.16302858 0.13937178
000300 54 73 b7 3c fa b9 3e bd 65 34 b4 3b 6f 4d 77 3e
       0.02239386 -0.04656408 0.00549941 0.24150632
000310 c8 00 d7 3d 99 e8 58 3e 0e ac ed 3d 79 e3 fa 3c
       0.10498196 0.21182479 0.116050825 0.030626046
000320 c4 fd db bd 26 77 32 3c 53 86 e3 bc 0e a0 7a be
       -0.10741761 0.010892665 -0.027774012 -0.24475119
000330 75 a0 57 3f d1 d6 df bd 1f 2b f2 bd 91 05 eb bb
       0.84229213 -0.10929645 -0.11824631 -0.0071722944
000340 66 10 ce 3c 08 8d 6d bd 01 76 ea 3d b3 b3 7a bd
       0.025154304 -0.057995826 0.11448289 -0.06120653
000350 69 fd d8 bc 93 ae b8 3d 1f 35 01 be 6e 52 06 be
       -0.026488023 0.090176724 -0.1261792 -0.13117382
000360 84 12 a9 3e 77 64 8b be c4 9e 30 3d 00 e1 3a 3e
       0.3302194 -0.27225086 0.04312016 0.18249893
000370 ce a8 df 3d 7a 78 48 bf b8 5f 4e be 79 c2 83 3d
       0.10920869 -0.7830883 -0.20153701 0.06433577
000380 7d bb 7b 3c 85 8d e5 3d 2f f7 07 3f 83 63 ac bd
       0.015364525 0.11208633 0.5311155 -0.08417418
000390 1b 8a 5b 3e 4a 0c ac bd a0 38 5a 3d 82 ae ef 3e
       0.21439402 -0.084007815 0.053276658 0.46812826
0003a0 74 0b a2 3c ba a7 14 be 84 b1 ae 3d 36 60 8e bc
       0.019780852 -0.14517108 0.08529952 -0.017379861
0003b0 33 e4 c9 3e 68 f3 06 be 12 37 cb 3d d3 b0 57 bd
       0.39431915 -0.1317879 0.09922613 -0.052658867
0003c0 3d cb 9d 3d bf b5 da bd 39 a5 f3 3d 65 d9 4e bb
       0.0770478 -0.106791966 0.11896748 -0.0031562683
0003d0 97 4b db bd 9f 02 7b 3e e1 28 10 bb dc 60 12 3c
       -0.10707777 0.24512719 -0.0021997022 0.008934226
0003e0 9e 8d ad be 1c a5 be 3d 13 21 10 be 4f c2 87 3e
       -0.33897108 0.09308836 -0.14075117 0.26515433
0003f0 ff c7 20 3d 0d fa 80 be 3e 17 b1 3c eb a4 92 bc
       0.03925323 -0.25190774 0.021617528 -0.017900905

l2.bias f4 [256]
000000 50 74 95 be c4 3d a7 be 90 e8 1e be c0 02 b6 3e
       -0.29190302 -0.3266431 -0.15518403 0.35548973
000010 d4 db a8 be aa af 74 3e ca 6b 7f 3e 3e 1d 98 bd
       -0.32980216 0.23895136 0.24943462 -0.074274525
000020 50 e7 bb bc dd 27 ca bd bc 15 b6 bd d7 de ac be
       -0.022937447 -0.098708846 -0.08890864 -0.33763763
000030 5c fb 3f 3d 7c 0d d1 3e b1 81 b1 3d 7b e6 87 bd
       0.046870574 0.408306 0.08667315 -0.066357575
000040 c2 df ab 3e 7c 5d 4e 3e 64 0d 7e 3e 27 ca e8 bd
       0.3356915 0.20152849 0.24809796 -0.113666825
000050 4d 64 87 bc d2 4c f7 bc cd 87 43 3d 12 e5 14 be
       -0.01652732 -0.030187998 0.04773693 -0.14540508
000060 e4 c6 5b 3e 26 29 71 3e 8a b9 c4 be c9 ca 1d 3d
       0.2146259 0.23550853 -0.38422805 0.03852347
000070 a7 d8 bc 3e 85 26 24 be a7 35 8b bd 99 7a 35 3e
       0.36884043 -0.16030319 -0.06797343 0.17722549
000080 ec 27 bf 3d df 3d d8 3e 26 96 91 be 4f 69 9f bc
       0.09333786 0.42234704 -0.28434867 -0.019459395
000090 34 67 2c 3e 45 90 a8 3e 36 59 28 3e a1 79 c3 3e
       0.16836244 0.3292257 0.16440281 0.38178733
0000a0 7c 7e 0a bf 8c 5c 85 3d eb f4 53 3c aa a9 a0 3e
       -0.5409925 0.065117925 0.012936811 0.31379443
0000b0 b2 36 67 be 6c 30 b9 bc 05 28 72 be 11 20 a2 3e
       -0.22579458 -0.022606097 -0.23648079 0.3166509
0000c0 57 04 33 be f0 df 0e 3e b7 98 5f 3e 19 1b 9e bd
       -0.17482124 0.13952613 0.218356 -0.07720012
0000d0 10 8e 4f be 4e d0 2b be 1d e1 12 be f2 39 1d 3e
       -0.20269036 -0.1677868 -0.14343686 0.15354136
0000e0 f6 e0 88 be 9b 5e 2f be 71 0e 72 be 6d 15 49 3e
       -0.26734132 -0.17125933 -0.23638321 0.1963708
0000f0 dd 89 df 3d b8 f4 92 bd 67 e6 70 3d 41 e8 87 3e
       0.10914967 -0.07175583 0.05881348 0.26544383
000100 9a 39 7d bb f6 63 86 be 2d 16 0b 3e 7d c0 f9 bd
       -0.003863907 -0.2624814 0.13582678 -0.12194917
000110 2d e9 a2 3d 5f 63 59 be 7c 0d 87 be 7c ec 48 3e
       0.07954631 -0.21229313 -0.26377475 0.19621462
000120 4e eb 38 3e 78 a0 72 3e 87 1b 80 3d 76 3c c5 be
       0.18058512 0.23694026 0.062552504 -0.3852269
000130 51 03 19 3e 3e 92 de bd 50 7b 31 bc 59 59 f5 3b
       0.14942671 -0.10867737 -0.010832623 0.0074874577
000140 7e 7e e1 3d 51 a8 95 bc eb b4 30 be 99 81 35 3e
       0.110104546 -0.018268736 -0.17256515 0.17725219
000150 47 03 1d 3f 1e f1 84 be b3 03 b5 3d 4e 30 87 be
       0.61333126 -0.25965208 0.08838596 -0.2640404
000160 7d c4 81 3d 89 cb 07 3e 37 44 81 be ae 58 4b be
       0.06336305 0.13261236 -0.25247356 -0.19858047
000170 4d 35 39 3e eb 46 bb 3d af 61 16 3e 36 d1 0c 3d
       0.18086739 0.09144386 0.14685701 0.034379207
000180 ad d1 35 3c d7 f4 97 be 49 7b a5 be f7 d0 1b 3e
       0.011097354 -0.29678985 -0.32320622 0.15216433
000190 42 0e 89 be 30 f8 a9 3e ea 86 a8 bd c8 42 5e be
       -0.2676869 0.33197165 -0.08228858 -0.21705163
0001a0 c7 04 50 3d 5a dc 8f be 71 e0 4d 3c b7 f4 2e 3e
       0.050785806 -0.28097802 0.012565718 0.17085539
0001b0 d9 aa 5d be eb ed 24 3e 59 b7 aa bd 27 fd 4f 3e
       -0.21647204 0.16106384 -0.08335752 0.20311414
0001c0 27 c3 64 bd 60 e8 a9 3e 55 f6 ad bd 67 63 cc bd
       -0.055850174 0.331851 -0.0849425 -0.09979897
0001d0 4d 58 02 bb 50 64 48 3e 24 c4 71 3e 54 ee 28 bd
       -0.0019889057 0.19569516 0.23609978 -0.041242912
0001e0 b8 cf 6d 3e 89 9a dc 3d 86 ad d1 be 17 70 38 be
       0.2322377 0.10771663 -0.409527 -0.18011509
0001f0 3e b6 1f 3e 0e e0 1f 3e ab 78 1d 3e 2c 29 47 3e
       0.15596864 0.15612814 0.15378062 0.194493
000200 20 08 20 be 58 99 8c bc ca e7 8f 3e 42 7d fd 3d
       -0.156281 -0.017162964 0.2810653 0.12377407
000210 80 90 9c 3e 37 bd b0 be 88 9f 6e 3d 47 bd 5a bd
       0.30578995 -0.3451936 0.05825761 -0.053403165
000220 7a 3e 19 3e be 3d b1 3e f3 73 cc be 18 75 a6 be
       0.14965239 0.34617418 -0.39932212 -0.3251121
000230 a9 ba 0b be 9c 60 03 3e b9 2a 47 bd cc 38 29 be
       -0.13645424 0.12829822 -0.048624728 -0.16525573
000240 35 17 51 be 75 58 a8 3e 3e cd 68 be 76 98 87 bd
       -0.20419009 0.32879987 -0.22734544 -0.066208765
000250 f2 39 2e bd 54 02 4e be b0 a0 f3 bd a6 bc 11 bc
       -0.04253573 -0.20118076 -0.11895883 -0.008895075
000260 e7 e7 4c bd ac 9f 26 be d8 ac 35 3e 6d 3f 94 3d
       -0.050025847 -0.16271847 0.17741716 0.0723866
000270 e9 fd fe 3d 9e 73 99 be 11 a4 a6 3e 71 fa 0c be
       0.12450773 -0.2997102 0.32547048 -0.13767411
000280 75 e2 db be 34 2e cb be bd f8 11 be 9b 6d 70 bd
       -0.4294621 -0.39683688 -0.14255042 -0.058698278
000290 7e 08 07 bd 9a 83 81 3e f9 a2 63 bc 48 b5 40 3c
       -0.032967083 0.25295717 -0.013893836 0.011761971
0002a0 a6 93 16 3d 6f da 89 3d a2 80 82 3e 8d 43 08 3e
       0.036761902 0.06731116 0.25488764 0.13307019
0002b0 65 67 ab bd 1c b8 53 3e 8a c8 ca 3b e3 1d a2 3d
       -0.0836933 0.20675701 0.006188457 0.07915857
0002c0 7f f5 c7 bc 97 ce 8f 3e 7b 0b 94 3d 64 97 ca be
       -0.024409054 0.28087303 0.07228752 -0.39568627
0002d0 f4 c6 52 3e 74 0b 85 bc 40 e7 8a be 4e 75 cf 3e
       0.20583707 -0.016240813 -0.27129555 0.40519184
0002e0 fd 54 8f be 4b 76 66 3e bf 13 8e 3e 16 27 aa bd
       -0.27994528 0.22506063 0.2774944 -0.08308236
0002f0 e7 39 84 3e 51 62 fd bd 0d 6c c2 3e 20 df 6b bd
       0.25825426 -0.12372268 0.3797306 -0.057585835
000300 ad 46 8e 3e 7c ae 98 3e db 3b 6c 3e c3 63 ca bd
       0.27788296 0.2982062 0.23069708 -0.09882309
000310 ea c5 4e be 7f d9 b0 3d 2e 36 08 3e 38 54 b1 3e
       -0.20192686 0.08635234 0.13301918 0.34634566
000320 33 fd 4b be af 9d e0 3e a4 c8 30 3e e4 92 93 3e
       -0.19920807 0.43870303 0.17264038 0.28823006
000330 ae 3f a0 bd 90 b5 c5 3e 21 fe 8b 3e 5b 52 ef 3d
       -0.07824646 0.38615084 0.27342322 0.1168563
000340 f6 56 92 be 49 b3 02 be 72 1b ab 3d 12 ef 93 be
       -0.2858197 -0.12763704 0.08354844 -0.28893334
000350 02 32 9e 3c 24 5a 0b 3e a9 1b 16 3b 01 51 c2 3e
       0.019310955 0.13608605 0.002290467 0.37952426
000360 c6 a4 26 3d ec 69 31 3e a8 f5 85 be a3 f7 91 3e
       0.040684484 0.17325562 -0.26163983 0.28509244
000370 13 1d 50 3d a7 cf 8e be e6 e4 be 3d 0f 8a 49 3e
       0.050808977 -0.278928 0.09321003 0.19681571
000380 47 23 08 3e 0e dd 57 3e 69 71 3b be ce 59 ec be
       0.13294707 0.2108042 -0.18304981 -0.46162266
000390 1e 9b 41 be 3d 18 9e 3e 5b 6f 54 3d 9e 97 ad be
       -0.18906829 0.30877867 0.05186401 -0.33904737
0003a0 fb a9 8e 3e 14 4a 65 3e 96 c2 80 3e 61 22 e0 bd
       0.2786406 0.2239154 0.25148457 -0.10944057
0003b0 0c e8 50 3e 69 a8 29 3e 08 fd f3 be d6 c1 a2 3e
       0.20401019 0.1656815 -0.47653985 0.3178851
0003c0 7e 96 0e 3d 21 3f 93 be 5a 6c a6 be 0b 44 47 be
       0.03481149 -0.287591 -0.3250454 -0.1945955
0003d0 cd cf 95 3e fb cf b6 3d 7b 73 55 bd 60 7e c5 bd
       0.29260102 0.08926388 -0.052112084 -0.09643245
0003e0 7c 80 8e 3e d4 54 a0 be 32 57 00 3e be 32 89 bd
       0.278324 -0.3131472 0.12533262 -0.066991314
0003f0 d5 3a a1 3e ac e7 ae bd 98 72 87 be a1 0a 2a 3e
       0.31490198 -0.08540282 -0.26454616 0.16605617

l3.weight f4 [17, 256]
000000 14 07 04 bc 26 bf 04 bf db ea 00 3d 74 90 61 3d
       -0.008058328 -0.5185417 0.031473976 0.0550694
000010 a0 ac 95 3c bd 84 7a 3f d3 a7 8f bc 9b a2 b4 3e
       0.01827079 0.9785879 -0.01753608 0.35280308
000020 3c 83 01 3f 14 61 fe bd 93 4d 7c 3e 4f f2 c7 3e
       0.5059087 -0.1242086 0.24638967 0.39052054
000030 3f f7 46 bf 53 97 85 be b0 95 a2 bf 90 7b e7 3d
       -0.7772102 -0.26092014 -1.2701931 0.113028646
000040 dd f2 4d be 61 5d fd be f8 82 35 3f 92 2a df bd
       -0.20112176 -0.49485305 0.7090297 -0.108967915
000050 5b 30 c4 3d 80 36 2d bf 99 62 01 3f f5 1a e2 3e
       0.095795356 -0.67661285 0.50541073 0.44161192
000060 b8 df cf bd 4b 3e cf be 96 90 8b bf 5d 82 b3 3e
       -0.10150093 -0.40477213 -1.0903499 0.35060397
000070 92 8e 56 3f de a8 45 3e 08 28 34 c0 c4 67 13 3d
       0.83811295 0.19302699 -2.8149433 0.03598763
000080 a7 1d 88 bf 47 50 be bf 62 68 0c 3c aa 22 91 3d
       -1.0634049 -1.4868249 0.008569809 0.0708669
000090 d2 b1 1a bf 45 7b 50 be a2 02 42 bf 57 0e 71 bf
       -0.6042758 -0.20359524 -0.7578527 -0.94162506
0000a0 cc c1 a9 3e 1a df f1 be e1 43 aa be 09 f1 95 3e
       0.33155668 -0.47240525 -0.33254912 0.29285458
0000b0 b0 94 76 bf f6 95 40 3f 8a 68 21 be 86 f7 50 be
       -0.9632063 0.7522882 -0.15762535 -0.20406923
0000c0 66 55 0b bd 9d bf b7 bd 37 55 59 3d 7e c6 64 3e
       -0.03401699 -0.08972094 0.053059783 0.22341344
0000d0 c0 cd 44 bf d4 52 1f 3f c4 92 43 40 c5 b3 a8 3d
       -0.7687645 0.6223576 3.0558329 0.08237413
0000e0 31 2b 1d 3f 24 cc 77 3f c4 6d 8a 3e 19 80 9a bf
       0.6139403 0.9679587 0.2703687 -1.2070342
0000f0 aa 65 3d 3e b7 8a 04 3e ef 6c c5 3e 81 28 53 3f
       0.18495813 0.1294354 0.38559672 0.8248368
000100 61 6d ad bf a8 a4 a2 bf 86 a5 9f 3e 2c 4c 87 be
       -1.3549005 -1.2706499 0.31180972 -0.26425302
000110 68 29 a9 3e 0d 54 dd 3e d1 e6 20 bf 1d 5c 1b bf
       0.33039403 0.43228188 -0.628522 -0.6068743
000120 98 65 99 3e 69 dc 25 3f 1c 25 40 bf e3 47 16 3d
       0.29960322 0.64789444 -0.75056624 0.03668965
000130 d7 7b 75 be 2a 62 2b bf 11 a9 8b bd 4e 57 86 3d
       -0.23973022 -0.6694666 -0.06819356 0.06559621
000140 69 69 b8 3f 92 41 75 3e f1 7b dd 3c e9 e5 20 3f
       1.4407169 0.23950794 0.027036639 0.62850815
000150 56 07 9a 3f 1b f4 e7 3d 91 ca d1 bf 25 a3 5a 3f
       1.2033489 0.11325856 -1.6389943 0.8540519
000160 ea e1 19 be 14 89 04 3f a2 6b ab 3e 89 cf 9f 3e
       -0.15027586 0.51771665 0.33480555 0.31213024
000170 4c 30 4a bf 97 5e fe 3d ec 85 fd be e2 17 e1 be
       -0.78979945 0.12420385 -0.49516237 -0.43963534
000180 5d 97 dc 3e 65 50 c8 bf 98 7b a1 bf 8a 81 4c be
       0.4308423 -1.5649534 -1.2615843 -0.1997129
000190 14 d3 92 bf 87 58 83 3e 0b f6 44 3e 9b 66 37 3f
       -1.1470666 0.25653479 0.19234483 0.7164094
0001a0 03 06 60 be 9b 27 a9 3e f7 df b1 bf b2 23 b6 3d
       -0.21877293 0.3303803 -1.3896474 0.08893527
0001b0 ea b1 af bf c3 2b b5 be b4 05 65 3f a2 d2 22 bf
       -1.372617 -0.3538495 0.8946183 -0.6360265
0001c0 6e 80 52 be 97 09 7c 3e e8 5f ef bd 57 16 1e 3e
       -0.20556805 0.24613033 -0.116882145 0.1543821
0001d0 c3 2a 07 be 67 3c 6e be 4f 0e 05 3f 20 10 73 be
       -0.13199906 -0.23265229 0.5197496 -0.2373662
0001e0 25 77 ca 3d 1e f8 61 bd 11 8c 6b bf 82 3d af be
       0.09886006 -0.055168264 -0.920106 -0.34226614
0001f0 a9 7e 80 3e d9 b4 a8 3f e7 83 f1 bd 87 73 8c 3f
       0.25096634 1.318019 -0.117927365 1.0972756
000200 40 58 0e 3f c2 de 16 3e ad 70 2a 3f 8a a0 8f 3f
       0.5560341 0.14733413 0.6657818 1.1220868
000210 1d 5a 8f 3f c0 05 3d bf 14 92 78 3f 00 6d 10 3f
       1.1199375 -0.738369 0.970979 0.5641632
000220 8d 58 15 3e 68 79 45 3f bf a2 44 bf 2d 54 4c be
       0.1458456 0.77138376 -0.7681083 -0.19953986
000230 56 bb 03 3f d8 60 2f bf 0f e4 36 3f d7 42 8a be
       0.51457727 -0.68507147 0.7144174 -0.2700412
000240 14 a9 c4 be 71 f1 86 3e c6 71 1a be 19 4b 81 be
       -0.38410246 0.2635608 -0.15082464 -0.25252607
000250 89 d8 e5 be dd cf 11 bf e9 4f f2 3b 2b 14 36 3f
       -0.44891766 -0.569578 0.00739478 0.71124524
000260 dc 63 5b 3f 43 4b b4 be 2c 7d 81 3e c5 92 9f be
       0.8569925 -0.3521367 0.2529081 -0.31166664
000270 26 ec 34 be 48 4a a4 3d 39 fd 8d 3f e3 5c 53 3f
       -0.17668208 0.080219805 1.1092902 0.8256361
000280 65 b6 08 3e 84 5d 29 bf e0 be b4 be e0 b8 e9 be
       0.13350828 -0.6615832 -0.35301876 -0.4564886
000290 5a d3 5a 3e d1 89 84 3e 22 41 6b 3f a5 ed c5 3e
       0.21369687 0.25886396 0.9189626 0.3865787
0002a0 47 10 61 be 65 9e e4 be d8 98 5e bf ee 3f ad bd
       -0.21978866 -0.44652095 -0.8695197 -0.08459459
0002b0 f9 8f 0c 3f 93 b5 49 3f 7a bc c9 be 3e 82 41 3f
       0.54907185 0.78792685 -0.3940161 0.7558936
0002c0 59 6a 2c bf 09 aa 8a be 74 67 1b 3d 23 2a 86 be
       -0.67349774 -0.27082852 0.037940457 -0.26204023
0002d0 5c 60 3c 3e 57 02 a6 3e e0 2b c3 be 3d c1 0b 3e
       0.18396133 0.3242366 -0.3811941 0.13647933
0002e0 e1 fe 15 be 97 6b 78 3f aa 48 0e 3e eb c6 59 bd
       -0.1464801 0.9703917 0.13894907 -0.05316822
0002f0 5c 6a 2e bf b7 b7 80 be 9d b0 c1 3f ec f6 21 3d
       -0.6813104 -0.25140163 1.5132023 0.039542124
000300 9b 0f 17 bf fa fe 1c bf bf 14 61 3f 69 2d ed 3f
       -0.5900819 -0.61326563 0.8792228 1.8529483
000310 73 6a 2e 3d 34 b7 4e be 52 d5 42 3e b9 77 dd be
       0.042581987 -0.20187074 0.19026688 -0.43255404
000320 33 5c c8 3d 58 ea 24 3d 94 2f 75 be d3 bb 45 be
       0.097832106 0.04026255 -0.23943931 -0.1930993
000330 3f 31 34 3f bd 5a cc be 35 1f ac be e2 10 22 3f
       0.70387644 -0.39912978 -0.3361756 0.6330701
000340 65 47 49 3f 8d 63 09 3e 8d 2d 23 bd 6e f7 14 3e
       0.78624564 0.13416882 -0.039838362 0.14547512
000350 1d dd fe bf cb c9 c4 be 9b d6 11 bf e9 e7 b4 be
       -1.9911228 -0.38435206 -0.56968087 -0.35333183
000360 a4 c6 a7 be 3a 5e bb be 64 5f 3c 3f c5 f3 df 3f
       -0.32768738 -0.36595327 0.73583055 1.7496268
000370 88 60 59 bf 3d bd 99 3e 30 e5 9c be 30 e4 78 bf
       -0.8491292 0.3002719 -0.30643606 -0.97223186
000380 de 7f 84 3f 95 2e 0e 3e 07 4f 74 3e 46 4d 36 bf
       1.0351522 0.13884957 0.23858272 -0.7121166
000390 55 42 ba bc c7 3c ca 3c eb 6c c6 be 0e 45 f5 bd
       -0.022736708 0.024687184 -0.38754973 -0.11976062
0003a0 c7 b0 38 3e 4d 4b 29 bf eb 32 8b 3e da 88 7b be
       0.18036185 -0.66130525 0.27187285 -0.24563923
0003b0 95 37 a4 bf 73 4b 5c 3f 8a 9a 53 3f 37 e9 96 3f
       -1.2829462 0.86052626 0.8265768 1.1789922
0003c0 9b 41 1a 3f 7d fb 83 3d 9f df 99 3f a4 af 66 bf
       0.60256356 0.06444452 1.2021369 -0.90111756
0003d0 75 65 83 bf ca 6d 85 3e 23 84 0d bf 39 3a 44 bf
       -1.0265337 0.26060325 -0.5527975 -0.7665134
0003e0 f3 b6 e8 bd 9a 48 b8 bf 8d 84 dc be 0c f8 17 3f
       -0.1136302 -1.4397156 -0.43069878 0.59362864
0003f0 9a 9f c3 bd 4d ce 6a be eb 6d 3a bf de ab 0a 3e
       -0.09551926 -0.2293026 -0.7282397 0.13542125

l3.bias f4 [17]
000000 a6 d8 ec 3d b9 ad 75 be 2f e8 2d be 58 72 fb 3d
       0.1156476 -0.23992051 -0.16983102 0.12277669
000010 ce 2b dd bc f1 ec a2 bd 91 c2 6d 3e 21 9c 27 b7
       -0.026998427 -0.07955349 0.23218752 -9.990327e-06
000020 e8 13 51 3d 15 57 75 3e d9 5d 26 3e 76 00 12 be
       0.051044375 0.23959 0.16246738 -0.14257988
000030 2c 7b 08 3e 77 63 b2 be 8a 5e bc bd 4a 53 02 3e
       0.13328236 -0.3484151 -0.091977194 0.12727085
000040 f4 ed 74 be
       -0.23918897
