4.2 TD3/model/LLdV2_q_critic1000.pth (torch, 555426 bytes, 10 tensors)

l1.weight f4 [256, 10]
000000 c7 2e dd 3d f1 03 84 be 87 2b 2f bf 2c 7e f0 be
       0.10799938 -0.25784257 -0.6842579 -0.46971262
000010 8a a7 ae 3d 21 4a ac 3d e2 11 6f be 37 da 0d bf
       0.08528049 0.084125765 -0.23346666 -0.55411094
000020 7a 5d 17 be dd cf 9a 3d 00 e7 70 3e a2 20 7d 3f
       -0.14781752 0.07559178 0.2352562 0.9887792
000030 5d b7 c0 be a2 b1 9c 3e 0f 20 f8 be 66 ea 90 3e
       -0.37639895 0.30604273 -0.4846196 0.28303832
000040 b8 64 cc be 08 f4 b5 be 4b 59 1e 3e a9 a9 1f be
       -0.39920592 -0.35537744 0.1546375 -0.15592064
000050 98 69 13 3e 77 a7 f8 be ad 54 30 be 2d 49 74 bd
       0.1439575 -0.48565266 -0.17219801 -0.0596401
000060 3d 8a df bd 56 45 ba 3e c1 aa 3e 3e 1e 15 35 3e
       -0.10915039 0.36381024 0.18619825 0.17683837
000070 e0 fe c1 3e 31 db 81 3e be 9a b7 be 84 24 b8 bf
       0.37889767 0.25362542 -0.35860246 -1.4386144
000080 b9 6d 11 be 74 93 95 be 43 b0 81 3e fd 57 32 3e
       -0.14202012 -0.2921406 0.2532979 0.17416377
000090 84 05 d1 be c0 72 4c be b5 a8 0d bb 53 83 85 3b
       -0.4082452 -0.19965649 -0.002161545 0.004074493
0000a0 7a 49 05 be 0d c1 43 bf 3a 95 21 3f 90 6d ee be
       -0.1301631 -0.7646645 0.63118327 -0.46567965
0000b0 0b 7b 56 be c5 76 ed 3e 87 9c 9c 3e a3 e0 48 be
       -0.20945375 0.46379676 0.3058817 -0.19616942
0000c0 8f 22 ad 3d 45 f2 9f bc fd 5d 8c bd 9f 0d a1 be
       0.08453857 -0.019524703 -0.06853864 -0.31455705
0000d0 43 cb 48 3f 0c d7 74 be 7a 53 05 be f7 af 45 3f
       0.7843515 -0.23910159 -0.13020125 0.77221626
0000e0 08 3e 6e 3e 7b 8d 09 bd b2 5d 1f 3e 53 5e 69 3e
       0.2326585 -0.033582192 0.15563086 0.22789888
0000f0 b5 ec 87 bd bd 55 f1 3e 67 b2 85 bd 3d 98 67 3f
       -0.06636945 0.47135726 -0.06528168 0.9046667
000100 5c 7d 24 3f af 67 d0 be 8e 90 be be 8d 89 06 3e
       0.64253783 -0.40704104 -0.3721966 0.13138409
000110 8a 07 46 3c db b5 1a 39 ac 26 11 bf 02 fb 1c 3f
       0.012086758 0.00014754331 -0.56699634 0.6132051
000120 a8 0d 4e 3e e6 00 f7 bd 53 d4 6a 3e 7e 07 e7 3d
       0.20122397 -0.12060718 0.22932558 0.11280726
000130 6f 26 08 bf 0f 9e 28 be 76 26 1a bc de ca fb ba
       -0.53183645 -0.16466545 -0.009408584 -0.0019210239
000140 fd 71 6f bd fd 36 a9 bb e4 26 95 be 07 ba 8a bb
       -0.058458317 -0.005164026 -0.29131234 -0.004233602
000150 b1 83 0f bf 8e 1d 94 be 3d 52 0b bf b8 58 2c bf
       -0.5606032 -0.28928798 -0.5442236 -0.67322874
000160 52 31 a6 3b 4d 56 17 3c ae e7 c9 bd a4 6a 8f 3b
       0.0050717974 0.009236884 -0.098586425 0.004376726
000170 ab 8b b6 bd 33 0d 36 3e eb 87 d4 be 40 e5 83 be
       -0.08913358 0.17778473 -0.41509947 -0.2576084
000180 91 43 d7 3e 98 06 94 3e 9c 37 15 bd b9 53 57 be
       0.42043737 0.2891128 -0.036429986 -0.21028031
000190 11 9d fd 3c 92 88 8f bf 52 91 77 3e 33 fd f3 3e
       0.030958684 -1.1213553 0.24176529 0.47654113
0001a0 1c ee b0 bd 25 97 a9 3e 35 e3 a1 3d b1 5f d0 3e
       -0.08639166 0.33123127 0.079046644 0.40698007
0001b0 a8 cc 0f 3e 23 da 90 3e 32 24 ee 3d be 8f 29 be
       0.14042914 0.28291425 0.116279975 -0.1655874
0001c0 c0 0f 86 3d 1d bc 86 3d 8b 30 08 3f e2 e2 33 3f
       0.06545973 0.065788485 0.5319907 0.7026807
0001d0 7b 5e e6 3e f4 c1 46 be 18 32 6a bd e0 87 31 bd
       0.44993958 -0.19409925 -0.05717668 -0.04334247
0001e0 f9 41 95 3e 35 ce a4 3d fc aa ab 3e 0d 05 26 3e
       0.29151896 0.08047143 0.33528888 0.16212864
0001f0 bf a4 c4 3e ce 17 44 3e 56 23 03 3d 5b 78 1c be
       0.3840694 0.19149706 0.03201612 -0.15280287
000200 95 fe 96 3d 18 36 19 3c eb ad 10 bd f9 d1 b0 bf
       0.073727764 0.009351276 -0.03532211 -1.3814079
000210 a7 e5 33 3f f4 b7 71 3d 96 c9 e2 bb 72 e8 0c bf
       0.70272297 0.059013322 -0.0069210036 -0.55042183
000220 87 93 90 3e 14 16 0c 3e 67 1d 05 bc a0 64 06 3d
       0.28237554 0.13680297 -0.008124686 0.032810807
000230 65 4b 23 3e 55 5e b3 bc 85 e7 4f be fd 09 97 3d
       0.1594673 -0.021895567 -0.20303161 0.07374952
000240 02 82 93 be 0f ab 45 3d ee 61 bd 3e e2 0f d1 3e
       -0.28810126 0.048258837 0.36988777 0.4083243
000250 c5 c2 6b be 00 3b 08 3c a3 eb e6 3e 4d 20 0e 3f
       -0.23023517 0.008314848 0.45101652 0.5551804
000260 04 da 97 be 34 2b 81 be 57 8a ce 3e 18 2c 33 3f
       -0.2965852 -0.25228274 0.4033992 0.69989157
000270 5c b4 12 3e 56 a5 d1 3e 08 cc 0f 3e 47 c2 c4 bc
       0.14326614 0.40946454 0.14042675 -0.02401842
000280 34 13 f8 bd 73 aa a6 3e 6e 91 3d be d5 a7 b1 3d
       -0.12113038 0.32551917 -0.18512508 0.086745895
000290 0b 91 78 3e 95 af 72 bf 57 3d 22 3e 58 fb a1 be
       0.2427408 -0.94799167 0.15843712 -0.31637073
0002a0 8a 94 3f 3e 99 69 46 bd d2 c5 0d be 0d e9 27 be
       0.18709007 -0.04844055 -0.13844994 -0.16397496
0002b0 59 22 b4 3e 21 2f 77 be 2f 28 31 bf e1 6b 15 bf
       0.35182455 -0.24139072 -0.6920194 -0.58367735
0002c0 0e 83 43 bf a4 62 04 3e 13 16 1e bd 3c 2f 81 3c
       -0.7637185 0.12928253 -0.03859527 0.015769593
0002d0 4b af 93 bd 25 49 d4 3e bd 08 65 bf 9c e0 b0 be
       -0.07211169 0.41462055 -0.8946646 -0.34546363
0002e0 fd af d7 be 0e 06 4b 3d ea 58 83 3e de a8 96 3e
       -0.42126456 0.04956632 0.25653774 0.2942571
0002f0 30 d5 3c be 4d cc af bd ba df b0 3e 86 44 81 3e
       -0.184407 -0.08583889 0.3454569 0.25247592
000300 f5 35 37 be 6c 3c 17 3f 15 92 68 be b0 33 1a be
       -0.17891677 0.5907657 -0.22711976 -0.1505878
000310 6e 7a 94 3e a0 18 b1 be f4 ae 98 3c 9b ca 33 3c
       0.28999656 -0.345891 0.018638112 0.010973598
000320 67 92 de 3c 2d f9 53 bf 29 dd 26 bc 1b 4e 22 be
       0.02716942 -0.8280209 -0.010184565 -0.15850107
000330 5b 97 82 bf a2 e0 28 bc de 01 7d be db 42 11 3f
       -1.020244 -0.010307463 -0.24707744 0.5674264
000340 d0 b3 34 3d 0b 07 1b bd 10 4f 0c 3f be 0d 18 be
       0.044116795 -0.037848514 0.5480814 -0.14848992
000350 82 3e d4 3d 10 a9 11 be ed 78 8a bf 7d b6 dd be
       0.10363485 -0.14224648 -1.0818154 -0.4330329
000360 9c 71 bd 3d 6d c8 00 bd d2 bb df bc 6e 44 03 3d
       0.09250185 -0.03144114 -0.02731124 0.03204768
000370 49 9c e8 bc 46 eb 6f be 0e 9a 99 be 0c 50 d4 be
       -0.028394835 -0.23429593 -0.30000347 -0.4146732
000380 81 c8 ed 3e 89 cb 81 3e e7 44 b0 3e da ab 62 3e
       0.46442035 0.25350598 0.34427568 0.22135869
000390 69 74 21 3e 84 fe dc 3d 3c 88 08 bd 82 9e 0d be
       0.15767063 0.107907325 -0.03333305 -0.13829997
0003a0 7b db a8 3e 52 e5 02 3e 7b 7e 84 3e b1 05 ef 3e
       0.3297995 0.12782791 0.25877747 0.4668403
0003b0 45 0b 0b 3d 2b dc 47 be 5d 66 72 bc a5 19 11 bc
       0.033946294 -0.19517581 -0.014794913 -0.008856212
0003c0 ed 51 04 3e 1c 91 35 bf d0 59 3b be ea 95 44 bf
       0.12921877 -0.70924544 -0.1829598 -0.7679125
0003d0 0e d2 95 be ee 14 d8 3d e6 49 c3 3e 16 33 49 bf
       -0.29261822 0.10550867 0.38142318 -0.78593576
0003e0 3d d6 91 bc 9e c7 f2 bb 3a 2d ef 3c 87 e4 07 3d
       -0.017802352 -0.00740905 0.02919637 0.033176925
0003f0 ef 68 94 be c2 af 2f 3f c9 37 1b bf 69 b9 a6 3e
       -0.28986308 0.6862756 -0.60631996 0.32563332

l1.bias f4 [256]
000000 a7 ee c9 3e bb 62 f0 3e 0a bd 5c 3e 79 3a d5 be
       0.3943989 0.46950325 0.21556488 -0.41646174
000010 4a 93 85 3e c4 c3 44 3d 71 2e e9 3e 41 23 9d be
       0.26088935 0.04803826 0.45543244 -0.3069096
000020 88 bc 2b 3d 1c c4 a4 3e 19 25 eb 3b 08 5d 72 bd
       0.041927844 0.3218087 0.0071760532 -0.059170753
000030 ea b5 17 3f 90 07 e2 3e 4d 50 1f be c0 8d b4 3d
       0.59261954 0.44146395 -0.15557976 0.08816099
000040 3a 6e 46 3d c0 81 52 be fe da 78 3e 7f ad a3 3e
       0.048444964 -0.20557308 0.24302289 0.31968305
000050 81 fc 97 be 15 24 dc 3e 11 5f e9 3e 4e 81 71 3e
       -0.29684833 0.42996278 0.45580342 0.23584482
000060 03 63 99 be 10 51 63 3e d7 a5 77 3d 5f bd 65 3e
       -0.29958352 0.22198892 0.06046089 0.2243552
000070 53 db 00 3f e6 00 b1 3e 04 bd 93 be 22 dd 58 3e
       0.5033466 0.34570998 -0.28855145 0.21178105
000080 13 72 3c 3e d6 e7 0e be 91 c6 e2 3d cd a6 d8 3e
       0.18402891 -0.13955626 0.1107303 0.4231476
000090 d9 14 0d 3e 8a 14 e0 be 7d 3a a1 3e 9d 55 98 ba
       0.13777484 -0.4376567 0.31489936 -0.0011622194
0000a0 7a 5b 8f be 43 c6 bd 3e 15 06 8a 3e a3 3d 80 3d
       -0.2799948 0.37065324 0.26957765 0.06261756
0000b0 02 c0 9f be 88 16 03 be 24 fc c5 3e 87 2a 1f 3e
       -0.31201178 -0.12801564 0.3866893 0.15543567
0000c0 e5 af 24 be fb 1a 7e be 42 5e bb be 98 45 ec 3e
       -0.16082723 -0.2481498 -0.3659535 0.46146846
0000d0 40 b3 95 be e2 0e 9d 3e 80 5a cb bd 02 0b 9b 3e
       -0.2923832 0.30675417 -0.09929371 0.30281836
0000e0 cf 2c 09 3f 4a 1d a7 be dc 32 e1 3c ae 17 da bc
       0.53584 -0.32639533 0.027490072 -0.02662262
0000f0 db 89 03 be b4 36 46 3e 65 87 c7 be f2 79 cb 3e
       -0.12845556 0.19356805 -0.38970485 0.39741474
000100 e1 93 46 3e 21 a7 b4 be 6b c2 8e 3e d9 f5 09 3f
       0.19392349 -0.3528376 0.27882704 0.5389076
000110 54 b3 8b 3e 8d f8 9e be 1a 0e 98 3c 58 e5 c3 bd
       0.27285254 -0.31049004 0.018561412 -0.09565228
000120 04 39 4f be 12 6b 83 bd 3e 0a 87 bc 81 0b ad 3d
       -0.20236593 -0.064169064 -0.016484376 0.0844946
000130 f1 ff 1f 3f 13 31 d1 3e 8c 55 bf bd 7e ec 91 3c
       0.6249991 0.40857753 -0.09342489 0.017812964
000140 c6 c4 bf 3e e7 3d 1a be fb 97 0a 3c 40 2c 40 3d
       0.37454814 -0.15062676 0.0084590865 0.0469172
000150 52 17 4d 3e bd 19 3f 3d aa 92 b4 bd 64 70 c0 bd
       0.20028427 0.046655405 -0.088170364 -0.09396437
000160 0a 8c 6b 3e a3 5f b8 3e 4a 5d 0b 3f bf 93 89 3c
       0.2300264 0.36010465 0.5443922 0.016794084
000170 d1 11 34 3e 57 49 0e 3f 8a 46 84 3e fa d6 82 be
       0.17584921 0.5558066 0.25835067 -0.2555464
000180 8d 06 0b be 01 5d c4 3c a1 0a a0 3d b4 5c dc 3e
       -0.13576718 0.023970129 0.07814527 0.43039477
000190 44 86 da 3d cc 31 ed bd 64 0d 1c bf 1f fc f8 3d
       0.106701404 -0.115817636 -0.6095793 0.12157463
0001a0 9b 9f 22 3f 37 40 9a 3e a6 f6 04 3f a5 00 9a be
       0.6352479 0.30127117 0.51938856 -0.30078617
0001b0 15 53 37 be f1 59 0a be eb e6 38 bd d2 76 24 3e
       -0.17902787 -0.13510872 -0.045142096 0.16060951
0001c0 e1 8f b0 be a3 23 9a 3e 31 0c cc bd 5a 57 02 be
       -0.3448477 0.30105314 -0.09963263 -0.12728634
0001d0 12 22 d7 b9 fc f5 a8 3e db b1 bc be 9f 8c ba 3e
       -0.0004103338 0.3300017 -0.36854443 0.3643541
0001e0 5a 34 ad be 64 44 00 3f 0f 21 f0 be 47 58 54 3e
       -0.33829004 0.50104356 -0.46900222 0.207368
0001f0 65 84 7d 3d a6 63 c3 bd 5c 11 59 3d d3 7b 17 3c
       0.06189384 -0.09540491 0.05299507 0.009245831
000200 e3 75 b3 3e 4d b5 1d be 15 54 92 3e c1 d6 23 3e
       0.35050878 -0.15401192 0.28579774 0.15999891
000210 7d 14 df be 82 db 26 3d 17 46 78 3d c2 27 4f 3e
       -0.4357032 0.040736683 0.060613718 0.2023001
000220 98 01 ec 3d 3e ea 53 3e 9e f0 ac 3d 8f 2e 30 3f
       0.115237415 0.20694825 0.084443316 0.6882104
000230 58 1b 9c 3e 7d fc 1b ba 80 f7 ae be 36 11 c4 3e
       0.30489612 -0.00059504044 -0.34173203 0.3829438
000240 82 07 db 3e 92 99 b1 be cf 1e 3c 3f a4 d8 a1 bd
       0.42779166 -0.34687477 0.7348451 -0.07902649
000250 a4 ee c1 3e 32 59 77 3e 39 85 8e 3b 57 d3 6d be
       0.3787738 0.24155119 0.0043493775 -0.23225151
000260 8a 17 87 bc 4a 62 39 3e d1 1e 40 bc eb 0e 01 3e
       -0.016490716 0.181039 -0.011726097 0.12603347
000270 46 2f f1 3d a4 7f f1 3d a4 c0 a7 3c 83 30 11 be
       0.11776595 0.11791924 0.0204776 -0.14178662
000280 9f 1d 8f 3e 59 88 87 be 50 00 03 3f 22 83 76 3e
       0.27952287 -0.26471213 0.5117235 0.2407346
000290 7c 3c b1 3e 5a c2 46 be 99 fa da 3d f2 bd 11 3e
       0.34616458 -0.19410077 0.10692329 0.14232615
0002a0 a1 4b dc 3d e2 c9 e5 3e 99 51 b5 3d 69 91 07 3e
       0.107566126 0.44880587 0.08853454 0.13239063
0002b0 5b 50 7c 3e 9b 0e 91 3e 19 f4 1a be f6 0b e7 be
       0.24640028 0.28331456 -0.15132178 -0.45126313
0002c0 d7 33 d9 3e 16 b4 b2 3e 95 41 59 3e 4d 18 ad 3d
       0.42422363 0.3490302 0.21216424 0.08451901
0002d0 3b d4 4c 3c d8 b5 c4 3e f2 dd 3d be fc c1 90 be
       0.012501772 0.38419986 -0.18541697 -0.28272998
0002e0 e9 c9 c7 3e 12 e3 ab 3e 50 af 06 bc e0 8a c4 bd
       0.39021233 0.33571678 -0.008220509 -0.09596801
0002f0 7d 30 77 bd 2a 4a 85 bd 14 70 f1 be ee 4e 2f be
       -0.060348976 -0.06508286 -0.4715582 -0.17119953
000300 4e a4 9e 3e 3f 04 a4 3e 81 19 56 3d 17 80 a1 be
       0.3098473 0.3203449 0.052270416 -0.31543037
000310 cd 24 8e be 0d b8 5a be 10 e0 90 3e 4c e4 02 be
       -0.27762452 -0.21359272 0.28295946 -0.12782401
000320 89 e3 de 3e 3e b0 e9 bd 41 db f7 b8 04 bf a9 be
       0.4353297 -0.11410569 -0.00011818717 -0.33153546
000330 c4 84 dc be f8 38 61 3e a1 a3 71 3e 3f 49 b6 3e
       -0.43070042 0.21994388 0.23597576 0.35602757
000340 0b be 8a 3e f7 51 b1 3c 2c b0 75 be 3a bf be 3e
       0.27098116 0.02164553 -0.23992985 0.3725527
000350 a6 44 52 3e ab f4 75 be 24 35 ca be ea 88 80 3e
       0.20534 -0.24019115 -0.39493668 0.25104457
000360 82 bf fe 3e 91 31 96 be da c5 ae 3d cc 05 76 3d
       0.49755484 -0.2933469 0.08533831 0.060064122
000370 ac 3a 2a 3d 22 25 96 3e e8 50 96 3d 80 d6 2b 3e
       0.04155986 0.29325205 0.073396504 0.16781044
000380 0d 0c 4a be 8d 6e 84 3e 72 17 90 3e 3b 1a 8e be
       -0.1973116 0.25865594 0.28142887 -0.27754387
000390 cb ef c0 3e 40 12 3f 3e 46 51 b5 3e bb 07 29 3f
       0.37682948 0.18659306 0.3541357 0.6602742
0003a0 10 e0 37 3e 80 cf 03 bc 55 83 77 be 92 88 2b 3f
       0.17956567 -0.008045077 -0.24171193 0.67005265
0003b0 b8 86 43 3f 30 a0 f6 3e 4f 50 56 be 1b 6e 8b bd
       0.7637744 0.48169088 -0.20929073 -0.0680811
0003c0 93 57 91 3e a0 b4 19 3f 40 ff 22 bf 54 76 8b be
       0.28387126 0.60041237 -0.6367073 -0.27238715
0003d0 cc f6 a9 3e 41 56 16 bb 8e d5 15 bf 0f 28 ca 3e
       0.33196104 -0.0022939595 -0.58528984 0.39483687
0003e0 df 03 50 3f 81 b6 22 be 69 3d 9a 3e ed ea 0a bb
       0.81255907 -0.15889932 0.30124977 -0.0021197156
0003f0 99 65 30 be 01 8c a8 3b 8a 19 f0 3d 14 86 9d be
       -0.17226256 0.005143643 0.11723621 -0.30766356

l2.weight f4 [256, 256]
000000 dd 9e 6c 3d 22 a0 31 3e 67 06 90 3c a2 29 15 bf
       0.05776869 0.17346242 0.017581178 -0.5826665
000010 88 b6 88 3b 2f 98 2a 3d e7 43 7c 3e c2 dc 51 be
       0.00417215 0.04164904 0.24635278 -0.20494369
000020 73 57 7a 3e e0 aa f2 39 31 e4 07 3e 42 21 76 3a
       0.24447422 0.0004628515 0.13270642 0.0009389111
000030 a7 88 b7 bd 79 bb 36 3b ef be d3 3d 1e 5c f0 3d
       -0.08961611 0.0027882739 0.10339152 0.1173632
000040 0d 26 e2 3d a9 2d 39 3e 58 39 df 3d 3c e8 28 3e
       0.11042414 0.18083824 0.10899609 0.1649484
000050 0e 6a be 3d 43 e8 dc 3d 8d 23 ce 3c 26 08 3b bc
       0.09297572 0.10786488 0.025163436 -0.011415517
000060 7e 36 80 3e 0b 84 71 3d 03 eb d0 3c 24 06 2d 3c
       0.25041574 0.058963817 0.025502687 0.010560546
000070 be 89 5a 3b 74 04 70 3d ef 64 8d bb ee ac 25 3e
       0.003334626 0.058597997 -0.0043150107 0.16179249
000080 1e a3 f2 3d 7b 1b e3 bc b4 3d 0a bd 17 80 84 3d
       0.118475184 -0.027723065 -0.03375025 0.06469744
000090 6f 99 21 3d 7b a8 8d be d2 b5 c4 bc 20 04 c8 be
       0.039452966 -0.27667603 -0.02401248 -0.39065647
0000a0 7e 33 62 be e2 1c b4 3d cf 09 19 3e e1 76 50 3d
       -0.22089955 0.087945715 0.14945148 0.05089462
0000b0 41 db 01 3e 3b fc b2 3d 96 46 5e 3e c7 8a 14 3e
       0.12681295 0.087395154 0.21706614 0.14506064
0000c0 45 00 98 bd 20 4e f2 3d 4d 8c 86 3e 82 74 d0 3d
       -0.074219264 0.118313074 0.26278916 0.10178472
0000d0 67 bc 83 bb 47 c5 1a bd ad e6 81 bd 40 67 8f 3d
       -0.004020262 -0.037785795 -0.06342826 0.07002115
0000e0 55 70 9c bd ee 27 7e 3e fc 32 29 bd 27 07 a5 3e
       -0.07638613 0.2481992 -0.041308388 0.3223202
0000f0 32 a7 d4 bc 29 e8 27 3e 1f 16 4a 3d bd d1 8b 3d
       -0.025958631 0.16397156 0.049337503 0.06827114
000100 dc 2e 2f 3d 5b b1 a1 3d 63 43 39 be 74 ec 59 3e
       0.042769298 0.07895156 -0.18092112 0.21281606
000110 80 cb 9c 3d a3 a2 a4 3e 2e 71 ea bc a1 1f 05 3e
       0.07656002 0.32155332 -0.028618421 0.13000347
000120 70 75 6c be c2 b4 80 3b 57 19 28 bd 56 09 2b 3e
       -0.23091674 0.003927798 -0.04103979 0.1670278
000130 ca 65 39 3e 05 53 a9 bb f3 58 62 3e 24 5d b5 bd
       0.18105236 -0.0051673674 0.22104244 -0.08855656
000140 9f 7a 88 ba 5d 42 4b 3d e2 df 72 3d 6f 62 9a 3e
       -0.001041252 0.049623836 0.059295543 0.30153224
000150 aa 98 d9 39 91 4e 47 bd 0a c9 b2 3d d5 3e 3c 3e
       0.0004150321 -0.04865891 0.087297514 0.18383344
000160 64 dc 5a bb 0d c3 8d 3e a5 06 02 bd 5b 3c cf 3d
       -0.0033395523 0.27687874 -0.031744618 0.10118934
000170 47 8a 65 3e e9 10 8f bb f8 1c b9 bc cb 83 6e 3e
       0.2241603 -0.0043660295 -0.022596821 0.23292463
000180 29 ea 1b be c4 fd bf 3e 9f 02 81 3d d5 ab 5f 3d
       -0.15226044 0.37498295 0.06299328 0.05460723
000190 e8 6d ee 3e 5c df 9c bd 91 42 e6 be 24 12 41 3d
       0.46568227 -0.0765979 -0.4497266 0.04713644
0001a0 89 26 d5 3d 1f 70 4a 3e f3 90 b0 3c 1c 39 4a 3c
       0.104077406 0.19769333 0.021553492 0.0123427175
0001b0 51 86 fb 3c f3 92 79 3e 2e ae 38 3e 98 30 09 3c
       0.030703695 0.24372463 0.18035194 0.008373402
0001c0 25 c6 41 bd 62 71 01 3e 5a b1 bf 3d 6e 05 65 3d
       -0.047308106 0.12640908 0.09359999 0.05591338
0001d0 cc c7 9a 3b e3 f2 e0 3d 9f 43 ca 3e 48 a9 2d bd
       0.0047235247 0.10983827 0.39504716 -0.042397767
0001e0 b9 69 1c be 81 98 35 3c d3 cd 3e 3d 5c 61 36 bc
       -0.15274705 0.011083723 0.046583008 -0.011131611
0001f0 0d b1 49 3e 6a 45 3a 3d ee 81 84 3e 14 73 26 be
       0.19696446 0.045476355 0.25880378 -0.16254836
000200 ec fc 39 bd 19 89 e3 bb 23 d9 98 3d 59 83 d6 bc
       -0.04540722 -0.0069438335 0.074632905 -0.026185678
000210 77 f3 16 bf 76 6e e4 b9 4b 60 ba 3c dc e6 a7 3d
       -0.5896525 -0.0004356985 0.022750994 0.0819833
000220 d9 3c 98 3e 40 6c 51 3e 5c 7f 98 3e 67 54 7e 3e
       0.29733923 0.2045145 0.29784667 0.24836884
000230 b4 88 85 bd ca c3 06 bd 42 3d 1e 3d 73 19 1c 3e
       -0.06520215 -0.032901563 0.03863264 0.15244083
000240 1f ed 13 3d 9c 4f 5c 3c 37 b2 a6 3d 72 cf 0e 3e
       0.03611481 0.013446715 0.081394605 0.13946322
000250 14 e7 dd 3d 24 50 9c 3d 99 e8 8e bd 6a 22 80 3c
       0.1083509 0.07632473 -0.06977958 0.01564141
000260 e4 7f 11 3e 91 99 c3 3d d8 a6 09 bd 88 04 5e 3e
       0.14208943 0.09550775 -0.03360638 0.21681416
000270 25 fb 27 bd 4b ff be 3d 12 f4 b8 3c 31 98 8f 3b
       -0.041010994 0.09326037 0.02257732 0.0043821563
000280 81 51 27 3d 90 6a 5d 3d f3 70 9d be dc e6 89 3d
       0.040849213 0.054056704 -0.30750236 0.06733486
000290 7b 9e 9c 3d c5 74 33 3e 66 be 4c 3d 41 ea 09 3e
       0.07647415 0.17525013 0.049986266 0.13468267
0002a0 96 12 2b 3e 6c 66 f1 3d 93 e8 2d 3d 01 94 d6 3c
       0.16706309 0.117871135 0.04245813 0.02619362
0002b0 02 8d 10 3e f5 5f 3f 3e 43 a7 e8 bd c1 87 0e 3e
       0.1411629 0.18688948 -0.11360028 0.13918974
0002c0 74 4b a0 3d 16 4b a2 3a fc 2d 9d 3c 5d ec cd 3d
       0.078268915 0.0012381996 0.019186966 0.10054848
0002d0 4e 83 d2 3d ea 09 89 3c 82 63 e1 3d 7a 92 03 bf
       0.10278951 0.01672836 0.11005308 -0.5139538
0002e0 fc a1 2f 3c 29 a9 ce bd 5b a7 5a 3e 84 fd e6 bd
       0.010719772 -0.100908585 0.21352904 -0.11278823
0002f0 d2 7e f9 bd df 14 fd 3d 49 29 5b bd e8 81 d6 3c
       -0.12182392 0.123574965 -0.05350617 0.026184991
000300 e0 d0 37 3e a1 1a 8b 3e d0 e8 28 3e d4 b1 17 3e
       0.17950773 0.27168754 0.16495061 0.1481393
000310 2e cb 1f 3d d0 37 b5 3d 32 af 2d 3e 7f 5d 73 3d
       0.039012127 0.08848536 0.16961363 0.059415337
000320 50 bf 52 3c 35 d3 9b bd 74 cf bd 3d bc 7e 67 be
       0.012862995 -0.07608644 0.09268084 -0.22606939
000330 27 6e cc bd a1 06 c1 3d 4d fd 0b be 2f af 7b 3b
       -0.099819474 0.094250925 -0.13670845 0.0038403978
000340 34 3a 9a 3d cb c9 9b bb ad 79 09 be 6e 5e 4d be
       0.075306326 -0.00475428 -0.13425322 -0.20055553
000350 50 af 70 3e d3 ba fb 3d 50 ba ad 3e 3b fc 14 3e
       0.23504376 0.12291493 0.33931208 0.14549343
000360 3b f9 3f 3d eb ac 0b 3f 13 8a 03 3d 0d 9d cf bc
       0.046868544 0.54560727 0.0321141 -0.025343442
000370 72 51 cb bc d3 ee a6 3e bd f0 72 3c 5d 84 b7 3d
       -0.02481911 0.32604083 0.014827904 0.08960793
000380 0a 2d 92 bd f5 21 b7 bc e7 bf 0c 3e 6a dc 11 be
       -0.07137497 -0.02235506 0.1374508 -0.14244238
000390 dd f0 f9 3d b1 3c 82 3e f3 d7 d2 3c a3 83 cc 3b
       0.12204144 0.2543693 0.025737738 0.0062412783
0003a0 46 d0 02 3e 5c 6d 7b 3e 9a ee 82 3e 97 14 ce 3d
       0.12774763 0.24553436 0.25572664 0.10062521
0003b0 bc b1 44 3e 99 c3 b0 3d 31 4c 89 3d c8 7d e1 3b
       0.19208425 0.08631057 0.067039855 0.0068814494
0003c0 dc c5 ae 3e 78 68 f0 3d 30 0d 37 3e b8 ba 0f 3e
       0.3413533 0.11738676 0.17876124 0.14036071
0003d0 eb 9b bc 3b 3b 8a 1b be 18 e2 05 be 43 14 11 3e
       0.0057558916 -0.1518945 -0.13074529 0.14167885
0003e0 8a 63 5b 3e 1f 35 bb 3e 1f a6 50 3c 8a 74 15 bf
       0.2142469 0.36563966 0.012734919 -0.5838095
0003f0 3b da 8e 3d c9 8e 8c bd 98 a9 ff 3d d6 a1 36 3e
       0.06975218 -0.068631716 0.12483519 0.17835173

l2.bias f4 [256]
000000 0e c7 e5 3d 01 34 cf 3d d2 a9 0a bd 66 25 be 3d
       0.11219607 0.10117341 -0.03385336 0.09284477
000010 1e 8a 1b 3e b7 0a 97 3d 75 89 85 bd cb 85 ed 3d
       0.15189406 0.073750906 -0.065203585 0.115977846
000020 de f9 0c be 55 cf da 3d ff 2e 32 3e 3d 5b 0e 3e
       -0.13767192 0.10684077 0.1740074 0.13901992
000030 a4 06 10 3e 38 a0 2d bd 3a 53 ce 3d 81 5f df 3d
       0.14065033 -0.042389125 0.10074468 0.10906888
000040 1d 95 a0 bc 4f 11 47 3e 98 38 08 3e 5f 9e e1 3d
       -0.019602353 0.19440196 0.13302839 0.11016535
000050 58 3b 0c 3e 6a 26 68 3d 4e 8a f9 3d d4 bd 54 3e
       0.13694513 0.05667726 0.12184583 0.20775539
000060 19 67 76 3d 06 0e 52 3e 13 b1 53 3e b9 1b ba 3d
       0.060156915 0.20513162 0.20673017 0.09087319
000070 95 12 d9 3d 26 1f b7 3d be 51 a0 bd 5b 25 59 be
       0.10599247 0.08941488 -0.07828091 -0.21205656
000080 59 4f 6a 3e c9 38 67 3d 0a 2f 1c 3e 96 96 ef 3d
       0.22881831 0.05645064 0.15252319 0.11698644
000090 2a 90 dc 3d 16 9d c9 3d f5 b0 e2 3d 6f 93 1c 3e
       0.107696846 0.09844415 0.11068908 0.15290616
0000a0 96 bb fb 3d 99 e4 12 3e 59 e1 74 3d 46 fa 74 3d
       0.122916386 0.14345016 0.05978522 0.05980899
0000b0 6f 52 ac 3d 47 7e ab 3d f9 c0 7d 3d d5 49 db 3d
       0.084141605 0.08373695 0.06195161 0.10707442
0000c0 80 8e c6 3d c3 be 34 3e 68 57 98 be 0c f6 b1 3d
       0.096951485 0.17650895 -0.29754186 0.08689508
0000d0 76 96 4b 3e a0 f6 c2 be e8 25 a1 3d 7c 2d 0c 3e
       0.19881615 -0.38078785 0.07868558 0.13689226
0000e0 df 84 66 3d 76 58 88 3d d1 e2 7f 3e 01 24 b4 bd
       0.05627906 0.066574976 0.24988867 -0.0879593
0000f0 c4 0f a9 3b 15 5e 6c 3d 26 e7 09 bc 77 90 f1 3d
       0.00515935 0.05770691 -0.0084169265 0.117951326
000100 b3 72 a5 be 48 69 ed 3d 3c 31 28 bd 7b 71 92 3d
       -0.3231407 0.115923464 -0.04106258 0.07150551
000110 40 6d 1c 3e ff 77 57 3d 2f 33 72 3e 89 0b f1 3d
       0.1527605 0.05260467 0.23652337 0.11769778
000120 ec a1 ec bc 16 e0 86 3d 1c 1f b8 3c 8e a9 36 3c
       -0.028885804 0.0658571 0.022475772 0.011148823
000130 39 45 5b 3d d3 6b 38 3e a8 02 ab 3d 85 a0 2b bd
       0.053532813 0.18009882 0.08350116 -0.04190113
000140 c7 3e 06 3e 2f a9 12 3c 21 46 59 3d b6 b0 06 3e
       0.13109885 0.008951469 0.053045396 0.13153347
000150 63 14 a6 3d 75 72 80 3d bf e3 dd 3d d6 9d 27 3e
       0.08109357 0.06271831 0.10834455 0.16368803
000160 73 ba 44 3d 44 a3 d1 3c 46 01 0e 3e 24 d1 ab 3d
       0.048029374 0.025590546 0.13867673 0.083895
000170 a8 c3 59 3e e9 55 22 3e 1e ce 0a 3e b0 d9 0f be
       0.21266043 0.15853085 0.1355519 -0.14047885
000180 53 e0 0c 3e 6f 15 b0 3d 47 e5 46 3e 77 77 15 3e
       0.13757448 0.08597838 0.194234 0.14596353
000190 2a 89 87 bd 76 bb a1 3d e6 cf 46 bc d6 a4 05 3e
       -0.06617959 0.078970835 -0.012134528 0.13051161
0001a0 a0 83 53 3e aa 09 14 3e f2 4f d4 3d 57 52 fb 3d
       0.2065568 0.14456812 0.10366811 0.122715645
0001b0 fb 3c b8 3d 82 5e d8 3d e3 76 30 be d8 3b 60 3e
       0.08996006 0.10564901 -0.17232852 0.21897829
0001c0 1d 41 32 bd 8f e0 14 3e 43 e1 6e 3e 41 45 0c 3e
       -0.043519128 0.14538787 0.23328118 0.13698293
0001d0 fd 46 d2 3d 94 a0 0e 3e c3 8f 1a 3e 86 ea 08 3e
       0.10267446 0.13928443 0.15093903 0.13370714
0001e0 b6 09 1c 3e 3c 43 39 3e 45 13 60 3d bf 8a 64 3d
       0.1523808 0.18092054 0.054705877 0.05579638
0001f0 ee 58 94 3d 13 0a 2a 3e f3 8e 7c 3d 7b b4 0f 3e
       0.072435245 0.16605406 0.061659764 0.14033692
000200 fb 09 f5 3d c0 3d 0f 3e 02 f2 9d 3c 73 7f a2 3d
       0.11964794 0.139884 0.019280437 0.07934465
000210 c9 7c 68 3e 13 c8 07 3e 06 1b b8 3d a0 55 d7 3d
       0.22703852 0.13259916 0.08989529 0.105143785
000220 3a c5 ad 3d a1 74 05 3e ba 47 ac 3d b5 72 7f 3d
       0.084848836 0.13032772 0.08412118 0.062365253
000230 b4 f0 a6 bc 22 4e 78 bd aa 22 4a 3d 32 a0 a0 3d
       -0.020378448 -0.06062139 0.049349464 0.07843055
000240 94 d1 0b 3e b3 8a 09 3e f3 23 84 be b7 40 cf 3d
       0.13654166 0.13431816 -0.25808677 0.10119765
000250 14 32 e4 3d eb cd 09 3e 6d 91 47 3d ea c3 5d 3e
       0.11142364 0.13457458 0.048722673 0.21656767
000260 01 eb 01 3e 71 94 29 3e 41 0c 78 3e e7 ff 26 3e
       0.12687303 0.16560532 0.24223424 0.16308556
000270 1a a3 ca 3d fd 9e a0 3d 44 91 3e 3e b6 b1 dc 3c
       0.098943904 0.078428246 0.18610102 0.026940208
000280 aa 4b 1a 3d 0e 0f 2d bd f1 a6 a7 3d 1a 75 07 3e
       0.037669815 -0.042250685 0.081861384 0.13228264
000290 11 b2 0e 3e 19 4c d2 3c 9e b7 2a 3e d1 8f d8 3d
       0.13935114 0.025671052 0.16671607 0.10574306
0002a0 7e 11 07 3e ce b0 9d 3d cc db 02 bc 28 c5 ce 3d
       0.13190266 0.076997384 -0.007986974 0.10096198
0002b0 d4 44 bb 3d 3d 53 13 3e 62 53 75 3c 98 5a ff 3d
       0.09143987 0.14387222 0.014973493 0.12468451
0002c0 e6 ba 4d bd 3e d2 5b bd ec 63 04 3e e2 0d 54 3d
       -0.05022707 -0.0536673 0.12928742 0.051771052
0002d0 e3 8f fc 3d f3 f0 3b 3e 2c c4 ba 3d 2e 60 87 3e
       0.12332132 0.18353634 0.09119448 0.26440567
0002e0 8e 35 2a 3e a8 1d 80 bc ef 09 95 3d 6a 49 37 3d
       0.16621992 -0.015639141 0.07277285 0.044747747
0002f0 bd 4e 57 3e e9 11 2d 3e ff a7 0a 3e 4f 82 9f bd
       0.2102613 0.16901363 0.13540648 -0.07788526
000300 74 cc d9 bb 3c 9d f9 bc 19 24 3d be dc c7 af 3d
       -0.006646687 -0.030470483 -0.18470801 0.08583042
000310 a2 c6 fd bd bc 62 b4 3c 01 f5 c2 bc de 3e 2b 3e
       -0.12391402 0.022019736 -0.023798468 0.167232
000320 60 bb 05 3e 2e 1a 2b bc 4c 48 4f be a2 c6 b1 3d
       0.13059759 -0.010443253 -0.20242423 0.08680464
000330 e0 4b 21 3e c3 5a 56 3e 54 d7 02 3e 8b 45 b5 3d
       0.157516 0.2093306 0.12777454 0.08851155
000340 38 78 c7 3b 2b df 0a 3e 59 5c c1 be 24 ca f3 3d
       0.0060873292 0.13561694 -0.37765768 0.1190379
000350 05 41 4c 3d 67 69 ca 3d 5a 67 57 3e 5e dc 84 3d
       0.049866695 0.09883385 0.21035519 0.06487344
000360 d1 8a 0e 3e b0 7c d1 3d 23 d6 aa 3d da 5a 1d 3e
       0.13920142 0.102288604 0.083416246 0.15366688
000370 da 2a 23 3e bf dd ea 3d d1 63 05 3d 25 d0 35 3e
       0.15934315 0.11468076 0.032565895 0.17755182
000380 bf 28 11 3e 31 72 13 3e d8 a3 2b 3e 27 dd 3f 3e
       0.141757 0.1439903 0.1676172 0.18736707
000390 85 c2 57 3d 2e 53 1b bd ba 8d 49 3e 5a 5e b6 3d
       0.052675743 -0.037921123 0.1968297 0.08904715
0003a0 97 b8 f0 3d c0 95 df 3d e4 7a 32 3e e0 be 17 3e
       0.11753958 0.109172344 0.17429692 0.14818907
0003b0 5a 65 85 3d ce fd 11 3e 1e 2b 86 3d ce 80 9d 3d
       0.06513472 0.14256975 0.06551193 0.07690583
0003c0 40 34 a2 3d 80 66 31 3e 4c 11 99 3d 94 2c 04 3d
       0.07920122 0.17324257 0.07474002 0.032269076
0003d0 39 af 19 3e 78 00 bc 3d 7a 9d 26 3e e7 f1 fd 3d
       0.15008248 0.09179777 0.1627101 0.12399655
0003e0 bb 5e 0b 3e 62 73 2f 3e 17 96 00 3e ce e1 9f 3d
       0.13610356 0.17133859 0.12557255 0.07806741
0003f0 e4 95 ff 3d ea f5 32 3e 07 60 2c 3e 3a f5 1f 3e
       0.12479761 0.17476621 0.16833507 0.1562089

l3.weight f4 [1, 256]
000000 30 8e 77 be 41 06 36 be a9 88 4c 40 fa 33 40 be
       -0.24175334 -0.17775823 3.195841 -0.18769827
000010 32 ff 4c be 63 cc 74 be e8 df 03 40 97 9c 36 be
       -0.20019224 -0.23906092 2.0605412 -0.17833172
000020 13 e6 b0 3f 22 63 67 be d9 b9 43 3f 91 6f 55 be
       1.3820213 -0.2259641 0.76455456 -0.2084334
000030 1d d7 f6 be 4e 8a b7 3b ed c2 79 be 10 70 67 be
       -0.48210993 0.005601204 -0.24390765 -0.22601342
000040 42 a4 22 3d e4 75 47 3f 16 47 3f be 80 c8 6b be
       0.03970743 0.7791426 -0.18679461 -0.23025703
000050 53 d8 74 3f d3 60 4a 3f 95 a1 d0 be 35 d1 28 3f
       0.95642585 0.7905399 -0.40748277 0.65944225
000060 5b b1 39 be 82 4d 4a 3f c6 07 3d bf 54 56 6d be
       -0.18134062 0.7902452 -0.73839986 -0.23177463
000070 78 ae 13 3f 96 aa 43 be 8a 70 9c 3f 0f 4b bf 3f
       0.57688093 -0.19108042 1.2221844 1.4944781
000080 ff c7 42 3f bf eb 36 bf f0 3f 2a 3f 0a c6 70 be
       0.7608642 -0.7145347 0.6650381 -0.23513046
000090 36 14 38 3f 7d e9 2d be ac 35 4b be 01 30 20 be
       0.7190584 -0.169836 -0.19844693 -0.15643312
0000a0 75 03 65 3f fb 2a 53 be 4b 3e 43 be 4c 2f 0b 40
       0.894584 -0.20621864 -0.19066732 2.1747618
0000b0 14 77 50 be c9 41 64 be 0a 19 49 be b2 ed 3e 3f
       -0.20357925 -0.2229072 -0.19638458 0.74581444
0000c0 ea b4 85 be b7 78 2c 40 bb 58 cd 3f 18 1f 61 be
       -0.2611459 2.6948678 1.6042703 -0.21984518
0000d0 20 d4 29 3f 4b 5b ac 3f f5 3e 5d be a2 52 4f be
       0.663393 1.346536 -0.21606047 -0.20246366
0000e0 b6 11 78 be 0a b9 86 3f cf 0c 1b 3f 66 a0 a5 3f
       -0.24225506 1.052522 0.6056642 1.2939575
0000f0 03 b0 18 3d b3 b3 67 be 79 8e a0 3f 27 0b 28 3f
       0.037277233 -0.22627144 1.2543479 0.6564202
000100 ce 56 ba 3f 31 7f 73 3f a9 b2 05 40 0b 25 52 3f
       1.4557741 0.95115954 2.0890296 0.82087773
000110 0b 60 31 be 9d 4f d3 3e a3 7f 32 3f d3 ab 8e 3f
       -0.17321794 0.41271678 0.6972601 1.1146187
000120 ff 1d 1b 40 cc 09 9c 3f a9 ea c4 3f a4 8d ac 3f
       2.4237058 1.219049 1.5384113 1.3480725
000130 86 fc 62 be a6 d1 92 3f b1 a3 18 bf 88 b0 0f 3d
       -0.22166643 1.147023 -0.59624773 0.035080463
000140 ca aa 55 be 54 e9 21 3f 40 e6 bb 3f 07 73 5d be
       -0.20865932 0.63246655 1.4679642 -0.2162591
000150 53 0b 65 be fa 70 54 be 6e e7 52 be 98 63 5d be
       -0.22367601 -0.20746222 -0.20596096 -0.21620023
000160 fc 86 45 3d 60 22 18 3c e9 59 7a be 1c d7 2c be
       0.048224434 0.009285539 -0.2444836 -0.16878933
000170 43 66 a0 3f be 09 2e be 7f ab 82 be 20 69 f5 3f
       1.2531208 -0.16995904 -0.25521466 1.9172707
000180 0e 74 6a 3f 57 69 49 bf 1f 06 4a 3f a9 90 7b be
       0.91583335 -0.7867636 0.7891559 -0.24566902
000190 07 78 93 bf 4b ab 79 be eb d8 ab 3f 61 25 d9 3f
       -1.1521004 -0.2438175 1.3425573 1.6964532
0001a0 f0 5f 6c 3f bc 5c 37 3f f4 57 6a be 25 86 7b be
       0.9233389 0.71625876 -0.22885114 -0.24562891
0001b0 2b ab 94 be 24 dd 9d bf 8a c6 e2 3f ee 2b 9a 3f
       -0.2903684 -1.2333112 1.7716839 1.2044656
0001c0 6f 6b 48 3c 3b 4f 42 be ba a8 de 3f 7c 47 6c be
       0.012232645 -0.18975537 1.7395241 -0.23074144
0001d0 a3 aa 0b 3f 9b ea 7d be 11 2b 56 be 49 85 43 be
       0.54557246 -0.24796526 -0.20914866 -0.19093813
0001e0 ec 06 cb 3f 73 39 35 3f ec e1 1e 3f cc e4 7f be
       1.5861487 0.70790786 0.6206348 -0.24989623
0001f0 d4 6d 45 be c5 66 98 3f fd 2e 4f be 76 3a 67 be
       -0.19280177 1.1906363 -0.20232768 -0.22580895
000200 7f ca 14 3f 50 2c 2f 3f cb 72 21 3d 38 cd 7d be
       0.58121485 0.6842699 0.039416116 -0.24785316
000210 f3 59 48 3f 28 01 2a 3f 28 2e 34 bf 5a 16 58 be
       0.7826225 0.66408014 -0.7038293 -0.21102276
000220 b5 7b cc 3f 49 9a 71 be f0 49 a4 be 45 8e 60 be
       1.5975252 -0.23594011 -0.3208766 -0.21929272
000230 f4 21 f1 3f 9c f1 62 3c 10 a1 4e be 33 08 36 3f
       1.8838487 0.0138515495 -0.20178628 0.7110626
000240 df 90 4e 3f c0 6f 51 3f 4a 66 c1 3f bf a0 64 be
       0.80689806 0.8181114 1.5109341 -0.22326945
000250 c6 ad 6f be d6 7c 19 be 35 88 80 3f 75 a8 72 3f
       -0.23406133 -0.14989027 1.0041567 0.94788295
000260 38 74 60 be 9e bf 69 be 2d 27 86 3f 00 d9 49 be
       -0.21919334 -0.22827002 1.0480705 -0.19711685
000270 bb d1 52 be 8b f2 4b 3f a2 15 0a 3f 32 e9 a1 3f
       -0.20587818 0.79666966 0.5393926 1.264929
000280 02 22 08 bf 13 db ac 3f 48 74 75 be 4d 27 63 be
       -0.5317689 1.3504356 -0.23970139 -0.22182961
000290 5f b4 2c 3f cb 95 33 3f da b2 6b be 8f a0 34 3f
       0.67462724 0.7015044 -0.23017445 0.7055749
0002a0 35 06 7e be f0 80 71 be 34 3d 13 3f e8 2f a7 3f
       -0.24807055 -0.23584342 0.57515264 1.3061495
0002b0 b5 dd a8 3f eb 42 80 be 10 8d 93 3f d9 af 52 be
       1.319266 -0.25051054 1.1527424 -0.20574893
0002c0 b9 5f 66 40 52 96 8a 3f 4c bb 60 be fe 64 67 be
       3.5995924 1.0827124 -0.21946448 -0.22597119
0002d0 e0 24 39 be 91 48 4b 3f 3c 0e 52 be 6f cc 42 3f
       -0.18080473 0.794076 -0.20513242 0.7609319
0002e0 19 99 01 3f 0a e2 2d 40 5b b3 83 3f 9f df 82 be
       0.50624233 2.7169213 1.028911 -0.25561234
0002f0 f4 2c 15 3f 6e 69 51 be a5 a2 49 be 1a e8 dc 3f
       0.5827172 -0.20450374 -0.1969095 1.7258332
000300 4e 5e f0 3f 60 82 b1 3f 72 2f 02 40 d9 bf 81 be
       1.877878 1.3867912 2.0341458 -0.2534168
000310 13 90 1c 40 3d 3a b1 3f 59 dd 17 bf 64 7c 2b 3f
       2.4462936 1.3845898 -0.59322125 0.6698668
000320 64 0b 60 be 7e 48 31 3d 6e 02 d8 3f 6b 51 54 be
       -0.21879345 0.043282025 1.6875741 -0.20734183
000330 04 91 21 3f 7b db 38 3f b5 56 37 be 1e 39 8f 3f
       0.631119 0.722099 -0.1790417 1.1189306
000340 ef 98 b0 3f 26 6c 62 bf 56 f3 c9 3f 39 a7 58 be
       1.3796672 -0.8844627 1.5777385 -0.2115754
000350 bc 3d 8f 3f 70 da 69 be e1 5b 4d 3f 7b 57 71 be
       1.1190715 -0.22837234 0.8021832 -0.23568527
000360 b9 3e 4a be 98 6a 7f be 81 16 4a 3f 30 f1 80 be
       -0.1975049 -0.24943006 0.7894059 -0.2518401
000370 a9 2d 70 be 4d 7b 77 3f f0 e4 b2 3f 90 7f 39 3f
       -0.23454918 0.9667252 1.3976116 0.7246027
000380 2a da 5a be d2 fc 7c be 82 ad 29 be b2 00 d3 be
       -0.21372285 -0.24705818 -0.16570094 -0.41211468
000390 b1 ac 42 be 32 6c 92 3f 90 b6 23 3f 2d bc 70 be
       -0.19011189 1.1439269 0.63950443 -0.23509283
0003a0 94 81 51 be 15 4b 47 be c5 de 6c 3f 7b 39 4c be
       -0.20459586 -0.19462235 0.9252742 -0.19943802
0003b0 2b ff 3e 3f 87 f0 96 3f 69 38 a1 be 54 cf 52 be
       0.74608105 1.1792153 -0.3148835 -0.20586902
0003c0 66 47 65 be e3 4b 3f be e5 04 38 be d1 f8 52 bf
       -0.22390518 -0.18681292 -0.17970617 -0.82410914
0003d0 48 e2 89 be d7 36 55 be 26 46 4e be 68 9f 49 be
       -0.2693045 -0.20821701 -0.20143947 -0.19689715
0003e0 42 6f f4 3e 16 0a 4c be 4f 22 63 be b0 f4 5d be
       0.47741133 -0.19925722 -0.22181056 -0.21675372
0003f0 b8 5c 67 be 30 f6 0f 3f cc d2 81 bf a0 dc 5c be
       -0.22593963 0.5623503 -1.0142455 -0.21568537

l4.weight f4 [256, 10]
000000 a3 17 8a 3f 4d f5 85 bd e0 2d e4 3e 68 27 20 bd
       1.0788463 -0.06540928 0.4456625 -0.03910008
000010 21 d0 53 bd b0 9f d4 3d bc cf 63 bd 70 82 4f bf
       -0.05171216 0.103820205 -0.055618033 -0.81058407
000020 fa 79 93 3b 55 a4 81 3b 05 37 0f bf 3a 33 10 3e
       0.0045006247 0.0039563575 -0.5594333 0.14082041
000030 e2 ee 85 3e c5 4a 6b bb ef de 25 3c 74 4d f6 be
       0.26158816 -0.003590272 0.010123952 -0.48105967
000040 b8 50 9e 3d 75 07 fb 3a df 81 84 be 09 2a 1c 3f
       0.0773024 0.0019152003 -0.25880334 0.6100164
000050 9d 25 28 bf a8 57 1a 3f 3c 9d 34 bf 9d ea 38 be
       -0.65682393 0.6029 -0.7055242 -0.18058248
000060 a6 69 54 be a4 23 06 bf a7 66 b2 3d 86 c5 a3 3e
       -0.20743427 -0.52398133 0.08710986 0.31986636
000070 ba 1c c7 bd 13 d5 f4 3c 37 0d a2 be f0 e3 13 3e
       -0.09722276 0.029886758 -0.31650707 0.1444242
000080 1b 8d 8f 3e 0c 57 58 bf f3 fb e2 bd 67 18 d8 be
       0.28037342 -0.84507823 -0.11083212 -0.42206118
000090 54 47 c2 be 6d 94 c6 be e2 c6 34 be 30 b6 a6 bd
       -0.37945044 -0.38785115 -0.17653993 -0.08140218
0000a0 34 94 80 bf 01 6d 10 3f f6 4b f3 be 41 5b be bd
       -1.0045228 0.56416327 -0.4751889 -0.09294749
0000b0 d7 07 fb 3c 96 12 25 bd bd 31 56 3d b5 1e 6c 3d
       0.030643387 -0.040300928 0.052293528 0.057646472
0000c0 0b 56 16 bb ee 2d 0a 3b 0f e2 7b be 87 88 a5 3e
       -0.002293947 0.0021084505 -0.24597953 0.32330725
0000d0 8a 9b 12 be f2 a4 5b bd 48 8c 00 bf 0b 2c ed 3c
       -0.14317146 -0.0536241 -0.5021405 0.028951665
0000e0 47 73 1c bf 8a 1d 23 3e 3c 47 23 bc bb f6 99 3e
       -0.611134 0.15929237 -0.009965714 0.30071053
0000f0 14 63 58 3e e1 b2 e3 3e 13 8a 84 be 69 96 b3 3d
       0.21131545 0.4447241 -0.25886592 0.08768923
000100 d4 d4 b7 be d7 1e 8b be a0 97 b4 3d f6 60 98 3e
       -0.35904562 -0.27171966 0.08817983 0.29761475
000110 7e c1 77 3e a7 39 ea 3d 66 49 e4 3e f9 27 87 3e
       0.24194905 0.114367776 0.4458725 0.26397684
000120 b0 bc b4 be f7 a0 56 be 8e 06 28 3f 74 e2 07 3e
       -0.35300207 -0.2095984 0.65635 0.13269979
000130 d6 35 c3 3e 3a 75 6d be 47 8d c1 3c db 9a 86 bc
       0.3812701 -0.2318925 0.023626937 -0.016431263
000140 50 a7 68 3e a6 75 24 3f b4 16 5a bc bf 06 66 3c
       0.22720075 0.6424202 -0.013311077 0.014039694
000150 76 30 9f 3e a3 5e 00 bd 6f 89 bf 3e d6 7f 9f bd
       0.3109166 -0.031340253 0.3740954 -0.07788055
000160 a5 53 b7 be 37 37 8d be a2 1e 09 bd 8d 17 f2 3d
       -0.35806003 -0.27581188 -0.03347648 0.11820898
000170 a3 b4 12 bf 6c 24 28 bf 8a 9e b2 3e a0 61 77 3e
       -0.5730688 -0.65680575 0.3488658 0.24158335
000180 a5 31 30 be ce 54 75 be 7c 5f 79 bd f8 c7 82 3c
       -0.17206438 -0.23958132 -0.060882077 0.015964493
000190 36 67 53 3f 7f e9 f2 3e 01 fd 03 3e d6 56 f4 be
       0.8257936 0.47443768 0.12889482 -0.477225
0001a0 ea 52 2a 3e 6a 73 89 3d e4 4c 0c bf bf 2b f8 3d
       0.16633192 0.067114666 -0.54804826 0.12117719
0001b0 8d af fa 3e 99 92 25 3d 3a fe f5 3e 88 35 d9 bf
       0.4896206 0.04042301 0.48045522 -1.6969461
0001c0 35 eb d9 3d ab d8 dc be cf a3 17 be e5 77 c7 be
       0.10640565 -0.43134055 -0.14808582 -0.3895866
0001d0 c9 c4 8f bd d9 79 a5 3e 35 c4 ef bc a0 44 3f 3e
       -0.07019956 0.32319525 -0.029268363 0.18678522
0001e0 8b 01 20 3d 1d 63 a6 bd e6 78 9f be 82 65 f3 bd
       0.03906397 -0.08124373 -0.31146926 -0.118845955
0001f0 6f 19 52 bf 83 92 d6 3e 10 de 1c 3e 37 6b d0 bc
       -0.8207006 0.41908655 0.15319085 -0.025441749
000200 12 1e 8b be 6a 7d c2 bd 05 bf a6 be 6a 61 22 c0
       -0.2717138 -0.09496577 -0.3256761 -2.5371957
000210 61 50 15 bf 6c e1 31 be 4a 61 b4 3d b6 5b 39 bd
       -0.58325773 -0.17371148 0.08807619 -0.045253478
000220 cd 1f 9d 3e c7 a2 a5 3e db b0 5e 3e ec 1d 83 bd
       0.30688325 0.32350752 0.21747153 -0.064021915
000230 6b ba 26 38 7d 65 9c bb 51 cd 82 3f 31 3c d0 3f
       3.97511e-05 -0.0047728405 1.0218908 1.6268369
000240 ab 08 b3 bb d7 20 8e 3e e3 71 c7 3e a2 d3 35 bd
       -0.00546368 0.2775943 0.38954076 -0.044391282
000250 ee ff 54 3b b0 65 b2 39 3e 71 89 3e 14 89 94 3d
       0.0032501179 0.0003402657 0.2684421 0.07252708
000260 1d 9f 51 3d d8 96 46 3e cc 54 a1 3c d3 d5 d0 3e
       0.051177133 0.1939348 0.019693755 0.40788135
000270 0d 5e 28 3e c8 d4 e0 3d ee 11 6c 3d 61 99 13 be
       0.16442128 0.10978085 0.057634287 -0.14413978
000280 49 fa 1c bd c9 94 81 3c 09 94 53 3e 1f 7c 89 3e
       -0.038324628 0.015818017 0.2066194 0.2685251
000290 f5 b2 41 be f9 39 7e be 94 21 4a be 3e 4a b4 3e
       -0.18915923 -0.24826802 -0.19739372 0.35212892
0002a0 84 59 0e 3e 3e 5f 6f 3d 01 36 78 3d e4 4d cb bc
       0.13901335 0.05844044 0.060598377 -0.024817415
0002b0 07 b7 91 3e f2 1e d2 bd ee 5d 1d bf c1 cb 0c 3e
       0.2845995 -0.102598086 -0.6147145 0.13749601
0002c0 7b e9 5f 3e 46 f1 ce 3e a2 88 f5 ba 11 88 be 3b
       0.2186641 0.40418452 -0.0018732736 0.00581456
0002d0 d4 6f dc 3e f7 55 dc 3f 41 2d 84 3f 08 93 19 3d
       0.43054068 1.7213734 1.032631 0.037493736
0002e0 bc 06 f5 bd 75 33 53 bd 83 5f 42 bd 4c a2 a5 3d
       -0.11964175 -0.051562745 -0.04745437 0.08087596
0002f0 ae 74 e9 bc b4 18 94 3c 53 dd 0b be 6d 39 f4 bd
       -0.02849802 0.018078186 -0.13658647 -0.119250156
000300 d9 b8 15 bf 57 88 71 3c a4 53 89 3f a2 1d 60 be
       -0.5848518 0.014741979 1.072865 -0.21886304
000310 4b 2f 22 bc 58 a6 97 3e d0 c7 88 3c 4d 84 22 3c
       -0.009898971 0.29619098 0.01669684 0.009919238
000320 ee c7 74 3e 09 35 1b be 45 c9 b4 3e fa 05 b6 be
       0.23904392 -0.1515695 0.35309806 -0.35551435
000330 dd ea c1 be 7a b0 26 be cd 0e 2c be 98 a3 02 3f
       -0.378745 -0.16278258 -0.16802521 0.51030874
000340 86 9d 79 bc 48 fe a2 3c db 35 dd 3e b7 b8 eb 3d
       -0.01523531 0.019896641 0.4320515 0.11509841
000350 43 f7 01 be 14 6e 39 bd 3b 65 15 3e 7a 2d 24 3f
       -0.12691979 -0.045270994 0.14589398 0.6413189
000360 c8 ea 16 3d 2e 20 83 3e fe b3 95 3e 6c 8a 91 bd
       0.036845 0.2561049 0.29238886 -0.0710648
000370 0c 78 5f bf d5 e8 a1 3d d6 db 90 be fd 2b a8 bd
       -0.8729255 0.07905737 -0.28292722 -0.08211515
000380 dc 8a 29 bd 22 76 d8 bb 9f a9 98 3d 42 76 eb 3d
       -0.041392192 -0.0066058794 0.07454228 0.11497165
000390 c0 13 22 bc fc 54 2c bc 49 31 3a bc ac 19 83 3e
       -0.009892404 -0.010518309 -0.01136429 0.25605524
0003a0 5d fa 87 be 53 8e 40 3d ef 01 85 3f cf 2a 0e 3e
       -0.265582 0.04701073 1.0391215 0.13883518
0003b0 1f ce 25 3e d2 c6 1d bf 79 21 c3 bc 9d 28 4e bb
       0.1619191 -0.616315 -0.023819672 -0.0031457313
0003c0 b2 cc eb 3c 22 80 0b 3f 21 9f ea bd e5 14 a3 be
       0.02878413 0.5449239 -0.11456133 -0.3185188
0003d0 55 5b a4 3e be 00 af 3e 6c 3c 9f 3e 34 58 40 3e
       0.3210093 0.34180254 0.31100786 0.18783647
0003e0 28 19 3c 3d 71 c0 de 3c 1c c6 c2 3e ee 28 fd 3d
       0.04592243 0.027191373 0.3804177 0.12361322
0003f0 bb 67 02 bf c5 f7 84 be 2a 16 37 bc a0 36 91 be
       -0.5093953 -0.25970283 -0.011174718 -0.28361988

l4.bias f4 [256]
000000 25 96 a7 3e a8 50 c5 bd b6 f8 c1 bd d4 2c e1 3e
       0.3273174 -0.096345246 -0.09471266 0.43979514
000010 af b5 ca bd c3 fb a9 3e ef 8b 68 3e 69 c4 9c 3e
       -0.09897935 0.3319989 0.2270963 0.306186
000020 ab 8f 2b 3f b7 86 68 3e bb 91 03 3f c4 5b 20 3e
       0.67016095 0.2270764 0.5139424 0.15660006
000030 50 3d 8c 3e 31 03 8e 3e 9f 5d af be 22 34 fe 3e
       0.27390528 0.2773681 -0.34251115 0.4964915
000040 21 05 79 3d 9b 79 7d be 96 85 71 3e f0 74 d9 3d
       0.060795907 -0.2475342 0.23586115 0.10618007
000050 f3 e0 35 be b7 5e ad 3e 2a 59 ba bc 2f bc ac 3c
       -0.17761593 0.33861324 -0.022747595 0.021085827
000060 b9 25 e5 bd 0f ca 93 3e 5b 71 68 3e 18 73 d2 be
       -0.11188836 0.28865096 0.22699492 -0.41103435
000070 72 14 50 be bb 57 44 be 65 82 0a 3f 35 55 fd 3e
       -0.203203 -0.19174092 0.54105216 0.4947907
000080 5e 1a 54 3e 5e bc d0 bc 09 d3 a2 3e 5a 26 03 3e
       0.20713183 -0.025480445 0.31801632 0.12807599
000090 d2 50 b0 be 0f f1 89 3e ea 8c d1 be 9b ba 7a 3e
       -0.3443666 0.26941726 -0.4092782 0.24485247
0000a0 7c 11 84 3e be d7 a4 bd 3d 41 a7 bd 8c cc 81 be
       0.2579459 -0.08048962 -0.0816674 -0.2535137
0000b0 de 46 e8 3d 47 cd 81 3e 8a a3 bb 3e 1c 74 e4 bd
       0.11341642 0.25351927 0.36648208 -0.111549586
0000c0 4b 7e e5 bc 54 8f 7c 3e aa 74 84 be b1 cc e9 3e
       -0.028014323 0.2466405 -0.25870258 0.4566398
0000d0 8a de 86 3e 13 15 c7 3d 6a 02 29 be 32 85 c6 3d
       0.2634166 0.097208165 -0.16504827 0.09693374
0000e0 6d 32 e5 3e 23 17 08 3b 31 08 db 3d 6b ed 84 be
       0.44765034 0.0020765744 0.10694922 -0.25962386
0000f0 e7 3d b7 be 7a 22 b9 3e 8b 4e 29 3e 3f 17 a4 be
       -0.35789415 0.36159116 0.16533868 -0.32048985
000100 d9 c5 84 3e 0d 17 f7 3e 33 6e 2e be 7a a3 41 3e
       0.25932196 0.48259774 -0.17034225 0.18910018
000110 60 7f a5 be 9f 31 c4 bd 9c a7 94 3e 0f 77 06 3e
       -0.32323742 -0.09579777 0.29034126 0.13131355
000120 f2 24 fe bd 01 af d5 bc 04 23 21 bd 4c e2 81 3d
       -0.124093905 -0.026084425 -0.039340034 0.06341991
000130 b4 ec bc be 44 09 12 bf 4a 92 4b bd 11 0a 6a be
       -0.3689934 -0.5704539 -0.04970006 -0.22855403
000140 79 43 52 bd 38 1e aa bd 00 e9 06 3e 86 39 cf be
       -0.05133388 -0.08306545 0.1317482 -0.40473574
000150 a2 53 e8 bd 4c 40 e6 3e 07 44 8b 3e fb b2 22 3f
       -0.11344077 0.4497093 0.27200338 0.6355435
000160 9f 2b 0e bf 61 35 7d 3e 07 52 6b be ad 65 15 3e
       -0.5553531 0.24727394 -0.2298051 0.14589567
000170 84 d4 a1 3e f4 95 94 3e 6c 72 1e be 14 13 63 3e
       0.3160745 0.29020655 -0.15473336 0.22175246
000180 cb e0 2e 3e 69 42 f1 be f5 3b 9f be 29 59 31 3d
       0.17077939 -0.4712098 -0.3110043 0.04329792
000190 e1 d7 9b 3e 5c 1a 63 3d e9 a8 c9 3e b0 6c 58 be
       0.3043814 0.05544506 0.3938668 -0.21135211
0001a0 cd 29 d8 3c 44 d9 f0 3e d3 62 00 be 40 1b b3 3e
       0.02638712 0.4704076 -0.12537698 0.34981728
0001b0 d9 65 98 3d e8 2f a6 3d 05 f7 f8 3e 7d a0 4c 3e
       0.07441301 0.08114606 0.4862596 0.19983096
0001c0 1e b0 45 be 7a 52 b3 3d a2 9f f6 3d 5a a5 1b 3e
       -0.19305465 0.087559655 0.12042166 0.15199795
0001d0 87 fb 1e 3f 44 78 86 be 4c 58 55 be af 51 22 3e
       0.6210255 -0.2626363 -0.20834464 0.15851472
0001e0 ab 40 e3 3e f6 a8 d5 be f0 1d e1 3e c7 d4 52 bd
       0.44385275 -0.4173047 0.43968153 -0.05147245
0001f0 38 20 af 3e eb 5b bd 3d dc 93 54 3e 08 84 6e 3d
       0.34204268 0.092460476 0.20759529 0.058231384
000200 eb c4 41 be 86 88 10 3f 99 bb 81 be b7 c6 f2 bd
       -0.18922774 0.5645832 -0.25338438 -0.11854308
000210 6e 5b 18 3f 89 56 00 be c4 98 93 bd dd 7e 95 3e
       0.5951451 -0.1253301 -0.07206872 0.29198352
000220 6d 64 6d 3c cc b5 b9 3d 79 18 a5 be 79 ed 89 bd
       0.014489275 0.09067878 -0.32245234 -0.067347474
000230 4a 7d 3d be 9d 59 16 3e 42 89 86 be e2 1d c2 be
       -0.18504825 0.14682622 -0.26276594 -0.37913424
000240 9b f3 99 be fa df d9 be 56 a7 b1 3e 93 39 15 3e
       -0.3006867 -0.42553693 0.3469798 0.14572744
000250 12 f4 c6 3e 16 4d a4 bd 32 f6 f6 3e e9 80 16 3b
       0.38858086 -0.080225155 0.48234707 0.002296502
000260 b6 93 11 3f 8b 77 43 3d bf 23 f2 3c 1a 07 c4 3e
       0.56866014 0.047721427 0.02955806 0.38286668
000270 2d d8 df be 89 91 a1 bd 69 f8 0c 3f 13 2e 9f 3e
       -0.43719617 -0.07889087 0.55066544 0.3108984
000280 24 a8 12 be 18 88 9c 3e af da ed 3e f1 81 98 3e
       -0.14321953 0.3057258 0.46455905 0.29786637
000290 dd 8b a6 3d 76 57 bb 3e b5 70 09 3f 61 fd 2a be
       0.081321456 0.36590165 0.536876 -0.16698219
0002a0 b4 ff 91 3e e2 fe 71 bc 1f aa 22 be d4 4d 94 3d
       0.28515399 -0.014770241 -0.15885209 0.07241407
0002b0 5f 41 b3 3d 10 dc 20 3f 76 82 45 3e e8 21 7f 3e
       0.08752703 0.6283579 0.19288048 0.24915278
0002c0 f9 34 04 3f 12 aa cc bd 5c 91 0e 3f 34 dc 5f 3e
       0.5164333 -0.09993376 0.5569055 0.21861345
0002d0 6d 05 26 bd fd 8b 30 be 24 bf f7 3e 89 80 ac be
       -0.04053252 -0.17240901 0.48388016 -0.33691815
0002e0 fa 5a fa 3e 8d f5 de 3e 25 4a 23 3f 9f 5c 20 bf
       0.48897535 0.43546715 0.6378501 -0.6264133
0002f0 8a da 97 3e ea 42 9c be 58 a8 10 bd e5 60 00 3e
       0.2965892 -0.305198 -0.035316795 0.12536962
000300 76 20 12 be 8d ae 10 bc 9e dc 06 3f 64 4d 5e 3e
       -0.14270195 -0.008830679 0.52680385 0.2170921
000310 e4 dc 23 bd e7 16 0b 3e bb 5f 84 3c 19 30 37 3d
       -0.04000558 0.13582955 0.01615893 0.044723604
000320 0f c6 08 3d db ad e4 bc ad bd 28 3e 31 d7 1f 3f
       0.03339201 -0.027914932 0.16478606 0.6243773
000330 39 06 a2 bc 09 8c ea 3e c2 2f e4 3d b6 dc 0e 3e
       -0.019778358 0.45809963 0.111419216 0.13951382
000340 a0 17 99 3e 94 eb a4 3e c3 dc 60 3d 85 04 c3 3e
       0.29900837 0.32210982 0.054898035 0.38089386
000350 e2 c3 60 bd a9 86 9b 3e 33 89 d9 3e f3 f4 f1 3d
       -0.05487431 0.30376175 0.42487487 0.118142985
000360 75 c6 f8 3e 63 d7 fa 3c 6c cd 5b 3e e3 43 01 3f
       0.4858891 0.030620283 0.21465081 0.5049421
000370 b8 b7 b8 3e dc aa f2 3d 29 0b b4 be 95 14 fb bd
       0.36077666 0.11848995 -0.35164765 -0.12259785
000380 77 8e f4 3d bc b1 93 be 17 1f 01 3f ba bd 02 3d
       0.119412355 -0.28846538 0.50438064 0.03191922
000390 c8 a3 24 be b9 c3 0e 3f e4 59 ac 3e 6b db 16 be
       -0.16078103 0.557674 0.3366233 -0.14732139
0003a0 c2 3d 9c 3e 41 56 2d be 17 e2 7b 3e 32 9e 8b 3e
       0.30515867 -0.16927435 0.24597965 0.2726913
0003b0 25 55 98 3a 3d 46 ba bb 66 62 f1 3d c3 eb 4a be
       0.0011622055 -0.0056846426 0.11786346 -0.19816498
0003c0 d5 c1 8b 3e c7 5b 9c 3e 26 d2 e2 3e 6c 7e 14 3f
       0.2729632 0.3053877 0.44300956 0.58005404
0003d0 8c e2 93 3e 7b 15 3a 3f 98 2e b1 be 4a 70 dd 3d
       0.2888378 0.72689027 -0.3460586 0.10812433
0003e0 fa c2 f0 3d 8b 9b e4 3e 8e c8 b8 3e 34 b0 bb 3e
       0.11755939 0.4464992 0.3609051 0.3665787
0003f0 be 27 34 3d 0a 79 f5 3e 64 3b 8a be f9 92 c1 3e
       0.043983214 0.47943908 -0.26998436 0.37807444
