4.2 TD3/model/LLdV2_actor1000.pth (torch, 277144 bytes, 6 tensors)

l1.weight f4 [256, 8]
00000000: 37dc d33d d1f9 d13e bd75 0fc0 e713 94bf
00000010: c3ec 2b3e 8320 f53e 7cf3 27be 0b1c 163f
00000020: 7f55 153e 95d0 3d3e ee22 81bc 158e c8bd
00000030: 3551 a3bf dddf a8bf 7214 57be e2a4 48bd
00000040: 2920 043f 5426 003e 1306 4bbf 5f21 88be
00000050: 0366 8f3f 66ff cb3f d228 96bd 1624 113f
00000060: 5719 96be a6a1 5b3e d641 b53f 130a 43bf
00000070: 1b2b 45bf 9eec a4be 22c9 8dbe 431d 813e
00000080: 835c 1dbf 3503 18bf 258e 60bf 7a70 58bf
00000090: ba2b 88be 4c8a a33f c75c 8a3d 3794 733e
000000a0: a7e3 0f3e edec c1be 405f 793d 8e3c 88bf
000000b0: 2ab6 64bf 68a1 1cbe 61e3 103f b865 493f
000000c0: e265 5bbe afad 703d 4361 c13f ee66 2b40
000000d0: e6a1 9d3e 7f12 003d 1646 db3e 85b5 98be
000000e0: 88d2 f13d 9113 6bbf a1c5 37bf 8b37 32bf
000000f0: 6153 9a3f 8a02 813f 5a1f 85be d5cf e23d
00000100: cda0 db3e 6d91 81be 28d5 6fbd 2797 b53e
00000110: 81d9 803f 3b7b a73f d107 0bbf 479d 94be
00000120: 25e7 123f 78d9 753f 1e54 793f 5192 863f
00000130: 4abb 033f c7bf 6bbf 9d8b 443e 5055 debe
00000140: 0c24 fbbe 119b 9a3f aa20 a93f b5c7 a1bf
00000150: a4d2 aebe ac89 07bf f735 1fbd d892 35bd
00000160: 349d b13e 0fdd 3ebf bb2d f83e d6a0 083f
00000170: 5e30 653f edac ca3e 600c 99bf c850 96bd
00000180: a2f2 973e 1e24 983c 6070 cbbf 5789 01bf
00000190: 566d b33f 2142 8c3f e3a5 2fbe dca2 93bd
000001a0: 3ebf 29bf 195e 32be c57d fdbf a683 dabf
000001b0: 60c4 fd3e 6e16 393e 0443 aabe 2ce9 8a3e
000001c0: d593 febe 4511 de3f 3d40 853f 473d 3fc0
000001d0: 9b16 62bf afa5 18be 5b07 a83c 7f81 6e3d
000001e0: 4b78 1a3f 98da 9a3d 6d42 07bf 11fa cc3e
000001f0: 6e93 aabf 8b91 1abf d169 f3bd eb1c e6be
00000200: 2685 81be e5ae 50bf ec55 1e3e b014 063d
00000210: abe7 eebe 4a81 63be edde 7a3f 99a4 343f
00000220: 6616 f6bd c7fd 26be 6213 6a3e ba26 bf3e
00000230: c9da 903f 2e09 cc3f 42a6 bf3e 23f0 1abd
00000240: 560a f5be 9df9 123c 6ae2 3f3e 9a7d d6be
00000250: cc2d cdbf b232 89bf a4a1 b5be a50b 5ebe
00000260: 5f26 92bd 378e ec3d 7f91 293f 9b9d d2bf
00000270: d80a 0d3f b854 6abf ca69 8d3d 8eac 3cbe
00000280: 06dd a5bc 7363 4bbe 1559 93bf 01f3 92bf
00000290: 1e6e 553d 2221 2a3f 1415 43be 7957 8a3e
000002a0: 67e3 ffbe 7115 56bd 67e7 5d3f 83d1 febe
000002b0: 72e1 fd3e a416 9e3e e28c 86bf 55b7 003f
000002c0: 2087 5ebe 411d d8be 2a30 c73f ea08 bbbf
000002d0: d2da 64be 18aa 58bf dd51 133e 26d3 d3bd
000002e0: 2e04 033f 3ee6 243f ca18 79be 5779 3abe
000002f0: 5594 34bf 4e3c a13f fddf 803f bfa8 61be
00000300: de19 24bf d1d2 153e 7037 84bf 38f6 1abf
00000310: fb3f c6be e29d 743f 9533 efbe 77a1 9cbe
00000320: 06af 21be 7ce5 0f40 6f86 8bbf 41da 44bf
00000330: ab90 eabe 554c cc3f 0bda eebe f6b3 d83e
00000340: 6e81 903e 861d d13d 4d93 20be d1b8 e1bd
00000350: 927d 0a3f 5287 183e 96f5 87be dba9 a7be
00000360: 719e 1ebf 854b 3fbe b093 ae3f 2631 9cbf
00000370: 8411 e1be 9d92 9c3f 16bc 463c 0485 213e
00000380: 59a2 05c0 a531 92bb 5f90 b3bf 42d2 dcbd
00000390: 19be 11bf 4e60 d93d a18c 31be 6c47 e43e
000003a0: 408f 2b3e fea6 593f 7c95 683f 05b9 cebe
000003b0: e813 f63e 2c66 74bf 2038 fcbd eadc 573e
000003c0: c17e 2d3f 152a 403f f3c8 07bf c76f f43d
000003d0: 0cbf 953f 83e4 39bf 3706 2f3f c6d3 56bf
000003e0: 8058 0fbe 501e e0be 94b8 28bf 287b 83bd
000003f0: 1282 7f3f f995 ddbd 0a59 b6be 3ca5 8fbe
0.10344737 0.41010907 -2.2415612 -1.1568574 0.16789536 0.47876367 -0.16401476 0.5863654
0.14583395 0.18536599 -0.015763726 -0.09792725 -1.2759157 -1.3193318 -0.21003893 -0.04898537
0.5161157 0.12514621 -0.79306144 -0.2658796 1.1203007 1.5937316 -0.073320046 0.5669569
-0.29316208 0.21448383 1.4160717 -0.7618725 -0.770189 -0.32211775 -0.27692515 0.25217637
-0.61469287 -0.59379894 -0.87716895 -0.84546626 -0.2659586 1.277658 0.06755977 0.23787008
0.14051686 -0.37876073 0.060881853 -1.064348 -0.8934046 -0.15295947 0.5659695 0.78670835
-0.21425584 0.058759388 1.5107807 2.6781573 0.3078758 0.03126764 0.4282691 -0.29825988
0.11807734 -0.9182673 -0.7178593 -0.69616 1.2056695 1.00789 -0.26000482 0.11074797
0.4289612 -0.25306264 -0.05855289 0.35466883 1.0066377 1.3084482 -0.543088 -0.29026243
0.5738395 0.96034956 0.9739398 1.0513402 0.51457655 -0.92089504 0.19193883 -0.43424463
-0.4905094 1.2078573 1.3213093 -1.2639071 -0.3414508 -0.52944446 -0.038869824 -0.044329494
0.3469025 -0.7455606 0.4847239 0.53370416 0.8952693 0.39585057 -1.1956902 -0.073396266
0.29677302 0.01857191 -1.5893669 -0.5060019 1.4017742 1.0957681 -0.17153125 -0.07208797
-0.6630744 -0.17418708 -1.9804007 -1.7071426 0.49563885 0.18074962 -0.33254254 0.2713102
-0.49722162 1.734902 1.0410229 -2.988115 -0.88315743 -0.14906953 0.02051132 0.058228966
0.603398 0.07561225 -0.5283573 0.40034536 -1.3326242 -0.6037833 -0.11885417 -0.44943938
-0.25296897 -0.8151687 0.15462464 0.032734573 -0.46661124 -0.22217289 0.9799641 0.70563656
-0.12015991 -0.16307746 0.22858956 0.37334234 1.1316768 1.5940301 0.37431532 -0.03782667
-0.47859448 0.008970645 0.18738714 -0.418927 -1.6029601 -1.0718596 -0.35474885 -0.2168413
-0.07136225 0.11550563 0.66237634 -1.6454347 0.5509467 -0.9153552 0.06904943 -0.184252
-0.020246994 -0.19862156 -1.1511561 -1.1480409 0.05210697 0.66456807 -0.1905101 0.2701986
-0.49978182 -0.052266542 0.86681217 -0.4976922 0.49586064 0.30876648 -1.0511744 0.5027974
-0.21731234 -0.4220982 1.5561574 -1.4612095 -0.22349098 -0.8463454 0.14386697 -0.10343008
0.5117825 0.6441382 -0.24325863 -0.1821035 -0.70538837 1.2596529 1.0068356 -0.22037028
-0.6410197 0.14631201 -1.0329418 -0.6053195 -0.38720688 0.9555341 -0.4671904 -0.30591938
-0.15789422 2.2483816 -1.0900401 -0.7689553 -0.45813498 1.5960795 -0.4665073 0.423248
0.28223747 0.10210709 -0.15681191 -0.11021579 0.54097855 0.1489537 -0.26554555 -0.32746777
-0.6196051 -0.18681152 1.3638821 -1.2202499 -0.43958676 1.2232243 0.012129804 0.15773398
-2.088034 -0.0044614845 -1.4028434 -0.10782291 -0.5693069 0.10614072 -0.17338802 0.4458574
0.16753864 0.85020435 0.90853095 -0.40375534 0.48062062 -0.954684 -0.123153925 0.21080366
0.67771536 0.7506421 -0.53041 0.11935382 1.1698928 -0.72614306 0.6836886 -0.8391689
-0.13998604 -0.43773127 -0.65906644 -0.064199746 0.99807847 -0.10819621 -0.35614806 -0.2805575

l1.bias f4 [256]
00000000: c4e2 aebe 49d7 08be c2d3 d6be 8535 383e
00000010: 979f 30be 3730 71be e74d fabd 2365 fabc
00000020: 7afe 0d3f dc43 fc3e 34a0 82bd cef2 c43e
00000030: e59b 6c3e c1be 263d 68af b93d 4fa3 7c3e
00000040: 56b4 a6ba 7f9d d23e 0571 b9be e514 27bd
00000050: 5f04 debe f358 7dbe 5b4c 243d ca88 da3e
00000060: 9b76 17bf 078a 973e 4474 293f 2415 29be
00000070: 42be 853c 42b8 50be e321 6d3e bdea dabe
00000080: 23c3 ecbe ce96 eebe 5443 dfbe bfe4 af3e
00000090: 9eb1 07be d13d 743e e2be 7fbe 429e e13e
000000a0: 5f6a 03bf 6e0b 58be 7d8e 73be d6c2 c3be
000000b0: 9d92 0c3f 6bd5 a8be ac86 84be 0a05 973d
000000c0: 619b c23e 877b 47bc a26a 17bf 1c71 0b3f
000000d0: 3ee6 01bf e138 eb3d 0320 f1bd 7aa4 48be
000000e0: c246 ce3e 72e3 f63e c892 a33d c72c 8abd
000000f0: 6fde 743e f79b 9d3e d4ef 8ebd b12c ffbd
00000100: c79f 16be 7c0b ce3e 8120 063e 505f 61be
00000110: 2a2d d7be d47a babe 1981 a83e 5a7f 4c3e
00000120: a7fc 353c c490 433e 6324 dbbe a138 81be
00000130: 11bc aabe e5f1 b83e eaec bc3e 2fc9 f03e
00000140: aff9 053f 0030 f6be 138f 3cbe 32fb 2c3e
00000150: ab56 febe 2849 153e 054e bebe d066 b83e
00000160: f1be ed3e ab98 e7be cb36 ae3e fcbe 103e
00000170: 6c7a e1be 89c6 243f 452c 5cbe 5a4d a2be
00000180: 935d 8fbe dce1 af3d 2b43 a1bc d8a9 e2bd
00000190: 11d5 d2be 9162 89be 7169 bf3e 211d cf3e
000001a0: 56b5 833e ca12 4b3c 7a23 833e 2a3d babe
000001b0: 6746 313e 5170 00bf 3c90 31be 510f afbd
000001c0: 702d 983e ac70 d7bd 6bab 58be cee0 533d
000001d0: 63f2 afbe 2f93 25be 65d7 a23d feb5 6ebe
000001e0: 2be6 77bd afc0 da3e 33b2 b0be dded bfbe
000001f0: fc9d 153f 1fd8 5f3e 2824 7bbe 7a1c 873e
00000200: 804a 663e 76a8 f1bd f6b3 f5be b481 ecbc
00000210: d7ce 3c3e 6a61 07be 181c 7b3e c150 c6be
00000220: 068d b3be 2b9c ae3e e7d4 4bbc 536e 733c
00000230: 84a5 243e d3f3 1ebe 1605 cebd 12db aa3d
00000240: 4f07 f4bc 9f4f acbe 4cc0 393d 6d18 853e
00000250: a334 2bbe 0d4b 6ebe f39e 11bd 000a 9ebe
00000260: 386d 9b3e 8d53 06bf e7c9 b23e fe6e b93e
00000270: 4688 e8be 693b 763e 54c4 bebe ba90 8fbe
00000280: 557f ebbe fb69 aabe b9c4 943d 8643 49bd
00000290: 7afe d13e a746 d2be 6804 af3e dcc1 993e
000002a0: e0b8 c33e ae6c a8bc 9090 97be 0419 c3be
000002b0: e92a 0b3f 472c 50bd a0a2 a8bb 0e98 94be
000002c0: 9d54 a23d 852e bfbe ca38 033f d4b5 dcbe
000002d0: e957 163f 353e 24be 1a9c debe 2868 29be
000002e0: c529 283e 5896 2ebe 6751 a5be f35a 683e
000002f0: a92b e63e 049f 3f3e b1a3 123f 64ad 233e
00000300: 56d3 08be 9fb6 b6be 672d a9be 7fed d2be
00000310: 704d e7bd ece1 af3e fd84 babe bbd5 1fbd
00000320: f8a0 f1bc 0efb d1be efa9 bb3d 1021 0e3f
00000330: b989 803e 7826 873e 13c4 38be 4971 bbbc
00000340: 9bac d03d 5072 36be b726 46be b2e9 f83e
00000350: 4fe1 153d 39ba 04bf dd28 d63e b845 8fbd
00000360: b94b 863e d430 aebe 0a50 033d 24ee be3e
00000370: b259 0ebe 8a6a abbe 33eb be3e c057 8d3e
00000380: 018b b83e 8eb3 4b3e 6a51 9ebd 0dfe bc3e
00000390: ad18 edbd 6fe1 adbe 86f6 823e c92e 383e
000003a0: 810a 363e 6bee 2bbe abbd 2c3e 4d13 22be
000003b0: 288c b7bc bbad 01bf decf fabe cabd 403e
000003c0: dd51 81be d710 8bbe 838c 483e 5f82 be3c
000003d0: 571d 683e 427c fc3d 92a4 0bbe 9bd8 f03d
000003e0: dd7d 383e d5d2 3d3e f716 d23e dcb2 25bf
000003f0: cfb6 33be 0e55 f4be 4517 02bf 8f3d a23e
-0.34157383 -0.13363375 -0.41958433 0.17989166 -0.17248379 -0.23553549 -0.1222189 -0.030565804
0.55466425 0.49270523 -0.063782126 0.38466495 0.23106344 0.04070926 0.09066659 0.24671672
-0.0012718539 0.41135785 -0.3621904 -0.04079141 -0.4336271 -0.24740963 0.04011188 0.42682487
-0.5916535 0.29597494 0.6619303 -0.16511971 0.016326074 -0.20382789 0.23157458 -0.42757216
-0.46242628 -0.4659943 -0.43606055 0.34354207 -0.1325135 0.23851706 -0.2497516 0.44066054
-0.51334184 -0.2109811 -0.23784824 -0.38234586 0.54911214 -0.32975325 -0.25883996 0.07374008
0.3800917 -0.012175447 -0.59147084 0.54469466 -0.50741947 0.11485458 -0.11773684 -0.19593993
0.4028836 0.48220402 0.07986981 -0.06746822 0.23912977 0.30783054 -0.06979337 -0.12459696
-0.14709388 0.40243137 0.13098337 -0.22009015 -0.42026645 -0.36421835 0.32910994 0.19970456
0.0111076 0.19098192 -0.42801198 -0.25238517 -0.33346608 0.3612205 0.368995 0.4702849
0.5233411 -0.48083496 -0.18413953 0.16892698 -0.49675497 0.14578688 -0.371689 0.3601594
0.4643474 -0.45233664 0.3402618 0.14135355 -0.44038713 0.6436544 -0.21501262 -0.3169964
-0.2800108 0.08588001 -0.019685348 -0.110675514 -0.41178182 -0.26833013 0.37385133 0.4045191
0.25724286 0.012394616 0.25613004 -0.3637479 0.17312013 -0.5017138 -0.17340177 -0.08547843
0.29722166 -0.10519537 -0.21159141 0.051728062 -0.34364614 -0.16169427 0.079512395 -0.23311612
-0.06052224 0.4272513 -0.34510955 -0.37486163 0.5844419 0.21859787 -0.24525511 0.26388913
0.22489357 -0.117997095 -0.47988862 -0.028870441 0.18438278 -0.13220754 0.24522436 -0.38733485
-0.3506853 0.34103522 -0.012440897 0.014857846 0.16078764 -0.15522699 -0.10059564 0.083425656
-0.029788641 -0.33654496 0.045349404 0.25995198 -0.16719298 -0.23270817 -0.035551976 -0.30867004
0.30356765 -0.5247124 0.34919664 0.36217493 -0.45416468 0.240461 -0.3725916 -0.28040105
-0.45995584 -0.33283982 0.07264084 -0.04913666 0.41014463 -0.41069528 0.3418305 0.30030715
0.38226986 -0.020559635 -0.2960248 -0.38105023 0.5436235 -0.050823476 -0.0051463395 -0.2902226
0.07926295 -0.3734018 0.5125853 -0.43107474 0.5872789 -0.16039355 -0.4347847 -0.16543639
0.16422184 -0.17049539 -0.32288668 0.22690944 0.44955185 0.18713003 0.57281023 0.15984112
-0.13361868 -0.35686204 -0.33042452 -0.4119682 -0.11294067 0.34352052 -0.36429587 -0.03902219
-0.029495701 -0.41011852 0.09163272 0.555192 0.25105074 0.26396537 -0.18043546 -0.022881167
0.10189172 -0.17817044 -0.19350706 0.48615795 0.036591824 -0.51846653 0.4182805 -0.0699572
0.26229647 -0.34021628 0.032058753 0.37291062 -0.13901404 -0.3347972 0.37288818 0.2760601
0.36043552 0.19892713 -0.07730372 0.36912575 -0.11576972 -0.33961055 0.25578707 0.17986597
0.17777444 -0.16790168 0.16869228 -0.15827675 -0.022405699 -0.50655717 -0.48986715 0.18822399
-0.2525777 -0.27161285 0.19584851 0.023255525 0.22667442 0.12328388 -0.13636997 0.11760064
0.18016763 0.18537457 0.41033146 -0.6472604 -0.17550205 -0.47721142 -0.50816756 0.3168759

l2.weight f4 [256, 256]
00000000: c3e2 13bc 5977 d2bd 0dc4 0f3f dbbc 70bc
00000010: e5f3 07be d65a a23d 446d 323e b70a c43d
00000020: ccd4 07be eb6f 03bd 2724 d7bb 9783 70bd
00000030: b4ec 5cbd e1ba 40be d3e1 23be bed2 cebe
00000040: 0acf f3bd f2b2 12be e17e 423e a215 87bc
00000050: 2724 563d d938 2f3f 9bae eabc c712 0ebe
00000060: f332 423d be5c 97bd 9689 31be 7f50 d83e
00000070: a650 48be 2c78 343e 7fbc d7bd 6e8f 0f3e
00000080: 9f72 86bc 9a3a 973e f04d 403e a127 ddbe
00000090: ca5b 243d 0b06 7cbd 4125 373e 4c53 80be
000000a0: 4f07 363e 49ca a73e 7c96 9f3e 3d74 933e
000000b0: c700 12be fc02 343d e4a1 b03d 4091 5c3d
000000c0: 755e 9d3d 1044 72be 80f6 f53d aa9a 0ebe
000000d0: 895b 853e fdbf 9e3d db96 5bbe dad5 173e
000000e0: 4fd1 06be df3d eebe e48b 883c 8786 123e
000000f0: 9842 e0be 6938 d6be 712e 92bc ca1e 7ebc
00000100: 3650 a13d e376 a1be e160 7cbd 5828 ac3d
00000110: 9aa1 c53e 59dd d63d a81e 04bf a4a5 193d
00000120: d8a3 bc3d 8754 39be b885 a53e 8182 8c3b
00000130: 67f0 233e 8d74 223e ad7c 9dbe 12fe 08be
00000140: e774 0abd 6c62 e73e 2297 a63c 1e0f 8dbd
00000150: 4ffa 823e 17b4 e1bd b84a bc3e 5269 4ebe
00000160: f08f 48bf 4006 323e f837 c3be 3d2f 34be
00000170: db01 2b3e 59b2 f4bd 4034 b13e e95f d7bd
00000180: dd72 da3e 15f4 353e 2b3b 44be a868 723d
00000190: 7081 e53e d45f 3dbe 6f73 85be f337 15bf
000001a0: 0a69 efbe 1058 09be 501c f2be 8bda 263f
000001b0: 774b cb3d c0a8 4f3e 6635 953d 846a 963e
000001c0: c92b f5bd 1973 5bbe 257a ed3d 38db 783d
000001d0: fa31 d63e 4ebe f23d b26d 37be 3bb9 403d
000001e0: 09bf 3a3e bd20 2abd 718a 3dbe 61f9 8a3d
000001f0: edec 22be 5182 b13d 20c6 9e3d a8cd acbe
00000200: 43d7 afbe b873 293d f26f 473e 7e2e 123e
00000210: 0acc ba3d fb08 d53c 0b51 8cbd c412 823e
00000220: a4c1 6d3e 5be1 84be cc5e a1bb c75b 1abe
00000230: 3729 a2bd e0f0 343e fadc a03e d3fd 73be
00000240: 9b4e 2f3e 06d6 3ebd f2f8 cd3d 705b 65be
00000250: 8b5d 593d d6fe cf3d 8878 113e baa3 0f3e
00000260: 5d21 fabd 4be9 3abd abe4 fabd 50a1 87bd
00000270: fc7f 133e 19f5 4fbe e25c 183f 9063 38be
00000280: f664 903e a32c 533e d989 903d 14d5 89bb
00000290: 9f79 05bf 1028 083f e748 2bbe 9531 87be
000002a0: d67b 11be d1a1 e8bc 7c6b bb3e 2daf 8abd
000002b0: c196 3fbe c024 87bd 1d3b 4bbd 190b 1fbc
000002c0: 3dda 64bc 98d2 203e 4da4 a2be 3d67 783e
000002d0: f586 6fbe 7c8d 223c 52ab 4f3e 3af5 123e
000002e0: 33cf 69be 11a9 8f3d 6350 c53e 7add 3abe
000002f0: ced0 1bbf 1092 06be 11e9 01be d591 233e
00000300: 4578 8abd b365 633e a17c a13d a217 b53e
00000310: 30a4 4d3d 12a3 e6bd 4038 91bd e020 e6bc
00000320: a6cc a0bd 923a af3e 0e3c cbbe 1cd3 983d
00000330: 7b9f 6abe 49f9 06be 44a1 cb3c f7c9 96bc
00000340: 088f f8bc 6e96 723e 2911 7d3d f2fd 4dbe
00000350: 04b8 b2bd b768 e23d 88f1 e1be 5811 c0bd
00000360: d17b 3dbe 2bbf 1d3e 3add 52be 16aa a8be
00000370: 8188 7d3d e690 053e 4ca0 d0be 4654 47be
00000380: d9de 94bd dd9d 9cbe f8f3 513d 14e9 8abd
00000390: 8a95 093e 518e e43e e5bc a0be 2974 2a3d
000003a0: c551 c7bd e0d2 553d 49f3 533c 9ddc 20be
000003b0: 98cc 4a3d 73ce 1f3e d57f 3e3e 88a4 00be
000003c0: 6bdb 1b3e 9cfb 12be 47a0 dabd 29d5 d93c
000003d0: f194 90be 8847 27bd 4626 6abe b5a9 bdbd
000003e0: fb93 bb3d 9d51 a7bd 19f2 ebbd 2f37 b93d
000003f0: e69c 773d 8dc5 0f3f 455e 0f3d a962 61be
-0.009026232 -0.1027667 0.56158525 -0.014693464 -0.13276632 0.07927482 0.17424494 0.09572356
-0.1326477 -0.032089155 -0.006565589 -0.058719244 -0.053936675 -0.18821289 -0.16004114 -0.4039516
-0.11904724 -0.14326075 0.18993713 -0.016489808 0.05228057 0.6844612 -0.028647712 -0.1387435
0.04741187 -0.07390736 -0.17337641 0.42248914 -0.19562015 0.17623967 -0.10534 0.14019558
-0.016412077 0.29536897 0.18779731 -0.43194297 0.0401266 -0.0615292 0.17885305 -0.2506355
0.17776226 0.3277152 0.31169498 0.2879962 -0.14258109 0.04394816 0.08624628 0.05384946
0.07684032 -0.23658776 0.12009907 -0.13926187 0.26046398 0.077514626 -0.21444266 0.14827672
-0.13165782 -0.4653158 0.016668268 0.1430913 -0.43800807 -0.41839913 -0.01784441 -0.01551027
0.07876627 -0.31536016 -0.06161583 0.084061325 0.38599855 0.104914375 -0.5160928 0.037511483
0.09210938 -0.18098651 0.32328582 0.004288018 0.16009675 0.15864773 -0.30759183 -0.1337817
-0.033802893 0.45192277 0.020335738 -0.06887649 0.25581595 -0.110206775 0.36775756 -0.20157364
-0.7834463 0.17385197 -0.38128638 -0.17596145 0.16699927 -0.119480796 0.34610176 -0.1051634
0.4266576 0.17768891 -0.19163196 0.05918184 0.44825315 -0.18493587 -0.2606463 -0.58288497
-0.46759826 -0.134125 -0.47287226 0.6517722 0.09926503 0.20279217 0.072855756 0.2937814
-0.11971242 -0.21430625 0.11595563 0.06075594 0.41835004 0.11852704 -0.17912939 0.04705165
0.18236937 -0.041535128 -0.18509842 0.067858465 -0.15910693 0.08667434 0.07752633 -0.33750653
-0.3434392 0.041370124 0.19476297 0.14275548 0.091209486 0.026005259 -0.06851395 0.25404942
0.232184 -0.25953183 -0.0049246307 -0.15074073 -0.07918017 0.17670012 0.31418592 -0.23827295
0.1711983 -0.046590827 0.10057248 -0.22398162 0.053067725 0.10156028 0.14206135 0.140273
-0.12213395 -0.04563264 -0.12250646 -0.06622565 0.14404291 -0.20308341 0.5951673 -0.1800673
0.28202027 0.20622496 0.07057542 -0.004206309 -0.52138704 0.5318613 -0.16727029 -0.26405016
-0.14207396 -0.028397473 0.36605442 -0.067716934 -0.18709852 -0.065988064 -0.04961692 -0.009707236
-0.013968048 0.15705335 -0.31765977 0.24258132 -0.23391326 0.009921428 0.20280197 0.14351359
-0.22832946 0.07014669 0.38537893 -0.18248549 -0.60865486 -0.13141656 -0.12686564 0.159736
-0.06761221 0.22206764 0.07885099 0.35369593 0.05020541 -0.11261572 -0.07090807 -0.028091848
-0.078515336 0.34224373 -0.39694256 0.07462141 -0.229124 -0.13181032 0.02485717 -0.018406851
-0.03034164 0.23690197 0.061783943 -0.20116404 -0.087265044 0.11055129 -0.44129586 -0.09378308
-0.18504263 0.15404956 -0.20592204 -0.32942265 0.06189776 0.13043556 -0.40747297 -0.19465742
-0.07269067 -0.3058919 0.051258057 -0.067827374 0.13435951 0.4463983 -0.31394115 0.041614685
-0.09732393 0.05220306 0.012936422 -0.15709157 0.049511522 0.15606098 0.18603452 -0.12562764
0.1522042 -0.14353794 -0.10675102 0.0265909 -0.28238633 -0.040839702 -0.22866163 -0.09260885
0.091590844 -0.081698634 -0.11520786 0.090437286 0.060452364 0.56160814 0.03500201 -0.22010292

l2.bias f4 [256]
00000000: 6801 67be 481e a4bd 289f 0d3e 8649 65bd
00000010: 44fd db3c ddf7 cebd bab4 6abe f921 0b3c
00000020: 5599 cbbc af26 20be 8d5f a9bd b80a 413e
00000030: 62ea d73c 75a6 9cbd a482 38be 0186 84bc
00000040: b4f1 ed3c 6958 dbbd 4661 833c 4323 2e3e
00000050: bc02 5f3c 6673 2bbd 36e2 47be 9596 613e
00000060: f623 c73d e7d7 20be 65cf 823e 0aad 523d
00000070: ca07 d63d 5b0c a8bd f32e 23be a8a8 b03d
00000080: f177 2abe 5190 debc 2f6e dfbd cc43 d73d
00000090: 91ad 23be 5446 cf3b 8a7d 4fbe a3a4 f93d
000000a0: 0492 ffbd 9d32 f23d b635 8ebd 37ab 4b3d
000000b0: c7d0 d83d 5328 0c3d 38b3 6b3c 6fe8 343d
000000c0: 155b 653c 62be 51bd 19cb a4bd ead0 eb3d
000000d0: ee76 bdbd f36a 8ebd e807 9cbc 4038 83bd
000000e0: d8c0 183e 0c6b eabd 161a 243e f441 613c
000000f0: 65e2 323d 0dbd 413e 73c6 ac3d b793 a23d
00000100: 4b08 85be a2a1 a9be 9312 d2bd b13a b03c
00000110: 3df4 62bd 6d62 b2bc 61ef 24be bce7 20bd
00000120: a709 14be e2bc f5bb 2f1f ffbc 4a1c 5b3d
00000130: 8a5e 0ebe 5a9e 263e c5d4 0ebd 6269 e5bd
00000140: 4dd5 6abb 2d33 193e d249 dc3d 878d ffbd
00000150: cfca 9e3e d0da e53d 5527 16bd 6b08 edbd
00000160: ed1e d83d 0318 12be aab1 083d 9048 8aba
00000170: 608e f93d 514b 01be afb0 9f3c ab61 a03d
00000180: 2d36 0cbb 6840 173e 993e 8d3c 196a 363e
00000190: e616 7a3e d557 0ebd 9a3f 063e b142 873d
000001a0: 48f0 0cbd 6800 f93d 11e1 b73d 2513 c0bd
000001b0: f8a1 363a 98b3 d4bc 4a9e 7abd a38f fc3d
000001c0: 0338 203e 1721 aebc 46b7 a7bd 5774 dc3b
000001d0: 2124 2cbe 254a 903c 61c4 fe3d 1d68 5a3c
000001e0: 90db e2bd ddbf ea3d 83c4 8f3c a6d0 98bd
000001f0: 0a50 38be 62ac 49be c230 353e ce2b a23d
00000200: c911 fc3c e453 e93b c07e 15be 9d0e d6bc
00000210: 9317 713b 05d3 2c3d 368a 25bd b16b d13d
00000220: 988a 113e c7b0 803b 3187 2abe cedc d13c
00000230: c5e1 5ebd 4f70 893e 6fac d5bc 9580 263e
00000240: 064b b0bc 1466 373c d0f8 c53b d69b 1cbe
00000250: 453d b73d de24 3b3e da30 86bd 7b20 0bbe
00000260: 7f86 f3bd ac97 0c3d e450 2bbd 68b3 133d
00000270: 5b26 2fbd fcdb 933c 8313 8fbc 7f22 95bd
00000280: eb7f febd 763a 323d 42e5 76bd ae0e 2e3e
00000290: 20cb 1ebe 07fc 99ba 23d8 343c 41cf eb3c
000002a0: c54b 2dba 2fd6 443c 92ca c73d 32e7 dd3c
000002b0: 7537 abbd 9e58 71bd 871a 603d 8e97 003e
000002c0: b8ea 433d 5e91 343e 8520 a9bd d8b2 ffbd
000002d0: 58b2 f73d b1d6 56be 7680 42be 2d84 16bd
000002e0: 81e0 1fbe e67c 4bbd 7145 053d f8e2 3b3c
000002f0: 6df6 8d3d 4b2f 473d 3fce 36bd b09f 0fbe
00000300: 6c4a e13d 94aa c23d d63b e5bd 59b9 083e
00000310: 528f d03c 2213 03bc fb98 28bd b089 4bbe
00000320: 4681 153d b11f 083e 0d36 a93d f2de 0b3e
00000330: 9c69 9b3d 3e3b 5dbd 68a9 6cbd a1ef 5e3d
00000340: f7a9 7bbe 234e 053e a2d5 f83d 3f71 ca3c
00000350: f816 083d 03f3 97bd 8b9f 19bc b264 f4bc
00000360: 184a 36bb 9143 3dbc 87ae dcbd 727f 76bd
00000370: f5d1 9dbd e074 a33b e21c c43d 7d13 a83d
00000380: c6f0 70be 7383 9e3d 4503 7cbe c728 e73c
00000390: 0e68 31bd 2987 c1bd 425f b5bd 9851 703d
000003a0: 1ea2 6f3e 8d23 aa3d b938 ca3d 3961 153d
000003b0: 2a27 9e3e 7e44 1bbe 2961 443d f169 e2bd
000003c0: 909f e7bd 6ada afbd 6807 86bd 5822 483d
000003d0: e0b7 b4bc f3dc 0cbe 5d6a 3f3e 00c6 3ebe
000003e0: 842d 4d3d 8553 bc3c dd01 19be 2e5b a83d
000003f0: 8215 9fbd 99ad 25be 9196 333e 4dfb 803d
-0.2255913 -0.08013588 0.13830245 -0.05597832 0.026854165 -0.1010587 -0.22920504 0.008491986
-0.024853388 -0.15639757 -0.08270178 0.18851745 0.02635688 -0.07648937 -0.18018585 -0.01617718
0.029045917 -0.10710222 0.016037595 0.17005639 0.013611492 -0.0418581 -0.19519886 0.22030099
0.09723656 -0.1570736 0.25548854 0.051434554 0.104507044 -0.082054816 -0.15935878 0.086259186
-0.16647317 -0.027168425 -0.10909688 0.10510978 -0.15984179 0.0063255224 -0.20262733 0.12189605
-0.12479022 0.1182606 -0.06943838 0.04972383 0.10586696 0.034218144 0.014385991 0.04416698
0.013998766 -0.051206954 -0.0804655 0.115144566 -0.092512 -0.06953993 -0.019046739 -0.06407213
0.14917314 -0.11446199 0.16025576 0.013748635 0.043672938 0.18919773 0.08436289 0.079383306
-0.2598289 -0.3313113 -0.10257449 0.021512361 -0.055408705 -0.021775449 -0.16106941 -0.0392835
-0.14456807 -0.007499323 -0.0311428 0.053493775 -0.13903251 0.16271344 -0.03487088 -0.11201741
-0.0035832704 0.14960928 0.107562676 -0.12478166 0.31014106 0.11223376 -0.036658604 -0.11573871
0.105527736 -0.14266972 0.03337256 -0.001055019 0.12185359 -0.12626387 0.019493429 0.07831129
-0.0021394596 0.14770663 0.017241763 0.1781391 0.24422798 -0.034751732 0.131102 0.06604517
-0.034408838 0.121582806 0.08978475 -0.093786515 0.0006966884 -0.025964543 -0.061186112 0.12332084
0.15646367 -0.021256013 -0.081892535 0.006727736 -0.16810657 0.01761348 0.124398 0.013330487
-0.110770345 0.11462376 0.017549759 -0.074616715 -0.17999282 -0.19694665 0.17694381 0.07918511
0.0307702 0.0071205962 -0.14599133 -0.026130015 0.0036787733 0.04219343 -0.04041501 0.10225619
0.14213026 0.0039273235 -0.16653134 0.025617983 -0.05441453 0.26843497 -0.0260832 0.16259988
-0.021520149 0.011193771 0.0060416237 -0.15293822 0.08947233 0.18275782 -0.065522864 -0.13586609
-0.118908875 0.034324333 -0.04182519 0.036059767 -0.042761188 0.018049233 -0.017465359 -0.0728197
-0.12426742 0.043512784 -0.06027723 0.16997787 -0.15507174 -0.0011748084 0.011037859 0.02878535
-0.0006610717 0.012013956 0.09755434 0.027087782 -0.08360187 -0.058922403 0.0547128 0.12557814
0.047831267 0.17633578 -0.08258156 -0.124852836 0.12094563 -0.20980336 -0.18994316 -0.036747146
-0.15612985 -0.04967966 0.032536928 0.011467688 0.069317676 0.048629086 -0.044630285 -0.1402576
0.11000523 0.095051914 -0.111930534 0.13351955 0.025458965 -0.008000167 -0.04116152 -0.19876742
0.036500238 0.1329334 0.082622625 0.13659266 0.07588503 -0.054011576 -0.057778746 0.054427747
-0.24576555 0.13018088 0.12150122 0.024712203 0.03322503 -0.07419398 -0.009376417 -0.029833172
-0.002781516 -0.011551754 -0.10775476 -0.060180135 -0.07706062 0.004988298 0.095758215 0.08206842
-0.23529348 0.07739916 -0.24610622 0.028217686 -0.043312125 -0.09449608 -0.088560596 0.058671564
0.23401687 0.08307562 0.098741 0.036469672 0.30889255 -0.15162846 0.04794422 -0.11055363
-0.11309731 -0.08586581 -0.065443814 0.048860878 -0.022060335 -0.1375616 0.18692918 -0.18630219
0.050092235 0.022989044 -0.14942117 0.08220516 -0.07767774 -0.16179504 0.17537905 0.06297932

l3.weight f4 [2, 256]
00000000: 349c 173f 2295 8e3e a642 fd3e 91db ad3e
00000010: d9ff 143f d359 953a 01a9 eb3e fd2d ec3d
00000020: 531a 13bf 9527 24be c948 27bf f022 c2be
00000030: 7cf9 c73e 7d1f 25bf a73d f1be 148c 26bf
00000040: f784 e53d a436 0cbf 58d7 073e 0b67 e7be
00000050: fff3 0cbf 0840 f3bc e11c e53e 3b64 adbe
00000060: 66dc 0a3f a86c 10bf 8a4b 1dbf c7db 1dbf
00000070: 32cb e7be 9018 a0be ca4c 7e3e f06a 29bf
00000080: 3f99 b6be f3d1 843e cc8e 13bf 0c92 62be
00000090: 6c4e 1e3e 86f2 febe d0d8 c3be fb4b 1c3e
000000a0: 0739 a83e 945d a5be 4370 c73d fd4f db3e
000000b0: 92ea 293f 0b67 f3be 89f9 823d 3838 f13e
000000c0: 1e66 b23e a5e8 973c 9671 97bd 5902 fbbe
000000d0: 254c 1a3f 440e 03be cb88 8e3e 7e4c 073e
000000e0: 4ff8 d9be a713 1a3f 5ee8 f1be ab92 5a3e
000000f0: 3dbc 00bf 28c2 1abf c5cc da3d b696 32be
00000100: 924f 483f 856d b43e 885a 2b3f dc63 023f
00000110: 7cce e5be 2cea 92bd 0bb5 0f3f 703d 173f
00000120: 8790 fc3e 9984 16be 6b10 0d3f 40f0 d83d
00000130: ff84 a93e 60cd cd3e 9a23 2bbf c323 2b3f
00000140: 5f69 4d3e 2a87 95be 279d 063e f73c a3bd
00000150: 9184 af3e 87e7 e3be 53a6 163f c193 b43e
00000160: cc2f 703e d4d8 1abd ced9 09bf 8b2b 073f
00000170: 2701 d7be 310d 673e 7a50 293e b1ac 3cbf
00000180: f001 563f bcf2 f6bd e4df 0fbd 6865 ebbe
00000190: 790b a2be a0ad 4d3e 294d c83d 4fcd 1bbd
000001a0: 8dff 86be 2439 97be b3bb 03bf 0b30 f3be
000001b0: fe9e 9c3e c267 103f eed6 10bf 3e58 0c3f
000001c0: c4d1 86be 611e 84be 0a21 963d 338b 023e
000001d0: e226 2ebf 9793 0dbf 574d 2dbf d129 843d
000001e0: 1d11 073f 6d6f ce3e 5d6b b0be 3258 1e3f
000001f0: 4ce9 123e 0b42 a6be ceff a4be 0379 ed3d
00000200: 9948 e63e e9b7 ab3c 92c2 1b3e 4c77 edbe
00000210: c8b1 073f 55d5 ff3e dc37 eb3e d5bd 0f3f
00000220: b669 8abe ab61 ce3e d631 89be 4f78 19bf
00000230: 84e5 02bf 2127 b3be 0ab2 3ebe 759a 70bd
00000240: a8a3 ca3d 4c6e cdbe ee8e c13e 6edb 443f
00000250: d43d 78be 5519 c63e 9b85 bb3b 4f6d 05bf
00000260: ec58 e1be 3f22 d4be ae8d 1abe 2ff9 63be
00000270: 01cb 9fbe dd1e c9be a1e0 ea3e 6098 e43e
00000280: 7e02 46be 2d18 d63e 0baa 003f 2b82 39bf
00000290: 4f1e 7bbe 99dc 9e3e 3b1b 3abf c795 833e
000002a0: 7c4c 91be 54cb f53e b0aa 8dbe e2f3 ee3e
000002b0: 9d11 093f cb6c 14be 1ce4 0e3f f2a9 a2bc
000002c0: 0e54 883e 77e8 0abf 3858 923e 431f 5c3f
000002d0: 6a05 16be 6b2b 25bd 3d70 df3d 879c c83e
000002e0: 8539 2dbf 77b6 303f dc43 3d3d 526f bc3e
000002f0: 1481 d0be 0518 f3be 44ac 0dbf d2fe 073f
00000300: b9ee 023f 1408 d73e 973b 40be 4417 04bf
00000310: cfcf babb f48d 003f 4352 c43e 5aee a23e
00000320: cc73 3cbe ba46 e5bb d0b6 58be 383a 733d
00000330: a18c 01bf b573 0abd d066 12bd d93c bc3e
00000340: 5c77 15be 8cd1 233e f75b 2e3f 7dfb edbe
00000350: 99a5 df3d 16e7 783e ae8c b3bd f30f 2c3f
00000360: 0fce e9bd 7973 0d3f 4f6c 1e3e ee8e 0b3f
00000370: 3c6f 1c3e a8df cabe bca4 8abe c4e5 233f
00000380: 1f3c e43c 1582 d93e b1f7 25bf 77e7 2f3e
00000390: 0b91 23bd 02de fc3c 6db3 1dbf 7b06 2fbf
000003a0: 2b1d 213f dfdd a03e f70c 093f 5fc4 01bf
000003b0: 66a3 b0be e786 7d3e aea2 06bf f4ea 203f
000003c0: 0ccf acbe 845b 083f caac 6f3e 124e bc3e
000003d0: 3309 a8be 0c13 f93e f927 63bd 75bb ef3d
000003e0: ea8d 19bc a236 1f3e 3c30 ce3e 90ca 17be
000003f0: c2c1 c7be e7cb 03bf f315 ffbe c8e4 b9bd
0.5922272 0.27848154 0.4946491 0.33956578 0.5820289 0.0011394568 0.46027377 0.11532209
-0.5746204 -0.16030724 -0.65345436 -0.3791728 0.3905753 -0.6450117 -0.4711735 -0.6505749
0.11207002 -0.54770875 0.13265741 -0.45195803 -0.5505981 -0.029693618 0.44748595 -0.33865532
0.5424255 -0.56415796 -0.6144339 -0.6166348 -0.45272213 -0.3126874 0.2483398 -0.661788
-0.35663792 0.2594143 -0.57639766 -0.22126025 0.15459603 -0.49794406 -0.38251352 0.15263359
0.32856008 -0.32297957 0.09738209 0.42834464 0.6637355 -0.47539553 0.06395251 0.47113204
0.34843534 0.01854355 -0.07394712 -0.4902523 0.6027244 -0.1279841 0.2783874 0.13212773
-0.42572257 0.6018624 -0.47247595 0.21345012 -0.5028723 -0.6045251 0.10683588 -0.17440304
0.78246415 0.35239807 0.66935015 0.50933623 -0.44884098 -0.07173571 0.56135625 0.5907812
0.49329016 -0.1469902 0.55103177 0.10592699 0.3310928 0.4019575 -0.668512 0.66851443
0.20059727 -0.29204684 0.13145886 -0.079706125 0.34280828 -0.4451258 0.5884754 0.35268977
0.23455733 -0.03780444 -0.5384797 0.52800816 -0.41993067 0.22563626 0.16534606 -0.73701006
0.83596706 -0.12058017 -0.035125628 -0.45975804 -0.31649378 0.20085764 0.09780342 -0.038037594
-0.26366845 -0.29535782 -0.5145828 -0.4749759 0.3059005 0.5640832 -0.56577957 0.54822147
-0.26331913 -0.25804427 0.073305205 0.12748413 -0.6802808 -0.5530333 -0.67696136 0.06453288
0.5276049 0.40319386 -0.34456912 0.61853325 0.14346808 -0.32472262 -0.32226413 0.11595347
0.44977263 0.020961719 0.15210941 -0.4638008 0.5300565 0.49967447 0.45941055 0.56149036
-0.27033776 0.4030889 -0.26795834 -0.599492 -0.51131463 -0.3499079 -0.18622604 -0.05874105
0.09894496 -0.40123212 0.3780436 0.76897323 -0.24242336 0.38691202 0.005722714 -0.52119917
-0.44013155 -0.41432378 -0.15093109 -0.22263025 -0.31209567 -0.3928136 0.45874503 0.44647503
-0.19336888 0.4181532 0.50259465 -0.72464246 -0.2452328 0.31027678 -0.726978 0.2570021
-0.28378665 0.4800669 -0.27669287 0.46670443 0.535425 -0.14494626 0.5581682 -0.019856427
0.2662663 -0.54260963 0.2858293 0.859852 -0.14650503 -0.04032461 0.1091008 0.3918192
-0.6766589 0.6902842 0.046207294 0.3680368 -0.4072348 -0.47479263 -0.5534098 0.531232
0.5114551 0.4199835 -0.18772732 -0.51598 -0.0057010422 0.50216603 0.3834401 0.31822473
-0.18403548 -0.0069969567 -0.21163487 0.059381694 -0.5060521 -0.033801753 -0.03574258 0.36765173
-0.14596313 0.15997905 0.6810908 -0.46480933 0.10920257 0.24306902 -0.08767067 0.67211837
-0.11416256 0.5525432 0.15471004 0.5451497 0.15276808 -0.3962376 -0.27078807 0.6402247
0.0278607 0.42482057 -0.6483107 0.1717814 -0.039933246 0.03086758 -0.61601907 -0.68369263
0.6293513 0.31419274 0.5353541 -0.50690264 -0.34499663 0.24758492 -0.5259198 0.6285851
-0.33751714 0.5326464 0.23405758 0.36778313 -0.32819518 0.48647344 -0.055458043 0.117056765
-0.009372214 0.15548185 0.40271175 -0.14823365 -0.39015013 -0.51483005 -0.49821433 -0.0907684

l3.bias f4 [2]
00000000: ca35 bf3c d4b8 1cbe
0.023341078 -0.15304881
