4.2 TD3/model/PV1_q_critic10.pth (torch, 543074 bytes, 10 tensors)

l1.weight f4 [256, 4]
00000000: 3645 55be 5671 eb3e ac08 adbc 70ec babe
00000010: 362b 2abd ee35 363f 0ce1 ef3e 3c89 f5bd
00000020: 7f37 cc3e 2de4 62bf 1124 e9be 9156 373e
00000030: 02e6 913e 68c2 fc3d 9933 f83e 8e47 b03d
00000040: fd4b 6bbe 5f86 4abf 44c0 e7bd 4723 053e
00000050: 1bbb 733d 52d8 cd3e 42e0 ecbe a4c3 be3e
00000060: 2821 833e 1242 22bf cd1f 193e 7700 7c3e
00000070: e089 d5bd e8f6 de3d 28e1 b8be ef1d 803e
00000080: 23cc 85be f9ee 56bd 6f16 a1be 60eb 863e
00000090: b409 e93e 9817 f23e 5138 d9be afd3 f53e
000000a0: ced2 d03e 9e53 1fbf 2ff1 bcbe 6e22 9abe
000000b0: bdb6 78be d41c 91be 318a 273e fa76 583e
000000c0: de4a 73be 96d3 eebe fe86 d23e 1aaf f13e
000000d0: 12a4 9bbe 832c c5bd f2bd 443e fb60 cfbe
000000e0: 4f4c 1d3e d974 15be 5301 ac3e 0aa6 69be
000000f0: bfef fcbe 7042 923e 5775 1d3e 5c0c 30be
00000100: 4f7c 803e d445 5f3c 57e6 283e 1a1a b3bb
00000110: 4933 4fbe 90c4 fb3e 6f49 b4be 5e9f d73d
00000120: 59c1 b83e f1c4 73bd 32ed dcbd d440 d7be
00000130: 4ae3 f13e afe5 0dbf c2f0 b9bc e5e9 ba3e
00000140: 8c48 bc3e ed00 0fbf 2f0e 20be 3fc0 ef3e
00000150: a991 f8bd 04fa 33bf 4513 a4be 3e45 3fbe
00000160: 52c9 a9be 24db 2fbf b490 41be 307a 07be
00000170: 6815 063f 0b1f 19bf 0f8e 9fbe 0925 50be
00000180: 69df 663e c402 8bbe e417 9c3e db3c 0b3b
00000190: 08e0 35bd 2830 a3bd 157a f0be f51a 9b3d
000001a0: 429a 773e 516f 5ebe e185 de3c 5af3 843e
000001b0: 7320 2b3f 41b9 343f 1479 8c3e 5541 cd3c
000001c0: 1d74 e9bd cc38 733e 8224 033f 2957 8f3d
000001d0: 1b57 a33e a892 1a3e 4403 f63e 28a2 93be
000001e0: 4725 873e f7da 073f 98cd 803e 8798 8bba
000001f0: 063c cf3e 4e3e acbe cfcb 073f 0000 813e
00000200: 248a 2bbf 36ad 943e 0688 90be 88a7 63be
00000210: 6e3b 39be 0ac5 0ebe bb18 c13d f23b a63e
00000220: 462c 06be 57f4 753e a8dc d5be 4ab0 94be
00000230: c259 f53e 0e3d 0d3f c7e6 0a3e 139f abbe
00000240: c86e 80be cfbc 64be c39a d63d 57f5 ec3e
00000250: 3c72 c23e b68e 5cbe c2a3 7a3e 91d0 b13e
00000260: bd45 7abe ae58 c93e d727 893e c956 ddbe
00000270: 0cb0 f03e 321b ff3e 01dd f63d c3c8 91bc
00000280: 001a ecbe 5923 883d f5fe f43e ed1a ecbc
00000290: 8df4 01bf 8c9c ac3e e46e 9a3e dcae 2a3d
000002a0: c8ec 043f f6f9 133e b313 a23e d36c c23e
000002b0: 509a 07bf 0e5b fd3e e55e e53e a2f8 0a3e
000002c0: 5c8a 4bbd 5a03 2e3f 2644 49bd 9751 2d3d
000002d0: b931 ba3e c21d 4cbf b105 53be 2e15 6ebd
000002e0: a749 173f a563 b4be 6962 42be 658c ce3c
000002f0: c581 76be e1f7 02bf 3abd 1f3d 04a2 31be
00000300: 7f45 2c3f f8d7 ffbe 6b15 47be c7c7 41be
00000310: f7cc e63e 3a03 08bf d0dd 4c3e f957 b23c
00000320: 193f 3bbe fe23 55bf 9f23 54be 405a a2be
00000330: edcf db3c ef46 b2be e8ab af3e 1b75 54be
00000340: 32bc fe3e 6593 da3e 4933 163e b4a3 f93c
00000350: 152b e63e b03f 563e e7c4 b13e 8d68 ea3d
00000360: 6a41 88be bfcf 4fbf 7711 36be b782 01bc
00000370: 54cf 18be 85c7 0ebf d76e a2be 8e70 f4be
00000380: 334f bc3d 5e38 82bf 8632 bebe 5493 0fbd
00000390: 4449 fabe 3ce1 c8be 3dac 03be 490a 17be
000003a0: d182 0d3f 4c6c 893e d420 783e 362e 263e
000003b0: 328e 333d 18dc f4be fe7d 6a3e da0e 5bbe
000003c0: 7f1a 9bbe 3c87 6cbe 14ea 173e 9ca4 99be
000003d0: a98f d33d a5c5 be3e 9307 afbe 28d9 94be
000003e0: 48bb 8ebe 89eb 033e b114 fb3e bbf4 0abe
000003f0: 7d93 6dbe 37ac a13e a8b5 b4bc 03f4 95be
-0.20827183 0.45984906 -0.0211223 -0.36508512 -0.041545115 0.7117604 0.46851385 -0.11989066
0.3988609 -0.8862942 -0.4553533 0.17904116 0.28495795 0.123417675 0.48476866 0.08607398
-0.22978206 -0.79111284 -0.11315969 0.13001738 0.05950461 0.40204102 -0.46264845 0.37258637
0.25611234 -0.63382065 0.14953537 0.24609552 -0.10426688 0.108869374 -0.3610928 0.25022838
-0.26132306 -0.052473996 -0.31462428 0.26351452 0.45515215 0.47283626 -0.42425779 0.48013064
0.4078583 -0.62236965 -0.36902758 -0.30104393 -0.24288459 -0.28342307 0.1636131 0.21139136
-0.23759028 -0.46645802 0.41118616 0.47203904 -0.30398613 -0.096276306 0.19213083 -0.40503678
0.1536114 -0.14595355 0.3359476 -0.22817245 -0.49401662 0.28566313 0.15376793 -0.17192215
0.2509484 0.013627488 0.16494118 -0.005465758 -0.20234407 0.49173403 -0.35212275 0.10528444
0.36085013 -0.05951399 -0.10787429 -0.42041647 0.4724372 -0.55428594 -0.02269781 0.36506572
0.367741 -0.5586079 -0.1563041 0.4682636 -0.121371575 -0.7030337 -0.3204595 -0.18678758
-0.33161408 -0.6869376 -0.18902856 -0.13230205 0.52376413 -0.5981299 -0.3116307 -0.20326628
0.22546162 -0.27150548 0.30486977 0.002124599 -0.044403106 -0.079681695 -0.4696814 0.07573501
0.24179938 -0.21722151 0.027163448 0.25966913 0.6684639 0.70595175 0.27436125 0.025055567
-0.113991 0.23752135 0.5122758 0.06999046 0.31902394 0.15095007 0.48049366 -0.28834653
0.26395628 0.5306849 0.25156856 -0.0010650315 0.40475482 -0.33641285 0.5304536 0.25195312
-0.6700766 0.290384 -0.28228778 -0.22231877 -0.18089077 -0.13942352 0.09428545 0.3246761
-0.13102826 0.2401899 -0.4176991 -0.29040748 0.47920042 0.5517129 0.13564597 -0.33519801
-0.2508452 -0.2233765 0.10478737 0.4628093 0.3797778 -0.21538815 0.24476531 0.34729436
-0.24440666 0.3932547 0.26788208 -0.43230274 0.47009313 0.49825436 0.12053872 -0.017795926
-0.46113586 0.06647367 0.47850767 -0.028821433 -0.5076378 0.33713186 0.30162728 0.041670665
0.519238 0.14450821 0.31655654 0.3797365 -0.5296984 0.49483532 0.4479896 0.13571408
-0.049692497 0.67973864 -0.049137257 0.04231414 0.3636606 -0.79732907 -0.2060764 -0.058125667
0.5909676 -0.35232273 -0.18982853 0.02521343 -0.2407294 -0.51159483 0.03899882 -0.1734696
0.6729354 -0.4996946 -0.19441764 -0.18923865 0.4507825 -0.53129923 0.2000649 0.021770464
-0.18285789 -0.83258045 -0.20716713 -0.3170948 0.026832545 -0.34819743 0.34310842 -0.20747797
0.49752957 0.42690578 0.14668001 0.030473568 0.44954744 0.20922732 0.34720537 0.11445723
-0.26612407 -0.8117637 -0.177801 -0.0079047 -0.1492284 -0.5577319 -0.3172519 -0.47742122
0.091947936 -1.0173452 -0.3714792 -0.035052612 -0.48884022 -0.3923434 -0.12858672 -0.14750017
0.55277735 0.26840436 0.24231273 0.16228566 0.04383678 -0.47824168 0.22899625 -0.21392384
-0.30293652 -0.23098463 0.14835387 -0.300084 0.103301354 0.37260166 -0.34185466 -0.29071927
-0.2787726 0.12882818 0.49039224 -0.1356992 -0.23200794 0.31576702 -0.022059277 -0.2928773

l1.bias f4 [256]
00000000: 9ef5 0d3f 79c0 833e d85b a83c 2349 d33e
00000010: 6f4c cc3d 3b71 413e a676 bb3b 8e9c f9be
00000020: 3470 823b 5c37 133e c457 e2be 74df 7c3e
00000030: 4df5 ccbe 5f02 03bf 365a d9be e39f e63d
00000040: dc2e dabe a0cb ea3e c32f d8be 8c78 5abe
00000050: ec14 213e 8ebe c73e a7b2 e9bd 22b5 d33e
00000060: a661 ff3d 843d 6ebe 5c6a 81be eb50 d7bd
00000070: 50d9 83be 4828 083f d89a e2be 1f12 a4be
00000080: 082d 053f 2533 c1be acdd 8ebe 8194 c63d
00000090: 11ae cbbd 34f8 babe e174 903d 63e9 503e
000000a0: 77e5 cbbe e5f6 143e 4820 f53d c386 083f
000000b0: ae88 97bd 9ac4 773e 2c84 cfbd 5b87 c93e
000000c0: 4e77 0cbe 0da5 cf3e baa7 a6be 83af 033f
000000d0: 38a5 823d dd4c 6a3e 0bef 033e a0ae 96be
000000e0: 2c21 013e 04ea a2be 0ad0 d83e 5fca 77be
000000f0: 09ea dcbe 7dae 8e3d 31b5 9bbd bb7d e63e
00000100: 6866 2f3e bc29 a83e f3d5 f53d 77e9 d5be
00000110: def9 0b3f 56a4 0a3f 0c82 053f 257e 133f
00000120: 3c7f d0be 69c0 d83e 5ad4 c1b9 d360 51bd
00000130: 1387 ac3e 4e1f 12bf c73c d83e dcfd 64bc
00000140: a400 f6be 5b75 2b3d 2aec c7bc 20c5 12be
00000150: 4b4b 413a deec b43d 0f7a 073f e990 403e
00000160: ad1d 693e a931 a7be 6378 013f 7c1f babe
00000170: 5438 133f db00 cc3d 2e71 c9be 9650 e53e
00000180: f2cf d6bd 588d e63d a62d efbe 14c4 473d
00000190: eb39 9a3e e462 c5bc 36d4 c9be e8bd 06bd
000001a0: 82c5 13be ace2 f4be bba0 06bf 919b e33e
000001b0: 255d 1e3f 2a76 0dbf 672a 813e 9af1 02bf
000001c0: 03c6 cfbe 029f 4cbe 6618 bdbe 0cea 863d
000001d0: 2da1 d3be b148 93be 442f 173e 6d25 063f
000001e0: 32c2 1d3e 263a ecbd 0a62 443e 4f4d 7e3e
000001f0: 1a40 aabc 31f0 19be a4ff 1d3f 32e4 b43e
00000200: fd5c 853e 4913 993e ca85 24bd aad3 043f
00000210: 633d b43e 5aa7 813e 0dd2 203e dc2e 3dbe
00000220: 22fe 3b3d f64e a0bc 4d3c ff3b 535c 59be
00000230: 52d0 4bbe af07 d2bb 7d28 10bf 9a4f 0abd
00000240: 3dfc edbe 791a 933e 6cfd b63e 9ea8 ddbe
00000250: 83a3 053f 1528 d7be 1f51 d7be 2abc 9bbe
00000260: 2ce7 b3be 48e2 c13c 6409 3dbe b458 e5be
00000270: e9f5 6dbe b989 003f 5c97 0a3f a8fa 7fbe
00000280: 145c 9f3e adaa c23e 35ba 8abe 357a adbe
00000290: e8a8 e53e 916f bcbd e03f cd3e 249b e0bd
000002a0: ef82 013f 75a5 99be ccff 6b3e eb03 47bd
000002b0: d068 a4be 5269 ba3e 0d41 20bd 1379 4e3e
000002c0: 7f5c d0bd b58c bc3e c5aa ba3e 37b9 27bd
000002d0: 4ad4 933e 2c2c 293e 74d1 ed3e 5117 08bf
000002e0: b4c6 ea3e 4128 88bc dd61 613c 1e7a bbbe
000002f0: 23e4 efbe 884d a5be 8cc5 b83d da2c 073f
00000300: a22a e13d 8961 413b 95a6 bebe 01cd f5be
00000310: f992 043f b112 433e 5f16 23be 4aa1 9dbe
00000320: b121 d03d 86ef 813d 5f87 033c 78b5 99bd
00000330: e2af fe3e 9c30 4dbe 8092 903e 0800 8f3e
00000340: 8719 61be e1c1 ca3e f95a 43be 0b22 ff3e
00000350: d5aa c83e fae7 c23b edc6 a23e 6de1 803e
00000360: 76d4 0b3f f61e d73e 050b 8b3d 0800 a63e
00000370: 796b b1be db3a b3be 975f 983e 1f57 bb3d
00000380: 6329 d83e f395 75be 5b43 063e 0f73 863c
00000390: c4c8 b8bd 7af1 05bf 8370 d3bd 7c23 113f
000003a0: c575 1d3e 794e 003f 9291 65be be1e db3c
000003b0: 9224 003e 1cd1 1cbe f27b ce3e 0910 b1be
000003c0: fcfc 0a3f 6290 e33e aa7d 83bd 451b 8fbd
000003d0: e8b0 8b3e 48ee f6bd 3810 cc3e b27e eb3a
000003e0: 4f16 a33e d48f c13e ddcb 8bbe a7a8 13bd
000003f0: 3654 d2be 2999 01be 9bc6 19be 5e6d 49be
0.5545291 0.25732782 0.020551607 0.41266736 0.09975516 0.1889085 0.005720931 -0.48752254
0.003980661 0.14376587 -0.44207585 0.24694616 -0.400309 -0.51175493 -0.42451638 0.11260965
-0.42613876 0.4585848 -0.4222394 -0.21335047 0.15730637 0.3901257 -0.11411028 0.4134913
0.12469797 -0.23265654 -0.25276458 -0.10513481 -0.25751734 0.53186464 -0.4425876 -0.32045075
0.5202184 -0.37734333 -0.27903497 0.096962936 -0.0994531 -0.3651749 0.07053543 0.2040153
-0.39823505 0.14547308 0.11969048 0.5333063 -0.073991165 0.24196091 -0.10132632 0.3936108
-0.13717386 0.4055561 -0.3254984 0.51439685 0.06379169 0.22880884 0.12884156 -0.29430103
0.1261031 -0.31819165 0.4234622 -0.24198292 -0.43147305 0.06966875 -0.07602919 0.450178
0.17128909 0.3284434 0.12003698 -0.41779682 0.5467814 0.54157007 0.5215156 0.57614356
-0.40722072 0.42334297 -0.00036970043 -0.05111773 0.33696803 -0.5707902 0.4223387 -0.01397654
-0.48047364 0.041859966 -0.024404604 -0.1433301 0.0007373585 0.08834241 0.5292062 0.18805279
0.22765227 -0.32655075 0.5057432 -0.36352146 0.57507825 0.09961101 -0.39344162 0.44788045
-0.10488881 0.11257428 -0.46714514 0.04877098 0.30122313 -0.024095006 -0.39419717 -0.032895952
-0.14430812 -0.47829187 -0.52589005 0.44454625 0.6186088 -0.5525843 0.25227663 -0.51149905
-0.40580758 -0.19982532 -0.36932677 0.0658761 -0.41333905 -0.28766397 0.14764124 0.5240086
0.15406111 -0.115345284 0.19178024 0.24834178 -0.02078252 -0.15033032 0.617182 0.3533035
0.26047507 0.29897526 -0.040166654 0.51885474 0.35203084 0.25322992 0.15705128 -0.18474907
0.045896657 -0.019568902 0.007789171 -0.21226625 -0.19903687 -0.0064096074 -0.5631178 -0.03376732
-0.46481505 0.28731135 0.3574022 -0.43292707 0.52202624 -0.42022768 -0.42054078 -0.30416995
-0.35137308 0.02366747 -0.18460613 -0.44794238 -0.23238339 0.5021015 0.54137206 -0.24997962
0.31124938 0.3802084 -0.2709519 -0.338823 0.44855428 -0.09200967 0.40087795 -0.10967091
0.50590414 -0.30009046 0.23046798 -0.04858772 -0.32111216 0.36408478 -0.039124537 0.20163374
-0.10173892 0.368261 0.36458412 -0.04094812 0.288729 0.16520756 0.46448863 -0.5316058
0.45854723 -0.016620757 0.013756243 -0.36616606 -0.46853742 -0.32285714 0.09022054 0.52802813
0.1099446 0.0029507598 -0.37236467 -0.48007968 0.5178676 0.19050099 -0.15926503 -0.30787116
0.10162676 0.063445136 0.00802788 -0.075053155 0.49743563 -0.20038074 0.2823677 0.2792971
-0.21982394 0.39601043 -0.19077672 0.4983066 0.39192834 0.005948064 0.31792393 0.25171986
0.54621065 0.4201581 0.06789211 0.324219 -0.34652308 -0.3500584 0.2976043 0.091474764
0.42219076 -0.23982982 0.13111632 0.016412286 -0.09022668 -0.5232159 -0.10324194 0.5669477
0.15376957 0.5011974 -0.22418812 0.026748057 0.1251395 -0.15314144 0.40328938 -0.34582546
0.54292274 0.44446093 -0.06420453 -0.06987623 0.27283406 -0.12057167 0.39856124 0.0017966835
0.31852958 0.37805045 -0.27303973 -0.03604951 -0.41079873 -0.12656082 -0.15017168 -0.19670627

l2.weight f4 [256, 256]
00000000: 7546 1f3d bdfa 063c 4419 cdba 4421 a23d
00000010: 664a 6e3d 9b29 473c 71e0 ebbc 8a5b 35bd
00000020: 8ae0 513d e9d2 b13d 67ce 81bc f168 bfbc
00000030: f3fa a9bb 93a2 7abb d6a5 033d 4d01 2f3c
00000040: cd45 19bd fdca 873d e314 013d 71ab 1f3c
00000050: 881e 593d fe41 1c3d 84e5 4bbc d5fb 323c
00000060: d928 a23d 506a 283c 154a 5c3d 16e1 5f3c
00000070: 0905 20bd 3fba 103d e0e7 84bc 8589 b0bb
00000080: 7f0b 083c d2b8 503d 8f12 2cbd adff 05bd
00000090: 9c7b ec3c 7c5c 8f3d 19fc 713d 5f25 883d
000000a0: eb38 023d 81ba 88bb f81b 703d 8309 523d
000000b0: cc62 49bb afe1 a33d 6d25 c33c b50c af3d
000000c0: 8d53 b7bc 7edf a93d e81e 86bd 2ee5 133c
000000d0: 54bb 263d f4c8 cbbb 7ef5 9cbd 0f6f 80bd
000000e0: daae 813c 1c8b 553c 200c 273d e415 02bd
000000f0: a146 bf3c 5639 563d f00f 5d3d 89a1 1abd
00000100: baaa b43d a6ad 9bbb eb0d 14bd 6c69 09bc
00000110: 4c36 8b3d 3fc8 203c 44d3 4dbc 24ee c9bc
00000120: 576f 05be fec7 8e3d 1d76 42bd e5cd 5bbd
00000130: a78e 183c b294 2f3d 07cb ddbc 9e05 8238
00000140: 49c0 a93c e012 ccbb aeb1 2cbd 7204 4d3d
00000150: 402d 133c 5d40 3b3d b4a3 c0bb 6aad 333d
00000160: 9a3e 65bd ddd7 943b afcd 853d bb07 a2bb
00000170: 2c2e 5f3d 13f1 203d 6cba 82bc d200 2a3c
00000180: 54f2 e1bc 2d31 833d bcb0 933d 3ec8 443d
00000190: 07b0 a63b 4f50 db3d bd47 253d 173e db3b
000001a0: 6f47 1dbd 0942 463d 312a 9cbc a8ef 2b3d
000001b0: e475 8d3d bd44 e5bc f9e4 1bbc 8cdc 803d
000001c0: 6946 94bd cda1 fcbc ef43 e9bc 6867 d03c
000001d0: 9fec 863d 2645 673d 4a1b 94bc fbb6 1aba
000001e0: 1e1c a93b 9384 88bb c8fd 4a3c cb5c 9b3d
000001f0: c0c0 5fbc 2f4c 6d3c 936b 883d bd4f 0cbb
00000200: 9b4d ea3c 21b5 0abd 36f6 d73c 97bc 09bb
00000210: 1e56 ea3c 8f55 953d 16b7 3b3d c5da babb
00000220: cfe8 19bd 2776 7b3c f5f6 993d 14c3 92bc
00000230: def0 113b 25d6 8dbc bd93 e2bc 3ec9 89bb
00000240: 97ce ea3c faef 9b3c e3fc 2e3b db9c 32bd
00000250: c682 253c a445 c5ba ad84 513d a01a 0bbd
00000260: 73e1 4cbc c6ec 663d 28d2 b13d f3e7 6eba
00000270: 9484 a2bb d7fb e1bc 4756 9e3d f6ee 6d3d
00000280: 9ee5 663d c7e5 893d 95f2 373d 7e05 69bd
00000290: 9205 aa3d 42b2 433d 036f be3c d684 5bbd
000002a0: 45fa f23c 0f3b 9a3d 5698 df3c 9fb2 65bd
000002b0: 78ec 29bd 5c8e aabc bd96 05bd 5556 3d3d
000002c0: a945 cbbc bf24 0ebd 5247 bbbc f9e4 fbbc
000002d0: 7750 be3d 74a0 fbbc 988a 7bbc a64a debd
000002e0: f466 c0bc fb8f 02bd a792 813d 1c4a 3b3c
000002f0: 1518 24bd cc00 f13c c8b8 163c 9be6 80bc
00000300: 6c89 553c 40d6 7d3d 7a2b 173c f056 c13d
00000310: 2c7d 233d 3f83 9e3d afef 03bd 9977 30bd
00000320: c752 07bd 7acc 823d 1e78 fdbc 4c5d eb3c
00000330: b0a4 7d3d 11b6 a8bb c2ee 803d 6856 393d
00000340: 776d f5bc f251 543d 8e45 623c 7d44 aa3d
00000350: a657 593d 0876 023e 4428 09ba a5a7 893d
00000360: 21ed d4bc 03ec 173c 6631 60bc 9449 8e3d
00000370: 5fd9 503c 3f8a debc 6c2d 963d 07f1 503c
00000380: 9517 f13b b5f6 893b 0099 423d f01d 98bc
00000390: 2b65 953d d76b 3fbd 1ea0 4d3c 2606 2eba
000003a0: 3f29 143d 3809 9f3b a124 533c 2a92 acba
000003b0: 288f 0d3d c65e 94bc 9ab4 503c 5368 743d
000003c0: 63c3 02bd de3c 32bd ce6c b7bc 050f b53c
000003d0: 08f0 893d f2ed 06bd aa78 7a3d e0d0 5f3d
000003e0: e680 af3d 2a0f 04bb 9686 ecbc 2916 6a3d
000003f0: 151e 5fbd ec1d f8bc f9a8 0d3d 6af6 403d
0.038885552 0.008238492 -0.0015647789 0.07916501 0.05817642 0.012155916 -0.028793545 -0.04427675
0.051239528 0.08682806 -0.01584549 -0.02336547 -0.005187386 -0.0038243874 0.032140575 0.0106814625
-0.037420083 0.06630514 0.03151406 0.009745465 0.053007632 0.038148873 -0.0124448575 0.010924299
0.07917947 0.010279253 0.053781588 0.0136645045 -0.039067302 0.035333868 -0.016223848 -0.0053874874
0.008303522 0.05095751 -0.042009886 -0.032714535 0.028867535 0.07000062 0.05907831 0.06647753
0.031792562 -0.0041726236 0.058620423 0.051278602 -0.0030729054 0.0800203 0.023821557 0.085473455
-0.022378707 0.08294581 -0.06548864 0.009026809 0.040705994 -0.006219024 -0.076640114 -0.06271183
0.015830446 0.013033655 0.040783048 -0.031759158 0.023349108 0.052300774 0.053970277 -0.03775171
0.08821626 -0.004750925 -0.036146086 -0.008386951 0.06797466 0.009813367 -0.012562577 -0.024649687
-0.13030754 0.06971739 -0.047475923 -0.053663153 0.009311355 0.042866416 -0.02707435 6.199929e-05
0.020721572 -0.006227836 -0.042161636 0.050053068 0.008982956 0.04571568 -0.00587889 0.043866552
-0.055967905 0.0045423345 0.06533372 -0.004944769 0.054487392 0.039292406 -0.015958034 0.010376172
-0.027581371 0.06405864 0.07211444 0.04804253 0.005086902 0.10708677 0.040351618 0.0066907513
-0.038398203 0.04840282 -0.019063087 0.0419766 0.069072515 -0.027986879 -0.009515041 0.06292066
-0.07239992 -0.030838871 -0.028474776 0.025439933 0.06588101 0.05646243 -0.018079419 -0.00059019
0.0051608225 -0.0041661947 0.012389608 0.07586058 -0.013656795 0.014483496 0.06661143 -0.0021409832
0.028601458 -0.033864144 0.02636252 -0.002101695 0.028605517 0.0729171 0.0458289 -0.005702349
-0.03757554 0.015347994 0.075178064 -0.017915286 0.0022268812 -0.017314026 -0.027658338 -0.004204898
0.028662963 0.019035328 0.0026701025 -0.04360662 0.01010198 -0.0015050662 0.05115192 -0.03396094
-0.012504923 0.05637815 0.08682662 -0.00091135426 -0.004959652 -0.027585907 0.077313 0.05808922
0.056371324 0.0673328 0.04490908 -0.056890003 0.08301844 0.04777742 0.023246294 -0.05359348
0.029660353 0.07530796 0.02729432 -0.05607855 -0.04148528 -0.020819835 -0.03261446 0.04622491
-0.02481349 -0.034703013 -0.022861157 -0.030748831 0.09292691 -0.030716158 -0.015352868 -0.10854082
-0.023486592 -0.03187559 0.063268 0.011431243 -0.04006203 0.029419325 0.009199329 -0.015734961
0.013033252 0.061971903 0.009226674 0.0944041 0.039914295 0.07739877 -0.032211002 -0.043082807
-0.033037927 0.06386657 -0.030941065 0.02873101 0.061924636 -0.005148657 0.062955394 0.04524842
-0.029959423 0.05183596 0.013810528 0.08313844 0.053062104 0.12740338 -0.00052321353 0.06721429
-0.025991978 0.009272578 -0.0136836525 0.06947628 0.012747138 -0.02716553 0.07332882 0.012752778
0.0073575475 0.004210318 0.047509193 -0.018568963 0.07294687 -0.046733703 0.012550382 -0.00066384894
0.036172148 0.004853394 0.012887151 -0.0013166119 0.034560353 -0.018111598 0.012738371 0.059669804
-0.031924617 -0.04351508 -0.02239075 0.022101888 0.067352355 -0.032941766 0.06115023 0.054642558
0.08569507 -0.002015064 -0.02887277 0.05715004 -0.054472048 -0.030287705 0.034584973 0.04711

l2.bias f4 [256]
00000000: 5b55 573d a0cc 45bd 861f 70bd 5029 0a3d
00000010: d5fd db3d 8b99 8fbd 572f 7a3d 00fe 103c
00000020: 4402 52bc 45ed c53c b513 553d 59f2 7e3d
00000030: 8202 13bc e44c 4b3d 645f 693d 2197 f73c
00000040: f52d d9bc 9cf2 5bbd adc5 103d e48f c5bd
00000050: e207 ddbc 7495 02be ac57 f33a 9bac 183d
00000060: 2bdc 123d 4cc7 3c3d 8468 b63d ba25 09bd
00000070: 8bca 993d c829 dabc dd3a 143d 4ac0 dcbc
00000080: 3349 1cbd cc83 973d 6013 39bd f183 b6bc
00000090: 2bc1 403d 08df 4cbd beca d5bc 4a66 4d3d
000000a0: 7d4a 2f3d 60f3 f13c 0498 963d 4a32 9a3c
000000b0: 3391 023d a607 c03c 3900 d33d c0b1 063d
000000c0: e57b d9bc 3ea8 483d e3dd 2bbc 58d1 763d
000000d0: 3172 1bbe 3145 813d 1609 f53c 8337 463d
000000e0: 256e 943c 884c ecbc be81 d33c 3466 22bd
000000f0: 06eb 9c3b d2fc 1abd 0244 fd3c cf34 903c
00000100: 1e78 e2bd 578a d43c 589c b9bb 1b20 70bc
00000110: d2d1 e53b 0cfb 20bd 4510 d3bb 4f83 a4bc
00000120: 21ae 3a3d d058 5c3d 9330 643d e3e2 923c
00000130: c185 ec3c bd34 e8bb 3f17 c33d 1158 3e3c
00000140: 6d53 a9bd ad05 a3bc f98b b13d d23f 823b
00000150: 5217 00bc eed9 e53c 47a5 6fbd fa00 cfba
00000160: 0073 9cbd b8b1 b7bc 24f3 123d 7373 96bd
00000170: 7d07 453d b67b 7c3d b99e 05bc 2392 9dbd
00000180: 71ef d7bb 1bfc 93bd 09d6 c5bc 0961 d43c
00000190: 7ce6 563d 7691 ce3d 9c9f 2f3d 6130 65bd
000001a0: 67c6 283c 46f5 bcbc 4786 9abc 64e5 adbd
000001b0: 2163 01bd 9781 feb9 b532 f73c 1aa5 12bd
000001c0: 781d 15bd 8e54 1c3d 3687 1cb9 7a70 86bc
000001d0: 2554 4b3c af15 683d 980b a9bd 8c7a 04bd
000001e0: d1bd eabc 911c fa3c 28ca 8d3c 39ab 123d
000001f0: 5828 5bbd ea92 cd3c 2036 cfbc 480b 023d
00000200: d371 c43c e1ab 2b3d aac8 dc3c a4eb b03c
00000210: fb4b da3d 85ce 72bd b7e7 593d fb32 dbbb
00000220: 6907 7fbc 078e c13d 641d 983c e827 b5bb
00000230: 5dc4 153a 7fcd 3e3c d814 8c3d cf62 7f3a
00000240: d3bd 863d 2218 333d 97a8 3939 8ef4 763c
00000250: 2c32 adbc 16c6 6c3c d06d b4bb 8f8d 583d
00000260: fab2 0cbd dde3 8fbc b794 9fbd ab78 8eba
00000270: d67e 923d e06b 363d d253 05bd 6a55 f0bc
00000280: 0596 3e3b 3910 9f3b 770b 903d dd34 b43a
00000290: 2776 913d 3a41 6a3d f8c1 8c3b 49fa d63d
000002a0: 150d 41bd b956 273c 14b5 ae3c 75e3 453c
000002b0: 5025 5cbd 4b12 0b3b fa9b 933d cc2d e73c
000002c0: 021c 92bc 1b6f a13a d415 53bd c886 0b3d
000002d0: 21ff 9cbc d3a2 1bbb ef76 17bd 222c 6b3d
000002e0: ffa3 31bd b638 953d fe5e b9bd 155e 103d
000002f0: 74b7 05be fb94 a0bc f7a9 7e3d efea 083d
00000300: 8a11 3abd 5c87 a53d 18aa 8a3c a52d a7bb
00000310: 2dea 5bbd 8474 9f3c 164f b73c b028 4a3d
00000320: f971 6d3c c183 433d 8f29 03bd 598f 5fbc
00000330: 4eae 0cbc 9db1 85bc 424f b8bd 6db9 78bc
00000340: 564f 6ebd b0a7 2bbd 6ccd 723d 1dd0 0cbd
00000350: 622c 02bc a44e 783c 4f5f 4a3d 29d1 0bbd
00000360: c4a2 4dbd 9e6e 153d a540 31bd 53c6 86bc
00000370: e6a0 173d a482 12bd 3250 403d 8f39 34bd
00000380: 590c 023d 27d4 b3bd d6c4 38bd 8ce9 61bc
00000390: 5722 24bc 8f78 3ebd 09a0 4ebd def1 ce3d
000003a0: 9c59 1fbe cc93 bc3d ceab 26bd cbaa 2c3c
000003b0: 7375 d0bd 4d4d 483d 2658 773c 83ef 663d
000003c0: 15eb b53d cc9e 813d b471 96bc 5bbf 6e3d
000003d0: 99a9 2b3d 6172 993d acac 72bb ba3b c7bb
000003e0: c06c 0c3d adec 313c ad82 653d cc3d d7bc
000003f0: 8896 55bd 7f90 d1bd 174d da3c fa1e 2ebd
0.052571636 -0.04829085 -0.058623813 0.033730805 0.10741774 -0.07011708 0.061080303 0.008849621
-0.012817923 0.02416099 0.052020747 0.06224284 -0.008972766 0.049633875 0.056975737 0.030223431
-0.026511172 -0.053698167 0.03534477 -0.096465856 -0.026981298 -0.12752324 0.0018565557 0.037273984
0.0358545 0.0460885 0.089066535 -0.033483244 0.07509335 -0.026631251 0.03618895 -0.02694716
-0.038155746 0.07398185 -0.045184493 -0.022279711 0.04705922 -0.050017387 -0.026097652 0.05014638
0.042795647 0.029534996 0.073532134 0.018822808 0.031876754 0.023441147 0.10302777 0.03288436
-0.026548335 0.048988573 -0.010489914 0.06025824 -0.1518028 0.06312025 0.02991156 0.048392784
0.018118927 -0.028845087 0.025818702 -0.03964825 0.004788759 -0.037838764 0.030916218 0.017603306
-0.11058067 0.025944872 -0.0056643896 -0.014656092 0.007013538 -0.039301917 -0.0064411485 -0.020082144
0.04557622 0.053795636 0.055710386 0.017930454 0.028872373 -0.007086365 0.09525918 0.011617676
-0.08267865 -0.019900167 0.08669276 0.003974893 -0.00781806 0.028058019 -0.05850723 -0.0015793138
-0.07639122 -0.02242361 0.03587641 -0.07346239 0.048102845 0.061641417 -0.008155518 -0.07693889
-0.006589823 -0.0722582 -0.024149911 0.025925176 0.0524659 0.10086338 0.042876825 -0.05595434
0.010301209 -0.023066174 -0.018862857 -0.084910184 -0.031588677 -0.00048543207 0.030175546 -0.035801984
-0.036405057 0.038166575 -0.0001492769 -0.016411055 0.012410198 0.056661304 -0.082541645 -0.032343432
-0.028654965 0.0305312 0.01730831 0.035807822 -0.05350527 0.025094468 -0.025294363 0.03174904
0.023980057 0.041911963 0.026951153 0.021596737 0.106590234 -0.059278984 0.053199496 -0.006689427
-0.015565732 0.09450918 0.018568702 -0.005528439 0.00057131593 0.011645674 0.06839913 0.00097422017
0.06579175 0.043724187 0.0001770578 0.015072955 -0.021142088 0.014451524 -0.0055062547 0.052869376
-0.034350373 -0.017564708 -0.07792037 -0.0010869702 0.07153098 0.04453647 -0.03255064 -0.029337604
0.0029081118 0.004854229 0.07033437 0.0013748665 0.07102614 0.05719111 0.004295584 0.10496957
-0.047131617 0.010213547 0.02132658 0.012078156 -0.05374652 0.002122062 0.072074845 0.02822008
-0.01783562 0.0012316437 -0.05153449 0.034064084 -0.019164624 -0.0023748174 -0.03697866 0.057415135
-0.04336929 0.072862074 -0.090513214 0.035245974 -0.13058263 -0.01960229 0.06217381 0.033427175
-0.045426883 0.080824584 0.01692681 -0.005101877 -0.053690124 0.019464739 0.022376578 0.04935521
0.014492505 0.047733072 -0.032022055 -0.013645017 -0.008586479 -0.016320044 -0.08999492 -0.015180928
-0.05818113 -0.041907966 0.059277937 -0.03437816 -0.007945152 0.015155468 0.0494073 -0.034135018
-0.050204054 0.036482446 -0.04327454 -0.01645199 0.03701868 -0.03576912 0.04695148 -0.044000205
0.031750057 -0.08780699 -0.045109592 -0.013788592 -0.010017953 -0.046501692 -0.05044559 0.10104726
-0.15561527 0.092078775 -0.04069119 0.010538767 -0.10178652 0.048901845 0.0150967 0.05638076
0.08882729 0.06329116 -0.018364765 0.05828796 0.041909788 0.07492519 -0.003702919 -0.006080118
0.0342834 0.010859651 0.056032825 -0.026274584 -0.05214551 -0.102326386 0.026648087 -0.04251001

l3.weight f4 [1, 256]
00000000: 414e cc3d f30c a8be 7a94 41be 63d6 04bd
00000010: 2019 6b3e 2aaf 99be 2422 c73d ce90 8b3e
00000020: 6190 423e ef2f 873e 00d5 253e e645 d93d
00000030: 8031 f63d 6cd6 bfbd c29a df3d 0cbb a9bd
00000040: 622d efbd 78d7 7ebd 7462 423e 4439 42be
00000050: c18d 1dbe 4030 67be 916c b4bd 102e a63d
00000060: c65c 333e 5d19 833e aed1 313e d0a4 34be
00000070: 09af 993d 7769 9bbc fed8 44be 1034 e03d
00000080: 58ef 27be 37c4 033e 2ea5 27bd 5b70 98bd
00000090: e528 853d 6321 32be d69d e43e 54b1 afbc
000000a0: 1e31 5abe 4455 f2bd d5d5 b53d aca1 05be
000000b0: 621c 0c3e 5b7c 06bd fec2 553d 31dd c63d
000000c0: e117 bebd 1e25 b03d 66d9 2bbe e603 203d
000000d0: 27f3 99be 2986 ca3d 10ef 443e 1475 37be
000000e0: 3a79 5b3e 170d 3dbe ad37 b63d e00b 90bc
000000f0: 7049 92be 7a95 8abe 7021 52bd d1f5 583e
00000100: c1ff 4bbe e937 363e 40a0 9b3d 605a d7be
00000110: 020a 90bc 2b2d 15bd 5252 133e ce87 78bd
00000120: 3f95 d73d 59ff 993d 24f8 9f3d 7f98 123e
00000130: 8bd9 9c3d 98b3 d0be e791 c53d 67a5 8dbd
00000140: d0ca 9cbd bdc8 e63d b825 843d de66 623e
00000150: 01dc 95bd bf9f bc3d 69d8 8bbd be87 033d
00000160: 46a8 d1bd 63f1 ffbd 19d7 9ebe 1c0d 6abd
00000170: 3051 d13d 4987 91be 99d5 dc3d 342d 2fbe
00000180: 50c6 a13d 3676 ccbd d775 bb3c c529 9e3d
00000190: c91c df3d 5f80 af3d 97cc 05be b026 16be
000001a0: 2fc1 bcbd 2404 83bd d568 02be 4b82 a03e
000001b0: a3dc 1bbe d3a0 183e fb6f debd b715 e5bd
000001c0: 04ca 093e 5f04 49bd 0cee 803e 0478 57be
000001d0: e5c0 5fbe 5ca7 99bd 0378 e2bd 93a5 f23d
000001e0: 5c01 97be 8d82 033e 163d 413e 8197 d0bd
000001f0: 8c51 1abe f18f 0dbd 1330 8a3e 53fc 78bd
00000200: 4335 103e 4a69 33bd 272c 343d 9d03 d33d
00000210: 6648 303e ae10 25be d26e 893d 62fc 893d
00000220: 867b 6f3d 1fe4 b73d 7fea 103e 873b 45be
00000230: de79 f03d f11f 203d 0f03 4b3e f11e 753d
00000240: c5b4 b43d 6d64 423e af9c f33d 0cd2 713e
00000250: 306b 5bbe ca11 f23d c46c 483d 5f6b 1a3e
00000260: 681e afbd cee3 04be 8963 febd b699 34bd
00000270: 9163 073e 2a83 2f3d 9869 52bd fd31 a43b
00000280: 1739 bebd 129d 6fbd 1e4c c73d 87ee 293e
00000290: 6cc5 873e 1c10 8f3d b22f 9ebd 5ae3 69be
000002a0: 0d0a efbd b3db 973d 46d8 8abd 7f74 c23d
000002b0: 8c3d 6fbe 4768 0cbe 4f03 3b3d f2ba 06be
000002c0: 63d3 cdbd 9750 6cbe 05d0 63bd f18d c1bd
000002d0: 1e92 b2bd d909 07be 69b7 adbd 248e 71bc
000002e0: cbfa aebd 2d9b f43d 9fef 8ebe 5222 95bd
000002f0: 44b5 3dbe 3ed1 553e 4f71 863d e87f 193e
00000300: 704b ab3d 948a 1c3e c0eb 7fbd da08 453d
00000310: 105b e4bd ce77 ccbd 0791 ac3e 2c34 1d3d
00000320: 0e12 5bbd aa26 3b3e cc5c 29be 1246 38bd
00000330: 93d9 82be cd87 98bd 83c0 b5be 3d16 9abd
00000340: 07a2 2abd 2453 13bd 40ec 973b df9f cfbd
00000350: 59b4 e23d 1ccb 11be ec78 323e d4ad c03d
00000360: fa3c d4bd 6604 e43d 9127 6c3e ee0c 73bc
00000370: e62f f83d 397a 85be 83ca 1bbe 2ce9 cabd
00000380: cf2b cb3d f63d 0dbd cd64 17bd 31d4 e7bd
00000390: 0543 b33d 9377 553e 4470 59be 7fca 403e
000003a0: 2be8 46be cff6 aa3d 6a4e a3bd 52a3 c5be
000003b0: fabe 81be 1791 6e3d 9216 8d3d e30a 323e
000003c0: 889d 273d 0e02 ce3d 5df8 d5bd 82e8 b43d
000003d0: 7d1d f7bd ed37 ab3d 5520 08be 094d 6cbd
000003e0: 457c 5dbe fc0d c8bd dc39 913d c23e 01be
000003f0: 5476 29be 7fee 78be 6822 c03d 173f 1cbd
0.09975863 -0.3282238 -0.18904296 -0.032431018 0.22958803 -0.30016452 0.09723309 0.27258915
0.19000389 0.26403758 0.16194534 0.10609035 0.1202116 -0.093670696 0.109181896 -0.082876295
-0.11678578 -0.062217206 0.1898287 -0.18967158 -0.15386106 -0.22577 -0.0880977 0.081142545
0.17515859 0.25605288 0.17365143 -0.17640996 0.075040884 -0.018971188 -0.19223401 0.1094743
-0.16399896 0.12867819 -0.040929012 -0.07443305 0.06501941 -0.17395549 0.4465167 -0.021446861
-0.21307799 -0.118326694 0.08878676 -0.13049954 0.13682702 -0.03283344 0.052187912 0.09710158
-0.09281898 0.086008295 -0.1678215 0.039066218 -0.30068323 0.0988887 0.1923182 -0.17915756
0.21432963 -0.18462025 0.08897338 -0.017583787 -0.28571653 -0.27067167 -0.05130142 0.21187522
-0.19921781 0.17794766 0.07598925 -0.42061138 -0.017582897 -0.03642003 0.14386871 -0.06067639
0.10526513 0.07519407 0.07811001 0.14315985 0.076586805 -0.4076202 0.09646969 -0.069163136
-0.07655871 0.112687565 0.06452507 0.22109553 -0.07317353 0.09210157 -0.06828386 0.032111876
-0.10237174 -0.12497213 -0.3102348 -0.05714141 0.102205634 -0.28423527 0.10782928 -0.17107087
0.07899153 -0.099834844 0.022883339 0.07722811 0.10894162 0.08569407 -0.13066326 -0.14663196
-0.09216534 -0.06397274 -0.12735303 0.31349406 -0.15220885 0.149051 -0.10861202 -0.111857824
0.13455969 -0.049076434 0.25181615 -0.21041876 -0.21850927 -0.075026244 -0.11058047 0.11847987
-0.29493225 0.1284277 0.18870959 -0.10185147 -0.1507017 -0.0345611 0.26989803 -0.06078751
0.14082818 -0.043801583 0.04398742 0.103034236 0.17215118 -0.16119644 0.067105904 0.06737591
0.05846741 0.089790575 0.14151953 -0.19260989 0.11741994 0.03909296 0.19825386 0.05984396
0.088235416 0.18983622 0.118951194 0.23615283 -0.21427608 0.11819799 0.048931852 0.15080021
-0.085507214 -0.12977526 -0.124213286 -0.044091903 0.13221575 0.042849697 -0.051370233 0.005010842
-0.09288233 -0.058499403 0.09731315 0.16594897 0.26517808 0.069854945 -0.07723941 -0.22840634
-0.11671839 0.07414951 -0.06779532 0.09494876 -0.23363322 -0.13711654 0.045657452 -0.13157251
-0.100500844 -0.23077618 -0.055618305 -0.09450901 -0.08719276 -0.1318735 -0.08482248 -0.014743362
-0.08543929 0.1194366 -0.2791719 -0.07281937 -0.18526179 0.20880601 0.06564581 0.14990199
0.08363998 0.15287238 -0.062480688 0.048104145 -0.11150181 -0.099837884 0.33704397 0.038379833
-0.053484015 0.18276468 -0.16539305 -0.0449887 -0.2555662 -0.07447777 -0.35498437 -0.07523773
-0.041658428 -0.03596796 0.0046363175 -0.10137915 0.11069555 -0.14237636 0.1742894 0.09408155
-0.10363193 0.111336514 0.23061968 -0.014834626 0.12118511 -0.2606981 -0.15213971 -0.09907755
0.09920465 -0.03448292 -0.036961365 -0.11319769 0.08753017 0.20846395 -0.21234232 0.18827246
-0.19424503 0.08347856 -0.07973941 -0.38601166 -0.25341016 0.058243837 0.068890706 0.17386965
0.040921718 0.10058986 -0.10447762 0.0883341 -0.12066171 0.08360276 -0.13293584 -0.057690654
-0.21629436 -0.09768292 0.07091114 -0.12621596 -0.16549045 -0.24309729 0.093815625 -0.038146105

l4.weight f4 [256, 4]
00000000: 0987 403e 783d 0b3f 57f1 adbd d266 00bf
00000010: 060e cf3e a481 bb3e 5707 5f3e 982c bc3e
00000020: b51a 073f 85e0 fcbe c53b b3be c2a4 463e
00000030: ad4e 123e cc4b 0a3f 6192 b23e a846 15bd
00000040: 7d57 1dbf 23c4 d93e 3eab 803e 76d9 ae3d
00000050: ab14 103e 671c 1f3e c9d1 cf3e a440 8d3e
00000060: e611 243f e36b efbe cab3 38be 1fef e73d
00000070: 4500 063f 0c37 0f3f 16d7 cfbe d402 883e
00000080: ed9b 7e3e 2df2 d0be 6880 acbd cd55 313e
00000090: 025c e8bd 981d 0e3f 0c97 20bd f6cc 8dbb
000000a0: 04ba 393e 549f c5be b27d b1be 1958 963e
000000b0: ade9 093d 7639 05bf 0cd8 d43e 0576 893e
000000c0: 2366 f53d 499d 0dbf 57a1 38be 7095 07be
000000d0: 8e01 e53e bfce b73d 2e5e 653d 3955 56be
000000e0: abf7 223f 0259 35bf d4a9 c8be 45d8 2abe
000000f0: efa7 063f c51f 163e 3737 e3be 9df7 e1be
00000100: 7736 863d cdb0 263f 7d2e 8c3d 89d2 f53e
00000110: a2c4 10bf 016e 72be 8781 27be 4cac c33d
00000120: 3673 363d 875d 35bf a3ff cfbe e819 a0be
00000130: c367 d2be 2ed2 10bf 8a25 123e e7ac bdbb
00000140: 4aa4 623d 8542 d2bd ec0c b5be fadd d1be
00000150: 7ef1 32be 7b05 13bf 8e19 8b3e 40ce 653e
00000160: fc7d 03bf faed 42be 42d4 b4be 7253 0dbe
00000170: d82c d7bd 2e6e cabe 8219 1f3e 6462 7c3d
00000180: 1672 813d 63aa 76bd 2696 eebe e02f 573e
00000190: 17be f93e 4692 9dbe 2173 c6be 9eca e83b
000001a0: a126 ba3e 5d3a 163f e680 5e3e a7d0 4b3c
000001b0: cc05 a33d dfbe 5ebf 64cc e9be 1b77 b1be
000001c0: 4b6b 07bf 943d 2ebe 3e6e 22be c99b 48be
000001d0: ab35 dfbe eedf 5b3f 698d f0bc b7ee 173e
000001e0: e489 18bf 1701 60bd e908 9a3e 6ce0 813e
000001f0: 9d01 91be 1979 273f 0d79 863e 8d68 c63e
00000200: 6af6 0bbf 4c0b 78bf 9770 92be 58a1 53bd
00000210: a104 9a3e 4933 d6be 9ebf 29be bb89 003d
00000220: 4f78 8dbe c902 10bf 5b5d d9be 9946 a43d
00000230: 7e8d dfbe 8921 f83d d772 4fbd a997 c0be
00000240: 0a2f 303f 52ca 0f3f 1d47 e03e b4c9 46be
00000250: 1aea efbe 50ca 0dbf daf0 493c a91e 623e
00000260: 9e01 e3be e552 c73e ed61 f83e ac9c a63e
00000270: 7491 94bd 8b4f 403d 8fa0 98bc b5e7 c73e
00000280: 6764 013f 36b1 8cbd a2f6 cbbe 6ce8 9abd
00000290: eac3 f33e 9bca 0c3f 59b8 663e 82bf d6bd
000002a0: a18c 0c3d 1f15 0e3e 5521 6a3e b0c7 bcbe
000002b0: aea3 5c3e 75ec 88be 7056 ccbd 15b5 2a3e
000002c0: 5252 9f3e 325f 153f 3d3d 923e 9aeb 9cbe
000002d0: 8fb9 88be 20d1 1ebf ab93 4c3d b18b a5bb
000002e0: 7853 5b3d d0cc 8a3e 40b1 e63d 1dd0 f6be
000002f0: 6037 c2bd 978d 29be 2d73 ab3e 79fd f2be
00000300: 1b89 5e3e 8c4e 24bf 1c54 13be 5ccb 16be
00000310: 360b 4a3d b49b 693d f349 81be bcee 2fbe
00000320: 06e1 233f f2b2 74be fabb 923d 0f45 d0be
00000330: d5e8 cb3e 5e2f c5be 9ca2 19be f26a a1bd
00000340: cc3a 003f 1218 023f c58b aebe 2ec3 d4be
00000350: 742b 883e 9293 683e a748 d43d 7929 1d3e
00000360: fee0 28bf 0c90 1b3e a18e 69be b0e0 843d
00000370: 3b28 613e 6ebc 913e ccb5 973e d218 44bc
00000380: 34c4 5a3e 8697 d63e 7443 023f b470 80be
00000390: 0903 0a3f 5109 babc ad0c ab3d d5de 35bd
000003a0: 7dec aabd c626 8fbe 1810 19be 7b90 a83c
000003b0: 14f9 1e3f e4bc 7c3b 0fe7 243e 13b6 ac3c
000003c0: 34a7 343d 1505 45be 9e25 963d d05e 19bc
000003d0: e21b fabc 8d0c f4be def8 5ebd de27 e4be
000003e0: 05b5 12bf 7ba4 52be beca 85bd b312 ef3e
000003f0: c077 aa3e 2a81 f53e bd53 bd3e c63f ca3e
0.18801512 0.5439067 -0.084932975 -0.5015689 0.40440387 0.36622345 0.21780144 0.36752772
0.52775127 -0.49390045 -0.35006538 0.19398788 0.14287825 0.54021907 0.34877303 -0.036444336
-0.6146162 0.42532453 0.25130647 0.08537571 0.14070384 0.15538178 0.4058974 0.2758838
0.6408981 -0.46762 -0.18037334 0.113249056 0.5234416 0.5594337 -0.40593785 0.26564658
0.24864168 -0.40809765 -0.08422929 0.17317887 -0.11345674 0.55513906 -0.03920655 -0.0043274118
0.18137366 -0.3859812 -0.3466621 0.29364088 0.033670116 -0.52040803 0.4157108 0.26847854
0.11982372 -0.55318123 -0.18030296 -0.132406 0.4472775 0.089749806 0.05599802 -0.20930947
0.6365916 -0.7083894 -0.3919207 -0.16684063 0.52599996 0.14660557 -0.44378063 -0.44134226
0.06553357 0.65113527 0.068448044 0.48012188 -0.5655004 -0.23674776 -0.16358005 0.095543474
0.044543467 -0.70845836 -0.40624723 -0.31269765 -0.4109479 -0.5657071 0.14272133 -0.005788434
0.05533246 -0.10266594 -0.3536142 -0.40989667 -0.17474934 -0.5743024 0.27167934 0.2244196
-0.5136411 -0.19036093 -0.3531819 -0.13801363 -0.105066 -0.39537185 0.15537074 0.06161727
0.06320588 -0.060221087 -0.4659893 0.21014357 0.4877784 -0.3077566 -0.3875971 0.007104232
0.36357597 0.58682805 0.21728858 0.012439883 0.0796009 -0.87009996 -0.4566375 -0.34661183
-0.5289809 -0.17015678 -0.15862367 -0.19590677 -0.43595633 0.85888565 -0.029364305 0.14837156
-0.59585404 -0.05468854 0.30084923 0.25366533 -0.28321543 0.65419155 0.2626423 0.3875164
-0.54672873 -0.9689224 -0.28601524 -0.05166754 0.30081657 -0.41836002 -0.16577002 0.03138135
-0.2763085 -0.5625425 -0.42454037 0.08021278 -0.43662637 0.12115771 -0.05064663 -0.37615708
0.68821776 0.5616809 0.43804255 -0.19412881 -0.46858293 -0.5538683 0.01232549 0.22082008
-0.4433717 0.3893043 0.4851221 0.32541406 -0.072543055 0.046950858 -0.018631248 0.39043966
0.50543827 -0.06869738 -0.39836603 -0.07563862 0.47610408 0.5499665 0.2253126 -0.10485746
0.0343138 0.13875245 0.22864278 -0.368711 0.21546814 -0.26742902 -0.09977424 0.1667064
0.31117493 0.5834838 0.28562346 -0.306485 -0.2670407 -0.6203785 0.049945515 -0.005052053
0.0535464 0.27109385 0.112642765 -0.48205653 -0.09483218 -0.16557918 0.3348631 -0.4745901
0.21731989 -0.64182353 -0.14387554 -0.14726013 0.049327098 0.057033256 -0.2525173 -0.17180914
0.64015234 -0.23896387 0.0716476 -0.40677688 0.39826074 -0.385127 -0.15003437 -0.07881726
0.50089717 0.5081798 -0.3409101 -0.4155516 0.26595652 0.22712544 0.1036542 0.15347852
-0.6596831 0.15191668 -0.22808315 0.06488168 0.21988003 0.28464073 0.29630888 -0.011968808
0.21363908 0.41912478 0.50884175 -0.25085986 0.5391088 -0.02270952 0.08352027 -0.044401962
-0.08345888 -0.2795927 -0.14947546 0.020576706 0.62098813 0.0038564736 0.16103767 0.021082914
0.04410477 -0.1924022 0.07331394 -0.009360984 -0.030530874 -0.47665825 -0.054436557 -0.44561666
-0.57307464 -0.20570557 -0.06532811 0.46693954 0.33294487 0.47950107 0.3697795 0.3950178

l4.bias f4 [256]
00000000: bd6a b9be 42d4 cc3e 8b9e a23e 0ddc b2bd
00000010: 7c52 8f3e 6cc9 d7be c03e 463e 4153 dbbd
00000020: c799 f8bd cb0a 78bd 1281 cbbe 3de0 e33e
00000030: fe98 80be d3e8 ea3e ae7d c13e ea8e 01bf
00000040: ff59 c93d 67ca f6bd ad73 eb3c 91f1 1bbe
00000050: 8e93 d43e 3e10 0a3e e245 5dbe e5ae 1d3f
00000060: 5be7 71be cfc6 123f 8b58 f0be 7b29 893e
00000070: 7865 f23d 2c68 b73e 3d3c a0be c70f 86be
00000080: 1b39 dd3e 9ad2 c9be 640c ad3e d100 debd
00000090: 4263 ccbe 76b8 64bd 6e2e 2bbe 4f0b 133f
000000a0: db31 ae3e 2efa 073e 35a8 d0be 3709 bc3e
000000b0: 9875 9c3e cea9 81be 3407 c3bb a11c 6d3e
000000c0: 8c13 e6bb 0502 15bf 1bdb e8bd 118a cebe
000000d0: 9266 c6be 7102 04bf c381 023f b4e3 f9be
000000e0: 2081 3fbe c660 9e3e d0cf 04be 6c3f 0bbe
000000f0: 5e69 c1be 0deb 023f cc3c f2be 3439 94be
00000100: 45e0 0d3f 8611 d9be b57a e0bd e628 30be
00000110: ff46 4f3e 860f 3cbe d9d0 273e 7eab b83e
00000120: 1238 c3be 16d3 1a3f d0d3 d4be f583 19bd
00000130: 02b4 edbe a8a1 093e b23d c7be 6e4c 1f3c
00000140: 108a 903e 60c2 d73e 1b76 893e c3e6 f23e
00000150: 80a1 8dbe 3089 b5be f43b 9a3e 3483 75bc
00000160: 3a01 f3bd b5d6 aebd 5044 f1bc da2e d3be
00000170: 334f a4be 54f2 823e 9333 9abd 6025 d43e
00000180: 745d 833d 3776 a43e e2ef d33c c284 833e
00000190: 5b8b 57be d9ed 8d3e fb86 44be 9966 4ebe
000001a0: e17e 0b3f f9d6 d1bd ac8d d13e 46e6 003e
000001b0: 20a1 353d 0bb5 ccbd c2be 13be c903 7dbe
000001c0: ba1a 9e3d 3788 193f fe1a 013f a5ca 803e
000001d0: 3969 2bbd 3703 ed3d 5885 e53e 9f05 c03e
000001e0: cda7 313e 08fe fa3d 5681 3a3d 26cc d23a
000001f0: 1f64 113f 89e0 cb3d df04 4bbe 98aa 98be
00000200: 6a28 febe 9835 ce3e d703 d2be b795 3cbe
00000210: 22e4 44be 1c0e f2bd c3bc 6abe f389 12bd
00000220: bc7c dd3d f752 fbbd 5b1a 27be 793a de3e
00000230: 762b bfbe 3c38 91be 75bf 7d3e 2d21 1fbd
00000240: 0677 2a3d a1fb 333f bd01 7ebe ce81 d9be
00000250: 6935 5c3e 7369 c7be d233 093f 7160 953e
00000260: 1e4a 95be e92b 1a3e 071a ebbe 6f75 c6be
00000270: c0e6 bb3e 94d8 f83e f4bd fdbe d6ec 853e
00000280: bc82 afbd dc15 6ebe 83d5 903e 27c8 d2bd
00000290: 8a94 d6be 7c9e d2be f650 26bf 9b6b fa3e
000002a0: 4a16 45be 1789 d13e cd82 29bd 0eef ea3e
000002b0: 77a5 96be d796 1a3f fc14 b03e f2cb 003f
000002c0: 0567 37be 0673 debd f2d0 7e3e 8b60 b83e
000002d0: 152d 093f 3b07 6cbe a7cb 003f c594 01be
000002e0: 3c6a 743e 33f3 673e 7c9d e13e fed1 fd3e
000002f0: bf45 d8be abab 2abe 6e6a 4dbe b302 9abd
00000300: 1463 383e 58dc c7be 7556 eabe 2a04 3d3e
00000310: 1eae a7be 139f fe3c b880 d63e 1daf ecbd
00000320: 7c9f 1a3f e5a3 8e3e a644 393e 2eae a53e
00000330: aa8a 94be 434b a0be f312 9ebe c097 a73d
00000340: 41ae 853e 76f4 81be bf97 e5be 76c2 60be
00000350: 37d5 a5be be05 e33e 487a ec3e 6d98 163e
00000360: 9b49 fc3e 04d6 5ebe 4323 533d 9b23 883e
00000370: 91ca f73e 8c86 f7be 78ca 983e c393 463e
00000380: db46 02bd 56ad c43e d400 3c3e aebb 19be
00000390: f143 15bd d983 05bf b76d 563e 4907 acbe
000003a0: 5ca6 233e 1c1a 96be 9358 8cbe a3e8 42be
000003b0: 79d0 6cbc 5245 50be bf91 0dbe ad18 953b
000003c0: 686a 053e 003a 6dbe 7132 8c3e f41e 123e
000003d0: 4ec7 74be 8e24 54be a883 083f 0a5a aebe
000003e0: 8303 28be 64ed 083f fbfe 673e 6231 b8bd
000003f0: f11f fdbd eb61 5f3e 163b 343e 8e99 efbb
-0.36214247 0.4000569 0.31761584 -0.087333776 0.27992618 -0.4214586 0.19359875 -0.10709239
-0.12138706 -0.060557168 -0.3974691 0.44507018 -0.25116724 0.45880756 0.37791198 -0.50608695
0.098316185 -0.12050324 0.028741682 -0.15228869 0.41518825 0.13482758 -0.2160869 0.6159499
-0.23623411 0.5733461 -0.46942553 0.2678946 0.1183576 0.35821664 -0.31295958 -0.26183912
0.4320763 -0.3941849 0.33798516 -0.108399995 -0.39919478 -0.05583998 -0.1671693 0.5743913
0.34022412 0.1327903 -0.40753332 0.3672578 0.30558467 -0.25324863 -0.0059517864 0.23155452
-0.007021373 -0.58206207 -0.11369916 -0.4033971 -0.3875013 -0.51566225 0.5097925 -0.48806536
-0.18701601 0.30933207 -0.12969899 -0.13598412 -0.377757 0.5113991 -0.4731201 -0.28949893
0.55420333 -0.42396182 -0.109609045 -0.17203102 0.20241927 -0.18365297 0.16388263 0.36068338
-0.38128716 0.6047834 -0.4156785 -0.03747936 -0.46426398 0.13440573 -0.38914257 0.009722812
0.28230333 0.42140484 0.2684792 0.47441682 -0.27662277 -0.35456228 0.30123866 -0.014984895
-0.11865468 -0.08537046 -0.02945152 -0.41246682 -0.32091674 0.25575507 -0.07529368 0.41434765
0.06414309 0.3212144 0.025871221 0.25687224 -0.21049254 0.27720526 -0.19192116 -0.20156325
0.54490477 -0.10246081 0.409284 0.12587842 0.044343114 -0.09995469 -0.14428237 -0.24708475
0.077199414 0.5997347 0.5043181 0.25154606 -0.041848395 0.11572879 0.44828296 0.3750429
0.17349167 0.12255484 0.0455335 0.001608257 0.567934 0.09954936 -0.19826077 -0.29817653
-0.49640208 0.40275264 -0.41018555 -0.18416487 -0.19227651 -0.118190974 -0.2292357 -0.03577609
0.10814807 -0.12271684 -0.16318648 0.43403986 -0.37337846 -0.28363216 0.24780066 -0.03885
0.041617416 0.7030583 -0.2480535 -0.42481846 0.2150475 -0.3894764 0.53594697 0.2917514
-0.2915811 0.15055813 -0.45918295 -0.3876147 0.36699486 0.48602736 -0.49558985 0.26157254
-0.085698575 -0.23250526 0.28287897 -0.10292082 -0.419102 -0.4113654 -0.64967287 0.4891022
-0.19246784 0.40924904 -0.041384507 0.4588551 -0.29423115 0.60386413 0.3439101 0.50311196
-0.17910393 -0.10861783 0.24884394 0.36011156 0.53584415 -0.23049633 0.5031075 -0.12654407
0.2386865 0.22651367 0.44065464 0.49574274 -0.42240712 -0.16667049 -0.20060131 -0.07520046
0.18006545 -0.39035296 -0.45769086 0.1845862 -0.32750028 0.031081712 0.4189508 -0.11556838
0.60399604 0.27859417 0.18092594 0.3235945 -0.29012042 -0.3130742 -0.30873832 0.08183241
0.26109508 -0.2538182 -0.44842336 -0.21949181 -0.32389233 0.44340318 0.46187043 0.14706583
0.49274907 -0.21761328 0.0515473 0.26589665 0.48396733 -0.4834484 0.2984197 0.19392304
-0.031805854 0.38413495 0.18359691 -0.15013 -0.036441747 -0.5215431 0.2094029 -0.33599308
0.1598143 -0.29316795 -0.27411327 -0.19034056 -0.014454001 -0.20338944 -0.13825129 0.0045500607
0.13028872 -0.23166656 0.27382234 0.1426962 -0.23904154 -0.2071707 0.5332589 -0.3405307
-0.1640759 0.5348723 0.22655861 -0.08993794 -0.12359608 0.21814696 0.17600664 -0.0073120063

l5.weight f4 [256, 256]
00000000: 52fa 043d 23bc bdbc 879f 99bd 84d1 f2bb
00000010: 2e12 933c 285a 12bd c3f2 cebd 178b 9b3d
00000020: 3f9b aabd 0b95 7ebe ae71 95bd 94b1 ec3b
00000030: 33cf 52be 7d72 8ebc 453d c7bd c812 b03b
00000040: d143 4d3d 0c49 8b3d 4988 1ebd 0aac 1e3a
00000050: 2179 f33c 9280 683b 6ebb 86bd 6026 f33b
00000060: 4a40 86be 33fa 84bd 2b3f c23d 0ad0 97bd
00000070: 8e9a 063d 75e6 2ebd 2c60 38bd cf6e f03c
00000080: 07cf 883c be81 aa3c d5fd 973b 7c4a 9d3d
00000090: 8bf7 9d3c 96fa 353d 3ba7 4f3d 8507 693d
000000a0: 9442 373d 5873 333d 65f8 343d a8da 2ebd
000000b0: 3191 3d3d de0e 09bd cdb5 96bc c7c1 8e3c
000000c0: b5cd 0fbe 97b7 113d a27d 7d3c a672 b9bd
000000d0: f668 c13d 342a 113e b80f 143c 59a4 8fbc
000000e0: 6dfb 43bd 06a1 843d e4ae 43be 84ab 89bc
000000f0: 3749 8e3d 807a d03c 8eee 303d 022b 073d
00000100: 99f4 dabc 57ba 64bc 06eb a4bc ca71 14bd
00000110: 5547 a53c fa15 433d 119f 4d3d 92ab 0f3d
00000120: 6810 24bd 6f17 293c 305d 25bd c92a 13bd
00000130: 23dd c93c f82a 293d 5b93 733b e9bb c53a
00000140: 5e49 843d e597 41bd 70da a6bc 0196 43bd
00000150: e8ca a53c 5a84 633d 2217 24bd 8560 12bd
00000160: be8c 48bc 7ce5 173c dcd0 bcbd 1d6e 6cbd
00000170: 281d 263d 52a1 0dbd 4e27 e03c 10f9 313c
00000180: f313 6d3c b94c 9cbd 16c8 fdbb c30b 973b
00000190: 72c6 49bc ba66 42bd 151a bd3d 95e7 1c3b
000001a0: 1250 423d edd2 c0bd 6931 2abd 3220 bdbd
000001b0: c41f 89bc a818 edba c64a 79bd 5ae2 cabb
000001c0: 1c60 293d e566 9f3b 3198 3b3d 3e99 aa3c
000001d0: 89af 95bd 40c6 c4bb fde0 9b3b c14c 6abd
000001e0: 8812 0d3d f2af 9cbc 3e75 8b3a fc64 3dbd
000001f0: c7e0 50bc 901b 42bd e7f3 92bc 6bd9 bb3c
00000200: 409d 33be eca9 ad3c 4f01 2c3d a0cf edbc
00000210: ea93 823d b1be 823d 7c70 b23d 68f2 76bd
00000220: 96be a73c 1fb1 0a3d 3c7f febb fdf6 523d
00000230: 336c 35bd cd56 02be 9291 adbc d558 90bb
00000240: 66fd 88bd 80d5 b03c 5b90 ebbc 980e 07bd
00000250: 5178 373d 64af 223e bfcc 2dbd f20b 973c
00000260: 54b2 e8bc 7240 b93d b064 e3bb 66a0 babc
00000270: 3b71 f23c 8ec7 93bb a5ae 4fbd 4b04 95bd
00000280: 95d6 10bd b10b 56b9 56dc 233d cdeb e3ba
00000290: 7f2f 68bc 4117 403d 6b2f 2bbd ea2c 40bc
000002a0: 28b3 ccbd 6882 c1bb f4e5 2abd 3834 803d
000002b0: 2287 27be 8738 a53b 9234 e3bc 8640 0b3d
000002c0: 1293 50be 8f51 f2bd d4ba 02bd f734 893d
000002d0: 555c e5ba 5ead 4d3d 6063 603d 309e 193c
000002e0: 8e53 20bd 4138 d73c 31b3 84bd c00c 1ebd
000002f0: 2db4 473d 93d9 cd3c 5825 f53c dcc0 073d
00000300: 87b3 31bd d12f f63c 897c 4bbc 76f4 14bd
00000310: f823 dfbc 34db 46bd 08fc 4a3c 9cbb 80bd
00000320: 0977 453d f89d 44bc 6f5f c03c 407c ec3c
00000330: b724 6e3d fab1 38bd 565e 0dbc 7cdc 20bd
00000340: fcdf 0bbd 69fc a53c bc20 203c e840 ecbc
00000350: 1f96 aabc 7384 713d d5ff 77bc 6fd4 7d3d
00000360: ef28 2bbd b45b 563c b0ce a3bd aa0e 37bb
00000370: 2357 64bd 1596 d8bd d3b3 203d b8d4 1d3d
00000380: c015 86bb ec91 163d 77b9 553d adf7 3d3d
00000390: 66cc a1bc fabf f53c abf5 7f39 499c 8bbd
000003a0: 2d78 abbd fb02 11be fc9e 3fbe 7880 713a
000003b0: 6cd2 dd3d f7d9 003d ae29 b9bc e9a0 113d
000003c0: 72d8 80bd e764 a43c 0f08 303d d99c 7bbb
000003d0: 8324 8e3c 299b e53c b08f cc3c 9c6d 1cbe
000003e0: 551a 0ebd e218 503d 2303 ee3d d3da 793c
000003f0: c590 8cbd a60e e5ba e19f f43c 8da3 06bd
0.032465287 -0.023161 -0.075011306 -0.00741023 0.017953005 -0.03573051 -0.10104897 0.07594889
-0.08330392 -0.24861543 -0.07297073 0.0072233174 -0.20586853 -0.017388577 -0.09728483 0.0053733326
0.050113503 0.06801042 -0.03870419 0.00060528575 0.029720845 0.0035477025 -0.06578718 0.007420346
-0.26220924 -0.06493034 0.094847046 -0.07412727 0.03286224 -0.04270025 -0.04501359 0.029349713
0.01670028 0.020813819 0.0046384134 0.076802224 0.019283077 0.04442843 0.050696593 0.056891937
0.04474123 0.043811172 0.0441822 -0.042688996 0.046281043 -0.033461444 -0.018397236 0.017426385
-0.14043315 0.035575476 0.015471848 -0.090550706 0.09443848 0.14176255 0.009036951 -0.017534422
-0.0478472 0.06476025 -0.19109684 -0.016805418 0.069475584 0.025449038 0.043196253 0.033
-0.026727961 -0.0139604425 -0.0201316 -0.03624133 0.020175615 0.04762838 0.050200526 0.03507573
-0.04005471 0.010320528 -0.040372074 -0.035929475 0.024641579 0.041300744 0.0037166688 0.0015085909
0.06459306 -0.047264 -0.020367831 -0.047750477 0.020238355 0.055546142 -0.040061124 -0.03573658
-0.012240587 0.009271022 -0.09219524 -0.0577222 0.04055515 -0.034577675 0.027362492 0.010862604
0.014470088 -0.07631821 -0.0077447994 0.0046095564 -0.012315379 -0.04746125 0.092334904 0.0023941745
0.047439642 -0.09415231 -0.041551027 -0.092346564 -0.01673878 -0.0018089013 -0.060862325 -0.006191534
0.041351423 0.004864561 0.045799438 0.020825025 -0.07308871 -0.0060050786 0.0047570453 -0.057202104
0.0344415 -0.019126866 0.0010639799 -0.046238884 -0.012748904 -0.047389567 -0.017938567 0.022930821
-0.17540455 0.02119919 0.041993435 -0.029029667 0.063758686 0.06384028 0.08712861 -0.06028977
0.02047662 0.033860322 -0.0077666324 0.051505078 -0.04429264 -0.12728424 -0.021187577 -0.004405121
-0.06688957 0.02158618 -0.028755357 -0.032972902 0.044792477 0.15887219 -0.04243159 0.018438313
-0.028405346 0.09045495 -0.006939493 -0.022781562 0.029595008 -0.0045098728 -0.050703663 -0.072762094
-0.03536089 -0.00020412986 0.04000505 -0.0017389 -0.01417148 0.046897177 -0.04179327 -0.011729458
-0.09995109 -0.005905438 -0.041723207 0.0625996 -0.16360143 0.005042139 -0.027735028 0.03399708
-0.20368603 -0.11831962 -0.031916454 0.06699555 -0.001749883 0.050214164 0.05478227 0.009376094
-0.039142184 0.026271941 -0.064794905 -0.038586378 0.048755813 0.025128162 0.029925033 0.03314291
-0.0433841 0.030052098 -0.012419828 -0.03636595 -0.02723883 -0.048548892 0.0123891905 -0.06285784
0.048209224 -0.012000553 0.023483006 0.02886784 0.058140483 -0.045091607 -0.0086284485 -0.03927277
-0.034149155 0.02026196 0.0097734295 -0.028839543 -0.020823536 0.058964204 -0.015136679 0.06197017
-0.041787084 0.013083387 -0.07998407 -0.0027932324 -0.055747163 -0.10575501 0.039233994 0.038532943
-0.0040919483 0.036760256 0.052178826 0.04637878 -0.019750785 0.029998768 0.00024410214 -0.068169184
-0.08372531 -0.14161293 -0.18712991 0.0009212564 0.108311504 0.031457867 -0.022602882 0.035553847
-0.06291284 0.020067645 0.042976435 -0.003839305 0.017351395 0.028028088 0.02497086 -0.15276188
-0.03469308 0.05080498 0.11621692 0.015249926 -0.0686355 -0.0017475679 0.029861392 -0.032870818
