3.1 PPO-Discrete/model/ppo_critic300000.pth (torch, 20511 bytes, 5 tensors)

C1.weight f4 [64, 4]
0.11405358 -0.25669372 -0.07708397 -0.4009401 0.04178174 -0.030698828 -0.36712593 -0.26876155
0.44527197 0.6391789 1.0739129 0.23937035 -0.24442218 0.3578437 -0.28197768 -0.105185375
-0.16765195 0.06615441 -0.5161769 0.06277304 -0.76462 -0.23486295 -0.33056787 -0.3832364
0.47140726 -0.38068086 0.29476857 0.5473655 0.25489792 -0.309953 -0.14448155 0.052329544
-0.29499003 0.36359587 -0.2972833 0.2765968 0.17437625 -0.25099227 0.22382638 -0.49144083
0.3559262 -0.6488226 0.018256234 0.48960721 0.25080398 -0.41068363 -0.12536885 0.31906894
0.26814008 -0.26466924 0.39753768 5.6413377e-05 -0.03075324 0.37065807 0.3773944 -0.39860818
-0.48575422 -0.4575185 -1.0597045 -0.41011173 0.18749098 0.012728045 0.5054101 -0.28418404
-0.48330125 0.3561049 -0.0681547 -0.5707224 -0.09185528 0.2843929 -0.15161869 0.60486573
0.22187135 -0.22551832 -0.42398828 0.39189443 0.49326074 0.51852906 0.4698333 0.42542925
-0.3403183 -0.24412495 -0.857326 0.4431859 0.40975374 0.7789639 1.0912511 0.4779736
0.3819725 -0.5226764 0.37833792 -0.06610384 -0.18015298 0.3828652 0.14307483 -0.072069466
0.19549464 -0.22807291 -0.35501254 -0.38651997 -0.18448403 0.05044671 0.37670192 0.16996303
-0.3594041 -0.79744595 -0.26562795 0.3061286 -0.24539034 0.34999272 0.03805679 0.4372734
-0.5253857 -0.7127868 -0.89791936 0.39582407 -0.08076981 -0.093902335 0.23313095 0.33005467
-0.009807528 0.048181474 0.36163583 -0.30135632 -0.0049899532 0.1857297 0.045428973 -0.22245261
-0.40472707 -0.5078423 0.10330264 -0.14292479 0.55242074 -0.30407286 0.76337194 0.038587477
-0.1343299 -0.014473001 -0.27645224 0.20448893 -0.0782231 0.1371864 0.22717215 0.14817865
-0.08485697 0.4268817 -0.20026858 -0.12851109 -0.29862747 0.31047148 0.19877969 -0.25097194
-0.17556058 0.17252532 0.781448 -0.10677829 0.6299144 -0.39217612 0.50923836 0.6131316
0.24854422 -0.5417109 0.077610426 0.55914164 -0.08376644 0.38976577 -0.13547036 -0.52787226
0.21239683 -0.3014233 0.010902418 0.48167887 -0.3002804 0.17146236 -0.4822415 -0.26421455
-0.1377288 0.038411666 -0.41784188 0.39561534 -0.14598554 0.30822408 -0.41271585 0.17566586
0.54525137 0.58889526 0.1031259 0.08748083 0.093629435 -0.092759356 0.25080925 -0.17231368
-0.6807797 -0.34062973 -1.0577351 0.055841073 -0.16529328 0.41543445 -0.19444366 -0.295911
0.13172635 0.119854026 0.3566339 0.559318 -0.485085 -0.1703674 -0.9802283 -0.8429362
0.02896578 -0.09559672 -0.13416223 0.34729522 0.22614159 -0.32048476 0.20192778 -0.45165342
0.30559233 0.7321035 0.4321071 -0.23109952 0.21671824 -0.27680707 -0.0035889824 0.2057231
-0.29165268 0.11654313 0.5151167 0.42086196 0.011672682 0.78804034 0.14506444 -0.28416166
-0.43804768 -0.54596597 -0.07944236 0.29312432 0.21954302 -0.37116012 -0.10768188 -0.34006193
0.10232134 -0.40092462 -0.12708217 -0.09135512 -0.6386133 -0.103735104 -0.48862794 -0.30402458
-0.16975635 0.45078892 -0.08392652 -0.21763776 -0.5440304 -0.63068354 -0.5467115 0.29011366
00000000: ec94 e93d 5c6d 83be 33de 9dbd 0548 cdbe
00000010: 5423 2b3d 1c7c fbbc eef7 bbbe 1d9b 89be
00000020: b0fa e33e 3aa1 233f fa75 893f 801d 753e
00000030: cf49 7abe 4a37 b73e 615f 90be 6e6b d7bd
00000040: f4ac 2bbe f77b 873d 2b24 04bf 278f 803d
00000050: 23be 43bf ea7f 70be 3140 a9be 9037 c4be
00000060: 4b5c f13e 9ae8 c2be e8eb 963e 2520 0c3f
00000070: fb81 823e 29b2 9ebe f9f2 13be 8157 563d
00000080: ef08 97be 3d29 ba3e 8435 98be 199e 8d3e
00000090: b08f 323e 0f82 80be be32 653e 229e fbbe
000000a0: f53b b63e 3d19 26bf 198e 953c ccad fa3e
000000b0: 6169 803e 2045 d2be b160 00be 015d a33e
000000c0: a849 893e ba82 87be 0f8a cb3e 679d 6c38
000000d0: 38ee fbbc e5c6 bd3e d739 c13e 5f16 ccbe
000000e0: c7b4 f8be dd3f eabe 66a4 87bf 2afa d1be
000000f0: a3fd 3f3e 4a89 503c 8e62 013f 9280 91be
00000100: 4373 f7be 6253 b63e b194 8bbd dd1a 12bf
00000110: 9f1e bcbd f29b 913e ee41 1bbe 7bd8 1a3f
00000120: 3e32 633e 46ee 66be fe14 d9be 63a6 c83e
00000130: ac8c fc3e 52be 043f fe8d f03e ddd1 d93e
00000140: 333e aebe e4fb 79be b779 5bbf 43e9 e23e
00000150: 3ecb d13e 2e6a 473f 1eae 8b3f f5b8 f43e
00000160: e691 c33e 1fce 05bf 82b5 c13e 7361 87bd
00000170: 067a 38be e806 c43e 3582 123e 2899 93bd
00000180: bf2f 483e f28b 69be 34c4 b5be f2e5 c5be
00000190: 62e9 3cbe 36a1 4e3d 13df c03e ca0a 2e3e
000001a0: d003 b8be 6b25 4cbf 6300 88be e3bc 9c3e
000001b0: 9b47 7bbe 3f32 b33e 70e1 1b3d 4de2 df3e
000001c0: ad7f 06bf 3279 36bf 0bde 65bf 74a9 ca3e
000001d0: a46a a5bd de4f c0bd e1b9 6e3e edfc a83e
000001e0: c1af 20bc f059 453d 5528 b93e 604b 9abe
000001f0: c382 a3bb ed2f 3e3e bb13 3a3d 9eca 63be
00000200: 6338 cfbe f401 02bf 5690 d33d e05a 12be
00000210: 726b 0d3f 70af 9bbe 586c 433f e70d 1e3d
00000220: c78d 09be 2a20 6dbc 268b 8dbe 8c65 513e
00000230: 6f33 a0bd 977a 0c3e d19f 683e 25bc 173e
00000240: 7ec9 adbd 3d90 da3e 3513 4dbe 6998 03be
00000250: b3e5 98be 1ef6 9e3e e78c 4b3e 657f 80be
00000260: 27c6 33be 7aaa 303e fa0c 483f 93ae dabd
00000270: 1242 213f 4fcb c8be 725d 023f 31f6 1c3f
00000280: 6082 7e3e 91ad 0abf 37f2 9e3d e823 0f3f
00000290: bd8d abbd 618f c73e beb8 0abe a322 07bf
000002a0: 8e7e 593e 2854 9abe 0ea0 323c 9d9e f63e
000002b0: 5abe 99be d493 2f3e 5ce8 f6be 2147 87be
000002c0: c708 0dbe 8d55 1d3d 5fef d5be 188e ca3e
000002d0: 3c7d 15be 8ccf 9d3e 7e4f d3be c0e1 333e
000002e0: 9895 0b3f d7c1 163f ac33 d33d 2629 b33d
000002f0: cac0 bf3d 9ef8 bdbd 126a 803e ff72 30be
00000300: 9447 2ebf 0567 aebe dd63 87bf 9cb9 643d
00000310: a442 29be d3b3 d43e 3d1c 47be a681 97be
00000320: 46e3 063e 0776 f53d b898 b63e 772f 0f3f
00000330: 105d f8be cb74 2ebe 3ef0 7abf abca 57bf
00000340: a549 ed3c 37c8 c3bd d361 09be aed0 b13e
00000350: a991 673e 9416 a4be 28c6 4e3e 1e3f e7be
00000360: 9976 9c3e 236b 3b3f 243d dd3e 5aa5 6cbe
00000370: 63eb 5d3e a8b9 8dbe 2235 6bbb 14a9 523e
00000380: 8053 95be 2aae ee3d b0de 033f 387b d73e
00000390: c73e 3f3c 03bd 493f c68b 143e a37d 91be
000003a0: c947 e0be 6dc4 0bbf adb2 a2bd 6414 963e
000003b0: e3cf 603e b308 bebe 5188 dcbd 991c aebe
000003c0: da8d d13d fe45 cdbe d421 02be 6518 bbbd
000003d0: 297c 23bf 1273 d4bd 712d fabe 1ca9 9bbe
000003e0: 9cd4 2dbe cecd e63e abe1 abbd 6fdc 5ebe
000003f0: 9445 0bbf 7a74 21bf 49f5 0bbf c789 943e

C1.bias f4 [64]
0.6191515 0.8678118 0.110632494 0.6092617 0.62449604 -0.4304756 -0.14156863 0.3672499
0.6092796 0.47162056 0.33382544 0.19539154 0.67195475 0.0062434603 -0.28071904 0.664814
-0.26792362 0.46587354 0.7261092 -0.30852285 0.07979876 -0.24776599 0.6633389 0.502416
0.32051113 0.6931731 -0.4469954 0.5169357 -0.18232265 0.6876632 0.49513623 0.28106925
0.07271616 -0.14037019 0.70167464 0.5457561 0.21585464 0.8088165 0.26404607 -0.008043132
-0.14591125 0.16052516 0.21470933 0.91409093 0.7166945 0.71511006 -0.37111646 0.6435632
-0.33623615 0.6205924 0.5734113 0.13207257 0.9124651 0.37921 0.10533189 0.5966974
0.22979167 -0.29518282 0.00441624 -0.4988312 0.92357165 -0.34609455 0.33034545 0.0025532742
00000000: b680 1e3f ea28 5e3f 4a93 e23d 93f8 1b3f
00000010: f9de 1f3f 4c67 dcbe 5ef7 10be 2e08 bc3e
00000020: bff9 1b3f 4078 f13e 2beb aa3e b814 483e
00000030: 3a05 2c3f f195 cc3b 68ba 8fbe 4031 2a3f
00000040: 492d 89be fa86 ee3e 4be2 393f b5f6 9dbe
00000050: 886d a33d 5eb6 7dbe 94d0 293f 569e 003f
00000060: 091a a43e cb73 313f 95dc e4be e655 043f
00000070: cab2 3abe b20a 303f 7f82 fd3e 4fe8 8f3e
00000080: 36ec 943d 34bd 0fbe f3a0 333f acb6 0b3f
00000090: 0009 5d3e 990e 4f3f 0c31 873e 57c7 03bc
000000a0: c269 15be b560 243e c3dc 5b3e dd01 6a3f
000000b0: 4a79 373f 7411 373f fa02 bebe 8fc0 243f
000000c0: 2527 acbe 25df 1e3f 15cb 123f 083e 073e
000000d0: 5097 693f d027 c23e 3fb8 d73d 29c1 183f
000000e0: 824e 6b3e 3422 97be 1bb6 903b ce66 ffbe
000000f0: 316f 6c3f 4e33 b1be 0a23 a93e d554 273b

C2.weight f4 [64, 64]
0.3307762 0.37740365 -0.102894574 0.35335293 0.45750022 -0.26640603 0.05930766 0.2337457
0.36319757 0.4163264 0.23136581 0.18933217 0.33320683 0.2114571 -0.5330498 0.2665012
-0.21686193 0.39971557 0.38155445 -0.46334404 0.061388865 -0.43499115 0.44336542 0.2829116
0.3974589 0.39058578 -0.13476469 0.38683805 0.02601193 0.3418263 0.2907593 0.099462725
-0.054063942 -0.32763335 0.4567309 0.3603625 0.08918738 0.227361 0.39146858 -0.011377932
-0.12564965 0.18990716 0.043330662 0.25043213 0.3525703 0.34345064 -0.54975986 0.25116113
-0.34861806 0.27694446 0.25197947 -0.18276213 0.3603723 0.41566935 -0.03608436 0.42152897
0.08005661 -0.25865418 -0.070520684 -0.0049050357 0.24956866 -0.37302473 0.108036734 -0.12494743
0.43493438 0.37997323 0.038807526 0.2988601 0.35008508 -0.46213108 -0.08512105 0.08669224
0.42282858 0.37093696 0.23100998 0.10438478 0.2877242 0.18090494 -0.38451833 0.348739
-0.23680702 0.24976629 0.41530135 -0.4738592 -0.05496905 -0.47697088 0.3898109 0.30162403
0.2750718 0.43178532 -0.16606027 0.43535835 -0.07458869 0.41310498 0.47901812 0.16842566
-0.043804653 -0.1783121 0.36369425 0.35558113 0.21493419 0.35655758 0.17337622 -0.14992093
0.08068569 0.0995289 0.018148093 0.21469449 0.3698117 0.3038954 -0.63469064 0.4909682
-0.22839639 0.3163158 0.18611136 -0.17069083 0.38793364 0.3769832 -0.07921264 0.4583616
0.17422438 -0.15822272 0.101042055 0.04749003 0.27618924 -0.37753823 0.16223024 -0.075487085
0.27264234 0.46517012 0.05264062 0.409327 0.4295564 -0.40380916 -0.05358007 0.14621289
0.30768168 0.51925635 0.13799758 0.048988026 0.3790204 -0.016590932 -0.49387905 0.44509387
-0.27348983 0.38174233 0.4791389 -0.45384797 0.035704974 -0.5893886 0.5015855 0.33546203
0.46613535 0.2922201 -0.0044330256 0.34272814 -0.07754635 0.26904327 0.29072493 0.126457
0.063110426 -0.28024945 0.440438 0.46736732 0.13066472 0.35372165 0.406195 0.028022317
0.048416827 0.15027395 0.037550926 0.31636554 0.25008002 0.39754865 -0.59806126 0.47815326
-0.17691381 0.30325982 0.08588784 -0.07618111 0.48841354 0.51931244 0.0014284147 0.33006665
0.16293521 -0.13406779 0.06931212 0.035588507 0.33400437 -0.35271746 0.12652673 0.011626408
-0.09070974 0.056703173 0.012009491 -0.020817501 -0.11741069 -0.09617694 -0.11848412 0.05490214
0.09525092 0.004507409 -0.116503425 0.0038394623 -0.10395442 -0.09676622 -0.08523837 -0.13836144
0.060533226 -0.11930597 0.10341741 -0.0635965 -0.045293316 -0.04626375 -0.107201084 -0.06621896
0.05784985 -0.12963946 -0.07624481 -0.08565465 -0.022469383 0.0672373 -0.06501708 -0.107336566
-0.06581119 0.096921414 -0.05954707 0.038318522 0.012527838 0.040433343 0.082238644 -0.05427169
-0.12776391 -0.020710383 -0.13623782 -0.10802004 -0.12956508 0.06366989 -0.006585002 -0.12583393
-0.0025068407 -0.112493634 -0.008209765 0.028989999 0.03775339 -0.08796739 -0.01807224 0.04825515
-0.016731614 -0.07488005 0.049772464 -0.11626293 0.09391379 0.017680496 0.018652542 -0.058081817
00000000: 805b a93e 0d3b c13e 64ba d2bd adea b43e
00000010: 783d ea3e 5f66 88be 97ec 723d 085b 6f3e
00000020: 08f5 b93e bc28 d53e 29eb 6c3e 4be0 413e
00000030: 169a aa3e 3688 583e f475 08bf d872 883e
00000040: 0e11 5ebe 85a7 cc3e 1b5b c33e 6e3b edbe
00000050: e472 7b3d 29b7 debe cb00 e33e cad9 903e
00000060: bc7f cb3e dcfa c73e c1ff 09be a30f c63e
00000070: f916 d53c db03 af3e 67de 943e 1db3 cb3d
00000080: 2772 5dbd 8fbf a7be a2d8 e93e 6f81 b83e
00000090: e0a7 b63d 52d1 683e 926e c83e 816a 3abc
000000a0: 4daa 00be 0677 423e 7e7b 313d a438 803e
000000b0: 1884 b43e c3d8 af3e 10bd 0cbf 3198 803e
000000c0: 117e b2be aacb 8d3e 7403 813e ff25 3bbe
000000d0: b882 b83e 9dd2 d43e 32cd 13bd a5d2 d73e
000000e0: b8f4 a33d 526e 84be 266d 90bd 6cba a0bb
000000f0: ed8e 7f3e 19fd bebe 5d42 dd3d 70e4 ffbd
00000100: b8af de3e da8b c23e a4f4 1e3d 3104 993e
00000110: 5a3e b33e 729c ecbe f253 aebd b38b b13d
00000120: fd7c d83e 73eb bd3e e18d 6c3e b0c7 d53d
00000130: 9650 933e 253f 393e 96df c4be eb8d b23e
00000140: 8a7d 72be bcc2 7f3e 61a2 d43e ac9d f2be
00000150: 3a27 61bd 8735 f4be 4b95 c73e 776e 9a3e
00000160: 36d6 8c3e f712 dd3e b40b 2abe 4ae7 de3e
00000170: f5c1 98bd 7f82 d33e dd41 f53e c777 2c3e
00000180: 826c 33bd 7297 36be 2236 ba3e bb0e b63e
00000190: b517 5c3e b78e b63e 8989 313e df84 19be
000001a0: 8a3e a53d cfd5 cb3d 4fab 943c dfd8 5b3e
000001b0: f657 bd3e 2e98 9b3e 167b 22bf 2f60 fb3e
000001c0: bee0 69be 25f4 a13e fa93 3e3e 94c9 2ebe
000001d0: 3d9f c63e f103 c13e 3d3a a2bd 5fae ea3e
000001e0: e067 323e 2305 22be 23ef ce3d e884 423d
000001f0: ad68 8d3e b14c c1be af1f 263e f998 9abd
00000200: c797 8b3e c72a ee3e b19d 573d 4f93 d13e
00000210: d1ee db3e 13c0 cebe c776 5bbd d5b8 153e
00000220: 7488 9d3e fced 043f 3d4f 0d3e aba7 483d
00000230: f60e c23e b5e9 87bc b7dd fcbe 58e3 e33e
00000240: dc06 8cbe bb73 c33e b251 f53e c35e e8be
00000250: 613f 123d 2ce2 16bf e867 003f aec1 ab3e
00000260: 4ba9 ee3e df9d 953e ea42 91bb 107a af3e
00000270: 9fd0 9ebd 0ac0 893e e6d9 943e f27d 013e
00000280: 0a40 813d db7c 8fbe 1781 e13e c54a ef3e
00000290: f9cc 053e 011b b53e cbf8 cf3e 0f8f e53c
000002a0: b950 463d 6ae1 193e 00cf 193d aafa a13e
000002b0: 7d0a 803e 7f8b cb3e 8b1a 19bf 81d0 f43e
000002c0: e528 35be df44 9b3e f7e5 af3d d804 9cbd
000002d0: 5711 fa3e a9f1 043f a539 bb3a 7ffe a83e
000002e0: 7dd8 263e 1149 09be 83f3 8d3d 41c5 113d
000002f0: 9f02 ab3e 6297 b4be 3990 013e b17c 3e3c
00000300: 07c6 b9bd 9641 683d 75c3 443c 7789 aabc
00000310: 0475 f0bd 6af8 c4bd cda7 f2bd 11e1 603d
00000320: ea12 c33d e3b2 933b 5999 eebd 7d9f 7b3b
00000330: 0ee6 d4bd 5e2d c6bd 7491 aebd 9fae 0dbe
00000340: b0f1 773d b056 f4bd 82cc d33d e23e 82bd
00000350: 7c85 39bd 0f7f 3dbd 3e8c dbbd ce9d 87bd
00000360: f7f3 6c3d 35c0 04be 3d26 9cbd b56b afbd
00000370: b611 b8bc b6b3 893d ad27 85bd 46d3 dbbd
00000380: 04c8 86bd bc7e c63d a1e7 73bd e2f3 1c3d
00000390: 9041 4d3c 6f9d 253d bc6c a83d fe4b 5ebd
000003a0: 8bd4 02be d2a8 a9bc ed81 0bbe 9c39 ddbd
000003b0: b5ac 04be 5c65 823d 00c7 d7bb 9cda 00be
000003c0: cf49 24bb 1063 e6bd 4082 06bc 6f7c ed3c
000003d0: 4ca3 1a3d 3f28 b4bd 3c0c 94bc 31a7 453d
000003e0: bd10 89bc b65a 99bd 36de 4b3d 421b eebd
000003f0: e055 c03d b0d6 903c 37cd 983c 33e7 6dbd

C2.bias f4 [64]
0.419575 0.27017295 0.25374135 0.094388865 0.36797458 -0.014341977 -0.012325405 0.046882145
-0.02256128 -0.07957069 0.19990517 0.0041932017 0.37854254 0.044744607 -0.07560189 0.069082655
-0.016085194 0.061996132 -0.05720413 -0.073106356 0.39710504 -0.23032244 0.09169397 0.31995735
-0.1399075 -0.013206112 0.36533773 0.35060388 0.38274348 0.43389696 -0.14754911 -0.020838607
-0.13923225 0.3399093 -0.103236675 -0.19454956 0.39273903 0.33737287 0.07933177 -0.19371122
0.07254636 0.35091504 0.03609275 0.07117094 0.4161277 0.028780488 -0.06265649 0.40333787
0.33139205 0.2258736 0.4125717 0.2323323 -0.10782288 -0.09412664 -0.103953056 0.38343686
0.379361 -0.13311467 -0.09131743 0.31467602 0.025755981 0.37554204 0.4183707 0.20951124
00000000: 89d2 d63e 1c54 8a3e 63ea 813e f34e c13d
00000010: 2a67 bc3e 9dfa 6abc 7ff0 49bc 7e07 403d
00000020: 6fd2 b8bc f5f5 a2bd f1b3 4c3e 2067 893b
00000030: 54d0 c13e 1f46 373d 2ad5 9abd 357b 8d3d
00000040: 19c5 83bc a8ef 7d3d e14e 6abd c9b8 95bd
00000050: 5a51 cb3e a5d9 6bbe 0cca bb3d 73d1 a33e
00000060: e943 0fbe 735e 58bc 8c0d bb3e 5a82 b33e
00000070: f4f6 c33e be27 de3e 1d17 17be bab5 aabc
00000080: e692 0ebe 9708 ae3e c06d d3bd 0038 47be
00000090: 1715 c93e 23bc ac3e b278 a23d 3c5c 46be
000000a0: 3093 943d 23ab b33e fed5 133d 12c2 913d
000000b0: b10e d53e 0fc5 eb3c 0c52 80bd 4d82 ce3e
000000c0: 38ac a93e 694b 673e 993c d33e 85e8 6d3e
000000d0: 3ed2 dcbd 78c5 c0bd 57e5 d4bd d651 c43e
000000e0: 9b3b c23e 364f 08be a204 bbbd 371d a13e
000000f0: 35fe d23c 0c47 c03e af34 d63e 1d8a 563e

C3.weight f4 [1, 64]
0.495449 0.48050758 0.43363056 -0.09453924 0.50418353 -0.06512753 -0.59488326 -0.017229406
-0.61886716 -0.3630809 0.5299629 0.02880536 0.5486844 -0.070665285 -0.553072 -0.030507084
-0.023935005 -0.62865055 -0.5172949 0.067681745 0.4496876 -0.54479927 -0.101369746 0.4786993
-0.07420412 -0.60819465 0.52106535 0.44106087 0.5458717 0.42225084 -0.60826725 -0.07467929
-0.54616904 0.45845708 -0.45203593 -0.7495359 0.4888865 0.44446468 -0.00883801 -0.721486
-0.09104404 0.45962992 -0.510529 -0.0946654 0.44174293 -0.70470583 -0.09506436 0.5520644
0.41610193 0.4361831 0.40654957 0.4160217 -0.7391337 -0.59458643 -0.38344553 0.55935067
0.47418702 -0.6489222 -0.0680465 0.45098063 -0.52998555 0.4333654 0.44129682 0.5012272
00000000: 7eab fd3e 1705 f63e d304 de3e ca9d c1bd
00000010: 2c12 013f 9561 85bd 454a 18bf af24 8dbc
00000020: 146e 1ebf bde5 b9be a6ab 073f 38f9 eb3c
00000030: 9576 0c3f f6b8 90bd 2096 0dbf fee9 f9bc
00000040: 5813 c4bc 3eef 20bf 706d 04bf ba9c 8a3d
00000050: 743d e63e f777 0bbf f19a cfbd 1318 f53e
00000060: 54f8 97bd a5b2 1bbf 8a64 053f bbd2 e13e
00000070: 3fbe 0b3f 4331 d83e 67b7 1bbf 75f1 98bd
00000080: bcd1 0bbf e3ba ea3e 4171 e7be 96e1 3fbf
00000090: 554f fa3e e090 e33e 4dcd 10bc 4eb3 38bf
000000a0: 4c75 babd 9d54 eb3e 07b2 02bf efdf c1bd
000000b0: 212c e23e 9a67 34bf 1ab1 c2bd 1854 0d3f
000000c0: 500b d53e 6453 df3e 4427 d03e cc00 d53e
000000d0: de37 3dbf d136 18bf f952 c4be 9b31 0f3f
000000e0: a4c8 f23e c41f 26bf f75b 8bbd efe6 e63e
000000f0: 22ad 07bf 12e2 dd3e a8f1 e13e 6d50 003f
