3.1 PPO-Discrete/model/ppo_actor300000.pth (torch, 20767 bytes, 6 tensors)

l1.weight f4 [64, 4]
00000000: 17c2 cb3e c3e6 45bb 7c51 11be fe6a 15be
00000010: f785 ef3d ff95 df3e 946d 933e b497 ff3d
00000020: 273e 84bd e2cb 4f3e c314 293e c58a cf3e
00000030: 036c cabe fbe9 083f 255d 1abe 926f 993e
00000040: 7565 24be f905 6cbe 0ad3 4cbb 8177 633e
00000050: b221 013f a51c c2be b4d3 513f 543b a13e
00000060: c583 de3e 6ff3 eebe f86d acbe 8279 05bf
00000070: c23f 943d 76a7 a7be fd8c b43e 1456 203e
00000080: 6242 d43e 34e0 06bf 0d77 b33d 4fa7 f4be
00000090: 0b31 003f c3f1 bebe 5cfc 3d3f 79a4 0c3f
000000a0: 59d1 8e3e 7c41 983e a8cc 153f efaa cc3e
000000b0: 88b6 ea3e 2def 9dbe 9168 20bf 08d8 b53e
000000c0: caae 64be 910c 013f 0502 053e 71c7 84be
000000d0: 7e72 5d3e a987 99be f7b6 06bf 9a4d f3bd
000000e0: 0274 553e 8b0b 003f de74 f13e cb1d 85be
000000f0: 821c 813e f64b 803e 9ac2 293f a0b2 4d3e
00000100: 3b80 30bd 16dd 6c3e 0e6a f63e 1da1 803e
00000110: d6ab b13e d171 01bf 939c 25be 7585 7c3d
00000120: 0960 2a3e d24b b6be eab4 d83e 3b98 3b3e
00000130: 6e58 ccbe e5f1 313c a865 633e 476e 8cbe
00000140: 3335 db3e 2512 173f c3b9 33be 1a19 6f3e
00000150: 6100 ffbd 816a ca3e 0852 fbbe 7789 02bf
00000160: 90c5 203d 40f1 d5bd d4ce 1dbf 2a60 31be
00000170: 3514 103d 611a bebc a0cd 493e eb88 213e
00000180: 4047 053f 0a79 f53e f6b5 6e3e f5a3 003f
00000190: 1ccb 3fbe 6732 d5be c8b9 3ebf 719e 9cbe
000001a0: c94f 443b 5137 5d3e 8a74 2bbf 7c21 e8be
000001b0: 5cb7 04bf efac 94bd 7493 07bf e77a 44be
000001c0: 9f5e 6c3e 1491 b73e 5442 51bf fc07 dfbe
000001d0: 6e6b 88be 982e a83e ebb0 99be ac5e 89be
000001e0: fdaa 843e 107a b13d 966e 25bf fd9b 493e
000001f0: 2752 073e 38e1 893e 4b13 25bf f62d 69be
00000200: b446 8f3d 8ff8 93bd 2c88 173f 8611 0f3f
00000210: f502 e63e 99eb a73e 3ad9 403f b383 2b3e
00000220: 47ff 993b d262 043f e2f9 093e c09a eb3e
00000230: 81d0 d33e ee28 30be 0dc7 cabe 1252 c8be
00000240: bb1f 683c ed43 22bd 70d8 aebe 9815 ccbe
00000250: 34e7 a9be 26a3 48be d7a0 d43e a1b4 0f3f
00000260: 1c2e f13e 3f9a bb3e 5a04 6f3e af9a 663e
00000270: 98a1 7b3e e855 fcbe 1e4c 85be 5c7f e4be
00000280: 15c4 2cbe 9d6a 7fbe 1201 933e 48b4 083e
00000290: 0889 823e 4124 27be 5903 323f 41c1 14be
000002a0: 0e52 6c3d 92f2 0bbd 90e9 1cbe 46fb d3be
000002b0: 605d 1a3e ce0e 2f3e b0dd 3b3f 12cc e83d
000002c0: 409d b73d 5fd5 183e 5eef 183c ca33 aa3e
000002d0: 9d90 673e abff 6b3d 2b83 9ebe 2a3f 91be
000002e0: 0bdd 63bd ef80 83bd 9b84 3bbf d76d 0bbd
000002f0: 3996 6e3e c977 143e f17e 1ebe 3f13 7d3e
00000300: 40b4 983e b989 08be 264e 1cbf 6da8 f3be
00000310: 29f6 b5be 2cc8 9b3d 20f3 36be 1951 c9be
00000320: 9ddd c03d f907 ecbd bfcb 7ebe db01 d8be
00000330: 3bd1 b1be 802a 103f 9abb 473f f295 4dbe
00000340: d0ec 233d f222 6d3c 4543 0fbf 2577 1a3d
00000350: aa51 c3be d7dd 98be b8e7 af3e 09af b9be
00000360: 014b 2abe 52f6 723e b8d5 473d 133f 78be
00000370: 46b4 4d3e 604c 823e 5b05 763c 5d2a 02bf
00000380: 7e2c 14be 58e5 bb3e 872b 883d 11d5 5a3e
00000390: 70a0 8bbe 122b b8be da1a f0be 9cb9 e2be
000003a0: 4da8 a5bd aba9 ebbd efd7 21bf 7a9e efbe
000003b0: 39f0 41be 97d0 593c 0eca c5bd 11d5 b5be
000003c0: 5979 b03e 8395 d73e 4a13 393f ec9b 6f3e
000003d0: b133 c73d a678 0abe 8d28 59be e3dc e6be
000003e0: 3bbe b3be bb77 db3e ff80 f53e 3b43 b0be
000003f0: 78e2 203d 5965 cfbe 3b9c 713e c25c 453e
0.39796516 -0.003019736 -0.1419124 -0.14591596 0.11695474 0.43669125 0.2879454 0.12480107
-0.06457167 0.20292619 0.16511826 0.4053556 -0.3953553 0.53482026 -0.15074594 0.29967934
-0.16054328 -0.23049153 -0.0031253719 0.22213556 0.5044204 -0.3791248 0.8196366 0.31490576
0.43459907 -0.466701 -0.3367765 -0.5213853 0.07238723 -0.3274495 0.35263816 0.15657836
0.41456896 -0.52685857 0.087629415 -0.47783896 0.50074834 -0.37293825 0.74213195 0.54938465
0.27894095 0.2973746 0.58515406 0.39974162 0.45842385 -0.3084654 -0.62659556 0.3551638
-0.22332302 0.504098 0.12989052 -0.25933412 0.21625707 -0.29986313 -0.5262293 -0.11880036
0.20845035 0.50017613 0.47159475 -0.25999293 0.25217062 0.25057954 0.66312563 0.20087671
-0.04309104 0.23131213 0.48127788 0.2512292 0.34701413 -0.50564295 -0.1617301 0.061650712
0.16638197 -0.3560472 0.42325526 0.1831979 -0.39911216 0.010860895 0.22206748 -0.27427885
0.42814025 0.5901206 -0.17551331 0.23349419 -0.12451244 0.3953438 -0.49086022 -0.50991005
0.03925091 -0.104464054 -0.6164372 -0.1732184 0.03517552 -0.023205938 0.19707346 0.15774886
0.52061844 0.47943908 0.233116 0.5025018 -0.18729824 -0.41640016 -0.7450223 -0.3058963
0.0029954782 0.21603133 -0.669747 -0.45338047 -0.51842284 -0.07259547 -0.5295937 -0.19187509
0.2308297 0.35852873 -0.81741834 -0.4356078 -0.26644462 0.32848048 -0.3001779 -0.2683004
0.25911704 0.0866586 -0.64621866 0.19688411 0.13214932 0.2692964 -0.64482564 -0.22771439
0.069959074 -0.07225143 0.59192157 0.55886114 0.4492413 0.32796934 0.7533146 0.16749458
0.004699621 0.5171329 0.13474229 0.46016502 0.41370013 -0.17203113 -0.3960499 -0.39125115
0.014167721 -0.03961556 -0.34149504 -0.39860225 -0.33184206 -0.19593486 0.4152896 0.5613499
0.4710549 0.36641118 0.23341504 0.22519945 0.24573362 -0.4928429 -0.26034635 -0.44628417
-0.16871674 -0.24943013 0.28711754 0.13350022 0.25495172 -0.16322424 0.6953636 -0.14526846
0.05769544 -0.03416688 -0.15323472 -0.41402644 0.15074682 0.17095491 0.73385143 0.11367048
0.0896554 0.14925145 0.009334413 0.33242637 0.2261376 0.05761687 -0.30959448 -0.28368503
-0.055630725 -0.064210765 -0.73249215 -0.0340403 0.23299493 0.1449882 -0.15478112 0.24714373
0.2982502 -0.13333787 -0.61056745 -0.47589436 -0.35539368 0.07606539 -0.17866182 -0.39319685
0.094172694 -0.11524958 -0.2488241 -0.42188916 -0.34729943 0.5631485 0.7802063 -0.20076731
0.040020764 0.014473664 -0.5596202 0.03771128 -0.38148242 -0.2985675 0.34356475 -0.36266354
-0.16630174 0.23726776 0.048787802 -0.24242811 0.200883 0.25448895 0.015015925 -0.5084589
-0.14470097 0.36698413 0.06648927 0.21370341 -0.27270842 -0.3597036 -0.46895486 -0.44282234
-0.080887415 -0.11506971 -0.63220114 -0.46800596 -0.18939294 0.013294361 -0.096576795 -0.3551412
0.3446758 0.42106256 0.7229506 0.23399323 0.09726656 -0.13522586 -0.21206875 -0.45090398
-0.35106072 0.42864785 0.4794998 -0.34426293 0.039278477 -0.4050701 0.23594753 0.19273666

l1.bias f4 [64]
00000000: 9f88 ce3e 2fca 92be ad7e d63e 93fe 013e
00000010: 5a63 e6be f3fd d83e 74ee 1e3e bf2f dcbe
00000020: b4d6 32be 3b37 b83e 67e5 da3b c282 bf3e
00000030: d0df b7be bb76 9f3d 68b9 23bb 3086 30bd
00000040: 1265 ac3e 6399 b8be 225f 8ebe 391d 033f
00000050: d2a4 71be d264 bb3e 7f55 3fbe 3d3e 013e
00000060: a02e 2b3e c390 01be ba35 a23e 4196 033e
00000070: eb91 0ebc 8ac5 b1bd ab88 463e 7570 3fbe
00000080: 8caa 5c3c 2bde 343e 70d8 9b3e a9be 813e
00000090: b3ae d4be ab48 f8be b8b8 abbe 7ceb a43d
000000a0: 6149 b83e 0096 d93e db16 c43e 0fff bebe
000000b0: 6dc1 123e 6105 0abe 7a82 573e ff5d 663e
000000c0: 056f e13e 0560 343e 2dc3 78be f787 32be
000000d0: 7cf6 e7be 1106 c9be 5c32 cabe d023 cebe
000000e0: b45d d13e 2a8c 353e 77ca 8e3e 7ca5 a0be
000000f0: eea1 283e ce24 8cbe 2320 aebe 4304 eebc
0.4033861 -0.2866988 0.4189352 0.12694769 -0.44997674 0.42381248 0.1552065 -0.43005177
-0.17464715 0.35979638 0.006680179 0.37404448 -0.35912943 0.07786318 -0.0024982337 -0.04309672
0.3367086 -0.36054525 -0.27806956 0.51216465 -0.2359803 0.36600357 -0.18684958 0.12621398
0.16717005 -0.12652878 0.31681615 0.12850286 -0.008701782 -0.08680256 0.19388072 -0.18695243
0.013468396 0.17662875 0.30438566 0.25340775 -0.41539535 -0.4849294 -0.33539367 0.080527276
0.35993484 0.42497253 0.38298687 -0.3730397 0.14331599 -0.13478614 0.21045867 0.22496794
0.44030014 0.17614754 -0.24293204 -0.17434679 -0.4530524 -0.3926244 -0.39491546 -0.40261698
0.40891802 0.1772925 0.27888843 -0.31376255 0.16468021 -0.2737183 -0.34008893 -0.029054767

l2.weight f4 [64, 64]
00000000: fa91 d23b d771 b83d 0c3f c6bd abc7 763d
00000010: b461 da3d a7b8 f53c 0676 34be c3ed 73ba
00000020: b0b2 95bc dd24 593d f0e5 7a3e 4640 eb3c
00000030: f304 cf3c d99f 55bd 83ea 103e 96f3 793d
00000040: eec4 99bd f8db 81b9 4831 2a3d 6347 03be
00000050: ee57 4f3d 7f32 ca3c d369 10be 57d3 3a3b
00000060: 9d17 293e e670 77be f8c2 00ba 6fb6 ce3b
00000070: c41d c33d 89a4 083c 63d7 2cbd 82f3 fcbd
00000080: 3073 013e 1e1f 0b3d 1c88 343e e03b afbd
00000090: 05bf 05be 0a2e 8fbd a445 043e d080 56be
000000a0: aabd 933d ec5d 12bd bacd b9bd f734 d43d
000000b0: 87a3 203c 0255 c2bd 09f2 9b3c 5a85 363d
000000c0: 1c09 00be 3774 28bc f226 1cbe 26a1 9d3d
000000d0: 0dbd cabd 4a7b 4ebd 7ed5 2abb b27f b63d
000000e0: 5dd3 003d cc8b b8bd 76fa 8bbd 84de ce3d
000000f0: 2192 0b3e 1afe fa3c 7504 cb3d eb94 d53c
00000100: 08c2 06be 33e2 0bbe 8dbc 61bd c22c bf3d
00000110: 607b 0a3d f3bb b43c fe01 093e 035f 10bd
00000120: 467c 113d 2f8a 183c 0924 40be 4c96 933d
00000130: 4303 77bd e5d0 be3d e1f0 14be d1ef 2bbe
00000140: cf62 80bd 7e56 ddbc beb9 593d fcb8 ff3d
00000150: a3d3 18be c8c3 5dbd 2c15 9f3d 4fc1 e03d
00000160: 3efd 71bd 745d a33d 559d af3d 6739 c63c
00000170: 1de1 e83d b7a4 a23d 2ab2 a2bd f24a f93d
00000180: 412f e4bd 56f9 b5bd 3c2a 12bd b36a 8bbd
00000190: d4e8 b7bd 2218 4a3c ec82 6c3c 594e 3f3e
000001a0: b8a7 8abd 967b 17bd 63ab 053e 9877 62bd
000001b0: ef87 d2bc 735d 053e c058 0f3e 53ba 18bd
000001c0: 2c61 df3c 7679 40bd 6728 b7bd 2d4f ddbd
000001d0: 4bfd 323d 917e b7bd 08a8 97bd 2455 5b3c
000001e0: 75c6 bdbd 879e 843d 6aa0 a43c be33 0bbd
000001f0: eb59 70be c146 0f3e 99ac 8f3d d73a 0abc
00000200: c9cf 4e3d 116e 87bd a3d1 b53d 4d57 a53d
00000210: 274e 26bd 2a49 843d 411e e63d 9c5b 1b3d
00000220: 5ac3 12bb 4ae4 b4bc df18 27be f199 5f3c
00000230: 0771 503d 42b5 023e d584 23be 3ac0 21be
00000240: c2dc acbd d669 253d 5841 bbbd ea62 92bd
00000250: c225 8c3c 491b 5b3c 5a8e 173d 39ea 24bd
00000260: 3ee1 58be 6f3a b93d f68c 9c3c 5be1 203d
00000270: 2d0e bebd 3649 fb3d be6e 353d a792 f03d
00000280: b4ab fdbd d7b5 1ebe e1e4 f4bd c090 16bd
00000290: 2978 e83c 3eb1 093d c145 35bc 62b7 0e3e
000002a0: 05b8 95bd 91cf 133d c531 56bc 9a9c a0bd
000002b0: 03b3 9dbd dd36 ecbd d1ea bb3c ffb2 79bd
000002c0: 1c76 46bd 1af6 293d 82c5 f93d 4405 dabd
000002d0: 7dc5 e3bd 0547 023e 57e1 64bd 4605 0dbc
000002e0: 12df fabd 1072 093e 8f46 413e 95d7 653d
000002f0: 1cab 9abd 6645 56bd 860e 08bb 7a99 acbd
00000300: 7604 96bd b7ff 0abe 0e89 07bd e9cf 903d
00000310: ec7a 9dbd 4b00 6abd a6eb 843d 737c 493d
00000320: d836 423d 706d 0b3d cd70 9fbe 31d5 c73d
00000330: 0dcb b13d e328 d93d 3910 abbc 1961 16be
00000340: 743c ab3c 9891 253d f60b bdbd 9250 7bbd
00000350: e11c 53bd 40f6 ffba 68a7 493e 10e9 bbbc
00000360: 7add 6dbe aaef 9a3d a05d 1cbd 4cfb 873c
00000370: 23be ee3c ca07 c13d 1b80 343c 3997 d7bd
00000380: a435 0abe 4762 0cbe a582 823b 29d8 613d
00000390: 6d33 d33c b810 d33d 5e9d 74bb d2a9 4b3e
000003a0: 4859 833d 7e94 31bc 82e9 943d f31d 813d
000003b0: 01f8 aa3d 6c2d bebd bec4 b53d ffe6 e6bd
000003c0: 0f56 0b3e 17dc f5bb 1c7d 83bd c172 56bd
000003d0: af59 27bd 07f1 933d 423b 0f3d 3a39 ebbd
000003e0: 1a22 273d 468e 293e 3eb4 39bd f939 aabd
000003f0: 9e1d 42bd 27a1 73bd b1d2 ba3d 2d0a aabd
0.006426093 0.09006088 -0.09679994 0.060249012 0.10663167 0.029995276 -0.17623147 -0.00093051436
-0.018273681 0.05301367 0.24501777 0.028717171 0.025270915 -0.052154396 0.14151959 0.061023317
-0.075082645 -0.00024768687 0.041550905 -0.128202 0.050620966 0.024682282 -0.14102869 0.0028507316
0.16512914 -0.24164161 -0.0004911865 0.006308369 0.09527162 0.0083400095 -0.042197596 -0.12351133
0.12641597 0.033965223 0.17630047 -0.08556342 -0.1306115 -0.06991203 0.12917191 -0.20947576
0.0721391 -0.035734102 -0.09072442 0.10361665 0.009804613 -0.0948887 0.01903631 0.044560768
-0.12503475 -0.010281614 -0.15249231 0.07696752 -0.0989934 -0.050410546 -0.0026067193 0.08911075
0.03145157 -0.09011039 -0.06834881 0.10101035 0.13629963 0.030638743 0.099129595 0.026071986
-0.13159955 -0.13660507 -0.055111457 0.09334709 0.033809066 0.022062277 0.13379666 -0.03524686
0.035518907 0.009310289 -0.18763746 0.07206401 -0.060305845 0.09317187 -0.14545013 -0.16790701
-0.06268846 -0.027018782 0.053155653 0.12486455 -0.14924483 -0.05414179 0.0776771 0.10974371
-0.0590794 0.07976809 0.085749306 0.024197293 0.11371062 0.07941573 -0.07944138 0.12172498
-0.111418255 -0.08885448 -0.03568481 -0.06807461 -0.08979955 0.012334855 0.014435511 0.18682231
-0.06770271 -0.036983095 0.1305366 -0.055289835 -0.025699584 0.1302393 0.13998699 -0.037287068
0.027268015 -0.046990834 -0.08943253 -0.10806117 0.04369859 -0.089596875 -0.07405096 0.013386998
-0.09266368 0.06475549 0.020096023 -0.033984892 -0.23471801 0.13991834 0.07015342 -0.00843688
0.050491128 -0.066127904 0.08877876 0.08073292 -0.040601876 0.064592674 0.11236239 0.037929162
-0.002239427 -0.022081513 -0.16318081 0.013647542 0.05088904 0.12764457 -0.1596864 -0.15795985
-0.08440544 0.040384136 -0.09143323 -0.071477726 0.017107848 0.0133732045 0.03700099 -0.040262435
-0.21179673 0.090443484 0.019110184 0.039277416 -0.092800476 0.12269823 0.044295065 0.11746722
-0.123862654 -0.15499054 -0.11957718 -0.036759138 0.02837761 0.033616297 -0.011063994 0.13937142
-0.073104896 0.036086623 -0.013073389 -0.078423694 -0.077001594 -0.11533902 0.022939118 -0.06096172
-0.04845248 0.041494466 0.12195875 -0.106455356 -0.11121652 0.12722404 -0.055878963 -0.008607214
-0.122495785 0.13422418 0.18874572 0.0561138 -0.07552168 -0.052312277 -0.002076061 -0.08427711
-0.073250696 -0.1357411 -0.03308969 0.07070906 -0.07689461 -0.057129186 0.06490259 0.04919095
0.047415584 0.034039915 -0.31140748 0.0975746 0.08681307 0.10603502 -0.020881759 -0.14685477
0.02090285 0.040422052 -0.09230797 -0.061356135 -0.051541213 -0.0019528344 0.19692767 -0.022938281
-0.23229018 0.075652435 -0.038175225 0.01659932 0.029143399 0.09425314 0.011016871 -0.1052689
-0.13497025 -0.13709365 0.003982859 0.055137787 0.025781358 0.10305923 -0.0037325243 0.19889
0.064135134 -0.010838626 0.072711006 0.063045405 0.08348084 -0.09286007 0.08875416 -0.11274528
0.13607047 -0.0075030434 -0.06420347 -0.05235553 -0.040857013 0.07223707 0.034968622 -0.114855245
0.040804006 0.1655818 -0.045337908 -0.08311839 -0.047391526 -0.05947986 0.091222174 -0.08302722

l2.bias f4 [64]
00000000: 3a4c a93d 4978 4ebd 5293 a0bd 97a3 f23c
00000010: f8db a9bd eb98 31bd d99b 723d aa52 563d
00000020: 5050 92bd fddc c63d bd62 b93d 395f febd
00000030: 821c 6f3d 7ea0 fbba 1dea df3b b593 a7bd
00000040: 5039 1dbb 1190 393d 3b31 d4bc 5eb5 ee3d
00000050: 7d2a 65bb bfe8 61bd 6387 55bd b5fb 933d
00000060: 874a c2bd 5453 73bd fecc 713d 2227 bebd
00000070: 4338 d7bd 5596 20bd 1544 ba3d 32e2 b2bd
00000080: 6f03 44bc b6fe 863d 5a10 273d 801f a03d
00000090: af8c c73d 21cc ffba a8e4 89bd 551e 8fbd
000000a0: 432c cfbc 974d eabc c465 bcbd 0237 7a3c
000000b0: 756b ff3d 8e41 95bd bf37 fc3d 84df df3d
000000c0: 32f7 e23d a7b4 dbbb 80e2 c6bc 1e33 ab3d
000000d0: 1104 28bd 448b 0dbb 042c dc3d 101a a23c
000000e0: 2e90 203b bed8 a03c e601 eebd 699e 483d
000000f0: 7bc8 ce3d 7eb2 513c 6e57 83bd ad20 ec3d
0.08266492 -0.05040768 -0.07840599 0.029619021 -0.08293909 -0.043358725 0.05923066 0.05232493
-0.07144225 0.09710119 0.09052036 -0.12420506 0.058376797 -0.0019197611 0.0068333284 -0.0818247
-0.002399046 0.045303408 -0.025902381 0.11655687 -0.0034967952 -0.055153605 -0.052131068 0.07225744
-0.09486871 -0.05940564 0.059033386 -0.09284808 -0.10508778 -0.039205868 0.09095017 -0.087345496
-0.011963709 0.06591551 0.04078708 0.07818508 0.0974363 -0.0019515791 -0.06733066 -0.06988207
-0.02528966 -0.02860145 -0.09199098 0.015271904 0.12471668 -0.07287894 0.1231532 0.10931304
0.11082305 -0.006704885 -0.024277925 0.08359359 -0.041019503 -0.0021597901 0.10750583 0.019787818
0.00245 0.0196346 -0.11621456 0.048979197 0.10096832 0.0127989035 -0.0641316 0.1152967

l3.weight f4 [2, 64]
00000000: ce3c a0be 0eab a53e d379 813d 5aca 3a3e
00000010: 7154 97be 335d 86be 88b7 d23d 9f3f 173e
00000020: 9434 0f3e 5efa 17bd 441c acbe 44bc 08be
00000030: 226e 553e b44a 3c3e 7eef 8b3e befe 803e
00000040: c537 94be 6db6 94be 36fb 473e 2404 86be
00000050: eb5f d53e 0591 823d 07c4 bd3d 3a6a c33d
00000060: 4093 d73d 8f9d 6b3e d350 9bbd d5e2 583e
00000070: 0d95 4ebe e9da 383e 5edf 113e 00ba 4a3e
00000080: 7021 313e 71e7 533e a21b b8be c95a c3bd
00000090: c3ef a83e 3cca 343e 407d 94be 1a59 12be
000000a0: f59d a7be bcdf 053b 42ef 343e a495 223e
000000b0: f52e b33e a3c5 3a3d 8bab fa3d 2ea2 ad3e
000000c0: c97b 9a3e 848a 72bc 96bd 16be 4098 67bb
000000d0: d221 16be 0469 b83e 8e42 70be f174 95be
000000e0: 9205 773e b628 483e 1cb7 c3bd fab3 28bc
000000f0: 3b40 ddbd aedb 813e 9128 ed3d 9ac7 653e
00000100: aecf 813e 4125 91be f39b 49be c876 f23b
00000110: ea1b 933e 7e4e 083e 3a9c 95bd 620d b2bd
00000120: bbc3 60bc fb47 4c3e 599a 8e3e a475 0c3e
00000130: 0e03 2ebe 81c7 20be a298 73be af7c 91be
00000140: 993e ad3e 1d16 433e 5e4c 97bd 377c 8f3e
00000150: a81c e0be bb57 a3bd c840 86be 1e2d 11be
00000160: 20c8 7ebe 5d45 3fbe 8778 a83d ffc9 25be
00000170: a7ef 063d 0655 81be 7beb 66be 46cb 09be
00000180: 02b5 88be 3864 5dbd a760 0b3e adac 213e
00000190: dda9 8cbe 8ab2 87be 1b9e 4e3e 7003 143a
000001a0: 6fe9 bc3e 0b2c ddbd af85 96be b62e 89be
000001b0: 38ec bbbe 121b 8bbd 9d16 99bd 0d37 a8be
000001c0: ccd6 98be ef93 58be ed31 823e f064 0f3e
000001d0: d1cb 133e 3903 0dbe effb 9a3e bc6e a43e
000001e0: cec7 90be ad46 dbbd bc53 fb3d df21 263e
000001f0: 983e 6b3e 4789 74be f0fc ebbd cf62 17be
-0.3129639 0.32357067 0.06322064 0.18241253 -0.2955661 -0.2624298 0.10288912 0.14770363
0.139849 -0.037104003 -0.33615315 -0.13353068 0.20842794 0.18387872 0.27331156 0.25194353
-0.289488 -0.2904543 0.19529423 -0.26175034 0.41674742 0.063753165 0.09265905 0.095417455
0.105261326 0.23009323 -0.07583775 0.2118028 -0.20174046 0.18052258 0.14245364 0.19797516
0.17297912 0.20693757 -0.35958582 -0.095388 0.32995424 0.17655271 -0.29001808 -0.14291802
-0.327377 0.0020427546 0.17669395 0.15877396 0.34996763 0.045598637 0.122397505 0.33912796
0.30172566 -0.0148035325 -0.14720759 -0.003533855 -0.14661339 0.3601762 -0.23462889 -0.29190782
0.24123219 0.1954678 -0.0955641 -0.010296816 -0.108032666 0.25362915 0.11580003 0.22439423
0.2535376 -0.28348735 -0.19688396 0.0073994137 0.28732234 0.13311192 -0.073051885 -0.08693959
-0.013718541 0.19949333 0.27852133 0.13716751 -0.16993353 -0.15701105 -0.23788694 -0.2841544
0.3383682 0.19051404 -0.07387613 0.28024456 -0.43771863 -0.07975718 -0.262213 -0.14177367
-0.24881029 -0.18678804 0.08226114 -0.16190337 0.032943394 -0.2526018 -0.22550766 -0.13456449
-0.26700598 -0.054050654 0.13611089 0.15788527 -0.27473345 -0.26503402 0.201775 0.0005646264
0.36896846 -0.10799416 -0.29398867 -0.2679345 -0.36703658 -0.067922726 -0.07475016 -0.328545
-0.29851377 -0.21150182 0.25428715 0.14003348 0.14433219 -0.1377076 0.30270335 0.32115734
-0.2827744 -0.1070684 0.122718304 0.16223858 0.22973096 -0.23880492 -0.115228534 -0.14783786

l3.bias f4 [2]
00000000: 49ea 013e d368 cebd
0.12687029 -0.100785874
