2.5_NoisyNet-DQN/model/NoisyNetDQN_CPV1_100k.pth (torch, 173564 bytes, 10 tensors)

Q.0.weight f4 [200, 4]
00000000: 7a68 ec3e 27de 0dbe 5c46 ccbf 76e5 abbe
00000010: 35a1 d3be 4c55 fdbe 5a30 ad3e 4d12 523e
00000020: f101 043f 493c d83e 8aad 81bf 98d4 a3be
00000030: e469 673f 713f 583e 0aac 0bbf 7ced 213e
00000040: 141d 3b3f dfa8 93be 714a b6bf e38d efbe
00000050: 1338 0e3f 84b8 b9bc 8e85 983d e0b5 4ebd
00000060: 5e6d 93bd 61fe c33d 2ec1 ab3f 0488 8d3e
00000070: e9c9 933d bc12 8f3c 9963 c43f 7636 ce3e
00000080: a29c 8cbe 2acd ab3e 6b4f 8a3f 700a a1be
00000090: f341 90be 5d6c 593e d03a 723f 1413 e43d
000000a0: 10f1 ee3e 989d cc3e a81a e53e 6e8d 14bf
000000b0: a531 0e3e cf0d f53e 81c7 76be 7cf3 ddbe
000000c0: 5e77 8fbe 2a20 023f 5c54 f83e 0887 f43e
000000d0: 2135 ac3e 4b76 12bf c690 88bf ad50 843e
000000e0: ec80 e93e 896c 1a3f 7359 a73f 7ff8 ff3e
000000f0: 31b3 cfbe 78eb 5c3e 57ad 69be 8398 dd3e
00000100: 1d36 3f3e f412 a63e c84a 1e3f c868 84be
00000110: 2104 1d3f a6b8 333e 47a9 7cbf 644c d4be
00000120: 0321 87be 1a6b a2be 90ea e4be 2bba e43e
00000130: 95c7 833f ede2 e93d 0b52 8bbf 8c5b 52be
00000140: c3e1 1c3f 9010 0f3f abea f5be bf68 f4be
00000150: 29d9 89be d5e9 f33d c550 ab3f 6ca0 983e
00000160: 72c2 31bf f005 10bf 4432 203e 60ce 87bd
00000170: df97 333d 5df4 3c3e 855c 353f 631c 57be
00000180: f401 20bf 3d26 473e 84dc 683f f9ba e3be
00000190: 2c9b 56be 73de 013f 5478 ce3e 794e a4be
000001a0: 5fcc e93a ecde 23bd 9687 cbbf 4124 7cbe
000001b0: d611 08bf 647b 66be 203e ae3e abe9 f4bd
000001c0: 831c 2cbf 861e 293d a6ac 5b3f cc77 ab3e
000001d0: 1b02 323e 55b9 e7bd 4560 c53e 7f8e 2e3e
000001e0: 2e58 a83d 4213 a8be bcb5 c03e fdc4 d03d
000001f0: 3831 a13e a9fc 06be adb1 86be 2ca8 2b3e
00000200: 0a20 b9be bc4b cb3e 831f 833f 6262 013f
00000210: c7cb 83bc cfea 41be 21bf 963e b42d edbc
00000220: 95d4 753f f092 eabc d949 5dbd 0c8a 00be
00000230: 9bf5 d53e 66b2 913e 7c03 3dbf c23e 04bc
00000240: 965e 763f a4a4 9c3e c306 c0be c2fa 0a3e
00000250: 86db f63e cf82 db3e cb0f 233f ca77 e43e
00000260: 5cf7 a4be cb81 903c 71e1 e3be 0dca 9dbe
00000270: cbd2 e0be c3c3 c63e 0c23 0c3f ff09 063d
00000280: b80a 80bd 9bb4 77be fe06 e2be f8bf d53d
00000290: 6d7f 99be f393 80be f561 1a3e 65eb 863e
000002a0: e7a5 ddbe ac91 29bf d5c0 343f 729a 093e
000002b0: d518 013f 194c 6cbd 75d9 b4bd 3402 313d
000002c0: 1cc4 8d3e 3ff7 453d 1c5f 703e e7be 1c3f
000002d0: b25a 433f d504 1cbe cb25 bebf 09b1 90be
000002e0: 7638 a9be 3dba 70be 80fd cb3e 5bfe a9bd
000002f0: a597 873e 3048 e2be bd6c 63be 0032 633e
00000300: 59a3 38be 5bcf fbbe e05e 5a3f c893 c63e
00000310: 0461 2e3d d6fd 0e3e a73d 303f 24e5 23bf
00000320: 6430 9a3e 8490 0fbf 137c 233e e500 913e
00000330: 7eed eebe d3c9 0bbe 82a0 34bf 0b5b 1ebe
00000340: 34f9 873f af21 923e d305 b5bd 8465 4c3e
00000350: be03 7fbe 77fd a03e 1e06 1e3f 61dc 343e
00000360: 36e8 863e 184b 96be 037c 54be 6083 d53e
00000370: 5b87 9a3f 8058 bfbe 5c92 19bf 0987 823d
00000380: f376 703e 31bf bdbe 87b3 50bd b543 f9be
00000390: 63cc 0cbe 6b6a 5b3e bcd3 363d 25d6 cfbd
000003a0: a417 1d3e 9526 cd3e 5027 bb3e ac49 623d
000003b0: 224f 573e 0efa dbbe f693 bbbd f5e4 4b3f
000003c0: 97d1 e6be a1b6 c43e 8115 df3e 3b06 9d3e
000003d0: a20e a83e 5b4d a33e bbf5 cbbe c20a bdbb
000003e0: 2a51 37bf fadd 54be 75dc 4cbf bcbe 09be
000003f0: 91dc bfbe 8646 82be 3d46 72bf eab8 d7be
0.4617346 -0.13854276 -1.5958972 -0.33573502 -0.4133393 -0.4947914 0.33825952 0.20514794
0.5156546 0.42233494 -1.0131085 -0.31998134 0.9039595 0.21117951 -0.54559386 0.1581325
0.73091245 -0.28839776 -1.4241468 -0.46787938 0.5555431 -0.022670992 0.074473485 -0.05046642
-0.071985945 0.09570003 1.3418329 0.27642834 0.07216246 0.017464988 1.5342895 0.40275925
-0.2746325 0.33554965 1.0805486 -0.31453276 -0.28175315 0.21232744 0.9462099 0.11136451
0.4666829 0.39963984 0.447469 -0.58028305 0.13886125 0.47862098 -0.24099542 -0.43349826
-0.28020757 0.5083033 0.4850186 0.4775927 0.33634284 -0.5721175 -1.0669181 0.258428
0.45606172 0.6032186 1.3074173 0.49994275 -0.405664 0.21574199 -0.2282003 0.4328042
0.18672986 0.32436335 0.6183286 -0.25861192 0.61334425 0.17550907 -0.98695797 -0.4146453
-0.26392373 -0.31722337 -0.44710207 0.44673285 1.0295283 0.11420236 -1.0884413 -0.20542735
0.61281985 0.5588465 -0.480306 -0.47736165 -0.26923493 0.11909834 1.3384024 0.29809892
-0.69437325 -0.5625906 0.15644175 -0.0663116 0.043846007 0.18452592 0.708443 -0.21006922
-0.6250298 0.1944818 0.9096148 -0.44478586 -0.20957631 0.50730056 0.40326178 -0.3209112
0.0017837397 -0.040007517 -1.5900753 -0.24623205 -0.53152215 -0.22508007 0.34031773 -0.11958631
-0.67231005 0.041288875 0.85810316 0.33489835 0.17383616 -0.11314646 0.3855001 0.17046545
0.08219944 -0.32827193 0.37638652 0.101938225 0.31482863 -0.1318232 -0.2630743 0.16763371
-0.36157256 0.39706218 1.0243992 0.50540745 -0.01608838 -0.18937229 0.29442695 -0.028952457
0.960275 -0.028634518 -0.054025505 -0.1255266 0.41788945 0.2845642 -0.7383344 -0.008071603
0.96238077 0.3059436 -0.3750516 0.13572219 0.48214358 0.42873237 0.63695973 0.44622642
-0.3221997 0.017640015 -0.44507936 -0.30818215 -0.43910822 0.3882123 0.5474098 0.032724377
-0.062520444 -0.2418999 -0.4414596 0.10437006 -0.2998003 -0.25112876 0.1507643 0.26351467
-0.43290636 -0.662379 0.7060674 0.13437822 0.50428516 -0.05768976 -0.08830539 0.04321499
0.27688682 0.048331495 0.23473781 0.61228794 0.76310265 -0.15236218 -1.4855283 -0.28260067
-0.3305089 -0.23508544 0.39841843 -0.083004676 0.26482883 -0.441957 -0.22209449 0.22187042
-0.18031062 -0.49181637 0.8530102 0.38784623 0.04257299 0.13964018 0.68844074 -0.64021516
0.30115044 -0.5607989 0.159653 0.28320995 -0.46665567 -0.13651209 -0.70557415 -0.15464418
1.0622926 0.28541324 -0.088390015 0.199606 -0.24903771 0.31443378 0.61728084 0.17662193
0.26349038 -0.29354167 -0.20750432 0.41701794 1.2072557 -0.37372208 -0.5998895 0.06373412
0.23482876 -0.3705993 -0.05095246 -0.4868447 -0.13749842 0.21427314 0.04463552 -0.10148267
0.1534105 0.40068498 0.3655343 0.05524604 0.2102628 -0.42964214 -0.09159081 0.79646236
-0.4508178 0.38420585 0.43571094 0.30668816 0.32823664 0.31894955 -0.39835915 -0.0057691047
-0.7160822 -0.20787802 -0.8002389 -0.13451666 -0.37472966 -0.2544443 -0.94638425 -0.42133266

Q.0.bias f4 [200]
00000000: 8a36 bebe fe41 0f3f b4d2 06bf f616 0c3e
00000010: a7fb d5be 7550 c03d 66a4 95be 0bc8 d1be
00000020: 4e98 133e 0364 c03e a91d abbe f91b 3fbf
00000030: 9445 ac3e 83a1 023f 53e2 acbd 77e5 063f
00000040: 756e d43e e8c9 a43e fa0e 023e 31c5 f53c
00000050: 3009 67be a00b 9fbe 6cc8 d0bd a8d4 193f
00000060: da0d 043c 6d29 8ebe 67fe 9fbe 9751 743d
00000070: 16b2 bebe 1126 d53e 4768 163f 2f4d d73e
00000080: f353 a6be e8d3 dc3e 9833 5cbe 5f93 9cbe
00000090: fb56 373d b560 77be 7141 173f 2544 cf3e
000000a0: ed78 1d3f 640f d13e 8a02 423e d7aa da3e
000000b0: 573f 7ebc 6bf7 b3be 50b9 313e 9fed 5b3e
000000c0: 5b66 adbe c3fa dcbd 1fc2 d53e 71e5 c0be
000000d0: 1f70 f7bd ec9e c83e 0bad 8a3e e729 3b3e
000000e0: 6d8e de3e e8bd eb3e b792 013f d6c9 a73d
000000f0: 7ab9 013e 5c78 f23e 9ba5 923c 38f6 063f
00000100: c4c4 c93e 4660 223f 4b45 dc3e c6ed 493e
00000110: 708b 4e3e e9fc 0c3f c2bb 113f 9e1c c8bc
00000120: 56cf 8cbe 7b32 7bbe b995 dc3e 132e 833d
00000130: a5b9 67be 7b4e c7be c034 40be c816 103f
00000140: e2bc e6be d0fb 2b3f 6d34 103f 2c07 ea3d
00000150: 007a b3be 27dc 233f 83f1 af3e 4c25 1a3e
00000160: dc2d e83e d19e aebe 8d42 d93d 39de 103f
00000170: a52e d03e 3489 023f 7c71 df3e 2709 083f
00000180: 1c8e 013f 978a 89bd 983b 113f 9d48 473e
00000190: 4408 f63e db3b 343e b61f a0be b453 163f
000001a0: bd8c 713d 61ef 5b3e 8df5 d13e be17 24be
000001b0: e14a b9be 45a6 ebbe 2ba1 ecbd 7bce f53e
000001c0: 777e 4d3e e88b bbbe fa04 0e3f acca a5be
000001d0: a3f7 b9bd d496 babe f289 173f b139 073e
000001e0: 67f6 8bbe 0ac7 aebe 523f e8be 7910 183e
000001f0: cb44 b2be 4527 c4bd ce36 033f 9daa 033f
00000200: 5dd8 21be 6db6 b63e 1045 733e 4495 f83d
00000210: 4e9f 0c3f 0351 eb3e 2dc7 bbbe f692 373e
00000220: b265 eebd eeb4 d3be b832 273e 49bf eebd
00000230: b8a5 a83e c996 213f 5c23 3cbe 3ee3 ab3e
00000240: fa78 0dbd 4f06 26be 6f2d 0d3f 77a1 d9be
00000250: 904f d13e 7876 593d 390e e6bc 1a44 f83b
00000260: 056e 7cbd 5e56 6f3e d9f8 963e 77e8 cc3e
00000270: d97a 03bf c2d4 03be 8198 a83d 065b 053f
00000280: 69da 993e bc40 443e 19f9 993d 4f79 6ebc
00000290: 27f4 063e d3de ad3e b0a4 e2be 19c7 b63e
000002a0: 5d87 003f ad93 6a3e 3a13 f1be 1ee7 1cbe
000002b0: a0e5 acbe 6ca8 bbbe c1d4 d63e f396 1ebe
000002c0: 3a33 023f 7cf9 9dbe a5cd 693e f21d ba3e
000002d0: 1e3e 29be 3654 2b3f 759b ea3e f25b 2a3e
000002e0: 54e7 143f 074f a93e cc6a 87be b9a1 cf3e
000002f0: a43d a63e dffd 123e fd0d 033f 24bb 123f
00000300: 6e55 ebbd bfd8 083f bd7e e43e 8e3a 583d
00000310: aa7f cf3e 83e3 ee3e 6c57 ee3e 9e19 8bbe
-0.37150985 0.5596007 -0.5266526 0.13680634 -0.41793558 0.09390346 -0.2922699 -0.40972933
0.14413568 0.37576303 -0.33421066 -0.7465206 0.33646834 0.510277 -0.084416054 0.52693886
0.41490522 0.32185292 0.12701026 0.030001255 -0.22562099 -0.31063557 -0.101944774 0.6009011
0.008059943 -0.2776598 -0.3124878 0.059648123 -0.37245244 0.41630605 0.58752865 0.42051074
-0.32485923 0.43130422 -0.21504056 -0.30581185 0.044760685 -0.24157985 0.5908423 0.40481678
0.61512643 0.40832055 0.18946281 0.42708465 -0.015518031 -0.35149702 0.17355847 0.21477364
-0.33867154 -0.107900165 0.41749665 -0.3767505 -0.12081932 0.39183748 0.27085146 0.18277703
0.43468037 0.46043324 0.50614494 0.08192794 0.1266841 0.47357452 0.017901232 0.5271945
0.39407933 0.6342815 0.43021616 0.1971961 0.20170379 0.5507341 0.5692712 -0.024427708
-0.27501935 -0.24530976 0.4308298 0.06405272 -0.22629412 -0.38927063 -0.18770123 0.5628476
-0.4506598 0.6718111 0.56329995 0.11427149 -0.35054016 0.640078 0.34363946 0.1505329
0.45347488 -0.34105542 0.10608397 0.56589085 0.40660587 0.50990605 0.4364127 0.53138965
0.50607467 -0.06715887 0.5673156 0.19461294 0.4805318 0.17600958 -0.31274194 0.5872147
0.05897211 0.21478035 0.41007653 -0.16024682 -0.3618994 -0.4602529 -0.11554178 0.48009095
0.20067774 -0.36630177 0.55476344 -0.3238119 -0.09080436 -0.36443198 0.5919486 0.13205601
-0.27336428 -0.3413623 -0.4536081 0.14850034 -0.3481811 -0.095778026 0.512555 0.5143221
-0.15805192 0.35686055 0.23756814 0.12137845 0.5493058 0.45960245 -0.36675397 0.17927155
-0.116404906 -0.41348976 0.16327941 -0.116575785 0.32938933 0.63120705 -0.18372864 0.3357181
-0.0345392 -0.16213344 0.5514745 -0.42506 0.40881014 0.053091496 -0.028082954 0.0075764777
-0.06162836 0.2337279 0.2948673 0.40021107 -0.51359326 -0.1287413 0.08232213 0.52092016
0.30049446 0.19165319 0.07518215 -0.014555289 0.13179074 0.33959064 -0.44266272 0.35698774
0.5020655 0.22907896 -0.4708498 -0.15322539 -0.3376894 -0.36651933 0.41959193 -0.1548727
0.50859416 -0.30854404 0.22832353 0.3635097 -0.16527602 0.6692537 0.4582173 0.16636637
0.5816548 0.33068106 -0.26448667 0.40553072 0.32468903 0.14354657 0.5119322 0.57316804
-0.11490904 0.5345573 0.44627944 0.052790217 0.40527087 0.46657953 0.46551073 -0.27167982

Q.2.weight f4 [200, 200]
00000000: b3c6 6dbf c692 0f3d e384 b6be b86f 263b
00000010: 0858 b6be f5eb b43d 3362 7ebe 40cb c2bc
00000020: 3c6f d53d b1e0 003e a04c 3ebe 366f 6abe
00000030: 62e6 663e b5f6 0e3c 6ab0 bbbe 55be e83d
00000040: 8df4 e43d b7f9 d9bd 92a0 703c a26b 523c
00000050: 388a 23be 4703 acbe 9ed7 edbc 2d9a 973d
00000060: a3fe 5b3e 162b e13d bc33 a2bf 6710 78be
00000070: 3aa3 e3bd 9abc d83d 3af6 de3d 61ee c43d
00000080: c376 ccbd d058 923d 3308 ebbe 8f0e 2bbf
00000090: 4a94 cabe 66bf b23e 83d9 063d 282d 1f3e
000000a0: 9bcf b43c 86d2 3f3d 03cb 5c3d 76db 203d
000000b0: 7314 9f3c d7c8 8fbf f54a 033e 3bb2 de3d
000000c0: e0d7 183d 3b55 25bd 6c48 c13c 8bf5 b3be
000000d0: ee8c 14bf b5b7 033e 58c9 b73a 03a3 d73d
000000e0: 5af9 253e 37d3 123e 46a6 383d 2c8b 493c
000000f0: 7705 1f3f 2040 eb3d 9993 82be 1648 683d
00000100: c2f6 163e 7f8a da3d 538e 963c abbf 9c3e
00000110: fd1a 893e e775 053e 624b ff3c cbbb 103e
00000120: 58b2 ccbd 1e52 99be bd53 983d 7272 a5be
00000130: 46c1 6ebe f521 8abf ae13 73bd bfc0 de3d
00000140: 8702 38bf 78d3 3f3e e4a1 8e3d ba55 6fbe
00000150: f7af 073c ed34 773d 7987 d83d 9860 033d
00000160: a7d7 d93b 0003 2d3f 6bcb b1be 90f3 0a3e
00000170: a88e bc3d 5315 033e 831b 1b3b 8e80 163e
00000180: 470b 1a3e 6f29 323d c161 163e 0535 283f
00000190: 317c f33d 620f 163e 78ff 9abf e1d2 493e
000001a0: a1c8 ebbe cea0 77bd 813c df3c 7c49 adbd
000001b0: 02d3 2abf f5e9 dfbd f159 77bd 1cd5 f73d
000001c0: ccd0 093e 16cc 5abe 0b4a 053e bb81 66be
000001d0: ea28 79be ec68 13be 8b43 f23d c056 f2bb
000001e0: 6f3e 33bf cf0f df3c 1c80 a1be 79fe 0b3d
000001f0: 0953 61bf 4cb7 10be bb0d bb3d 2014 863d
00000200: 4ac2 63bd 378a 533d 177d 62bd 461b 3c3e
00000210: ffae 203e 7877 2b3d cb65 c0be 2532 eebe
00000220: 4f67 48bf 0ea0 f7bb 2886 cd3d d8c5 bc3e
00000230: c91a eb3d 6dfb ae3d 6a41 d4be 0233 913d
00000240: 08df 4abd fa15 8cbe 49cb 793d dce5 f2bc
00000250: fce4 8b3d 0ff4 dc3d 2234 a33d 8842 853e
00000260: 71fd a2be 2c8e 3a3d 6cea cd3d e5f1 963d
00000270: e3b1 25be 76b7 9c3c 6f65 0abf fbf2 ed3c
00000280: 1c0e a53d 779e b03d 1806 6f3e 3396 10bd
00000290: c395 8e3d 938c 9e3d 78dd 3bbf 6aa6 a03d
000002a0: aee6 e53d a7ca c53d 2544 c13d e4b7 31be
000002b0: 08ec 99be 9fa6 91bf 078e f03d aede f1be
000002c0: 4b18 423d ff78 04bf 3387 ff3d afb8 093e
000002d0: bac1 98be 7fc5 933d be89 1a3e 9023 de3d
000002e0: 3ab7 f83d f243 9d3d 256c 3ebe 2085 cf3d
000002f0: 1dd1 d3bd 4680 623d 99fb 513c 5441 2c3e
00000300: 80a1 82bd 9fb1 173e 8f7f 293d 7b06 4abe
00000310: e867 d83d 7406 913d 9e89 b13d 029f 62bf
00000320: 20c0 6dbe 6d9d 6b3d d209 993d 6dd3 103e
00000330: 254a ac3c a296 1b3e 777e c7be 93c1 00be
00000340: 4923 6dbb af8b 533c dc98 c13d 2c41 143e
00000350: dc90 303e 6327 363b b9b3 72be f7d3 5bbc
00000360: 47c5 9b3d 0a18 9e3b 1ad4 b33d 586e e63d
00000370: 5ef3 dfbc 7ea5 b2be 854d 81bd ba22 5f3d
00000380: 87e9 a7bb 38ff 2c3d d0b7 c4be 8793 97be
00000390: 4e90 86be 964c a63d 7544 f33c 2ca8 e93b
000003a0: d2b5 61be d9b0 583d 7070 b13e 9388 ac3e
000003b0: 291d f2bd 01db 953e 8101 873d 177d 2bbc
000003c0: 5396 eb3d b3f0 a63d d2a4 343d a4d8 cf3d
000003d0: 4b01 f0bc 416a babe 26a5 293e 89ed 4f3d
000003e0: 0a86 0abe f8a8 403d 5357 893d 854d a5be
000003f0: 2624 d2bd 9a1d 773d d5f5 29bc f847 2e3e
-0.92881316 0.035052083 -0.3564826 0.002539618 -0.35614038 0.08834068 -0.24842148 -0.023778558
0.10421607 0.12585713 -0.18583918 -0.22893986 0.22548822 0.008725812 -0.3665803 0.11364428
0.11179457 -0.106433325 0.01468672 0.0128430445 -0.15970695 -0.3359625 -0.029033478 0.074024536
0.21483855 0.10994546 -1.2672038 -0.24225007 -0.11115117 0.10582848 0.10886808 0.0961578
-0.099835895 0.07145846 -0.45904693 -0.6681909 -0.3956626 0.3491165 0.03292228 0.1554457
0.02207165 0.04683163 0.053904545 0.039271794 0.01941893 -1.1233166 0.12821563 0.108738385
0.03731525 -0.040364485 0.023594104 -0.35148272 -0.5802754 0.12863047 0.0014021797 0.10529139
0.16208401 0.14338385 0.045080446 0.012301248 0.62117714 0.1148684 -0.25503233 0.05670937
0.14742568 0.10670947 0.018378412 0.3061498 0.26778403 0.13033257 0.031163875 0.14134137
-0.09994954 -0.29945463 0.07437847 -0.32313877 -0.23315915 -1.0791613 -0.05934494 0.10876607
-0.71878856 0.18733013 0.06964472 -0.23372546 0.008281699 0.06035321 0.10572714 0.03207454
0.006648022 0.675827 -0.34725508 0.13569474 0.09206897 0.12801103 0.0023667521 0.14697477
0.15043364 0.043496545 0.14685728 0.657059 0.11888922 0.14654306 -1.2109213 0.1970935
-0.46051505 -0.06045609 0.02725053 -0.08461282 -0.6672822 -0.10933296 -0.06038851 0.12101194
0.13458556 -0.21366915 0.13016526 -0.22510426 -0.24332014 -0.14395493 0.11829289 -0.0073955953
-0.7001714 0.027229218 -0.31543052 0.03417823 -0.88017327 -0.14132422 0.09133478 0.06546807
-0.05560521 0.051645484 -0.055295076 0.18369779 0.15691756 0.04186198 -0.37577662 -0.46522632
-0.78282636 -0.007556922 0.10035354 0.36869693 0.11479718 0.085440494 -0.41456157 0.07089807
-0.049529105 -0.27360517 0.060984883 -0.029650621 0.06830785 0.10788738 0.07968928 0.26027322
-0.31833985 0.045545742 0.10054478 0.073703565 -0.1618114 0.01913045 -0.54061025 0.029046526
0.08059332 0.08623975 0.23342168 -0.03529949 0.069621585 0.07741656 -0.7338481 0.07844241
0.11225639 0.096577935 0.09436826 -0.17355305 -0.3006289 -1.1378974 0.117458396 -0.47240204
0.04738645 -0.51747125 0.12476959 0.13449357 -0.29835302 0.07215404 0.15091607 0.10846627
0.12144323 0.07678975 -0.18595941 0.101328135 -0.103426196 0.055298112 0.012816333 0.16821796
-0.0637846 0.14813851 0.041381415 -0.19729035 0.105666935 0.07081309 0.086688265 -0.88523877
-0.23217821 0.05752318 0.07472576 0.14143153 0.021031449 0.1519418 -0.38963673 -0.12573843
-0.0036184362 0.012911721 0.09452984 0.14477986 0.1724276 0.0027794472 -0.23701371 -0.013417236
0.07605987 0.004824643 0.087806895 0.11251515 -0.027337726 -0.34891886 -0.06313614 0.054476477
-0.005124274 0.042235583 -0.38421488 -0.29604742 -0.2628197 0.08120076 0.029695729 0.0071306434
-0.22042015 0.05290303 0.34656096 0.33697948 -0.11821968 0.2926865 0.06592084 -0.010466835
0.115032814 0.081513785 0.044102497 0.10148743 -0.029297492 -0.3640919 0.16566905 0.05076364
-0.13527694 0.04703614 0.06706109 -0.32285705 -0.10260801 0.060330965 -0.010373552 0.17019641

Q.2.bias f4 [200]
00000000: 96f3 f13d 0e88 f23d fca2 fc3c 2a5e e93d
00000010: 6f8f 903d 388c ec3d e5a8 17bd 04d1 c23d
00000020: 7fc8 af3d f30f b83d e0fb 063d 112c d33c
00000030: c65a 0a3d f48a dc3d 50eb df3d 45f2 3b3d
00000040: 5179 a8bc 3db9 aa3c 046a 093d 6b02 c039
00000050: 4f49 413d 916c 23bd 5ca9 a2bc 4ee7 183e
00000060: dae3 063e b5b4 f53c 2e29 d23c a1b7 e2bc
00000070: 4e06 c2bc 6878 8bbd 5d13 37bc f24e 31bd
00000080: bc39 563d 2f52 113d cf82 8e3d d5fb bc3d
00000090: 97ea 093c e71d b73d 1633 563d 13d8 5eba
000000a0: 89ac e93d 7046 943d d6d0 c03d 1070 4e3d
000000b0: f986 afbc a07b 8e3d eac7 9a3d 34e2 0d3e
000000c0: 1c5d 333e f32f 5f3d 31bc ed3d eb48 863d
000000d0: 99f4 aebc 3b74 e33d 72c2 f53d 3d5b 543d
000000e0: 62ea 8b3d 6ff9 b83d 4ee8 4d3d fbe7 ca3d
000000f0: 7905 a23d 0dab 083e 88b0 74bd 898b f53d
00000100: 18dc f93d ed68 38bd 25ec 053d 2190 83bd
00000110: b722 0b3d be09 913d fda7 9e3d c7a8 81bc
00000120: 9314 4e3e e59e 353c 141a 5d3d 2649 703c
00000130: f015 b33d a692 963d 8e90 8b3d c920 09bd
00000140: d23c 3a3d 34bf 94bd 3545 cd3d 96e4 953d
00000150: 9272 71bd bebe 1d3d fa09 4a3d 61b1 50bd
00000160: 7a4d 113e 7580 0b3d caf7 1f3e 5523 a03d
00000170: ffd8 1d3d b643 4c3d 453a 2c3d 3724 953d
00000180: 32a5 c7bb 1b49 1abe af71 153d d90b 7cbd
00000190: f636 3dbd 718c 3bbb 2c61 fa3c 2e22 993c
000001a0: 4846 1a3d ca11 9d3d 3bd6 133d b163 583d
000001b0: b81a c03d f632 013e 0472 2abe 14b7 0f3d
000001c0: 7845 b3bd 6969 1a3e 9479 4b3d 78b7 b93c
000001d0: 88f1 dcbb 4b47 1b3e c39d 533e 0ea6 ea3d
000001e0: 53d3 c53b a516 0b3d f717 da3d cfe5 123e
000001f0: c81e 6d3d 68e4 b03d 8d71 51bd 7ae9 ed3c
00000200: 36af fc3d 0933 1b3e 14e4 a33d 8be8 093e
00000210: 8d1e ba3d fd0b f7bc 4661 f83d 592f 173d
00000220: d70e b83d 8ac3 fdbd 0a51 313e b515 133e
00000230: af62 603d 066d 243d 68d4 e9bc 07f3 f83d
00000240: 5131 663d 05ab 243e 9e18 933c 0afa ac3d
00000250: 61da c5bb 4851 f73d 2ffb 833b ea5d 14bd
00000260: c8e6 823d 6bb7 033e 8769 103e fc11 373e
00000270: d81f d93d 6975 d83b f9e1 b03c f3ba 993d
00000280: 3ed5 23bd 7f82 f83c 74cb aebc 21c0 c23a
00000290: 1a5b 71bb fc30 a83c a32a 8dbd 6399 13bd
000002a0: 7bc9 30bd cc5d 7c3d 279e c83d 79b4 f93d
000002b0: 04ae 9b3c 8d54 1d3d 1da3 c33d 321a 063d
000002c0: 1b69 6abd 520d ba3d 7902 a83d a1b5 0d3e
000002d0: fee6 3b3d ddb1 61bd bbd5 91bd 7823 1f3e
000002e0: d33c 093e 3140 d73c 9c73 883c b189 533d
000002f0: 8ad5 103d ab6d 493e b38c 603d 97e6 b53d
00000300: 6190 fe3d 9227 06bd c718 b0bd ad59 ba3d
00000310: 6ff8 293c 4716 c73d 9f68 c03d a73f ee3c
0.118140385 0.118423566 0.030839436 0.113949135 0.07058608 0.11550182 -0.037026305 0.09512523
0.085831635 0.08987417 0.03295505 0.025777848 0.033777975 0.10768691 0.10933554 0.045885343
-0.02056566 0.020840282 0.03354837 0.00036622895 0.047189053 -0.03989846 -0.019856147 0.14931986
0.13172856 0.029993394 0.025654402 -0.027675452 -0.023684647 -0.06810075 -0.01117405 -0.04328818
0.052301154 0.035478767 0.069585435 0.09227721 0.008417747 0.0894125 0.052294813 -0.00085008255
0.114098616 0.072399974 0.09414832 0.05039984 -0.021426665 0.06957173 0.07557662 0.13855821
0.17515987 0.054489087 0.1160816 0.06556877 -0.021356868 0.111061536 0.11999978 0.051844824
0.06831814 0.09031951 0.05027037 0.09907528 0.079112 0.133465 -0.059738666 0.11989505
0.12200183 -0.04502194 0.032695908 -0.06423975 0.033968654 0.07081936 0.07746885 -0.01582755
0.20125036 0.011085247 0.05397995 0.014665877 0.087444186 0.0735219 0.06814681 -0.033478532
0.04546816 -0.072630316 0.10022966 0.0731899 -0.058947153 0.038511984 0.04932592 -0.05095041
0.14189711 0.034058053 0.15621868 0.07819239 0.03853702 0.04986926 0.042047758 0.07282298
-0.006092691 -0.1506695 0.03648537 -0.061534736 -0.046194993 -0.0028617645 0.030563913 0.018693056
0.03766468 0.076694086 0.036092978 0.052829448 0.09380096 0.12617096 -0.16645056 0.035086706
-0.087534845 0.15079273 0.049676493 0.022670493 -0.00674266 0.15163915 0.2066565 0.11457454
0.0060371547 0.033957142 0.10649102 0.14345478 0.057890683 0.08637315 -0.05113368 0.029041994
0.12338106 0.15156187 0.08002487 0.13467614 0.09087858 -0.030157084 0.121279284 0.03691039
0.089872055 -0.12390812 0.1731607 0.1436375 0.054781612 0.040143035 -0.028543666 0.12155729
0.056199376 0.16080864 0.017956074 0.08446129 -0.0060379957 0.1207605 0.004027746 -0.036222376
0.06391674 0.12862937 0.14102755 0.17877954 0.10601777 0.0066057933 0.021592127 0.07506361
-0.039998285 0.030335663 -0.021337248 0.0014858284 -0.0036827982 0.02053117 -0.06892898 -0.036034953
-0.043160897 0.06161289 0.0979579 0.121926256 0.019003876 0.038410712 0.09552596 0.032739826
-0.057229143 0.09084572 0.082035966 0.13838817 0.04587459 -0.055101264 -0.07120844 0.15540874
0.13402109 0.026275726 0.01665669 0.051644985 0.035359897 0.19670741 0.05482168 0.08881872
0.12429882 -0.03275258 -0.08598476 0.090991355 0.010374173 0.09721046 0.09394955 0.029083086

Q.4.weight_mu f4 [2, 200]
00000000: 77fd 143f ca85 5c3e 448e f3be 54a5 813e
00000010: 05d7 823e 0000 36bf 15bb 7dbd 4785 9b3e
00000020: 24d2 803e 1cbd f33e 8c0e 243e a71d 84be
00000030: 1f67 853e 55ae 0c3e 247e 193f 7170 473f
00000040: 198c 3c3d d91c 9b3e 76fc 9d3e 71c5 93bf
00000050: 4aae a0bf 76d6 a4bf 58b2 81bb 5007 1a3f
00000060: a58a 803e f07c 113f 26d9 9b3e f970 683d
00000070: 0743 00bf a41f aabf 26e7 8d3c b3fd 963c
00000080: 2b7b 2b3e edbc 3d3e 2c7f 243f 768b a43e
00000090: 96b4 5ebd 1a8f 7d3e 187d d0bd 8a47 e13e
000000a0: 55e8 633e 4388 f33e 0ce3 a63e 2502 ec3e
000000b0: 0fac 06bf 334b 803e bc8a c43e 8a1c babe
000000c0: fa47 483f 17fb 43be 5797 373f 7718 8d3e
000000d0: e39a 7dbd a5d3 093f 354d 823e 9797 543d
000000e0: eefc 9c3e eaf4 9fbf 47a4 9abf e5e8 b13d
000000f0: 0ebc 4cbf 26ed 4bbf 8746 c53c bedc 263f
00000100: 10ab a53e dba0 68bd bfbd 4f3d 8514 5fbd
00000110: d0f2 723f f5ee 103f cdaf 943e 7206 333e
00000120: be2a 35bf 88db 3dbf da8f 193f 0da2 26bd
00000130: 7cd5 9b3e 71b5 c33e d116 0c3e 411c 8ebd
00000140: 8918 9e3e cc36 08bc f759 dc3e 6a78 7f3e
00000150: 775d f8bc 0eea f8be c6cd 273f b545 cbbb
00000160: fbe3 3b3f 592c 99bf 05a9 60bf e67f c0be
00000170: fed0 32bd f689 30bf 28e2 863e b534 d7bd
00000180: 6b09 893e de36 e63e e2a2 733e 2004 523c
00000190: e8e8 18bc 8af5 113c d90c 8e3e 496e f73d
000001a0: 5821 6dbd 9345 2abf 5266 6b3e 1a9c 603e
000001b0: 857e ad3e cba0 5abf 56bb 2c3f d8f0 383f
000001c0: beb6 b13d 15f7 6a3e 7fde 183f 0a77 873e
000001d0: 81e8 6b3e 6228 fa3e 21c2 c63e 4d41 9b3e
000001e0: c66f 803e 637e 9e3e 8e1f 643f ffa7 1a3f
000001f0: f5d4 75be a3fa 813f 6914 3fbc a1f2 1cbb
00000200: 551d 313f 10f7 e0bd 6254 443e e9e5 2fbf
00000210: 43e4 9e3e d13a b2bf c7c5 903e c019 933e
00000220: b64d 913e d78b b33d f2bd 813d 6d64 3e3f
00000230: ed22 883e fce9 313e d7ed 14bd e1b5 ef3e
00000240: b09d de3e 3a02 0a3f e0f1 0a3f ad4e fb3e
00000250: a6f4 533e 6ccd 733e 7d51 d7be 3a11 7bbd
00000260: 6832 65bd cafc 213f e3ee 35bf 5dae 173f
00000270: 40b4 043f 7b1f e13c 4003 8fbc f3a9 cd3e
00000280: 892f 63bf f176 31bf 2013 393d 5a69 983e
00000290: f9a7 6b3e efdb 21bf 4284 283d 5282 9c3c
000002a0: 8203 88bd e739 773f 26a2 cebe efa8 523e
000002b0: 108f 82bf babe 243f bacd 143f c162 963e
000002c0: dbb8 113e 03db 04bf 3547 03bf 4c76 30bf
000002d0: f496 75bc a4fc 2fbf aca6 643d f370 513f
000002e0: 4b26 9b3e ceeb 42bd 3063 21bc 3dfd f23e
000002f0: 530d 423e 0f85 2fbf 4fed ac3e 0372 0a3f
00000300: 2ee7 963e 91e5 3d3e 2755 38bf 4da2 f93e
00000310: 5d7d b3bf ff27 203f 5f9c e43d cb2f 633e
00000320: 0827 b53e 0e0a 553e ef3b 50bf 849c 6a3e
00000330: 11ab 3f3e 77b7 103d 6d55 2bbd 4d2e 5d3e
00000340: 5338 7d3e f3a0 2b3e 1799 a53e 1c2a 79bf
00000350: c6e4 533e ade5 41bf bcdf 893f bab2 8b3e
00000360: 8f51 8abd 5ffb 553e 1c6a 5f3e 06aa eb3d
00000370: 1951 693e 38b2 acbc 7e1d 8eba aa2b 193f
00000380: cd4c 533e 8a0c 163f 2da2 5f3e 6ac5 643b
00000390: 4ca7 e8be 53ae c33e 6871 06bd 053f 88bd
000003a0: 309f 973e 9793 8a3e 818e 923f f99d 473e
000003b0: dbf6 fdbc 6234 673e dfd2 08bf 13f0 bd3e
000003c0: 2204 6d3e 1df5 983e b0d0 463d 6b46 16bf
000003d0: 23ee 67bf b84a 853e d97f 023f cdf4 69be
000003e0: ab3c 503e b2ee 6cbf d7dd d03e caf0 413e
000003f0: f040 c1bc 27ed 6d3e 49c2 673e 8cab f0ba
0.58199257 0.21535411 -0.47569478 0.25321448 0.25554672 -0.7109375 -0.061945993 0.3037512
0.25160325 0.47605217 0.16021174 -0.25803873 0.26055238 0.13738377 0.599581 0.77905947
0.046032045 0.30295447 0.30856675 -1.1544629 -1.2553189 -1.2877948 -0.003958028 0.6016741
0.25105777 0.56831264 0.3043911 0.056748364 -0.50102276 -1.3290906 0.017322134 0.01843152
0.16746204 0.185291 0.6425655 0.3213765 -0.05437144 0.2476162 -0.1018011 0.43999892
0.22256596 0.47564897 0.32595098 0.46095386 -0.5260629 0.25057372 0.38387096 -0.363499
0.7823483 -0.19138752 0.717153 0.27557728 -0.06191529 0.5383857 0.2544953 0.05190238
0.3066172 -1.2496617 -1.2081383 0.08686999 -0.7997445 -0.79658735 0.024081482 0.65180576
0.32357073 -0.05679403 0.050718065 -0.05446293 0.9490175 0.5661462 0.29040375 0.17482927
-0.70768344 -0.74163103 0.59985125 -0.040681887 0.30436313 0.38224366 0.13680579 -0.06938983
0.30878094 -0.008313846 0.43037388 0.24948278 -0.030318005 -0.4861607 0.6554836 -0.006203378
0.73394746 -1.1966659 -0.87757903 -0.3759758 -0.04365634 -0.6896051 0.2634442 -0.105081
0.26764998 0.44963735 0.23792604 0.012818366 -0.009332873 0.008908639 0.27744177 0.12081582
-0.057893127 -0.6651241 0.22988251 0.21934548 0.3388559 -0.854016 0.6747335 0.722425
0.086774334 0.22945817 0.597145 0.26458007 0.23037912 0.48858935 0.38819984 0.30323258
0.25085276 0.309558 0.8911065 0.6041259 -0.24007018 1.0154613 -0.011662581 -0.002394833
0.6918538 -0.109846234 0.19172814 -0.6871019 0.31033525 -1.3924199 0.28275892 0.28730583
0.283796 0.08766907 0.06335057 0.7437199 0.26589146 0.17374414 -0.036359634 0.4681845
0.4347968 0.5390965 0.5427532 0.49083462 0.20698795 0.23808831 -0.42054358 -0.061295725
-0.055956274 0.6327635 -0.7106764 0.5925043 0.5183754 0.027480831 -0.017457604 0.40168723
-0.8874441 -0.69322115 0.045184255 0.29767877 0.23013295 -0.6322622 0.041141756 0.01910511
-0.06641294 0.96572727 -0.40358084 0.20572256 -1.0199909 0.64353526 0.58126414 0.29372218
0.14230673 -0.51896685 -0.5128053 -0.68930507 -0.014989603 -0.68744874 0.055823013 0.8181297
0.30302653 -0.047588162 -0.009850308 0.4745883 0.18950395 -0.68562406 0.33774802 0.5408022
0.2947325 0.18544604 -0.7200493 0.48756638 -1.4022633 0.6256103 0.11162638 0.221862
0.3538134 0.20804617 -0.8134145 0.22911268 0.187176 0.035331216 -0.041829515 0.21599694
0.24728517 0.16760616 0.3234336 -0.9732988 0.20692739 -0.7574108 1.0771403 0.27284795
-0.06753837 0.20896672 0.21817821 0.11507039 0.22784843 -0.021081075 -0.001084253 0.5983225
0.20634766 0.58612883 0.21839209 0.0034907707 -0.45440137 0.38218936 -0.032822996 -0.06652645
0.29613638 0.27065727 1.1449739 0.19493856 -0.031001499 0.22578576 -0.53446764 0.37097225
0.23146108 0.29874507 0.048538864 -0.587012 -0.9059774 0.26033568 0.5097633 -0.2284729
0.20335643 -0.9255172 0.4079425 0.1893951 -0.023590535 0.23234998 0.22632708 -0.0018361672

Q.4.weight_sigma f4 [2, 200]
00000000: f29c f139 8e9c 473b 535f 7aba b802 273b
00000010: dd44 cf38 5221 0dbb 846a 873c 5906 d13a
00000020: 385c b93a 980e 263a 9d74 dbb8 349c da38
00000030: 16ea d2ba cb4e fc3a 46f2 b93a da87 cf3a
00000040: 18e3 ad3c 9cdf 6d3a f494 453a 6d6d 20bc
00000050: 41de 963c 0ff7 043c c3d0 903c de62 0636
00000060: 4d49 8cba 1e92 e83a 77f8 4737 c3d0 903c
00000070: de5b edba 541b 88bb fd66 a33c e04f a23c
00000080: ded7 80b9 e56e 473a 818f 70bb 564d c3b9
00000090: a70f 833c 8945 21bb 281f d83a 2a4c 2d3a
000000a0: 45ad 07bb 52b8 83ba ea6e cdba 7e62 c7b9
000000b0: ff53 a33b c856 e339 d4e1 f53a 8f94 c339
000000c0: 70ec 92ba 4adb be3b 6b35 83ba 9c78 20ba
000000d0: 4c8b 9d3c e98f 4cb9 82d6 10bb c3d0 903c
000000e0: c1ef 7bb9 7fef d839 db30 97bc 3632 8937
000000f0: 171e 483c eca6 4ab9 0906 3b3c 013b 00bb
00000100: 9fd6 11bb 80dd 9a3c b0a7 90bb e0e6 8a3c
00000110: 09e3 fbba 1bee 61ba 36e5 0b3b b8a6 0eb8
00000120: 00d5 513a e1e4 6f3b fe9d a0ba 81a1 a13c
00000130: aa5a 96ba ed7e 87ba 1d3d 8eba c3d0 903c
00000140: 7ff2 1db9 c3d0 903c 1bd4 703a c160 7039
00000150: 13c6 6c3c f80c 113c 696e bf37 8de3 bf3c
00000160: d76d 7a3a 0ba2 e5bc fb99 883a fa33 33bb
00000170: d857 893c b91b 923b c5f4 adba ad43 db3a
00000180: 0db4 65b9 1193 a1ba 88d5 6cbb 0cc7 4a3c
00000190: ff0b e23c c3d0 903c da6f ebba 8935 72ba
000001a0: a02f 773c 0c4f deba f577 c4b9 5e43 503b
000001b0: 2311 37b9 f8f6 1339 774e 4cba 8542 3ebb
000001c0: d025 5f3c bca7 8f39 fc5b 063b 6a44 2abb
000001d0: c987 bab9 1013 bc3a fa3e 723a 566e 443b
000001e0: 6a2e 9dbb a5f8 24bb 5bef cb39 c14d 7c3a
000001f0: 9ed3 0cbb 259e d738 c3d0 903c 83aa 7e3c
00000200: 93a4 ffba 930b ce39 4d93 6dba 6793 f9b9
00000210: 090b 0eba ba59 273c 2827 ddba c101 28b9
00000220: 21be db3a 2452 a33c 3648 9d39 b41e aa3a
00000230: 374c a5ba 2384 593b c3d0 903c 2f8b fb39
00000240: 0fd3 123a 2d7f aeba 01a5 c63a 889f ffba
00000250: d65a 0b3b 2acb 54ba 3665 9bbb 92d1 ae39
00000260: a676 8d3c b4e3 113a 3cd0 13bb 24f6 663b
00000270: b75c a9b9 7084 973c c3d0 903c 0ee3 92b9
00000280: f5bf 91ba 22f6 45bc c3d0 903c 9ead 493a
00000290: 8cd6 c83a 2873 a03a c3d0 903c e3c0 483c
000002a0: aec5 953c 5bb1 a7ba 2e20 9a39 54d2 11bb
000002b0: aff8 e83b 5f8f 093b 73c0 3a3a 88ea f1b9
000002c0: cc89 08ba 4531 c23b 3044 ab3a 5c7c 1a39
000002d0: c3d0 903c 6dff 763b 7714 763c 369d 383b
000002e0: 9def d738 392d 943c 196e a338 b0ef d6ba
000002f0: 83cf b7ba b754 41ba 2b21 06bb a663 873a
00000300: 0f25 60ba 6132 cdba 055a 38ba 84e7 b23a
00000310: 188d 98bc 6225 d639 0cd2 27bb 74ed 0dbb
00000320: 3537 e63a 62da 403a a177 5fba b204 e7ba
00000330: e761 a83a af19 a33a 34bc a73c e2f4 aa3a
00000340: 99b3 12ba 0a94 233a 08e2 1a3b 1aa8 7b39
00000350: f1a7 1a39 cb62 fdba 9a99 75b9 456e 91ba
00000360: 7677 8c3c d844 57ba d0a7 93ba c4e5 1e3a
00000370: d797 e83a 4f2f f53b c3d0 903c 9fbd 95ba
00000380: 09c5 fc39 4f09 373a 7ff6 faba c3d0 903c
00000390: 308a d8b5 1b39 2ebb c3d0 903c c3d0 903c
000003a0: bfde de39 ab72 913a 3e35 cb3a 3fd6 aaba
000003b0: 483f 8a3c 9c24 ecba a205 253a 6dc8 a43a
000003c0: 1b7a 87b9 4710 3ab9 ce7e cbba 6287 32bb
000003d0: 68d4 063b c450 1abb 4cdb 2f3a 7db4 d93a
000003e0: 3c6d 843b bbd2 08b9 ab7b 3cb9 5368 1fbb
000003f0: 2442 953c c400 1fbb dda1 52b9 36f0 683c
0.00046084035 0.0030458304 -0.00095509476 0.0025483798 9.883356e-05 -0.0021534753 0.016530283 0.0015947326
0.0014141863 0.0006334572 -0.00010464455 0.00010424145 -0.0016091492 0.0019249556 0.0014186583 0.0015833334
0.02122645 0.0009074153 0.00075371494 -0.009791714 0.018416526 0.008115544 0.01767767 2.0025104e-06
-0.0010702998 0.0017743742 1.19191745e-05 0.01767767 -0.0018109044 -0.0041536484 0.01994657 0.019813478
-0.00024574896 0.0007607772 -0.0036706629 -0.00037250918 0.015998675 -0.0024608097 0.0016488777 0.00066107756
-0.0020702642 -0.0010049439 -0.0015673314 -0.0003802962 0.0049843783 0.0004336147 0.0018759319 0.00037303983
-0.001120938 0.005824481 -0.0010010427 -0.0006121488 0.019231461 -0.00019508567 -0.0022100513 0.01767767
-0.0002402654 0.0004137717 -0.018455913 1.6355054e-05 0.012214205 -0.00019326404 0.011415013 -0.001956642
-0.0022253168 0.018904448 -0.004414521 0.016955793 -0.0019217442 -0.00086185493 0.0021346337 -3.4010707e-05
0.0008004457 0.0036604928 -0.0012254117 0.019730331 -0.0011471112 -0.001033751 -0.0010851953 0.01767767
-0.00015063024 0.01767767 0.00091868796 0.00022924227 0.014451521 0.00885319 2.2820388e-05 0.023423934
0.00095531106 -0.02803137 0.0010421866 -0.0027344213 0.01676552 0.004458871 -0.00132718 0.0016728543
-0.00021906216 -0.0012327154 -0.0036138017 0.012376558 0.02759361 0.01767767 -0.0017962412 -0.0009239545
0.015087038 -0.0016960814 -0.00037473408 0.0031778435 -0.00017458624 0.00014111015 -0.00077936746 -0.0029031348
0.013619855 0.00027400057 0.0020501604 -0.002598072 -0.00035577852 0.0014348943 0.00092409516 0.0029972992
-0.0047967928 -0.0025172618 0.0003889751 0.00096246233 -0.0021488438 0.000102814556 0.01767767 0.015543583
-0.0019504003 0.00039300005 -0.0009062782 -0.00047602804 -0.00054185145 0.010214264 -0.0016872631 -0.00016022382
0.0016765037 0.019936629 0.00029999175 0.0012979121 -0.0012611215 0.0033190332 0.01767767 0.0004797815
0.0005600908 -0.0013313048 0.0015155376 -0.00195025 0.002126386 -0.0008117432 -0.00474229 0.00033344008
0.01726849 0.00055652414 -0.0022554537 0.0035241926 -0.0003230327 0.018495768 0.01767767 -0.0002801646
-0.001111983 -0.012082608 0.01767767 0.00076934125 0.0015322729 0.001224135 0.01767767 0.012253019
0.018282738 -0.0012793945 0.00029397145 -0.002225061 0.0071097235 0.0020989997 0.0007124014 -0.0004614184
-0.00052085216 0.0059262835 0.0013066586 0.00014732912 0.01767767 0.0037688867 0.015019528 0.0028169877
0.0001029663 0.01808797 7.792953e-05 -0.0016398337 -0.0014023635 -0.0007374989 -0.0020466547 0.001032938
-0.0008550444 -0.0015655273 -0.0007032457 0.0013649319 -0.018621966 0.00040845113 -0.0025607375 -0.0021656426
0.001756406 0.00073567603 -0.0008524601 -0.0017625301 0.001284656 0.0012443567 0.020475484 0.0013042951
-0.000559622 0.0006240016 0.002363326 0.00023999848 0.00014749148 -0.0019331811 -0.00023422242 -0.0011095485
0.017146807 -0.00082118576 -0.0011265222 0.00060614594 0.0017745447 0.0074824463 0.01767767 -0.0011424309
0.00048211988 0.0006982283 -0.0019146948 0.01767767 -1.6133472e-06 -0.002658433 0.01767767 0.01767767
0.00042509098 0.0011096796 0.0015503538 -0.0013033821 0.016875878 -0.0018016282 0.000629509 0.0012571939
-0.00025840182 -0.00017744406 -0.0015525462 -0.002724134 0.0020573381 -0.0023546675 0.0006708398 0.0016609576
0.004041342 -0.00013048474 -0.00017975147 -0.0024323657 0.018220015 -0.002426193 -0.0002008746 0.014217427

Q.4.bias_mu f4 [2]
00000000: 0af6 8f3d 6a89 0b3d
0.0702935 0.034066595

Q.4.bias_sigma f4 [2]
00000000: 9d15 1dba b291 243b
-0.00059922953 0.0025111255

Q.4.weight_epsilon f4 [2, 200]
00000000: 6f97 033f 8ac4 aebe b423 5abf 9bd4 7cbf
00000010: d71e 3ebf e143 53bf e891 783f 5b66 2fbf
00000020: a459 89bf 2c56 0c3f bbc1 003f 3d5a 9b3e
00000030: 9960 b83e c65b 28bf 6e15 213f 3441 073f
00000040: 2e8a 173f 02b3 f6be 9b1c 4dbf bd9d e7be
00000050: c5fa 37bf 7617 debe f621 0dbf 5b12 7fbf
00000060: a74e 963e bcfe 67bf 97b2 aebe 41a9 86bf
00000070: 35e5 33bf 19b3 8a3e 11a8 7dbf c436 31bf
00000080: 9234 39bf c778 383f 1ae9 7a3f 3c5d 003f
00000090: 9f31 02bf 04bd 43bf 1c4c ed3e 0160 14bf
000000a0: 1b84 0f3f c615 6abd ce4f b1be 9ae7 1fbe
000000b0: 5612 44bf bbc9 fb3e 2025 7fbe 8200 a53e
000000c0: b0e1 93bf 0c2e 073f e739 a73e e277 96bf
000000d0: 7410 38bf 04b9 52bf d64b b43e d3bc 83bf
000000e0: bbd7 d73e 55dc 4f3f 4c32 143f 5cdb 5d3e
000000f0: 742e 5f3f f99d 2ebf 2ccd 643f 7448 13bf
00000100: 2e22 14be b854 cdbe 5ede c63e 8e19 f13e
00000110: 54fd 163f 3d6a 1cbf 1479 1c3f 1290 25bf
00000120: 44e2 383f 40ba f7be 2212 1abf 4581 2fbf
00000130: 2106 9cbd 831e ce3e 8e9a 95bf d886 1a3f
00000140: 84c8 febe 1f14 503f 9012 4f3f 9450 86be
00000150: 30ab b93e 12e6 803e bf67 1e3f 30e8 2fbf
00000160: d2d2 f03e 0c86 943e e200 9ebf d705 113f
00000170: 113c f9be f133 033f 453e 333f d790 013f
00000180: 703f 9bbe 4c8d 30bf e38e 84bf fa00 053f
00000190: aa64 86bf 5c64 423f ee4b 92be d614 013f
000001a0: ce04 0b3f ad80 053f 7ab4 46bf 4238 05bf
000001b0: 688a 683f 8d89 0bbf 1483 403f 0dda 1dbf
000001c0: 2714 d33e 747a 243f 8d0f 96bf 6955 11bf
000001d0: 930e 5a3e 000b 3cbf 9c8e 413f 17d8 3a3f
000001e0: d6ef b73e 7a13 babe 73f1 c03e d02c 293f
000001f0: d87b 4b3f 1889 16bf 72ee 2dbe 746c 3a3f
00000200: cb5d 1bbf 22c5 fa3e 3a1c a23e 85ee 873e
00000210: 7e0c 30bf 342b 443f 8b95 5c3f d4bd 19bf
00000220: 1293 a43e 5c7e 2a3e ec2f 8a3f 6270 4e3f
00000230: 7a9e 1bbe 105a 593f f350 38bf 2d41 f2bd
00000240: 9ac0 01bf deeb 133f 90a6 d8be c1d4 8ebd
00000250: 164c ab3e 498f 073f 9249 6a3f a780 2bbf
00000260: 9aac 583f aef4 97be a87c 103f 7bd9 9fbe
00000270: 2f5b 833f f0de 863f 765e c13e 089e 093f
00000280: 0cf5 0d3f ad3b 38bf 8176 2bbf 1056 2d3f
00000290: 2892 4b3f a8cd e1be bf54 42bf d3b1 103f
000002a0: 95c6 7e3e 3b94 6e3f 8b52 4b3f 5db6 3a3f
000002b0: 7932 94bf 11b1 2dbf 6d4a e83e e952 61bf
000002c0: fdd7 473f 2cf3 473f fa18 3cbf cd52 6b3f
000002d0: 85e9 0c3f b488 69bf da79 b63e d880 40bf
000002e0: b7a4 eabe 944f 333f bf26 6ebf dc9f e53e
000002f0: 0cfc 0a3f 2b88 493f 2492 9abe 7950 683f
00000300: 3f56 483f 49cd 24bf f435 253f 1605 1bbf
00000310: eb42 f6be cb3f c33e 5dce 58bf 98cd c1be
00000320: 4e81 32bf f012 ed3e 3ef4 933f c07b ab3f
00000330: 37f3 803f a24a 8f3f fb97 a8bf 72ee 6d3f
00000340: 1451 ba3f 2c5e 3ebf e1a8 2ebf afbc d2be
00000350: 081c fabe 3a61 643f f082 5abf 6579 37bf
00000360: a690 4dbf 2a53 273f 321e 8b3f 3e18 1d3f
00000370: e791 793f 78a2 163f 9d72 3f3f e600 ad3f
00000380: a2e4 cbbe 085a 9d3f 98fa ec3e 47ab b63f
00000390: 9607 743f b125 bcbe 2d0b ac3f 6c64 703f
000003a0: 933b 7b3f d53c 7abf 632e aabf 8f20 2ebf
000003b0: ed9b 303f aac2 843f adf2 20bf a445 493f
000003c0: 47ae 42bf ecc4 9e3d 6386 f03e 82e9 583e
000003d0: 88fc 843f bec6 2abf a10d ad3e a0d3 dfbe
000003e0: 4b9a c83f 695f 37bf 03d8 e2be 901c cc3f
000003f0: 51af 793f 72ec 8e3f cd92 f4be 07b4 b23f
0.51402944 -0.34134322 -0.8521073 -0.9876191 -0.7426581 -0.8252545 0.97097635 -0.6851556
-1.0730481 0.5481899 0.5029561 0.30342284 0.36011198 -0.65765035 0.62923324 0.5283387
0.5919522 -0.48183447 -0.80121773 -0.45237532 -0.7186702 -0.43377274 -0.55129945 -0.99637383
0.29356882 -0.9062307 -0.34120628 -1.0520402 -0.7027162 0.27089766 -0.99084574 -0.6922419
-0.7234584 0.7205929 0.98011935 0.50142264 -0.50856966 -0.7646029 0.4634713 -0.5795899
0.5606095 -0.05714967 -0.346312 -0.15615693 -0.7659048 0.49177346 -0.24916506 0.3222695
-1.1553249 0.52804637 0.32661363 -1.1755335 -0.71900105 -0.8231356 0.35214108 -1.0292
0.42156777 0.81195575 0.57889247 0.2166571 0.87180257 -0.682098 0.8937557 -0.5753243
-0.14466164 -0.40103698 0.38841528 0.4708981 0.589803 -0.61099607 0.6112225 -0.6467296
0.72220254 -0.48384285 -0.6018392 -0.68556625 -0.076183565 0.40257654 -1.1687791 0.60362005
-0.49762356 0.812807 0.808877 -0.2623335 0.36263418 0.2517553 0.61877054 -0.68713665
0.47035843 0.2900852 -1.234402 0.56649536 -0.4867864 0.5125113 0.7001689 0.50611633
-0.30321836 -0.689656 -1.0356106 0.51954615 -1.049947 0.75934386 -0.28573555 0.5042242
0.54304206 0.5214947 -0.77619135 -0.5203897 0.9083619 -0.5450676 0.7520001 -0.61660844
0.41226313 0.6424935 -1.1723496 -0.5677095 0.21294622 -0.73454285 0.7560823 0.72985977
0.35925168 -0.36342984 0.3768421 0.66084003 0.79485846 -0.5880294 -0.16985491 0.72821736
-0.6068999 0.48978525 0.3166216 0.26549163 -0.6876906 0.7662842 0.86165684 -0.6005528
0.32143456 0.16649765 1.0795875 0.8064023 -0.15197173 0.8490305 -0.7199852 -0.118288375
-0.5068451 0.5778178 -0.42314577 -0.06974173 0.33456486 0.5295301 0.9151851 -0.6699318
0.8463837 -0.29678863 0.5644021 -0.31220612 1.0262202 1.0536785 0.3776738 0.5375676
0.55452037 -0.7196606 -0.669777 0.67709446 0.7951989 -0.44102216 -0.7591056 0.5652134
0.2488044 0.9319493 0.79422826 0.72934514 -1.1577903 -0.67848307 0.45369282 -0.88017136
0.78063947 0.78105426 -0.7347561 0.9192322 0.5504382 -0.9122422 0.3563984 -0.751966
-0.45828792 0.700433 -0.9302787 0.44848526 0.54290843 0.787234 -0.3018962 0.9074779
0.782566 -0.6437574 0.6453545 -0.60554636 -0.4809793 0.38134608 -0.84689885 -0.37852168
-0.69728553 0.4630351 1.1558912 1.339714 1.0074223 1.1194651 -1.3171381 0.92941964
1.4555993 -0.74362445 -0.6822644 -0.4115958 -0.4884951 0.89210856 -0.85356045 -0.7166961
-0.8029884 0.65361273 1.086859 0.61365116 0.97488254 0.5884166 0.7478426 1.3515899
-0.3982287 1.22931 0.46284938 1.427102 0.95324075 -0.36747506 1.344091 0.9390323
0.9813778 -0.9774907 -1.3295406 -0.6801843 0.68987924 1.0371907 -0.62870294 0.7862189
-0.76047176 0.077524036 0.4697753 0.21182826 1.0389566 -0.66709507 0.3379946 -0.43716145
1.5672086 -0.7162996 -0.4430543 1.5946217 0.97533137 1.1165907 -0.4776825 1.396119

Q.4.bias_epsilon f4 [2]
00000000: 09dd 39bf 1920 7c3f
-0.726029 0.9848648
